lightning_logs/version_21/checkpoints/epoch=4-step=250.ckpt (torch, 331167 bytes, 33 tensors)

model.param_proj.proj.0.weight f4 [1, 40]
-0.06888885 0.12091834 -0.109192654 0.124535516 -0.05828335 -0.007041973 -0.09635157 0.086038455
0.08408305 -0.18554415 -0.1407686 0.01779949 -0.18701272 0.08820408 0.0959015 0.1233134
-0.13277821 0.07432942 0.08577614 -0.06403422 -0.04715319 0.047667377 -0.11920216 0.09795776
0.12931587 0.035321567 0.050262284 0.061903596 -0.21934237 -0.13928369 -0.10776155 0.096752934
-0.031961553 0.061865516 -0.09667885 -0.08746251 -0.03931949 0.015045212 -0.165412 -0.04447237
00000000: 9915 8dbd 09a4 f73d 66a0 dfbd 7a0c ff3d
00000010: 86ba 6ebd 5ac0 e6bb f953 c5bd ee34 b03d
00000020: bc33 ac3d 49ff 3dbe a525 10be 3cd0 913c
00000030: 4380 3fbe 57a4 b43d 0168 c43d bc8b fc3d
00000040: 03f7 07be 063a 983d 67ab af3d 6024 83bd
00000050: b423 41bd de3e 433d 4320 f4bd 149e c83d
00000060: 616b 043e 59ad 103d d3df 4d3d a08e 7d3d
00000070: 499b 60be 62a0 0ebe 16b2 dcbd 6726 c63d
00000080: 1eea 02bd b266 7d3d 90ff c5bd 8b1f b3bd
00000090: 790d 21bd 3180 763c c361 29be a928 36bd

model.param_proj.proj.1.weight f4 [1, 40]
-0.0073588514 0.12650348 0.024024356 0.03554535 -0.06433048 -0.12189485 -0.046976425 0.06443888
-0.1498744 -0.15596119 0.121669315 -0.04268557 -0.06177347 -0.052347045 0.077680916 0.13454677
-0.012675766 0.047324657 0.04144667 0.075102456 -0.10179246 -0.13217133 -0.07121363 0.05566031
0.006131352 -0.07155846 0.0957967 -0.003087155 -0.020892026 -0.09357717 0.08658544 0.16303791
0.016017517 0.012017788 -0.109076634 -0.12782794 0.085247345 0.076152444 0.029636879 -0.029105948
00000000: 8522 f1bb 218a 013e bace c43c 0098 113d
00000010: b3bf 83bd 02a4 f9bd 5a6a 40bd 88f8 833d
00000020: ad78 19be 4ab4 1fbe c32d f93d 10d7 2ebd
00000030: 2e06 7dbd db69 56bd 2c17 9f3d a1c6 093e
00000040: 04ae 4fbc 80d7 413d fcc3 293d 51cf 993d
00000050: 9178 d0bd ec57 07be 74d8 91bd 11fc 633d
00000060: 82e9 c83b 3e8d 92bd 0f31 c43d de51 4abb
00000070: c125 abbc 63a5 bfbd b553 b13d 69f3 263e
00000080: 2b37 833c 42e6 443c 9263 dfbd 54e5 02be
00000090: 2996 ae3d d0f5 9b3d 0ac9 f23c 996f eebc

model.param_proj.proj.2.weight f4 [1, 40]
0.23347896 0.052710947 -0.15153983 0.14241065 0.028646573 0.19103682 -0.12441245 -0.059006687
0.15389465 0.0079619605 -0.13412632 0.07930897 -0.17721473 0.1396804 0.0030312808 -0.18565443
0.023466647 -0.34912795 0.095012054 0.057255823 0.10715298 0.010663223 0.08655767 -0.114852816
-0.06910901 0.14966804 -0.21810439 -0.15788087 -0.18944193 -0.0713496 0.0059953816 0.014307417
-0.21449266 0.19540511 0.18726228 -0.09950097 -0.2162333 0.082601294 -0.08326026 -0.22780423
00000000: 1c15 6f3e 6fe7 573d 422d 1bbe 19d4 113e
00000010: 38ac ea3c 289f 433e f4cb febd ffb0 71bd
00000020: 8f96 1d3e e272 023c 6958 09be be6c a23d
00000030: c777 35be 6108 0f3e 74a8 463b 321c 3ebe
00000040: 203d c03c e6c0 b2be ae95 c23d 1585 6a3d
00000050: 0673 db3d cdb4 2e3c 2645 b13d f437 ebbd
00000060: 0689 8dbd 9442 193e c256 5fbe 86ab 21be
00000070: 11fd 41be bd1f 92bd e874 c43b a869 6a3c
00000080: f7a3 5bbe 4718 483e afc1 3f3e 2ac7 cbbd
00000090: 436c 5dbe de2a a93d 5b84 aabd 8345 69be

model.rnn.weight_ih_l0 f4 [160, 37]
0.0320637 0.124704085 -0.084282085 -0.020166384 0.21650754 -0.025526159 0.07514404 0.027377896
-0.023240872 0.0029012868 0.098879404 0.0038080101 -0.031301398 0.1481712 0.15742527 0.14693898
-0.041709967 0.049093127 -0.012285363 -0.10022357 0.025354344 -0.08443687 -0.09590834 0.011272947
0.06345846 -0.12594756 -0.05620133 -0.119290315 0.06485018 0.11804157 0.10437512 0.10380182
-0.039609622 -0.121723145 0.120659076 0.06572342 0.15013644 0.10220185 -0.055751268 0.10968879
-0.06629852 0.02318762 0.17817008 0.18525635 0.08828432 0.16009769 -0.10677736 0.099002235
0.10164913 -0.052658647 0.13438827 -0.059855465 -0.02064171 0.15257828 -0.035623558 0.06966406
0.07708338 -0.002093539 0.06704384 -0.08013598 -0.08817157 0.0069159553 0.11848257 0.08841389
-0.0966604 -0.02923588 0.028276464 -0.17519008 -0.052946273 -0.027986575 0.17094463 -0.10794324
0.05689872 0.14985952 0.08889657 0.07316087 0.0049802754 0.15962042 0.13461268 0.13827486
0.20742904 0.030115973 0.09539052 0.22021838 0.2073333 -0.04034849 -0.028243788 0.025015382
-0.035163507 0.03823367 0.042561296 -0.028267125 0.16468753 -0.052657634 0.12390113 -0.09953556
-0.16317661 -0.11613766 0.12397998 0.022210985 -0.11762022 -0.09866977 0.05580344 -0.072645545
-0.18088464 -0.12520906 -0.061591472 0.10183938 0.107376955 0.055549636 -0.0516978 0.10716903
-0.035327632 0.1532709 0.07087018 0.018534122 -0.016803568 0.13231605 0.1372687 0.1495467
0.049619377 0.1848075 -0.10748206 0.015812803 0.15802218 -0.007881371 0.08053681 0.12391214
0.0850105 0.057395652 0.17747219 0.10540231 -0.15472618 -0.03510845 0.087960616 -0.07372612
-0.03148682 0.061937124 0.020673268 0.08989267 0.08011438 -0.22461678 -0.071499884 0.030382268
-0.030429697 0.10211367 0.0014821594 0.16557343 0.17635156 0.052322242 -0.08885418 0.022728888
-0.15527324 0.07240686 -0.053579606 0.0171547 0.0121108005 0.059390962 -0.013267011 -0.1460351
-0.14787386 -0.1499761 -0.07986468 0.014924648 0.08606561 -0.042710297 0.1255834 0.05926943
0.07209129 0.15442063 0.077615894 0.13801453 -0.11749378 -0.032781433 -0.072675765 0.025771402
0.11225706 0.049009927 -0.20785971 0.061799422 -0.19932288 0.08667125 0.0028397683 0.0021459952
-0.058098912 0.042098865 -0.13614689 0.14631131 -0.06223248 0.13319397 -0.09683161 0.06359906
-0.062276088 0.07623876 0.061156172 -0.07002067 0.021053562 0.12318348 -0.029555667 0.15090923
0.10301088 -0.06947738 -0.019980758 0.109043896 -0.12115362 -0.021441014 -0.008593166 -0.14120965
0.03563657 -0.0077254735 -0.050886415 0.0064516426 -0.021071613 0.09324219 0.07268884 0.14485268
0.121802986 -0.086312644 0.030944915 -0.16931435 -0.002985141 -0.03195265 0.054160833 -0.015988259
-0.068856224 0.054709315 0.09479558 0.03220147 0.09410419 0.018377662 -0.026420554 -0.15475182
0.06494773 -0.121408656 -0.08155472 0.027278043 0.040977653 -0.12706862 0.10423431 -0.16222401
0.045997187 -0.12709743 0.02248045 -0.02349325 -0.13224189 -0.17395414 0.05005711 0.077110656
0.0036032891 0.02002338 -0.053889997 0.116278015 -0.08683293 0.11924302 0.120940745 -0.0067167287
00000000: 3a55 033d db64 ff3d 169c acbd f933 a5bc
00000010: 27b4 5d3e 3c1c d1bc 1ee5 993d 9c47 e03c
00000020: a463 bebc 8423 3e3b 4981 ca3d cf8f 793b
00000030: e535 00bd 31ba 173e 1734 213e 2c77 163e
00000040: 12d8 2abd e015 493d 8c48 49bc 0442 cdbd
00000050: eab3 cf3c 3ded acbd 976b c4bd 2bb2 383c
00000060: 82f6 813d 66f8 00be 5e33 66bd 7b4e f4bd
00000070: 2cd0 843d c7bf f13d 9fc2 d53d 0c96 d43d
00000080: b33d 22bd fc49 f9bd 1b1c f73d 009a 863d
00000090: 5ebd 193e 344f d13d 715b 64bd 84a4 e03d
000000a0: 85c7 87bd f7f3 bd3c 3872 363e d7b3 3d3e
000000b0: 69ce b43d a6f0 233e 17ae dabd afc1 ca3d
000000c0: 6b2d d03d 98b0 57bd 149d 093e 012b 75bd
000000d0: ce18 a9bc 7b3d 1c3e 02ea 11bd 08ac 8e3d
000000e0: e4dd 9d3d c233 09bb 484e 893d 551e a4bd
000000f0: 4c93 b4bd 3d9f e23b fda6 f23d 5712 b53d
00000100: e3f5 c5bd 1680 efbc 0ba4 e73c 0765 33be
00000110: 31de 58bd 1a44 e5bc 1c0c 2f3e 5811 ddbd
00000120: a20e 693d c674 193e 680f b63d 5ed5 953d
00000130: 9431 a33b 8973 233e e8d7 093e ed97 0d3e
00000140: 4768 543e c6b5 f63c 1b5c c33d ed80 613e
00000150: 2e4f 543e 7544 25bd 845f e7bc 0fed cc3c
00000160: 9c07 10bd e99a 1c3d c154 2e3d 7590 e7bc
00000170: d9a3 283e 88af 57bd e0bf fd3d 4dd9 cbbd
00000180: c517 27be 95d9 edbd 37e9 fd3d d0f3 b53c
00000190: dfe2 f0bd 6013 cabd 2692 643d 30c7 94bd
000001a0: d339 39be ce36 00be 5747 7cbd 2a91 d03d
000001b0: 73e8 db3d 0488 633d 13c1 53bd 707b db3d
000001c0: b5b3 10bd 0cf3 1c3e 6324 913d dfd4 973c
000001d0: a3a7 89bc dc7d 073e 2b90 0c3e c522 193e
000001e0: b03d 4b3d 2d3e 3d3e 8e1f dcbd da89 813c
000001f0: 91d0 213e de20 01bc 7cf0 a43d a6c5 fd3d
00000200: fc19 ae3d b417 6b3d 45bb 353e 2bdd d73d
00000210: 8a70 1ebe e1cd 0fbd b224 b43d b8fd 96bd
00000220: 53f8 00bd c8b1 7d3d fc5a a93c a619 b83d
00000230: 0213 a43d f101 66be 886e 92bd 3ce4 f83c
00000240: b347 f9bc f920 d13d 0445 c23a 158c 293e
00000250: 8195 343e d94f 563d 2ef9 b5bd ef31 ba3c
00000260: f3ff 1ebe 0c4a 943d 4a76 5bbd 0388 8c3c
00000270: 616c 463c f043 733d e15d 59bc 3a8a 15be
00000280: 3f6c 17be 5693 19be 1890 a3bd 8386 743c
00000290: 2b43 b03d fef0 2ebd ef98 003e 80c4 723d
000002a0: 99a4 933d 7120 1e3e 15f5 9e3d ae53 0d3e
000002b0: 94a0 f0bd d345 06bd 08d7 94bd 8c1e d33c
000002c0: 08e7 e53d a2be 483d 2dd9 54be 6421 7d3d
000002d0: 4c1b 4cbe b280 b13d 681b 3a3b d3a3 0c3b
000002e0: 20f9 6dbd dc6f 2c3d 176a 0bbe a2d2 153e
000002f0: 7ce7 7ebd 0064 083e a74f c6bd 3940 823d
00000300: 3615 7fbd 1123 9c3d e57e 7a3d ff66 8fbd
00000310: 8578 ac3c 9f47 fc3d ba1e f2bc f387 1a3e
00000320: 5ef7 d23d 284a 8ebd b0ae a3bc 6852 df3d
00000330: 641f f8bd 11a5 afbc 5aca 0cbc 4399 10be
00000340: a7f7 113d f825 fdbb 466e 50bd 4d68 d33b
00000350: 609e acbc c3f5 be3d e3dd 943d 4354 143e
00000360: d873 f93d afc4 b0bd 3180 fd3c be60 2dbe
00000370: 5ba2 43bb c8e0 02bd c0d7 5d3d cff9 82bc
00000380: 7e04 8dbd e016 603d 2f24 c23d b0e5 033d
00000390: b3b9 c03d c08c 963c eb6f d8bc 4377 1ebe
000003a0: 5103 853d 1aa5 f8bd 2906 a7bd 3476 df3c
000003b0: 2fd8 273d 471e 02be cc78 d53d 0d1e 26be
000003c0: 8c67 3c3d d425 02be ec28 b83c eb74 c0bc
000003d0: 6b6a 07be 0921 32be af08 4d3d 31ec 9d3d
000003e0: 2925 6c3b 1208 a43c c2bb 5cbd 2b23 ee3d
000003f0: 77d5 b1bd af35 f43d c8af f73d 0118 dcbb

model.rnn.weight_hh_l0 f4 [160, 40]
-0.053341758 -0.17224112 -0.06604912 0.12434588 -0.04047563 -0.07950143 -0.03783471 -0.04717924
-0.13709715 0.15223338 0.05950768 0.12521267 0.07091195 0.12531619 -0.1373206 -0.038594145
0.078567624 0.090994 0.11351877 0.06889082 0.09284927 -0.19782463 0.15580378 -0.1276963
-0.07432183 -0.16502322 -0.005639107 0.13097443 0.07296287 -0.14081042 0.030160528 0.010924875
0.12144801 0.06590282 -0.045804843 0.06703282 -0.12769832 0.10058352 -0.024906674 0.10978761
0.18032672 0.16478251 0.12337083 0.03789383 0.08096676 0.10936902 0.11720893 0.057425536
0.012784623 0.09499519 0.1060922 0.015522314 -0.104724 -0.068048194 -0.15547124 0.029808419
0.07147081 -0.1037792 0.036571003 -0.052387275 0.03832271 0.081092276 -0.06874698 -0.02371514
0.021431258 -0.15498453 0.084010646 0.12960732 0.0393497 -0.06666872 0.10908116 0.15263878
-0.06962707 -0.09165541 -0.027938532 -0.10461956 0.048389964 -0.023330787 -0.055308428 -0.016309477
-0.019582389 0.02632638 -0.075823784 -0.055531196 -0.09560962 -0.15495281 -0.16193286 0.02824367
-0.09518286 0.002314518 -0.092316024 -0.048804335 -0.044291608 -0.059083883 -0.015505078 -0.03148864
-0.09303829 0.076202735 -0.05365867 0.051389825 0.052912325 0.17386651 -0.11683321 0.16295683
-0.12344317 -0.12030567 0.012077489 -0.117464736 0.01693113 -0.0009890036 -0.17616259 -0.14332975
0.15122686 0.037261244 -0.015294211 -0.03919982 0.06637358 0.086014576 -0.116685115 -0.0024599505
-0.16459225 -0.12880485 0.020173684 -0.032646593 0.0070567303 0.15796204 0.016757993 -0.09457399
-0.07082776 -0.09502929 0.016983839 -0.079420514 -0.017251946 0.17843698 -0.13731667 -0.023193818
0.11495696 -0.16617432 -0.05595274 0.0657399 -0.11083675 0.035628825 -0.19090062 -0.040794484
0.026741447 0.008036968 0.096492186 -0.017390909 -0.07962182 0.13795117 -0.075634025 0.010980549
0.11224532 -0.082125045 -0.03196899 -0.046654906 0.09755826 0.008217139 -0.16195169 0.18599606
0.109155156 -0.035738077 0.047234666 0.01106444 -0.07310908 -0.14150779 0.012264848 0.20277183
0.030975772 -0.072168246 -0.061638813 0.10969602 0.15002494 -0.1192178 -0.033266317 0.16103822
-0.117640056 0.069079034 -0.11869265 -0.12950408 -0.04495164 0.05842911 -0.1389666 0.06337025
-0.006988405 -0.03459935 0.03129634 0.07370386 0.08200156 0.112322666 0.00913039 0.13330448
-0.12281212 -0.13563076 -0.040583827 -0.06889685 0.023516886 -0.12695421 0.020587739 -0.07098227
0.0027227853 -0.020065265 -0.06651415 -0.024040887 -0.03733417 -0.045126155 -0.023024784 0.07449567
-0.07387882 0.075107165 -0.18196179 0.090710655 0.07341079 -0.089082524 -0.106448896 -0.04703083
-0.11283121 0.124388255 -0.023297552 0.12859446 0.12660128 0.17194627 0.035542157 -0.12556656
0.036836404 0.08059823 0.1256339 0.12361385 0.11942796 0.12967232 -0.04650783 0.13211176
0.023152651 0.08447549 0.058616642 -0.113375925 -0.1444546 -0.10907405 -0.11890896 -0.085125014
0.015437453 -0.18375659 -0.050956227 0.106750116 -0.1189671 0.089613214 0.119626656 -0.07168491
0.12580718 0.117782846 -0.09448879 -0.12815641 0.12049285 0.138682 -0.051446952 0.020855017
00000000: e37c 5abd fa5f 30be c344 87bd 0da9 fe3d
00000010: c6c9 25bd a5d1 a2bd 92f8 1abd 053f 41bd
00000020: 3263 0cbe 11e3 1b3e 53be 733d c037 003e
00000030: 493a 913d e352 003e c59d 0cbe e514 1ebd
00000040: 10e8 a03d 105b ba3d 877c e83d a116 8d3d
00000050: c227 be3d 8a92 4abe 078b 1f3e d2c2 02be
00000060: 0b36 98bd d9fb 28be 42c8 b8bb 291e 063e
00000070: 8f6d 953d 9b30 10be 3613 f73c 3ffe 323c
00000080: bcb9 f83d 0ff8 863d dc9d 3bbd 8148 893d
00000090: 59c3 02be bcfe cd3d 1509 ccbc 54d8 e03d
000000a0: 91a7 383e bfbc 283e d9a9 fc3d 9036 1b3d
000000b0: e7d1 a53d ddfc df3d 3c0b f03d 0a37 6b3d
000000c0: 9876 513c d78c c23d de46 d93d 4e51 7e3c
000000d0: 8979 d6bd da5c 8bbd da33 1fbe c930 f43c
000000e0: 4a5f 923d 308a d4bd 7acb 153d 0a94 56bd
000000f0: 46f8 1c3d b513 a63d 37cb 8cbd 4146 c2bc
00000100: 9b90 af3c 44b4 1ebe c60d ac3d c8b7 043e
00000110: 272d 213d 9c89 88bd f165 df3d 574d 1c3e
00000120: a398 8ebd d5b5 bbbd 59df e4bc c842 d6bd
00000130: 8e34 463d 3520 bfbc 178b 62bd 749b 85bc
00000140: 3f6b a0bc 6caa d73c 8049 9bbd ae74 63bd
00000150: face c3bd f3ab 1ebe bad1 25be 455f e73c
00000160: 3bef c2bd 2baf 173b 2f10 bdbd 0ee7 47bd
00000170: 1e6b 35bd f101 72bd 0309 7ebc 3bfa 00bd
00000180: dc8a bebd 2e10 9c3d 32c9 5bbd 237e 523d
00000190: 98ba 583d 100a 323e 4046 efbd 28de 263e
000001a0: c6cf fcbd d262 f6bd a9e0 453c 5a91 f0bd
000001b0: 27b3 8a3c 74a1 81ba f763 34be 09c5 12be
000001c0: 37db 1a3e 3f9f 183d 9294 7abc fe8f 20bd
000001d0: dfee 873d 6928 b03d 9bf8 eebd 1f37 21bb
000001e0: df8a 28be 6be5 03be 4843 a53c 6fb8 05bd
000001f0: 253c e73b cdc0 213e 0f48 893c 02b0 c1bd
00000200: 250e 91bd b79e c2bd b121 8b3c 39a7 a2bd
00000210: f453 8dbc 2fb8 363e be9c 0cbe f600 bebc
00000220: 8e6e eb3d 9a29 2abe b32e 65bd a4a2 863d
00000230: 61fe e2bd 88ef 113d 747b 43be 1e18 27bd
00000240: e110 db3c 7dad 033c b29d c53d 6177 8ebc
00000250: c410 a3bd 1243 0d3e 03e6 9abd c3e7 333c
00000260: e0e0 e53d 2d31 a8bd eaf1 02bd 3719 3fbd
00000270: a0cc c73d 2ea1 063c aad6 25be c075 3e3e
00000280: bd8c df3d 1762 12bd 2379 413d a047 353c
00000290: 37ba 95bd 6be7 10be 80f2 483c 6ba3 4f3e
000002a0: e7c0 fd3c f2cc 93bd fb78 7cbd 4fa8 e03d
000002b0: 23a0 193e 7628 f4bd 4342 08bd 34e7 243e
000002c0: 45ed f0bd 4f79 8d3d 2215 f3bd b89c 04be
000002d0: 361f 38bd 5d53 6f3d 434d 0ebe 43c8 813d
000002e0: fdfe e4bb 0cb8 0dbd 9730 003d 0df2 963d
000002f0: 6ff0 a73d 6d09 e63d a297 153c f880 083e
00000300: ec84 fbbd cae2 0abe 3a3b 26bd cb19 8dbd
00000310: 7ca6 c03c 4900 02be 9ea7 a83c 275f 91bd
00000320: c270 323b e95f a4bc 9238 88bd 65f1 c4bc
00000330: b7eb 18bd 34d6 38bd 799e bcbc 3091 983d
00000340: c74d 97bd c9d1 993d 3154 3abe 82c6 b93d
00000350: 6558 963d e670 b6bd e101 dabd 66a3 40bd
00000360: 0d14 e7bd 45bf fe3d 82da bebc 44ae 033e
00000370: c4a3 013e af12 303e a794 113d 8594 00be
00000380: c5e1 163d af10 a53d 2ca6 003e 4229 fd3d
00000390: a596 f43d d2c8 043e ff7e 3ebd 4e48 073e
000003a0: a1aa bd3c 7c01 ad3d 0118 703d a331 e8bd
000003b0: e8eb 13be 3762 dfbd 8a86 f3bd 0656 aebd
000003c0: 5fed 7c3c b02a 3cbe 7ab7 50bd ce9f da3d
000003d0: 06a5 f3bd 2287 b73d d2fe f43d 8acf 92bd
000003e0: 99d3 003e 2238 f13d 5783 c1bd 6f3b 03be
000003f0: f5c4 f63d a702 0e3e 0aba 52bd 24d8 aa3c

model.rnn.bias_ih_l0 f4 [160]
0.004415003 -0.0067488337 0.10489983 0.22088169 0.1302571 -0.09800322 -0.10130194 -0.018041711
0.10521065 -0.032643046 0.04318506 -0.033886336 0.09690598 -0.02321374 0.18977956 -0.1143524
-0.028786149 0.18074147 0.07958192 -0.028299501 0.18519709 -0.058640182 -0.061536353 0.038267374
-0.011151925 0.061188705 0.030606838 -0.00033325946 0.14825737 0.14311707 0.07891457 0.094366856
0.20648399 0.017605623 -0.14415538 -0.08004832 0.1488494 0.17881289 0.04149535 0.1867733
-0.16728018 0.09511387 -0.02801291 0.07317308 -0.0012643734 -0.09504818 0.14202777 -0.08003576
-0.11714195 0.14736162 0.036714017 0.023081055 0.11503761 -0.08189631 0.054190405 -0.06513479
-0.048619818 0.08401008 0.10180787 0.1257547 0.01171071 0.17951652 0.0457736 -0.11875734
0.11565393 0.14472683 -0.13082184 0.17023489 0.12050393 -0.1275165 -0.05144887 0.059825104
0.02538065 0.105057664 -0.14328972 0.16573441 0.17178208 0.052314315 0.061537247 -0.029603396
0.010169379 -0.09206249 0.19405876 0.12636803 -0.075093046 0.010508381 -0.06489798 0.1341787
0.14034191 0.0018957678 0.11893173 -0.010275505 0.025154201 0.08098102 0.019413428 -0.041929312
0.0596838 -0.064526185 -0.017428828 0.14155903 -0.18959038 0.08318617 -0.16185375 -0.034666657
0.0066269385 0.07575551 0.12794115 -0.13810569 0.010512649 0.093168385 0.047753178 0.15688331
-0.15275885 -0.08646552 0.073374465 0.15765622 -0.07358673 0.019173767 0.19100143 0.061150197
-0.024668949 -0.108838655 -0.08536918 -0.07665953 0.14735828 -0.017635494 -0.05524679 -0.027395124
0.035425853 -0.025184723 0.08088161 0.017400524 0.011590029 0.18334194 0.07129353 0.09392846
0.10004448 0.13847573 0.16605684 0.040276602 0.018953387 -0.011618395 0.25172958 0.06582954
-0.043663885 0.16378379 0.15986037 0.035035778 -0.051371653 0.031163177 -0.11284178 0.068695575
0.07484682 0.020491075 -0.1412815 -0.03562751 0.14172372 0.01906166 0.046343576 0.17567001
00000000: bbab 903b 5225 ddbb b9d5 d63d cf2e 623e
00000010: 1e62 053e eab5 c8bd 6477 cfbd 36cc 93bc
00000020: ae78 d73d b7b4 05bd d1e2 303d 66cc 0abd
00000030: a476 c63d be2a bebc 9355 423e 9731 eabd
00000040: eed0 ebbc 4b14 393e d8fb a23d 5bd4 e7bc
00000050: 4ea4 3d3e b030 70bd 8b0d 7cbd 40be 1c3d
00000060: 90b6 36bc 02a1 7a3d 31bb fa3c 54b9 aeb9
00000070: c8d0 173e 488d 123e f69d a13d 6943 c13d
00000080: 8a70 533e ab39 903c 789d 13be 60f0 a3bd
00000090: fa6b 183e ba1a 373e 07f7 293d 8041 3f3e
000000a0: 7f4b 2bbe 10cb c23d 557b e5bc c5db 953d
000000b0: 55b9 a5ba 9fa8 c2bd ba6f 113e cae9 a3bd
000000c0: 1ee8 efbd f7e5 163e 7061 163d 7b14 bd3c
000000d0: d798 eb3d 41b9 a7bd c2f6 5d3d 6465 85bd
000000e0: 9325 47bd 7a0d ac3d a580 d03d d7c5 003e
000000f0: 47de 3f3c 2ed3 373e 197d 3b3d 0c37 f3bd
00000100: f8db ec3d 4533 143e 29f6 05be 0e52 2e3e
00000110: c4ca f63d af93 02be 0dbc 52bd 2b0b 753d
00000120: 15eb cf3c 7928 d73d 8aba 12be 48b6 293e
00000130: a4e7 2f3e 8947 563d 7b0e 7c3d d282 f2bc
00000140: 789d 263c 428b bcbd 57b7 463e 9f66 013e
00000150: 62ca 99bd 582b 2c3c 3be9 84bd 2466 093e
00000160: cab5 0f3e 697b f83a 7b92 f33d 975a 28bc
00000170: 2f10 ce3c 61d9 a53d e908 9f3c 12be 2bbd
00000180: 0077 743d 4e26 84bd e7c6 8ebc daf4 103e
00000190: fb23 42be 835d aa3d fdbc 25be a0fe 0dbd
000001a0: ca26 d93b b425 9b3d 0103 033e 946b 0dbe
000001b0: 3f3d 2c3c 11cf be3d d698 433d 05a6 203e
000001c0: d16c 1cbe d614 b1bd 5a45 963d a270 213e
000001d0: a4b4 96bd 4e12 9d3c e195 433e a178 7a3d
000001e0: 8916 cabc cde6 debd 09d6 aebd acff 9cbd
000001f0: 17e5 163e 5078 90bc 754a 62bd bd6b e0bc
00000200: b31a 113d 3150 cebc 42a5 a53d 8b8b 8e3c
00000210: 1be4 3d3c fdbd 3b3e 5802 923d 905d c03d
00000220: 1fe4 cc3d 95cc 0d3e ce0a 2a3e 14f9 243d
00000230: 2244 9b3c 155b 3ebc b3e2 803e a3d1 863d
00000240: e7d8 32bd f0b6 273e 70b2 233e ad81 0f3d
00000250: 156b 52bd eb49 ff3c 9719 e7bd 44b0 8c3d
00000260: 4a49 993d e6dc a73c 19ac 10be 27ee 11bd
00000270: 0620 113e 3327 9c3c c3d2 3d3d d7e2 333e

model.rnn.bias_hh_l0 f4 [160]
0.06284681 -0.08841397 0.036931638 0.12428345 0.05184127 -0.105247185 -0.07689855 0.12561564
0.06999624 0.13833919 -0.020799352 -0.002435795 -0.06817926 0.085928306 0.108767115 -0.111156784
0.16491815 0.035130493 -0.014882764 0.093340345 0.0047196406 0.027187655 -0.033654373 -0.01459367
0.22066893 -0.036474176 0.022294728 0.13314386 -0.08892752 0.07616253 -0.11446232 -0.016897006
0.10671151 0.17834386 0.05321293 0.16424698 -0.072268814 -0.051673204 0.1016935 0.21321374
-0.098573655 -0.07674594 0.020066164 0.17144945 0.07178233 0.08061369 0.051727097 0.08095283
-0.12285541 0.04405042 0.0043474943 0.0392902 -0.03397933 0.04268777 -0.012001653 0.04999341
0.093069054 -0.034596693 -0.0091372775 -0.05281003 -0.10348893 0.0757612 0.10494627 -0.014500135
0.16882344 0.063813135 0.05672657 0.073545635 -0.12409146 0.08826949 -0.14081278 0.14438623
0.07172688 0.031101564 0.09060053 0.029490093 -0.037081268 -0.0012990107 -0.08090491 -0.026800577
0.0059379614 0.06753398 0.033875044 0.19841836 -0.078659475 0.15778881 -0.10408425 0.04189993
-0.058805108 -0.076348424 0.06943321 0.07157622 -0.12997608 -0.09070633 -0.17991701 0.091828406
0.106244564 -0.14043227 -0.11217174 0.005305104 0.09354157 -0.09062806 -0.018539108 0.06539678
-0.20185325 -0.1388861 0.15151264 0.007758109 0.006347575 -0.14494039 0.08469319 0.19781236
-0.0313878 0.040930852 0.14516485 -0.061752804 0.061563715 -0.09474118 -0.015995909 -0.09245203
-0.01857404 0.010784828 -0.014775124 0.12962626 0.005312405 -0.039900437 0.095369026 0.14057077
-0.022771623 0.08856174 -0.08652919 0.15922217 0.13029392 0.05463282 0.024316108 0.066705965
-0.090012915 0.16015229 0.10903681 0.11214442 0.057906877 0.1242154 0.14553158 0.10142043
-0.003681135 0.08582616 -0.014576421 -0.07763973 0.065803595 0.09546783 0.031031815 -0.037724774
0.13569036 0.11920125 -0.0585751 0.050829 0.15118092 0.0105523225 0.100630976 0.20927916
00000000: d4b5 803d 6212 b5bd a145 173d 5288 fe3d
00000010: 8357 543d d68b d7bd fd7c 9dbd 63a1 003e
00000020: 305a 8f3d caa8 0d3e 6763 aabc dca1 1fbb
00000030: 91a1 8bbd 2efb af3d 4bc1 de3d 2ba6 e3bd
00000040: 4ee0 283e fee4 0f3d d6d6 73bc 3929 bf3d
00000050: 37a7 9a3b a5b8 de3c 2bd9 09bd 4a1a 6fbc
00000060: 09f7 613e f265 15bd 6fa3 b63c dd56 083e
00000070: a21f b6bd 1afb 9b3d 396b eabd 976b 8abc
00000080: 908b da3d c69f 363e cdf5 593d 5c30 283e
00000090: ac01 94bd 48a7 53bd af44 d03d b454 5a3e
000000a0: fce0 c9bd fa2c 9dbd cc61 a43c 7290 2f3e
000000b0: 9d02 933d ca18 a53d cbdf 533d 99ca a53d
000000c0: 9e9b fbbd 376e 343d 6d75 8e3b c3ee 203d
000000d0: e92d 0bbd 5fd9 2e3d 95a2 44bc e4c5 4c3d
000000e0: fd9a be3d 43b5 0dbd 85b4 15bc 544f 58bd
000000f0: 01f2 d3bd b028 9b3d 12ee d63d f991 6dbc
00000100: 0de0 2c3e 76b0 823d 1f5a 683d 189f 963d
00000110: aa23 febd a2c6 b43d 3a31 10be fcd9 133e
00000120: 8be5 923d b5c8 fe3c c58c b93d 3595 f13c
00000130: 87e2 17bd 9143 aaba 79b1 a5bd e28c dbbc
00000140: 3b93 c23b 414f 8a3d 8fc0 0a3d 2f2e 4b3e
00000150: 3818 a1bd 6493 213e 202a d5bd 439f 2b3d
00000160: a0dd 70bd 905c 9cbd 0033 8e3d 8e96 923d
00000170: 7318 05be 3ec4 b9bd 2a3c 38be 8810 bc3d
00000180: c096 d93d 7acd 0fbe 4cba e5bd 70d6 ad3b
00000190: b992 bf3d 349b b9bd 54df 97bc bfee 853d
000001a0: 9eb2 4ebe 2838 0ebe 2126 1b3e bc37 fe3b
000001b0: 52ff cf3b 416b 14be a073 ad3d 538f 4a3e
000001c0: 7e90 00bd 1ca7 273d 18a6 143e 82f0 7cbd
000001d0: 3c2a 7c3d aa07 c2bd da09 83bc 7d57 bdbd
000001e0: 9628 98bc d9b2 303c 5d13 72bc bfbc 043e
000001f0: af13 ae3b a46e 23bd d650 c33d c9f1 0f3e
00000200: 8e8b babc dc5f b53d 3736 b1bd 230b 233e
00000210: c56b 053e aac6 5f3d 9332 c73c 239d 883d
00000220: b158 b8bd f6fe 233e b14e df3d f9ab e53d
00000230: c32f 6d3d a564 fe3d 3b06 153e 84b5 cf3d
00000240: 323f 71bb a0c5 af3d f1d1 6ebc 9401 9fbd
00000250: 09c4 863d a384 c33d 6f36 fe3c 4b85 1abd
00000260: 6af2 0a3e c91f f43d 72ec 6fbd 1232 503d
00000270: 2ccf 1a3e a6e3 2c3c 9d17 ce3d 474d 563e

model.rnn.weight_ih_l1 f4 [160, 40]
-0.077843994 -0.07257215 0.09595533 0.1073505 -0.092049226 -0.094476976 -0.05679436 0.1104258
-0.19724369 0.045361206 0.015620282 0.0068632336 -0.06562276 0.10999352 -0.18107834 -0.13991444
-0.0062472397 -0.13038747 0.18439175 -0.00193131 -0.19815609 0.0059995404 -0.22763163 -0.042858623
-0.2338726 -0.16802858 0.09249588 0.07378232 -0.15417108 0.09276363 0.18391244 -0.073050216
0.07148026 0.07822078 0.03270799 -0.018090675 0.036227815 -0.106523596 0.14831275 0.059054002
0.12786946 0.031318426 0.01587529 -0.07638361 0.087808155 0.1375934 0.12401473 0.13555858
0.14078863 -0.15165637 -0.14482771 -0.0397219 0.08259885 0.06547419 0.010566771 0.13506281
0.017764645 0.06680264 -0.09349039 -0.08260406 0.02867082 0.08419762 -0.09990415 0.09330345
-0.09415844 -0.13096702 -0.086124405 -0.02157556 -0.13283803 -0.03447354 -0.126242 -0.14572032
-0.014829227 0.053186294 -0.13453172 0.14715345 0.06564769 0.11420816 -0.020464096 -0.12979029
-0.19429304 0.0861773 0.17752717 0.1242697 0.013773267 0.1895822 -0.1035972 0.045457587
-0.082488224 0.16172531 -0.05145796 -0.13247171 -0.07506515 0.094488226 -0.21099937 0.0027098572
-0.02120713 -0.07369445 0.00759163 0.17391276 -0.05344351 -0.12522873 -0.13730043 0.13180545
-0.20513982 0.076519035 0.15109701 -0.03844988 0.025331121 0.034830295 0.13118123 0.018325685
-0.030019164 0.100923106 0.0009650944 -0.002298957 0.12058781 -0.16712083 -0.051171098 0.17613028
-0.17384316 -0.07067046 -0.022492316 -0.103652075 -0.036156494 0.16410296 0.05822568 0.13057306
0.07384663 0.07818438 -0.096300274 0.05578078 0.13168813 -0.021903088 0.07925051 0.10936135
0.0357785 0.14024001 -0.015945572 -0.11513208 -0.11851684 -0.10052156 -0.066666245 -0.12469403
-0.041885175 -0.10848255 -0.0926309 0.09872829 -0.13456903 0.06310837 0.098903015 0.092582695
-0.050148427 0.10272601 -0.09910976 0.06896826 0.019318154 -0.065821506 0.1544429 0.0039052279
-0.010800473 0.124667905 0.0035140687 -0.0876982 -0.050473865 0.108953364 0.08053012 -0.029760664
-0.04566954 -0.08131071 -0.01919089 0.07910139 -0.109524444 -0.020223405 -0.14847144 -0.103753805
-0.013632509 -0.14843208 -0.08182172 0.16983466 -0.045555398 -0.1340034 0.014217012 -0.09630169
-0.03125377 0.008050342 0.119650155 -0.12857683 -0.1836233 0.039280705 -0.09836629 -0.010067385
0.0019227933 -0.030763496 0.083796866 -0.0010484391 -0.010511891 -0.08989532 0.08795614 0.1005621
-0.10935881 -0.08934007 0.12097296 -0.086561516 0.07872863 -0.111632265 0.075595 -0.047691967
0.03223384 0.11868804 0.20786914 0.11569792 -0.0010213008 0.105193175 0.003991838 0.071770065
-0.07594816 0.02055067 0.12449219 0.07381965 -0.21095404 -0.19286343 -0.18905796 -0.0539952
-0.10655548 -0.17445847 -0.028089892 0.017710106 -0.13944335 -0.08782296 0.13189486 -0.03326052
0.05516379 -0.016984256 -0.09358757 0.037117876 0.027788542 -0.06568375 -0.014493923 0.07849574
-0.11919634 0.079177156 -0.08671171 -0.055816904 -0.044108856 0.09627451 0.057549123 -0.123116516
-0.07620274 0.012262732 -0.076272495 0.12744944 0.022928812 -0.04395868 0.0044188625 -0.030425066
00000000: ac6c 9fbd b5a0 94bd 3a84 c43d 94da db3d
00000010: 4e84 bcbd 257d c1bd 34a1 68bd ec26 e23d
00000020: 40fa 49be accc 393d 36ec 7f3c fae4 e03b
00000030: 3a65 86bd 4844 e13d 9a6c 39be bb45 0fbe
00000040: a5b5 ccbb 4b84 05be 31d1 3c3e 0324 fdba
00000050: 6ee9 4abe cb97 c43b 4418 69be 868c 2fbd
00000060: 4d7c 6fbe af0f 2cbe 7b6e bd3d 2f1b 973d
00000070: 06df 1dbe dcfa bd3d 8b53 3c3e 5a9b 95bd
00000080: 3e64 923d 3732 a03d d0f8 053d e532 94bc
00000090: 9e63 143d 0b29 dabd 4cdf 173e 9ce2 713d
000000a0: 36f0 023e c047 003d e50c 823c 036f 9cbd
000000b0: c3d4 b33d 49e5 0c3e 6ffb fd3d decf 0a3e
000000c0: e52a 103e cf4b 1bbe b74d 14be 6eb3 22bd
000000d0: 9629 a93d 5517 863d 4020 2d3c e84d 0a3e
000000e0: 2987 913c d3cf 883d e477 bfbd 512c a9bd
000000f0: 11df ea3c cd6f ac3d 8c9a ccbd e115 bf3d
00000100: 24d6 c0bd 381c 06be fe61 b0bd 3bbf b0bc
00000110: b106 08be 2034 0dbd 9545 01be b537 15be
00000120: 49f6 72bc dfd9 593d afc2 09be 65af 163e
00000130: 4c72 863d f8e5 e93d 52a4 a7bc bfe7 04be
00000140: c1f4 46be b97d b03d afc9 353e 1d81 fe3d
00000150: 45a9 613c d621 423e c52a d4bd bc31 3a3d
00000160: 96ef a8bd 529b 253e 95c5 52bd aaa6 07be
00000170: c2bb 99bd 0b83 c13d 3810 58be dc97 313b
00000180: 93ba adbc 1eed 96bd 35c3 f83b 3016 323e
00000190: 95e7 5abd f63b 00be 7c98 0cbe 02f8 063e
000001a0: 2c10 52be 03b6 9c3d 2db9 1a3e 9f7d 1dbd
000001b0: 3683 cf3c 36aa 0e3d 5f54 063e bf1f 963c
000001c0: c0ea f5bc c6b0 ce3d 64fe 7c3a 19aa 16bb
000001d0: bef6 f63d b921 2bbe c998 51bd 7f5b 343e
000001e0: f103 32be adbb 90bd ce41 b8bc 8a47 d4bd
000001f0: d518 14bd 9b0a 283e 0d7e 6e3d f2b4 053e
00000200: e73c 973d 221f a03d 1439 c5bd 637a 643d
00000210: 41d9 063e 1b6e b3bc 174e a23d d8f8 df3d
00000220: 7a8c 123d 149b 0f3e 4aa0 82bc 5eca ebbd
00000230: f5b8 f2bd 3fde cdbd 5088 88bd 955f ffbd
00000240: ca8f 2bbd 192c debd 45b5 bdbd 0f32 ca3d
00000250: 77cc 09be f63e 813d aa8d ca3d ff9b bd3d
00000260: 7068 4dbd 0462 d23d 0ffa cabd 3b3f 8d3d
00000270: 1b41 9e3c 6dcd 86bd 4826 1e3e daee 7f3b
00000280: 78f4 30bc e351 ff3d 4a4c 663b 1d9b b3bd
00000290: afbd 4ebd f122 df3d faec a43d a3cc f3bc
000002a0: fc0f 3bbd 3b86 a6bd 3736 9dbc e9ff a13d
000002b0: 5a4e e0bd 8eab a5bc e608 18be e07c d4bd
000002c0: e35a 5fbc 94fe 17be 2592 a7bd 23e9 2d3e
000002d0: 4c98 3abd 3038 09be 78ee 683c d239 c5bd
000002e0: f403 00bd 95e5 033c 240b f53d a5a9 03be
000002f0: bf07 3cbe cee4 203d 4474 c9bd acf1 24bc
00000300: 3d06 fc3a ba03 fcbc b19d ab3d c76b 89ba
00000310: 113a 2cbc 0a1b b8bd 5922 b43d 81f3 cd3d
00000320: 83f7 dfbd edf7 b6bd acc0 f73d 2a47 b1bd
00000330: 7a3c a13d 759f e4bd 8dd1 9a3d a758 43bd
00000340: a207 043d b712 f33d a6db 543e 08f3 ec3d
00000350: 2bdd 85ba 856f d73d f7cd 823b 2ffc 923d
00000360: b58a 9bbd e159 a83c c3f5 fe3d c22e 973d
00000370: 5604 58be fe7d 45be 6998 41be 122a 5dbd
00000380: c239 dabd 3ea5 32be c61c e6bc c914 913c
00000390: 3dca 0ebe 86dc b3bd 720f 073e 2f3c 08bd
000003a0: 6df3 613d 9122 8bbc d7aa bfbd ea08 183d
000003b0: cca4 e33c 3485 86bd eb77 6dbc 60c2 a03d
000003c0: 361d f4bd a227 a23d e995 b1bd 44a0 64bd
000003d0: 7dab 34bd 922b c53d a1b8 6b3d 8324 fcbd
000003e0: 2f10 9cbd a0e9 483c c134 9cbd 1b82 023e
000003f0: 34d5 bb3c 040e 34bd 1bcc 903b fd3d f9bc

model.rnn.weight_hh_l1 f4 [160, 40]
-0.113070145 0.11347847 0.16521457 -0.025371144 -0.17364724 0.037722044 0.06660258 0.09576393
-0.05428506 -0.065179795 0.17233129 0.046064056 -0.14512289 -0.097299255 0.012142735 -0.040046986
-0.1750635 -0.08451017 -0.11612607 -0.060759306 0.11106772 -0.14155537 0.023307782 -0.10405303
0.080341056 0.021998944 0.06444738 0.1648644 0.073575266 0.15883183 0.08982993 0.057974618
0.08213928 -0.18882212 -0.13914317 -0.14347388 0.17992792 -0.11620079 0.07450355 0.023534978
-0.024422579 -0.15709278 -0.15940613 -0.14528073 -0.031517997 0.04419548 0.10849046 0.075776726
0.15083443 0.17503737 -0.034263954 0.050939772 0.121874556 -0.10449959 0.038922988 0.10151353
0.008281937 -0.051516127 -0.00024204982 0.037611026 0.10709252 0.13290663 -0.015868088 -0.012746837
-0.030964348 0.03300152 0.06714316 -0.011764898 -0.12411721 -0.117643975 0.13218868 0.03709753
0.05715925 0.10994434 0.079675145 0.09369476 -0.17107274 0.11729556 -0.16413745 0.04736503
-0.09353601 -0.027822867 0.18716702 -0.06625697 -0.0385287 0.06268864 -0.0051218704 0.02157106
0.07770607 -0.09757285 -0.00055037974 0.07675558 0.10218859 -0.09774121 -0.045228068 -0.11176258
-0.02669663 -0.08299748 -0.070708424 -0.022287708 0.0043446813 -0.059027765 -0.07335881 -0.091522396
0.1429498 -0.14391595 0.018122848 0.18213625 0.1374422 0.07092154 0.09824446 0.17050356
0.028094014 -0.16094582 -0.15131728 0.09371516 0.060896393 0.012142764 -0.02721859 0.10059268
-0.101775624 0.09614189 0.007993264 -0.13098684 -0.079358265 0.12124894 -0.10414734 0.14481233
0.132012 -0.11533701 0.016313884 0.087976575 -0.02153143 0.09240397 0.13319169 0.10149448
-0.14422281 -0.029362412 -0.003639059 -0.011340082 0.10809333 -0.15117154 -0.15708898 -0.029142424
0.10879977 -0.09970982 0.00053313916 -0.1161996 0.11810437 0.07019569 -0.10166264 0.010626557
-0.040258296 -0.055849597 -0.054851234 0.033782635 0.04378617 -0.11963658 -0.05508112 0.120656155
-0.10444343 0.13954777 0.01601752 0.12469631 0.17767061 -0.029021926 0.08403251 0.014953284
-0.010531589 -0.0825081 -0.035197645 0.05996935 -0.083941214 -0.15249993 -0.019964049 0.01203987
-0.014702698 -0.05686497 -0.054056533 -0.031442344 -0.050790913 0.13825786 0.07672962 -0.12491103
-0.12066688 -0.07668494 0.07801503 -0.050903566 0.0062240674 0.06372873 -0.02570763 0.10109651
-0.12027896 -0.008714448 -0.03102266 0.062845245 -0.09767166 -0.1306858 0.09794479 -0.0028942146
0.008620975 -0.064818785 -0.072915696 0.039869342 0.095159546 0.09347137 0.13050531 0.02999651
-0.15829931 -0.10316209 0.018133974 -0.08577797 -0.00023548851 0.027050376 0.05151813 -0.11078116
-0.06670611 0.045800567 0.18310277 -0.09833993 -0.0050072796 0.09245273 -0.13668899 0.17402406
0.011032847 0.08506194 0.013377524 -0.0052309893 -0.023235453 0.12175572 -0.019177405 -0.10011563
-0.0039419685 0.04533278 -0.05714556 0.054412756 -0.011256945 0.045175485 0.12624884 0.0107435845
-0.006215526 0.09673737 0.061676633 0.057486903 -0.116976716 -0.06094508 0.08588947 0.10076734
0.13858311 0.11392199 -0.10928577 -0.12205502 0.053596165 -0.11780623 -0.056560792 -0.025485193
00000000: 5291 e7bd 6667 e83d 022e 293e 25d7 cfbc
00000010: 95d0 31be 6e82 1a3d ef66 883d e11f c43d
00000020: 035a 5ebd fc7c 85bd 9d77 303e aaad 3c3d
00000030: 189b 14be d544 c7bd 52f2 463c 4f08 24bd
00000040: d943 33be ab13 adbd 81d3 edbd c0de 78bd
00000050: 7977 e33d e4f3 10be f6ef be3c c119 d5bd
00000060: da89 a43d 2137 b43c fdfc 833d 37d2 283e
00000070: a1ae 963d d0a4 223e c1f8 b73d cb76 6d3d
00000080: a438 a83d 965a 41be 8c7b 0ebe d1ea 12be
00000090: 063f 383e aefa edbd 5195 983d 6dcc c03c
000000a0: dc11 c8bc eedc 20be 5c3b 23be 79c4 14be
000000b0: 0419 01bd 5206 353d 3f30 de3d d430 9b3d
000000c0: 5774 1a3e ff3c 333e 5c58 0cbd 39a6 503d
000000d0: 5e99 f93d e203 d6bd b66d 1f3d 53e6 cf3d
000000e0: f6b0 073c 9302 53bd c1ce 7db9 050e 1a3d
000000f0: 5353 db3d ad18 083e cbfd 81bc 1cd8 50bc
00000100: f2a8 fdbc 9a2c 073d 5a82 893d 8fc1 40bc
00000110: 2a31 febd 53ef f0bd 785c 073e 94f3 173d
00000120: d11f 6a3d 802a e13d b92c a33d 0ae3 bf3d
00000130: b12d 2fbe a838 f03d a613 28be d501 423d
00000140: cf8f bfbd c8ec e3bc b6a8 3f3e bcb1 87bd
00000150: 45d0 1dbd e762 803d 5dd5 a7bb cbb5 b03c
00000160: 5c24 9f3d 46d4 c7bd 5c47 10ba 0832 9d3d
00000170: 4048 d13d 8b2c c8bd 1141 39bd c8e3 e4bd
00000180: e4b2 dabc 95fa a9bd 94cf 90bd b694 b6bc
00000190: d45d 8e3b 19c7 71bd 253d 96bd 1870 bbbd
000001a0: 6f61 123e b45e 13be 5e76 943c ed81 3a3e
000001b0: a6bd 0c3e 503f 913d 6434 c93d 7c98 2e3e
000001c0: 6b25 e63c fbce 24be ebf2 1abe bced bf3d
000001d0: 7f6e 793d 72f2 463c 85f9 debc 8903 ce3d
000001e0: bd6f d0bd 0ae6 c43d 2ef6 023c 6a21 06be
000001f0: 9686 a2bd 5d51 f83d 334b d5bd af49 143e
00000200: 272e 073e cf35 ecbd b2a4 853c 102d b43d
00000210: ae62 b0bc 4b3e bd3d 6763 083e 57dc cf3d
00000220: 25af 13be 7189 f0bc 477d 6ebb c0cb 39bc
00000230: 0960 dd3d b6cc 1abe efdb 20be 18bc eebc
00000240: 6ad2 de3d a934 ccbd 5dc2 0b3a 0efa edbd
00000250: b4e0 f13d c2c2 8f3d 8134 d0bd 031b 2e3c
00000260: e2e5 24bd 8cc2 64bd b0ab 60bd a95f 0a3d
00000270: 2159 333d 0604 f5bd be9c 61bd 931a f73d
00000280: 70e6 d5bd 9ce5 0e3e 2d37 833c c760 ff3d
00000290: 49ef 353e 64bf edbc 3d19 ac3d 9efe 743c
000002a0: b08c 2cbc 02fa a8bd 682b 10bd 6ca2 753d
000002b0: 5fe9 abbd f128 1cbe a58b a3bc e042 453c
000002c0: 96e3 70bc 3eeb 68bd 626a 5dbd b0c9 00bd
000002d0: 220a 50bd 7893 0d3e 6b24 9d3d 5bd1 ffbd
000002e0: 3220 f7bd fe0c 9dbd 58c6 9f3d 4280 50bd
000002f0: 43f3 cb3b 3584 823d cf98 d2bc b00b cf3d
00000300: d154 f6bd 0bc7 0ebc 3c23 febc 02b5 803d
00000310: 1408 c8bd 80d2 05be 4797 c83d ddac 3dbb
00000320: fd3e 0d3c b6bf 84bd d354 95bd 094e 233d
00000330: 02e3 c23d eb6d bf3d 2fa3 053e 3ebb f53c
00000340: 3719 22be a546 d3bd b38d 943c 5cac afbd
00000350: 77ed 76b9 c098 dd3c ad04 533d 3ce1 e2bd
00000360: 379d 88bd 6099 3b3d 4b7f 3b3e 7266 c9bd
00000370: 1b14 a4bb db57 bd3d 33f8 0bbe 5d33 323e
00000380: 1dc3 343c f434 ae3d 672d 5b3c b868 abbb
00000390: 4758 bebc 105b f93d ef19 9dbc 6c09 cdbd
000003a0: a12b 81bb ddae 393d 7611 6abd e9df 5e3d
000003b0: 0d6f 38bc ee09 393d 6047 013e dc05 303c
000003c0: 9cab cbbb 3e1e c63d a3a0 7c3d 6377 6b3d
000003d0: 7d91 efbd 8ca1 79bd d2e6 af3d 1b5f ce3d
000003e0: bbe8 0d3e ef4f e93d 38d1 dfbd fbf7 f9bd
000003f0: a787 5b3d 6544 f1bd 4aac 67bd 53c6 d0bc

model.rnn.bias_ih_l1 f4 [160]
-0.07607722 0.085584894 -0.092249826 -0.14884841 -0.007821397 0.030202439 -0.17353772 -0.09371545
0.16144805 0.10964029 -0.015178065 0.12760538 -0.03057815 0.18091334 -0.11833796 0.12078538
-0.03452093 0.014856381 0.007716205 0.032627743 -0.11759838 -0.00638162 0.1731172 0.14687155
0.12899466 -0.033216733 0.035736598 0.18968038 0.02318943 -0.15926467 0.023118947 0.1694335
0.17960677 -0.11236192 -0.08227575 0.023072068 -0.095084146 -0.13017084 -0.086302295 -0.06647707
0.15091218 -0.16996366 0.0045171613 0.12867782 0.11615989 0.16165806 0.021959849 -0.0769945
-0.1530527 -0.14910829 0.067099914 -0.0026933039 -0.03668134 -0.07733292 -0.08341789 0.020655526
-0.0032405185 -0.15498486 0.12299051 0.071123086 -0.07871243 0.07623879 -0.13066737 0.14494352
-0.008684067 -0.08881585 0.030874051 0.14594519 0.074814595 -0.11299936 -0.0012907069 0.1037737
0.0027367503 0.06498562 0.008003374 -0.1658781 0.1065157 -0.1751915 -0.08496783 -0.099173635
-0.0063095544 0.046459895 -0.13301869 0.09413252 -0.03915344 -0.120671526 0.14728715 0.05730099
0.021144234 -0.044612706 -0.09082357 -0.13146956 -0.11115972 -0.0024172936 0.10368237 0.15687527
0.013012987 -0.024874568 0.025889724 0.14654104 0.05678194 -0.12219006 0.04822996 0.16167751
-0.045051325 0.103300996 0.007138751 0.06700976 0.10382004 -0.08805083 -0.03981219 0.065884024
-0.0279264 0.07518949 0.11927844 -0.04531725 -0.04789851 -0.01941318 0.18265782 0.098415665
0.01726438 -0.011112472 0.17539784 -0.12172439 0.14146978 0.14569832 -0.12216994 -0.083767444
0.013316841 -0.032030243 0.20190404 0.005463243 -0.026021725 0.20741764 0.037334673 0.121664695
0.115623176 -0.098621055 -0.008226708 0.042165726 0.0795417 0.11064574 0.04576262 0.0041785534
0.009743116 0.071957655 -0.093996994 0.08803362 0.10518587 0.09018759 -0.04221836 -0.14355709
0.19284943 0.0029597608 0.17667612 -0.06535788 -0.027895821 0.13217881 -0.07559126 -0.04916093
00000000: 60ce 9bbd 2247 af3d 7aed bcbd b86b 18be
00000010: 5125 00bc 1b6b f73c dfb3 31be e3ed bfbd
00000020: a352 253e 178b e03d 6bad 78bc fcaa 023e
00000030: 077f fabc 5941 393e 2c5b f2bd 535e f73d
00000040: d265 0dbd 2e68 733c 38d8 fc3b aba4 053d
00000050: 6bd7 f0bd e91c d1bb a345 313e 7f65 163e
00000060: 2d17 043e 450e 08bd 8a60 123d 933b 423e
00000070: c2f7 bd3c 4716 23be f263 bd3c fa7f 2d3e
00000080: d6ea 373e 021e e6bd 3080 a8bd a201 bd3c
00000090: 7abb c2bd 814b 05be 42bf b0bd 2125 88bd
000000a0: b988 1a3e f40a 2ebe b204 943b 1ec4 033e
000000b0: 3de5 ed3d b189 253e 24e5 b33c 4baf 9dbd
000000c0: d9b9 1cbe d8af 18be ae6b 893d 2482 30bb
000000d0: 2c3f 16bd b960 9ebd 00d7 aabd c735 a93c
000000e0: e15e 54bb 5ab4 1ebe 73e2 fb3d fba8 913d
000000f0: fc33 a1bd 1523 9c3d abcd 05be 136c 143e
00000100: 9e47 0ebc 16e5 b5bd 94eb fc3c a872 153e
00000110: 6538 993d 356c e7bd f02c a9ba 4e87 d43d
00000120: 0d5b 333b 2e17 853d 9520 033c f3db 29be
00000130: e724 da3d 6765 33be 9d03 aebd 8c1b cbbd
00000140: 61c0 cebb bb4c 3e3d 0d36 08be 8dc8 c03d
00000150: 5c5f 20bd a222 f7bd 71d2 163e 71b4 6a3d
00000160: ac36 ad3c d0bb 36bd b501 babd f59f 06be
00000170: b5a7 e3bd 756b 1ebb 6c57 d43d e9a3 203e
00000180: 6c34 553c c0c5 cbbc b016 d43c db0e 163e
00000190: 2e94 683d c83e fabd c78c 453d ca8e 253e
000001a0: bd87 38bd 798f d33d 2fec e93b 6a3c 893d
000001b0: 9a9f d43d fe53 b4bd 1b12 23bd 34ee 863d
000001c0: e8c5 e4bc f3fc 993d 4148 f43d 959e 39bd
000001d0: 3a31 44bd 6408 9fbc a70a 3b3e 278e c93d
000001e0: 076e 8d3c 1611 36bc 7e9b 333e a34a f9bd
000001f0: 74dd 103e f131 153e 3c34 fabd 448e abbd
00000200: e12e 5a3c 2532 03bd efbf 4e3e 0105 b33b
00000210: 832b d5bc 4a65 543e 3eec 183d 572b f93d
00000220: d8cb ec3d d6f9 c9bd 50c9 06bc f8b5 2c3d
00000230: c2e6 a23d 3c9a e23d 9671 3b3d 3fec 883b
00000240: 97a1 1f3c 895e 933d 7f81 c0bd f84a b43d
00000250: b06b d73d 45b4 b83d 29ed 2cbd a100 13be
00000260: 527a 453e 8cf8 413b 96ea 343e 5ada 85bd
00000270: c785 e4bc e259 073e 97cf 9abd f95c 49bd

model.rnn.bias_hh_l1 f4 [160]
0.06702356 -0.014729358 -0.09829699 -0.12810265 0.09380524 0.12281611 -0.09041182 0.18762578
-0.028031033 0.07839515 0.08734626 -0.014175571 0.09828245 0.17293692 -0.020494886 0.01069019
0.0021539328 0.06972157 0.052051444 0.0067869877 -0.05182569 0.07965983 -0.06777415 0.21356621
0.08274952 -0.0509585 0.13117142 0.026345562 -0.042023033 -0.04182779 0.06980859 0.09300727
0.17007896 -0.07987451 0.118480965 -0.13656963 0.17303306 -0.03673064 0.10763171 0.07732522
-0.025555756 0.09261526 0.076744884 0.03585456 -0.06365941 0.1954543 0.052315973 -0.0052652466
0.098425895 -0.033987805 0.04969319 -0.064866625 0.069754995 -0.11129821 -0.061028693 0.1617595
-0.087974876 -0.14036274 0.10815703 -0.09185461 0.02076382 -0.13735336 0.07751577 -0.028179362
0.029463056 0.18126237 0.02451905 0.07159192 -0.05657001 0.08577327 -0.15304773 0.10622051
-0.10291207 0.12794381 -0.12256713 -0.13598374 0.034307107 0.13140611 -0.17061894 -0.052176338
-0.025303572 0.12750566 0.09205593 0.07638602 -0.10140311 0.02421044 -0.027776767 0.08437755
-0.019459326 -0.1366211 0.038165234 0.093538865 0.059460342 -0.06669184 -0.11861728 0.020508835
0.010805033 -0.0048665535 -0.023348892 0.046666298 0.004636384 -0.10589052 -0.14911668 -0.1158226
0.06811666 -0.009405874 0.06931443 -0.024488453 -0.08625602 0.06335338 0.11346715 0.071866624
0.0410703 0.09579292 -0.0379484 -0.16209134 0.02261432 0.045098484 0.16487972 0.17410015
0.14112656 0.14887722 0.019419974 0.10182433 -0.040738802 0.09560482 0.116840586 0.13941406
0.11797774 0.045717187 0.0605126 0.10671141 0.15100968 -0.080614455 0.0067587253 0.12468711
-0.06461525 -0.03322114 -0.15897408 0.07092134 0.15734592 0.052642852 -0.050114468 0.1096966
0.18039969 0.053455405 -0.0071789077 0.20458294 0.052726056 -0.025109198 -0.06682807 -0.009252292
-0.06544258 -0.13377118 0.090784326 0.013232914 0.011457387 0.11160545 -0.0813893 -0.02244629
00000000: a643 893d 6853 71bc ef4f c9bd 572d 03be
00000010: f61c c03d 0387 fb3d d529 b9bd f920 403e
00000020: 56a1 e5bc a38d a03d 99e2 b23d a740 68bc
00000030: 4f48 c93d 6016 313e e4e4 a7bc e825 2f3c
00000040: ff28 0d3b 2fca 8e3d e533 553d 6165 de3b
00000050: 2d47 54bd b124 a33d 2ccd 8abd 1ab1 5a3e
00000060: 9578 a93d dcb9 50bd cd51 063e a6d2 d73c
00000070: 5820 2cbd 9e53 2bbd cef7 8e3d 987a be3d
00000080: 2e29 2e3e 3f95 a3bd 26a6 f23d e9d8 0bbe
00000090: 942f 313e de72 16bd 046e dc3d af5c 9e3d
000000a0: 4e5a d1bc 12ad bd3d 6c2c 9d3d 3bdc 123d
000000b0: dd5f 82bd 2c25 483e 4649 563d 1788 acbb
000000c0: 8493 c93d cc36 0bbd 168b 4b3d cbd8 84bd
000000d0: b5db 8e3d 51f0 e3bd 39f9 79bd 48a4 253e
000000e0: 2c2c b4bd 40bb 0fbe 6f81 dd3d 451e bcbd
000000f0: e318 aa3c 5ca6 0cbe 97c0 9e3d 68d8 e6bc
00000100: 825c f13c d89c 393e 2ddc c83c c99e 923d
00000110: f4b5 67bd e5a9 af3d 8bb8 1cbe 248a d93d
00000120: 90c3 d2bd b403 033e 7a04 fbbd 523f 0bbe
00000130: 9c85 0c3d 538f 063e bbb6 2ebe dbb6 55bd
00000140: 7049 cfbc d890 023e d287 bc3d 4670 9c3d
00000150: 6fac cfbd f954 c63c 1a8c e3bc 23ce ac3d
00000160: 2a69 9fbc 67e6 0bbe 2653 1c3d 4e91 bf3d
00000170: b08c 733d bb95 88bd 9eed f2bd 2502 a83c
00000180: 9807 313c 9c77 9fbb 2d46 bfbc 2925 3f3d
00000190: cfec 973b 21dd d8bd 0bb2 18be 6634 edbd
000001a0: bf80 8b3d 181b 1abc b9f4 8d3d 029c c8bc
000001b0: ffa6 b0bd 6bbf 813d 7761 e83d cf2e 933d
000001c0: 5539 283d 142f c43d c86f 1bbd 46fb 25be
000001d0: ab41 b93c 30b9 383d 3bd6 283e 4f47 323e
000001e0: 7b83 103e 4573 183e a316 9f3c 4689 d03d
000001f0: bbdd 26bd 76cc c33d 1e4a ef3d 8fc2 0e3e
00000200: 509e f13d f241 3b3d 0fdc 773d 838b da3d
00000210: 48a2 1a3e 3119 a5bd 4c78 dd3b f55b ff3d
00000220: 0055 84bd e412 08bd 1aca 22be 353f 913d
00000230: 4a1f 213e 08a0 573d d444 4dbd 9ca8 e03d
00000240: b2ba 383e 0ef4 5a3d 0b3d ebbb 317e 513e
00000250: 47f7 573d ceb1 cdbc 28dd 88bd ed96 17bc
00000260: c206 86bd 50fb 08be 22ed b93d ddce 583c
00000270: c4b7 3b3c 6691 e43d 6faf a6bd 48e1 b7bc

exp_avg f4 [1, 40]
-0.0017070665 2.7143571e-05 0.0016952067 0.00064553856 0.0023255278 -0.0017123324 9.7766315e-06 0.001611796
-0.0010739797 8.896923e-06 0.0016972463 1.874283e-06 0.0017245929 -0.00064375484 -9.43355e-06 0.0016684943
4.254587e-05 -0.0009911179 -8.5107575e-05 -0.0017743071 -0.0009666998 0.00011325697 -0.0016921348 0.0017105575
0.0015981048 -0.0016963107 0.0016974268 0.0017121526 0.0017123609 3.2494925e-05 2.2652725e-06 -7.3153016e-05
0.0017142877 -0.0017032392 -0.0017139377 1.50637825e-05 0.0017012263 -2.22688e-07 0.0006230885 0.0017073617
00000000: a6bf dfba 60b2 e337 b331 de3a 5c39 293a
00000010: e267 183b 5770 e0ba 5006 2437 e642 d33a
00000020: c7c4 8cba fe43 1537 2376 de3a e08f fb35
00000030: bc0b e23a a8c1 28ba ca44 1eb7 61b1 da3a
00000040: 4873 3238 66e8 81ba c87b b2b8 de8f e8ba
00000050: 206a 7dba 5f84 ed38 9fca ddba c934 e03a
00000060: 8077 d13a be56 deba 317c de3a 4f6a e03a
00000070: 4c71 e03a 294b 0838 1605 1836 ba69 99b8
00000080: f3b1 e03a 393f dfba 35a6 e0ba 74ba 7c37
00000090: affb de3a 031c 6fb4 c356 233a 8dc9 df3a

exp_avg_sq f4 [1, 40]
2.2831215e-05 5.575503e-07 2.484839e-05 5.2627893e-06 1.7671528e-05 2.5102547e-05 2.589449e-06 2.2556509e-05
1.4413501e-05 4.2725682e-07 2.6900472e-05 3.5392065e-07 2.4602374e-05 1.325492e-05 3.433605e-07 2.468249e-05
4.1544567e-06 3.1931836e-07 2.1220494e-06 2.4530884e-05 1.5230079e-05 5.7609753e-07 2.6774596e-05 2.5326664e-05
2.5183432e-05 2.7911738e-05 2.6739976e-05 2.1502565e-05 2.3585324e-05 1.6496202e-07 5.3069806e-09 2.1161309e-06
2.2406502e-05 2.6294194e-05 2.6531654e-05 8.672269e-07 2.4556026e-05 2.7433444e-08 1.5520235e-06 2.3017807e-05
00000000: a985 bf37 91aa 1535 8371 d037 0497 b036
00000010: 513d 9437 4f93 d237 65c6 2d36 bc37 bd37
00000020: 84d1 7137 bb61 e534 53a8 e137 7c02 be34
00000030: 3261 ce37 7361 5e37 1c57 b834 3e0d cf37
00000040: 8366 8b36 c86e ab34 8868 0e36 acc7 cd37
00000050: b184 7f37 1fa5 1a35 029a e037 9974 d437
00000060: 0241 d337 0024 ea37 a94f e037 6860 b437
00000070: 19d9 c537 6a20 3134 b258 b631 da02 0e36
00000080: 99f5 bb37 5a92 dc37 4b90 de37 61cb 6835
00000090: aafd cd37 c8a6 eb32 1f4f d035 5d16 c137

exp_avg f4 [1, 40]
0.3640648 -0.0019956543 -0.36273387 0.37344623 -0.12494973 0.3628522 -0.0009592363 -0.30817938
0.30068672 4.6249974e-05 -0.3524365 0.052120775 -0.35800225 0.23250097 -0.0013405296 -0.3630512
0.09985547 -0.09858652 0.055892296 0.35622475 0.3017465 -7.600803e-05 0.36235964 -0.36254534
-0.35914832 0.36359566 -0.36303025 -0.36188257 -0.36076778 -0.00056083116 0.00011836854 -0.006820325
-0.36272278 0.36366937 0.36105448 0.0043751975 -0.36426294 -0.00035896795 -0.10793451 -0.363213
00000000: b466 ba3e 86c9 02bb 41b8 b9be 5834 bf3e
00000010: a5e5 ffbd c3c7 b93e 4275 7bba b0c9 9dbe
00000020: 9cf3 993e 88fc 4138 8f72 b4be 987c 553d
00000030: 124c b7be bc14 6e3e b6b4 afba d9e1 b9be
00000040: 0681 cc3d bbe7 c9bd 52ef 643d 1763 b63e
00000050: 847e 9a3e 8066 9fb8 3487 b93e 8b9f b9be
00000060: 4ae2 b7be 3629 ba3e 1adf b9be ac48 b9be
00000070: 8eb6 b8be be04 13ba a03c f838 087d dfbb
00000080: cdb6 b9be df32 ba3e 22dc b83e d15d 8f3b
00000090: ac80 babe dd33 bcb9 c50c ddbd 0ef7 b9be

exp_avg_sq f4 [1, 40]
0.6968082 0.0003835454 0.7009705 0.26138347 0.39614546 0.70194644 0.002660094 0.53028077
0.43659037 0.00041609842 0.6776919 0.0027291824 0.6961494 0.42885792 0.0002790884 0.69848126
0.042573214 0.018521376 0.006520213 0.67842954 0.42508852 0.0013947209 0.70311993 0.7000837
0.6983134 0.705915 0.7049314 0.6907441 0.6990861 0.0008187295 1.3749336e-05 0.0018355123
0.6962464 0.70475686 0.7026242 0.0007874422 0.7009864 1.3409726e-05 0.039797913 0.69954365
00000000: 0662 323f 9816 c939 cd72 333f 0ed4 853e
00000010: 94d3 ca3e c3b2 333f f954 2e3b 7bc0 073f
00000020: c688 df3e c927 da39 377d 2d3f 15dc 323b
00000030: d936 323f 4493 db3e 9c52 9239 abcf 323f
00000040: 4061 2e3d 24ba 973c 83a7 d53b 8fad 2d3f
00000050: 34a5 d93e 11cf b63a abff 333f af38 333f
00000060: abc4 323f d8b6 343f 6276 343f 9bd4 303f
00000070: 4ff7 323f 02a0 563a f3ac 6637 9395 f03a
00000080: 343d 323f f26a 343f 2edf 333f 5a6c 4e3a
00000090: d873 333f 56fa 6037 2303 233d 4b15 333f

exp_avg f4 [1, 40]
-0.008619285 -1.0363481e-05 0.008907253 -0.020295516 -0.03190634 -0.008377288 0.00018045708 0.009121109
-0.012747782 -0.00028550698 0.00895446 -0.008318525 0.008111054 -0.02629022 0.00039604068 0.008952916
-0.0137426 0.026768444 0.0010704331 -0.0068068267 -0.012951085 -0.0032713423 -0.00889153 0.008633646
0.009601806 -0.00890032 0.008921415 0.008641027 0.008557368 -9.742216e-05 0.00012173306 0.0023505837
0.008471905 -0.008872939 -0.008593926 -0.0008511849 0.008581086 2.031679e-05 0.006971712 0.0086572645
00000000: e737 0dbc d0de 2db7 baef 113c c842 a6bc
00000010: 39b0 02bd e440 09bc 1439 3d39 b470 153c
00000020: 13dc 50bc 19b0 95b9 bab5 123c 6c4a 08bc
00000030: 3ae4 043c 965e d7bc aea3 cf39 40af 123c
00000040: a428 61bc 7f49 db3c c64d 8c3a cd0b dfbb
00000050: ca30 54bc 0464 56bb c8ad 11bc 2374 0d3c
00000060: e550 1d3c a6d2 11bc 202b 123c 1893 0d3c
00000070: 3434 0c3c 204f ccb8 f04a ff38 400c 1a3b
00000080: bfcd 0a3c ce5f 11bc 8acd 0cbc 0d22 5fba
00000090: af97 0c3c f96d aa37 f672 e43b 33d7 0d3c

exp_avg_sq f4 [1, 40]
0.0050924164 0.00043986604 0.0073289815 0.0006208894 0.0029283203 0.0076074284 0.001066919 0.008247993
0.0039025773 0.00038510573 0.009679863 4.3321343e-05 0.0065635885 0.0021559426 0.00024088382 0.0071853073
0.0027675848 0.00021022811 0.0010393463 0.0061560986 0.0055651525 0.00047916884 0.00907155 0.0076940805
0.0075161797 0.01006828 0.009462352 0.0038021295 0.0059176483 4.0846677e-05 1.9540555e-07 0.0015802167
0.004644876 0.009025395 0.008920766 0.0005702098 0.0071929027 2.2874561e-05 0.00012221372 0.005438122
00000000: 49de a63b d29d e639 f427 f03b 2fc3 223a
00000010: 10e9 3f3b bc47 f93b dcd7 8b3a 9722 073c
00000020: 62c2 7f3b 04e8 c939 4a98 1e3c f0b3 3538
00000030: 5f13 d73b b74a 0d3b c295 7c39 ba72 eb3b
00000040: 5e60 353b ae70 5c39 ad3a 883a 19b9 c93b
00000050: e25b b63b f438 fb39 d7a0 143c a01e fc3b
00000060: 494a f63b 6df5 243c fb07 1b3c 262d 793b
00000070: d5e8 c13b c952 2b38 abd0 5134 461f cf3a
00000080: 0b34 983b 40df 133c 6828 123c 227a 153a
00000090: 71b2 eb3b bfe2 bf37 7f26 0039 4632 b23b
