lightning_logs/version_15/checkpoints/epoch=4-step=250.ckpt (torch, 331167 bytes, 33 tensors)

model.param_proj.proj.0.weight f4 [1, 40]
000000 1a 83 02 be 5a 90 3f 3d 09 1e 99 3c ef 85 2c bd
       -0.12745324 0.046768524 0.01869108 -0.042119917
000010 ea ed 0c 3e 0e f5 ac 3c d1 e4 c7 bd 01 84 35 bd
       0.13762632 0.021112945 -0.0976044 -0.04431534
000020 5c 88 b4 3d 57 f5 2d 3e 48 a7 b0 3d d4 0a 43 be
       0.08815071 0.16988121 0.08625656 -0.190471
000030 eb 93 47 be 9e 8a 04 3d a1 21 bb 3d 19 15 82 be
       -0.1949002 0.03235876 0.091372736 -0.2540672
000040 9c 47 82 3c f7 0e 62 3e 11 36 f8 3d eb 01 8a 3d
       0.015903287 0.22076021 0.12119687 0.06738647
000050 33 67 62 bc 57 ac d7 3d 6f 31 47 3c 6f c3 c3 bc
       -0.01381855 0.10530918 0.012157782 -0.023896901
000060 08 de c4 3c 39 53 50 bd 0e 9e f8 3c f6 32 33 bc
       0.024031654 -0.050860617 0.030348804 -0.010937443
000070 27 15 42 bd c7 ff 4a bd 0b 7b 9e bc 9e b6 98 bd
       -0.047383454 -0.049560335 -0.01934578 -0.074567065
000080 78 fc a4 bd c0 fc ea 3d ed 14 62 3c 8b 79 ef 3d
       -0.08055967 0.114739895 0.013798934 0.11693104
000090 c6 a8 9d bd e7 77 14 be 32 c6 fd bd e7 80 48 bd
       -0.076982066 -0.14498864 -0.123913184 -0.048951056

model.param_proj.proj.1.weight f4 [1, 40]
000000 ec 90 a7 ba 22 93 a8 bd ec 8c 33 3c 23 51 a8 bd
       -0.0012784279 -0.08231188 0.010958891 -0.082186006
000010 b9 67 25 be 45 ee 8a bd eb 60 22 be 94 82 ef bd
       -0.16152848 -0.067837276 -0.15857284 -0.11694828
000020 50 9a a5 bd 32 83 41 3c fe e0 b1 3d f9 e9 c6 bd
       -0.080860734 0.011811065 0.08685492 -0.097125955
000030 e2 a1 11 bb 8f ed ce bc b7 42 9a 3d 1c 29 43 3d
       -0.0022221734 -0.025259761 0.07532256 0.047646627
000040 49 51 d4 bc f9 44 f3 3c f2 f0 9f 3c 1c 6b eb bb
       -0.025917666 0.029695975 0.019524071 -0.0071843993
000050 1a bd e8 3a 53 5d 18 3d ae d3 01 3e 6e 29 34 3e
       0.0017756552 0.037198376 0.12678406 0.17593929
000060 b7 2b de 3c aa c6 dd bd ac f8 ae bd 50 38 69 bc
       0.027120454 -0.10828908 -0.08543524 -0.014234617
000070 b5 67 44 3d e5 67 92 3d 03 28 34 bd d8 86 d2 bd
       0.047950465 0.071487226 -0.04398347 -0.10279626
000080 42 53 03 be fc 9d d9 bd 1a 9b ff 3c 11 98 1a 3e
       -0.12824729 -0.10625836 0.031201888 0.15097071
000090 6c 8a 47 bb 19 c2 8f 3d 1c ae 92 bd 14 71 bb 3c
       -0.0030447496 0.07019443 -0.07162115 0.022881068

model.param_proj.proj.2.weight f4 [1, 40]
000000 e1 35 18 3d 74 6f ea 3d ce fe 40 3d 18 54 30 3e
       0.037160758 0.11447039 0.047118 0.17219579
000010 4c 6e 03 3e b4 bd 5b 3e 0e 23 12 bd ef c8 ff bc
       0.12835044 0.21459085 -0.035677962 -0.031223742
000020 7e 0b 03 3e 18 e2 e7 3d 00 dd d5 3d 75 4e 1b 3d
       0.12797353 0.11322421 0.10442543 0.03791662
000030 fb fd 22 be ea be 05 3d 66 7d 1e be 44 cd 31 be
       -0.15917198 0.032652773 -0.15477523 -0.17363459
000040 bd 7b 3c be dc 84 1f 3e 84 84 e6 ba d6 e9 ed bd
       -0.18406577 0.15578026 -0.00175871 -0.11616866
000050 eb 9a 1a 3e fb 8d 29 be c5 7a 4a be 5b 38 06 bd
       0.15098159 -0.16558068 -0.19773395 -0.03276859
000060 9c 25 04 be 05 df 58 be e7 2d c1 3d 12 ea 86 be
       -0.12904972 -0.21178825 0.09432583 -0.26350456
000070 b7 5a f5 3d 77 b1 22 be a7 34 41 be ad 95 3a be
       0.11980193 -0.1588801 -0.18867742 -0.1822116
000080 51 cf 04 3e ae 80 42 3e 97 2b f9 bd 75 52 17 bd
       0.1296971 0.189944 -0.12166517 -0.03694387
000090 4d 7a 89 bd f0 f6 37 be c0 28 35 3e 12 15 0e be
       -0.0671278 -0.17965293 0.17691326 -0.13875225

model.rnn.weight_ih_l0 f4 [160, 37]
000000 e1 2c 96 3d b0 47 05 3e 0e 10 bf bc d3 a7 f5 ba
       0.07332779 0.13015628 -0.023323085 -0.0018742032
000010 63 bc 86 bd e6 08 d2 3a e6 ab ac bd 9f 41 14 3e
       -0.06578901 0.001602438 -0.084312245 0.14478157
000020 a8 f1 0c bd 23 67 03 3e d6 f4 4c 3d 7b 09 bb b8
       -0.03441015 0.12832312 0.05003818 -8.918621e-05
000030 2b 40 39 bc de f8 03 3e 0d 21 34 3e bb a3 4f 3d
       -0.011306803 0.12887904 0.17590733 0.050693255
000040 0e fa 58 3e 8b 99 28 bc a5 73 47 3e e2 27 56 3e
       0.21189138 -0.010290514 0.19477709 0.20913652
000050 4b f6 f3 3c 22 d0 62 3d 93 21 bd bd d1 27 6a bd
       0.029780528 0.055374272 -0.092349194 -0.057166878
000060 cd 5c 85 3d 7c 0a 97 bd 34 b6 00 be 50 ed 4e bd
       0.06511841 -0.073750466 -0.12569505 -0.050519288
000070 bd 28 f5 bd f3 f0 d6 3d b7 7d d6 3d 72 99 e1 3d
       -0.11970661 0.10495176 0.10473197 0.110155955
000080 30 90 bb bd 61 b1 de 3c 1c 00 f0 3d 36 6a c7 bd
       -0.09158361 0.02718419 0.11718771 -0.09737055
000090 96 9b 4d bd eb 8e 2c be cc 3c e2 bd 4b 4c 80 bd
       -0.050197206 -0.16851394 -0.11046752 -0.06264552
0000a0 1b db 8c 3d 67 81 05 be 9e 5c 31 bc 18 4b 70 bd
       0.068777286 -0.13037644 -0.010825304 -0.058665365
0000b0 e9 90 cb 3d d7 87 15 be da 07 1c be db fb 87 bd
       0.09939749 -0.146026 -0.1523737 -0.066398345
0000c0 1f 0c 84 3d cc 87 a2 3d 43 d0 40 bd 2d f5 7a bc
       0.064476244 0.079360574 -0.047073614 -0.0153172435
0000d0 e9 a7 d1 bc 95 90 9f bd 60 08 99 3d 8c 0a b2 bd
       -0.025592761 -0.07791249 0.074723005 -0.08693418
0000e0 43 b4 ea bc 99 83 93 3d e7 65 ba 3d 85 f1 fa bd
       -0.028650409 0.07202835 0.091014676 -0.122530974
0000f0 2c 81 3e bd 9c f2 fd bc c2 21 80 bd 47 5b dc bd
       -0.046509907 -0.030999474 -0.06256439 -0.10759597
000100 91 3d 90 bd 86 b8 36 3d 36 54 72 bd 44 66 e7 bd
       -0.07042993 0.04460957 -0.05916234 -0.112988025
000110 97 2c 61 3c a6 3d 2d 3e 47 bd 02 be 50 db 1b 3e
       0.013743541 0.16918048 -0.12767516 0.1522038
000120 63 90 56 bd 49 43 69 bd 5a db 94 bd af e3 11 3e
       -0.05238379 -0.056948934 -0.072684005 0.1424701
000130 f6 10 ef 3d f6 ed a0 3d 88 02 4b 3e 67 6a d9 3d
       0.11673157 0.078578874 0.19825184 0.10615998
000140 43 ac 34 3e f9 bd fd 3d ad 7e dd 3d 6f 5d 1f 3e
       0.17643838 0.1238975 0.10815177 0.15562986
000150 fa dc 09 bd 89 62 fd 3d ae cf 02 3e 92 91 a1 3d
       -0.033658005 0.1237231 0.12774536 0.078890935
000160 6e ce 17 3d be 3b eb 3d 70 88 14 3e d2 bd e6 bd
       0.0370621 0.11486004 0.14505172 -0.11266674
000170 2b c1 93 3d 29 1c 8c bd 72 07 1d 3e 6d 83 49 bd
       0.07214578 -0.068413086 0.15334871 -0.049197603
000180 07 4e bd bd e1 a1 f5 bd f8 46 2f bc 68 de 1c 3d
       -0.09243398 -0.119937666 -0.010698073 0.03829804
000190 37 ef 9e bc 9d 2a 0e bc 36 09 c1 3d 7f e3 61 3d
       -0.019401176 -0.008677152 0.09425585 0.055148598
0001a0 7b 17 21 3d b2 b2 0d 3d 0b bc 80 bd 8b 96 85 3d
       0.039329033 0.034594245 -0.06285866 0.065228544
0001b0 16 7c 09 3e 56 cb aa bb 77 3e 28 3e d2 95 07 3e
       0.13426241 -0.005212228 0.16430078 0.13240746
0001c0 a4 f5 79 bd 73 98 d8 3d 67 b6 e4 3d 38 fc 2d bc
       -0.061025277 0.105759524 0.11167603 -0.010619216
0001d0 80 e6 8a 3d 48 a5 54 bc 96 ac 1e 3d 74 0c a1 3d
       0.06782246 -0.012978859 0.03873881 0.07863703
0001e0 8d 94 26 3e 89 55 1a bd 81 c8 97 3d d0 00 20 3e
       0.16267605 -0.03767923 0.0741129 0.1562531
0001f0 bf bf f3 3d e4 90 8d 3c 62 95 8e 3d ff b5 93 3d
       0.11901807 0.017281003 0.06962086 0.072124474
000200 16 4f f9 3d 34 ce ce 3d e3 c8 c6 bd 31 82 a7 bd
       0.121732876 0.10097924 -0.09706285 -0.08179129
000210 81 fe b7 3d fb 4f cf bd ac d1 ab bc da a0 80 bd
       0.0898409 -0.10122677 -0.020974003 -0.0628068
000220 3c 1b 9e bd 0a 7e a6 bc d2 b6 fd bd 70 0a 89 3d
       -0.07720038 -0.020323772 -0.12388386 0.06691444
000230 bc ab cb bd 06 42 21 3a ed 79 32 3d e0 fc 03 3e
       -0.09944865 0.0006151501 0.04357331 0.12889433
000240 53 60 a5 3d 3d 2b ba bc be a7 c5 bd 67 9f 52 bd
       0.08075013 -0.022725696 -0.09651135 -0.05142155
000250 23 9a 4f 3c 37 8e 16 3c ae 84 c0 3c 13 aa 93 bc
       0.012671026 0.00918918 0.023500767 -0.018025434
000260 ad 22 70 3d 4d e3 af 3c a9 7b 1e 3d cb df 3a 3e
       0.05862682 0.02147069 0.03869215 0.18249433
000270 2a ea e0 bd 86 77 95 3d ec 25 08 3e b7 8e d0 bd
       -0.10982163 0.07298188 0.13295716 -0.10183471
000280 36 c0 16 3e a9 f8 4c 3e c1 47 9b bd 62 db 95 3d
       0.1472176 0.20016731 -0.07582045 0.073172346
000290 5c 66 32 3d d8 c6 82 bc 68 94 f9 3d fd 05 37 3e
       0.04355465 -0.015963957 0.12186509 0.17873378
0002a0 00 f5 aa 3d 94 7f 75 3c 46 e2 d3 bd 27 4e 3c be
       0.08347511 0.01498403 -0.103458926 -0.18389188
0002b0 fb 74 cf bd 9d 36 8c bd e8 2d d0 3d 96 ea db 3c
       -0.10129734 -0.06846354 0.10165006 0.026845258
0002c0 fa b6 a7 bd 3f 4e a6 3d 66 b0 a1 bb c5 d1 63 3c
       -0.08189197 0.08120393 -0.0049343584 0.013904993
0002d0 ba 59 b8 bd a5 e3 d4 3d 37 96 80 bd 1a ed 9f 3b
       -0.09001489 0.10394982 -0.06278651 0.0048805596
0002e0 5e 39 4e 3d 0c ca 50 3e 4d 64 6e bd 18 92 73 3d
       0.05034768 0.20389575 -0.058201123 0.059465498
0002f0 4f de 3d 3d 45 75 dd 3d 2d e4 63 3a 12 14 1b 3e
       0.046354588 0.10813383 0.00086933636 0.15144375
000300 55 9e 52 3d ba 86 07 3c 5c ab 72 3e 6f f3 1a 3d
       0.05142053 0.008271867 0.23698181 0.037829813
000310 9b 71 ed 3d 93 0a 0b 3e 20 cf 5a 3e 34 92 74 3e
       0.11593934 0.13578252 0.21368074 0.23883897
000320 63 3e 87 3d 1c 34 3d 3e 3c 9e 72 3d 49 b3 63 3e
       0.06603696 0.1847691 0.059232935 0.2223636
000330 8b e1 0c 3e 99 3c a1 bc 58 13 52 3e 4c 6c b4 bd
       0.13757913 -0.019682216 0.20515192 -0.088097185
000340 f8 8c 2a 3e e0 ac ac 3d c9 27 1d bd 9f c8 e5 bd
       0.16655338 0.08431411 -0.03836802 -0.11219906
000350 52 57 a4 3d 32 ad 02 bd 4a 7c 16 3d 01 8f 17 3c
       0.080244675 -0.031903453 0.036739625 0.009250403
000360 df 98 1f 3d 50 a9 72 be 42 64 6a bd 5d 99 5a 3e
       0.03896415 -0.236974 -0.05722452 0.21347566
000370 5c 29 27 3d 7f a0 4a 3e d0 3b 52 3d ef 15 e3 3d
       0.040810928 0.19787787 0.051326573 0.11088168
000380 59 99 a9 3d 04 03 41 3e c7 0c 3e 3d 94 1a d4 bc
       0.08281202 0.18848807 0.046398904 -0.02589158
000390 3e 97 52 3e 09 32 af 3d b4 38 84 bd 94 10 d4 bd
       0.20565507 0.08554465 -0.06456128 -0.103547245
0003a0 0e 9a 72 bd 0c a6 12 bd 58 02 2b 3e 51 f6 c3 bd
       -0.05922895 -0.035802886 0.16700113 -0.095684655
0003b0 3b ee 32 3d 00 a6 14 3e 62 a3 96 3d b5 ae 42 3c
       0.043684226 0.14516449 0.073553815 0.011882474
0003c0 e8 fe e9 3b a5 48 13 be 0d a4 87 bd fe b3 2f 3e
       0.007140983 -0.1438318 -0.06623087 0.17158505
0003d0 ee b3 e5 3d e5 6f 06 3e 2a eb bd bd 92 91 20 3d
       0.112159595 0.13128622 -0.092733696 0.039201327
0003e0 2d de 59 3d d4 37 63 3c 2c 5c 3e 3d 8d a7 89 bd
       0.0531904 0.013868291 0.04647462 -0.06721411
0003f0 8c e8 8a 3c 88 08 b2 bd 6f b5 30 bd 1e 9d 2c 3e
       0.01695659 -0.086930335 -0.04314178 0.1685681

model.rnn.weight_hh_l0 f4 [160, 40]
000000 fc 4c 0b 3e d7 25 47 3d 0c d4 04 be 3f 01 49 bd
       0.13603586 0.04862007 -0.12971514 -0.049073454
000010 48 8a 0a be 78 1c 30 3e 17 a7 f9 bd 03 4e e8 bd
       -0.13529313 0.1719836 -0.12190073 -0.113430046
000020 40 af 8c bc 34 79 77 bd 1b cc 0d bd a2 0b b6 bd
       -0.01717341 -0.060418323 -0.03461848 -0.088889375
000030 1e f8 94 3d 49 67 49 3d 07 8b 0e 3e dc 3f be 3c
       0.07273887 0.049170766 0.13920222 0.02322381
000040 40 f9 d9 bd cd 07 38 bd 48 b0 d0 3d db 00 9a 3d
       -0.10643244 -0.044929314 0.10189873 0.075196944
000050 3f 01 52 3d 8b a7 82 bc a5 cb 3f bd 3a e4 8d bd
       0.05127072 -0.015949031 -0.04682507 -0.069282964
000060 ce 32 be 3d 1c 92 15 3e c8 a5 54 3d 79 fa 39 3d
       0.09287034 0.14606518 0.051915914 0.045404885
000070 5e 14 08 3e e2 82 97 bd 4c c9 cf 3d 11 97 97 3d
       0.1328902 -0.07398011 0.10145816 0.074018605
000080 35 f0 4f 3d 6f 05 37 3e 36 21 9a bd f3 ff 03 3e
       0.05076619 0.17873167 -0.07525866 0.12890606
000090 8d ab 86 bd bd 7c 07 3e af 0d 18 be 81 67 aa bd
       -0.065756895 0.13231178 -0.1484897 -0.08320523
0000a0 c1 94 d5 bd ae 47 ee 3d 01 8a b1 bd 77 2b b3 bc
       -0.10428763 0.116347656 -0.086689 -0.021871312
0000b0 00 d7 41 be ef 92 46 bd e3 6a 8c 3d f3 a2 a8 3d
       -0.18929672 -0.04847997 0.068563245 0.08234205
0000c0 2b 87 7a 3c 19 6a f2 3c d0 5c 17 3e 9d cb d4 3d
       0.015291016 0.029591607 0.14781499 0.10390399
0000d0 44 12 d0 3d 78 83 f8 bc a1 49 26 3d 71 37 9b 3d
       0.10159734 -0.030336127 0.04059756 0.07578934
0000e0 10 2f ad bc 80 21 61 3d 47 5a ae 3d 5d 5c 33 be
       -0.021140605 0.05496359 0.08513313 -0.17515703
0000f0 73 d0 f9 3d 05 e3 ef 3c b0 02 6f bd a1 94 e9 bc
       0.12197962 0.029283056 -0.058352172 -0.028513255
000100 5b f8 01 be b0 1e f5 3d 7a 5a 93 bc 40 4f 36 be
       -0.12692396 0.11968744 -0.017987479 -0.17803669
000110 77 40 3e 3e 0a 99 24 3d 2d 65 03 be 45 2e 1a 3e
       0.18579279 0.040185012 -0.12831564 0.15056713
000120 05 b0 06 bd fd 9f 75 bd f5 13 44 bd fe b6 77 3d
       -0.03288271 -0.05996703 -0.047870595 0.06047725
000130 7a 4e 31 be de 97 3e bd b2 86 db bd ef 6d 87 3c
       -0.17315093 -0.04653155 -0.107190505 0.016531913
000140 77 95 f9 bd 7f 23 e7 bd 0e 77 10 3e ab 1c 3e 3e
       -0.12186711 -0.11286067 0.14107916 0.18565623
000150 5e d4 83 bc 9a da b6 3d b3 34 db 3d 3d 29 0e be
       -0.016092476 0.08928414 0.10703411 -0.13882919
000160 a6 01 a5 bd 44 01 2f bc 7e dd 12 be ed 0b e7 bd
       -0.08056955 -0.010681454 -0.14342305 -0.112815715
000170 91 ad fc bd de 0e d5 bd 40 26 75 bc 51 e4 e4 3d
       -0.12337793 -0.10403226 -0.014962733 0.111763604
000180 19 ab 13 be e3 8c b6 3d 9e 41 54 bd 74 75 9b bd
       -0.14420737 0.08913591 -0.05182039 -0.07590762
000190 f3 0a f0 bc 3b a8 48 be 9e 70 3d bd ef 35 2a 3e
       -0.029302096 -0.19595425 -0.04624998 0.16622137
0001a0 d9 83 09 3e 79 0a 54 bd e7 35 59 3d f2 38 34 be
       0.13429202 -0.0517678 0.05302992 -0.17599848
0001b0 5c 43 b5 3d 26 e7 e6 bd 23 5a 24 3e 72 ef ec bc
       0.088507384 -0.11274557 0.1605001 -0.02892277
0001c0 b6 bd f0 bc 38 2d 78 3c 61 ef 33 3e 6b eb 48 3d
       -0.029387336 0.0151475 0.17571785 0.049052637
0001d0 d8 81 19 be 0e 34 d3 bd ae 38 e5 3d 55 0a 2d 3e
       -0.14990938 -0.10312663 0.111924514 0.16898473
0001e0 60 99 ba 3d 47 ca 0e 3e 7b c0 35 3d 60 34 83 3d
       0.09111285 0.1394435 0.044373017 0.06406474
0001f0 d5 57 f5 bd 7f 41 06 3d 6e b9 57 3e 39 6e 37 bd
       -0.11979643 0.032777306 0.2106683 -0.04478285
000200 6f ea 9c 3d 22 fc a8 bd a7 59 fa 3d 3d 62 c5 3d
       0.07661902 -0.082512155 0.12224131 0.09637878
000210 0a be c1 3c ef 76 9e bd 16 5f af bd e7 93 e4 3d
       0.023650188 -0.077375285 -0.08563058 0.11161023
000220 4a 96 1d 3e aa 15 02 be c9 a6 27 be e2 fb a3 3d
       0.15389362 -0.12703577 -0.16372217 0.08007027
000230 10 32 57 3d 3f 01 72 3b 15 d1 1d 3e c2 35 10 3d
       0.052537978 0.0036927012 0.1541179 0.035207517
000240 8c b2 06 3e ea 79 1e 3e 7f b0 a4 bd 86 4e 05 3d
       0.13154048 0.15476194 -0.080414765 0.03254559
000250 fd f9 91 3d d4 01 e1 3d e8 17 f0 3d 5e f3 44 be
       0.071277596 0.10986677 0.1172331 -0.19233462
000260 c8 f2 27 bd 8c 91 01 be 63 8f 58 3d 7f 27 0d bd
       -0.04100302 -0.12653178 0.05287112 -0.034461495
000270 8d d8 d3 bc 6b b2 68 bd cd 66 37 bd d8 2b 30 3e
       -0.025860095 -0.056810778 -0.044775773 0.17204225
000280 93 90 3c bd 0b 56 99 3d bb 02 3a be 9c e9 d4 bd
       -0.046036314 0.074871145 -0.18165104 -0.1039612
000290 7c 6c a0 bd bb 37 8a bd f5 f4 17 be 4d b7 98 bc
       -0.07833192 -0.06748911 -0.14839537 -0.018642092
0002a0 49 86 a7 bc 80 6c 55 3c 1a 86 8f bd 24 b7 dd bd
       -0.020449774 0.013026357 -0.07008 -0.10825947
0002b0 7f df 03 bd d6 26 c3 3d a2 51 9b bd 99 78 86 3d
       -0.032195564 0.09528892 -0.075839296 0.06565971
0002c0 42 e2 8c 3d cd 71 52 3d 04 2f ab bd db 31 10 3e
       0.06879093 0.05137806 -0.08358577 0.14081518
0002d0 11 46 24 be fe c6 ac 3d 56 e0 04 be 47 94 eb bd
       -0.16042353 0.08436392 -0.12976202 -0.11502891
0002e0 d7 1e 0d be b1 24 12 be f0 eb 1b be 16 07 ce 3d
       -0.13781296 -0.14271809 -0.15226722 0.10059945
0002f0 eb 90 e6 bd 12 62 0b bd 07 af 03 bd da 91 e1 bd
       -0.1125811 -0.034029074 -0.03214934 -0.11014147
000300 ed 47 21 3d 0c 57 71 bd 7e 8a 4e 3e 34 9c 6e 3d
       0.039375234 -0.058920905 0.20170018 0.058254436
000310 b0 52 31 be f8 a3 c1 bd 3b 67 4b 3d cb 86 1e 3d
       -0.17316699 -0.09455103 0.049658995 0.038702767
000320 94 1b bb bd 42 d3 52 bd d8 cf bd 3c b1 b6 17 bc
       -0.091361195 -0.051471002 0.023170397 -0.009259866
000330 84 50 e3 bd 3f ce e7 3d f7 1b f9 bd df d0 23 bd
       -0.110993415 0.11318635 -0.12163537 -0.039994117
000340 26 58 02 be ee 83 c7 bd 94 53 21 3e bb 26 28 3e
       -0.12728938 -0.097419605 0.15754539 0.16421025
000350 ad 11 29 3c 05 8a a0 3d 74 6a 0c be 81 16 06 3e
       0.010319156 0.07838825 -0.13712484 0.13094522
000360 fd bc c3 3d d0 e4 0e be 04 5c bc bd 25 43 b1 bd
       0.09557531 -0.13954473 -0.09197238 -0.08655385
000370 ac c0 24 bd 34 25 a7 bd 39 3f f4 3a 38 fa 6f 3d
       -0.04022281 -0.08161393 0.0018634564 0.058588237
000380 29 cd b7 bd 38 85 f4 bd 83 55 05 3e e1 12 06 3e
       -0.08974678 -0.11939472 0.13020901 0.13093139
000390 bc d4 f1 bd e0 e5 9e 3c 6f 39 09 be ef eb 12 3d
       -0.11808154 0.019396722 -0.13400815 0.035869535
0003a0 4c 4b 27 3e 94 a6 c4 bd e7 6e 14 3e ba fd c0 3d
       0.16337317 -0.09602085 0.14495431 0.094233945
0003b0 41 a3 e5 bc 43 8b 01 be ae 99 c9 bc 4b 71 3a 3c
       -0.028031947 -0.1265078 -0.024609413 0.01137955
0003c0 d5 fe c6 3d 75 a3 8c 3d f0 02 04 3e 4d db 1a 3e
       0.09716574 0.068671145 0.12891746 0.15122719
0003d0 6e 00 89 bd fc 8d a0 bd 86 8d 81 3d ea 00 53 3c
       -0.06689535 -0.07839581 0.063258216 0.012878636
0003e0 e7 e4 de 3d 83 b6 15 3e 06 c6 d4 bd 85 a0 5c 3e
       0.108835034 0.14620404 -0.103893325 0.21545608
0003f0 4b fb 37 3e f4 2c 37 be b9 77 19 be a3 45 82 3d
       0.17966954 -0.17888242 -0.14987077 0.063609384

model.rnn.bias_ih_l0 f4 [160]
000000 b6 c1 9d 3d 46 d5 36 be d6 e0 49 bc 37 42 11 3e
       0.07702963 -0.17854795 -0.0123216715 0.14185415
000010 23 f5 a8 3c ea 30 52 3d 84 8c 4f 3e 86 df 51 bd
       0.020624703 0.05131618 0.20268446 -0.05123856
000020 eb c5 95 3c 30 c1 0e 3e 69 06 74 bc 52 a2 db bd
       0.018282851 0.13940883 -0.014894106 -0.107243195
000030 10 36 36 bd dc 06 40 bd d3 0c a6 bd 71 6a 6e bb
       -0.04448515 -0.04688154 -0.08107915 -0.0036379362
000040 5d 1b a1 bd 72 78 bb bc 4b 2e 69 bd 3d b6 55 3d
       -0.07866547 -0.022884581 -0.056928914 0.05217575
000050 d9 a2 6f bd 06 b9 6e 3d c6 b0 e6 3d 3f f3 aa bd
       -0.058504913 0.05828192 0.112641856 -0.08347177
000060 cc 6d 12 3d 97 a5 8f 3d be df 0b 3d 2d 83 0f be
       0.03574924 0.07014006 0.034148924 -0.14014883
000070 09 51 57 3d de 3a 22 3e 3e 9d ac 3d b7 80 4d 3e
       0.052567516 0.15842769 0.08428429 0.20068632
000080 c9 50 5f 3d 73 6b 1f be ce 61 da 3d 38 2e 14 3e
       0.054520402 -0.15568332 0.10663186 0.14470756
000090 1f 3f c1 bd 86 da 65 bd a5 53 5c 3e 50 ba 41 bd
       -0.094358675 -0.056116603 0.21516283 -0.047296822
0000a0 ba 6b 1b be 8b c5 56 bd 10 6a cc bd 4d 5c b6 3d
       -0.15177813 -0.052434485 -0.09981167 0.08904324
0000b0 8b 94 c5 3d 95 8c 0c 3e 21 89 d6 3d d3 bf 7a 3c
       0.09647473 0.13725503 0.10475374 0.0153045235
0000c0 74 ba da bd a1 c1 a5 bd 1e 57 84 3d 12 47 e7 3d
       -0.10680094 -0.080935724 0.06461929 0.112928525
0000d0 63 d1 c5 3d 1f f6 17 3e 67 1a 24 bd 3c 2d 4e 3c
       0.09659078 0.14839981 -0.04006424 0.012584027
0000e0 09 16 97 bd 47 35 01 be 9f 1a 89 bd 68 70 97 3c
       -0.0737725 -0.1261798 -0.06694531 0.018486217
0000f0 26 9a 38 3e 50 ec e6 bd a0 c7 d9 bc ef 22 fa 3d
       0.18027553 -0.11275542 -0.026584446 0.12213694
000100 4d 0b ea 3d f4 d1 e8 bc c1 cb ba bd 32 7a a4 3d
       0.11427937 -0.028420426 -0.09120894 0.080311194
000110 dd cf e5 3d 09 17 c6 3d 21 e9 f7 3c 48 b9 d1 bc
       0.112212874 0.09672362 0.030262532 -0.025601044
000120 f6 8d fb ba d0 62 ae 3d 3c 6e 2d bd 09 e7 42 3d
       -0.0019192088 0.08514941 -0.042341456 0.047583614
000130 22 ca 1a 3e 20 83 eb 3c d3 e5 0e bd 5a f1 a3 bd
       0.1511617 0.028749049 -0.034887146 -0.080050185
000140 8b b7 ac 3d 37 7d f9 3d e4 4c 6f bd 40 82 65 3c
       0.084334455 0.12182086 -0.058422938 0.014008105
000150 e4 0b 20 3e 19 3b c4 3b 16 b1 60 3e 31 d6 0e be
       0.15629536 0.0059884903 0.21942553 -0.13948895
000160 29 f5 2c 3d ab 30 c0 3d 00 3d 76 bd b3 0a 8b bd
       0.04222599 0.09384283 -0.060116768 -0.0678915
000170 ec 20 33 3e 18 7e 99 3b 74 30 b7 bd 30 d1 64 bc
       0.17493027 0.004684221 -0.089447886 -0.01396589
000180 dd d3 3b 3d 9d b0 a1 bd 3b b5 09 bd cf 55 a4 bc
       0.045856345 -0.078950144 -0.0336201 -0.020060448
000190 66 a3 19 3e ed 21 48 bd d7 ae 11 3e b3 fb 02 3d
       0.15003738 -0.04886048 0.14226852 0.03197832
0001a0 f8 6a 05 3c 3d 3c 2e 3e 79 88 fb ba 5a 22 fb 3c
       0.008143179 0.17015167 -0.0019190452 0.030656029
0001b0 04 63 e4 bb f6 63 f0 ba f2 9d 20 3e 13 f7 76 bc
       -0.0069698114 -0.0018340338 0.15685251 -0.0150735555
0001c0 35 59 33 3d eb 26 42 3d 49 26 12 bc 22 76 fe bd
       0.043786246 0.047400396 -0.008920261 -0.12424876
0001d0 6c 0f 12 3e f2 94 97 bb b4 35 0a 3e 65 03 41 3e
       0.14263695 -0.00462591 0.13497049 0.18848951
0001e0 16 3f 6e 3d 6c 6f 90 3d ec 64 1d 3c d8 97 29 3e
       0.058165632 0.07052502 0.009606581 0.1656183
0001f0 24 9b 1c bd 2e 8c 89 3d b1 69 0c bd 6d b6 d2 3d
       -0.03823389 0.0671619 -0.034280483 0.10288701
000200 8c 4c 24 bd 92 df 31 3e 4f 95 81 bc 57 e4 44 3d
       -0.040112063 0.17370442 -0.015818266 0.048069324
000210 9a 51 09 3e fd dd d1 3d 0f 14 fc bd e3 80 e2 ba
       0.13410035 0.10247419 -0.123085134 -0.0017280843
000220 62 d8 08 3e d0 0c 17 3e ab d9 83 bd d2 0d ec bd
       0.13363793 0.14750981 -0.06438001 -0.115260735
000230 d0 16 40 3e 7c ed 51 3d 21 b8 a1 bd 6d 70 c8 bc
       0.18758702 0.051251873 -0.07896448 -0.024467671
000240 90 1e 5d 3d 0d 44 36 3d c8 a0 7a bd 7b fc ce 3c
       0.053984225 0.044498492 -0.06118849 0.025266876
000250 23 f1 45 bd ea 7a b8 bd f6 ed 14 3d 8a 32 2f 3e
       -0.04832567 -0.09007819 0.03635975 0.17109123
000260 83 8a f7 3d 13 f9 eb 3d 6b d8 d8 3d a5 ca dd 3c
       0.12086966 0.115221165 0.105881535 0.027074168
000270 85 91 fc 3d a6 9a 49 3d 13 dd 6e 3e 5c 84 a1 3d
       0.12332443 0.04921975 0.2332652 0.07886574

model.rnn.bias_hh_l0 f4 [160]
000000 9f df 45 3c 2a ff 24 bb fc fb 8b bd be 5c b6 bb
       0.012077241 -0.0025176504 -0.068351716 -0.005565255
000010 ef d4 76 bd df 80 d7 3d 8c bc 97 bd 91 40 f1 3d
       -0.060261663 0.10522627 -0.07409009 0.11779893
000020 04 23 65 3d 59 98 ed bd 1a c4 30 bd 65 fa 89 bd
       0.055941597 -0.11601324 -0.043155767 -0.06737212
000030 d4 37 39 3e f0 85 02 3e a6 47 86 bd 4a c0 77 bc
       0.18087703 0.12746406 -0.065566346 -0.015121529
000040 b5 d3 d2 bd ef 60 09 bd e3 bc f1 bd 9c 4d 39 3d
       -0.10294286 -0.03353971 -0.118036054 0.04524003
000050 6f 62 f5 3d 0b 92 00 be 0c 17 9a bc cb 71 cc 3d
       0.11981665 -0.12555711 -0.018809818 0.09982642
000060 20 6d 99 bd c7 cc 17 3d f2 1a 0a bd 1c 7e bd bd
       -0.07491517 0.037060525 -0.033717103 -0.09252569
000070 42 77 04 be 11 84 92 bd bd bb 92 3d ff a5 2f 3e
       -0.12936118 -0.07154096 0.071647145 0.17153166
000080 92 c8 af bd 68 38 8f bd d6 b0 b8 bb 52 2c 6c 3d
       -0.085831776 -0.069931805 -0.005636315 0.057659455
000090 df 60 30 3d c6 ee 26 3e 9e be 84 3e fd f9 d6 bc
       0.043061133 0.16302022 0.2592668 -0.02624225
0000a0 6e 27 f0 bd ed 1f 17 3d 46 8a 0f be a3 f2 a6 bc
       -0.117262706 0.03689568 -0.14017591 -0.02037937
0000b0 4f a4 ca 3d 0c 7d 58 3d bd 84 33 3e 70 d1 49 3e
       0.098946206 0.05285363 0.17531104 0.197088
0000c0 d4 b6 37 bd 9c 05 83 3b 29 0c c7 bc d5 af 01 3d
       -0.044852093 0.0039984714 -0.02429779 0.031661827
0000d0 77 5b 20 bd aa 93 8f bb 79 12 de 3d 46 d7 5c bd
       -0.039149728 -0.0043816166 0.10843367 -0.05391624
0000e0 83 1d 74 bc 9f 78 4c bd 68 15 98 bd 5e 27 c8 bd
       -0.014899614 -0.04991972 -0.07425958 -0.09773134
0000f0 65 37 0d 3e 82 af 54 bd 05 cd 5b bd b5 0c ec 3d
       0.13790663 -0.05192519 -0.05366232 0.11525861
000100 52 0c 29 be c6 87 4f 3d 14 48 13 3e 58 f8 0e 3e
       -0.16508606 0.050666593 0.14382964 0.13961923
000110 89 9f 8b bc c2 23 f2 bb ae 7f 00 be a4 06 4a 3e
       -0.017043846 -0.0073895166 -0.12548706 0.19729096
000120 37 d1 e4 bd a1 96 b3 bd 31 3d a6 3d 19 88 f9 3d
       -0.11172717 -0.087689646 0.0811714 0.12184162
000130 7f b2 55 3d 0a 41 ec bd ce 5d 6f bd 90 5a 47 bd
       0.05217218 -0.11535843 -0.05843907 -0.04867035
000140 7d 0f f6 bc 53 70 01 be 42 fa b7 bd 65 6d c8 bd
       -0.030036682 -0.12640505 -0.0898328 -0.0978649
000150 ad 2d 15 3e 17 fe 0f 3d 01 07 6e 3d 7f e3 91 bd
       0.14568205 0.03515443 0.05811215 -0.071234696
000160 b0 a7 59 bd 36 f2 bc 3d aa b4 54 be 1e 64 1f 3e
       -0.053138435 0.092258856 -0.20772043 0.15565535
000170 3a 96 95 3d 5b c4 0e be 78 15 31 be 02 07 23 be
       0.07304044 -0.13942091 -0.17293346 -0.15920642
000180 07 01 3d 3d cf 52 20 bd cd a0 dc 3d 4a 23 da 3d
       0.046143558 -0.039141472 0.10772858 0.10651262
000190 e8 e4 3e 3e 2a f7 5f 3d 59 c5 e9 3d 0a 7c 31 3e
       0.18642008 0.054679073 0.11414594 0.17332473
0001a0 76 02 d2 bd fb 04 1a 3e 23 6d 8d 3d 36 87 1c 3e
       -0.10254376 0.15040962 0.06905582 0.15285954
0001b0 30 31 06 3b 44 5a 52 be 7d f7 3e 3e b3 3d d2 bc
       0.0020476095 -0.20542246 0.18649097 -0.025664186
0001c0 27 23 b5 bd 13 6f dd 3d 65 31 46 3c b0 67 36 be
       -0.088445954 0.10812201 0.0120967375 -0.17812991
0001d0 2f 0e bc bd 02 b6 97 3c 59 8a 4c 3e 90 2d 34 3c
       -0.09182393 0.018519405 0.1997465 0.010997191
0001e0 29 91 58 bd 71 ce 0f 3d 72 72 2a 3e 47 19 08 3e
       -0.05287281 0.035108987 0.1664522 0.13290893
0001f0 f3 15 6a bd a3 2a 13 3e e2 ef 0e 3e e5 2b 1e 3e
       -0.05714984 0.14371733 0.13958696 0.15446432
000200 70 9f 4e 3d a1 fe 17 3e d0 19 57 3e 0c 1d dc 3c
       0.05044502 0.14843227 0.2100594 0.02686932
000210 70 67 ee bd 97 22 c0 3d 65 65 2f bd 88 53 aa 3c
       -0.11640823 0.093815975 -0.042821307 0.020791784
000220 f4 78 40 3e 79 47 80 bd fd 9e 94 3c 8e 5c dd bd
       0.1879614 -0.06263632 0.018142218 -0.10808669
000230 2e 56 8e bd e2 6e 08 3e 38 35 97 bc 19 ae 14 bd
       -0.06950031 0.13323548 -0.018457994 -0.036298845
000240 db 4e ab bd 1f 35 9d bd e5 1b 06 be 5b a5 71 bc
       -0.0836465 -0.07676148 -0.13096578 -0.0147488965
000250 20 d3 a3 3d 5f 83 f7 3d 26 1e c6 3d ed eb 62 3d
       0.07999253 0.12085604 0.09673719 0.055400778
000260 cc 6f 02 3e 04 f9 60 bd 03 ce da 3d 03 37 26 3e
       0.1273796 -0.05492498 0.10683825 0.16231923
000270 69 95 4c b8 d2 4a 80 3d f1 15 6a 3e f9 e9 fb bd
       -4.877654e-05 0.06264271 0.22859932 -0.12300486

model.rnn.weight_ih_l1 f4 [160, 40]
000000 e4 b7 88 3d b9 1d f7 bd 89 3b 3a be c4 07 0a 3d
       0.06675699 -0.12066216 -0.18186773 0.033698812
000010 20 03 63 3d 6f 8c 67 bd 9a c7 e8 bd 3a 04 ed 3d
       0.055422902 -0.056530412 -0.11366196 0.11573072
000020 51 e8 d3 bb 72 06 32 be 11 0a df bc fb 14 c1 bd
       -0.0064669033 -0.17385271 -0.02722648 -0.0942783
000030 d0 59 23 bd 5e 63 af bc c8 57 80 3c db ad 08 3e
       -0.039880574 -0.021409687 0.015666857 0.1334757
000040 60 91 01 be b7 77 d7 3d ab 1b d2 bd a9 38 41 be
       -0.12653112 0.10520881 -0.102591835 -0.1886927
000050 13 43 d2 bd be e9 cb bc a8 ab 19 3d 99 38 30 be
       -0.102667 -0.02489173 0.03751722 -0.1720909
000060 34 05 d9 bd 86 d6 1c be 82 f4 14 be f5 83 84 bd
       -0.105966955 -0.15316209 -0.14546397 -0.06470481
000070 24 3c 14 bd 70 5d dd bd a8 93 eb 3d 42 ee ba 3d
       -0.036190167 -0.108088374 0.115027726 0.09127475
000080 d2 cf 60 3b db 1c 2d bd a8 47 a3 3c 89 d5 2f 3e
       0.0034303558 -0.042263847 0.01993163 0.17171301
000090 b0 04 92 bd 13 f3 25 3c bc a2 64 3d 06 45 ef 3d
       -0.071298 0.010128754 0.055819258 0.11683087
0000a0 d9 b2 cf bd 6e b4 03 be 33 2c c2 3c 89 74 ee bd
       -0.10141534 -0.12861797 0.023702716 -0.11643321
0000b0 f9 b7 eb bd 87 86 aa 3c 9a 52 f8 3d 9b 43 f2 bd
       -0.115096994 0.0208161 0.1212513 -0.11829301
0000c0 39 e9 44 bd 03 33 36 be 02 ac 95 bd 47 8d c8 3d
       -0.04807398 -0.17792897 -0.073081985 0.097925715
0000d0 51 4f 0d be d3 64 c5 bd 2d a8 09 3d 19 df 89 3c
       -0.13799788 -0.09638371 0.03360765 0.016830014
0000e0 20 5d 31 be a4 b2 e6 bd 72 92 76 3d bd 31 2c bc
       -0.1732068 -0.11264542 0.060198255 -0.010509905
0000f0 54 b4 3f 3d 20 40 d0 3d d2 7b a8 3d 8b 19 ad 3a
       0.046802834 0.10168481 0.08226742 0.0013206465
000100 7a 1c c2 3d 9a c2 75 bd 2f 34 01 be d0 7e ae bd
       0.09478088 -0.06000004 -0.12617563 -0.08520281
000110 38 d9 24 3e af 65 02 3e 3e 76 e1 3c 5a 56 e0 bb
       0.16098487 0.12734102 0.027522203 -0.0068462314
000120 77 ec f7 bd a1 4c a7 3d 67 86 1a 3e f5 a8 5f bd
       -0.12105649 0.08168913 0.15090333 -0.05460449
000130 18 ef 1d 3c 5b ce 9c 3d 58 7f ae bd 0b a4 8e 3d
       0.009639524 0.07656547 -0.08520383 0.069648825
000140 d0 98 68 3d 7e 9d 45 3d 5e 53 a3 3d 4c 9f 25 3d
       0.05678636 0.0482459 0.079748854 0.04043512
000150 d0 ee b8 3d f7 80 97 3d 65 04 1a be 42 5a a3 3d
       0.09029925 0.07397645 -0.15040739 0.079762
000160 0e 9b 30 bd aa cd 2f be 01 1c eb bd 75 fa 11 3e
       -0.04311662 -0.17168298 -0.11479951 0.14255698
000170 d9 d3 e5 bd be 63 08 3e fe 34 d4 3d f2 d2 a0 bc
       -0.11222047 0.13319299 0.1036167 -0.019631837
000180 d2 0c e2 3b fb 87 bd bd 0c c8 f2 bc 84 f6 69 bd
       0.006898501 -0.09254452 -0.029636405 -0.05711986
000190 13 9b c2 bd da 99 15 3e 5d 16 0c be 6c 3d a3 3c
       -0.09502234 0.14609471 -0.13680406 0.01992675
0001a0 e3 b5 fc 3d d2 d7 4d bc b0 5e b9 39 1d b9 06 3e
       0.1233938 -0.012563663 0.00035356497 0.13156553
0001b0 c8 7b 01 bd dd 9b 07 bd 34 66 16 3d 6a 48 00 bd
       -0.031612188 -0.033107627 0.036718562 -0.03131906
0001c0 66 0f c1 bc ad 3f 1c be ba ec 21 3d b8 11 87 bd
       -0.023566913 -0.15258665 0.0395324 -0.065951765
0001d0 76 73 9b bd d0 ca 19 bd 72 08 20 bd c8 5a 38 bc
       -0.07590382 -0.037546933 -0.039070554 -0.011252113
0001e0 a7 1c 41 bd 59 bc 10 3e 03 1d ea 3d 71 0a d1 bd
       -0.047146466 0.14134349 0.11431315 -0.1020707
0001f0 fa 82 fa 3d 66 32 6b 3b 17 3f db 3b 8e 84 91 bc
       0.12232013 0.0035888194 0.0066908705 -0.017763402
000200 d2 d2 b8 bd 6a 2f aa 3d 42 18 b3 bd 28 32 6a bd
       -0.09024586 0.08309825 -0.08744861 -0.05717674
000210 90 c2 bb bd e9 d5 f2 bd 57 88 82 3d ff a6 12 bd
       -0.09167969 -0.118572064 0.06373661 -0.03580379
000220 c4 33 a6 3d 31 1e 30 3d e9 0a 6d be 19 49 83 3b
       0.08115342 0.042997543 -0.23148693 0.0040065167
000230 34 de ce 3d cb b8 ed bb 79 77 8c 3d 8e 9d 27 3d
       0.10100976 -0.007254695 0.06858725 0.04092174
000240 a6 ea 50 be 0c 0c 32 3e 7e 8e f1 3c b0 12 74 3d
       -0.20402011 0.17387408 0.02948689 0.059588134
000250 de 2f 94 3d a4 1f 83 bd 00 0d 3b 3d fb fb 13 be
       0.072356924 -0.06402519 0.045666695 -0.14451592
000260 cd 80 f3 3d b3 f9 74 3c da 80 52 3d 63 c9 57 3d
       0.11889801 0.014952111 0.051392414 0.05268229
000270 71 d0 59 3e ad bb b3 3d 74 ac 11 bd 52 11 00 3e
       0.2127092 0.08776031 -0.035564855 0.12506607
000280 68 cc 36 3e 6f 08 6a bd 80 50 dd 3d 35 19 77 3b
       0.17851412 -0.05713695 0.1080637 0.0037704234
000290 f1 a4 0e 3d 1a 46 90 bd 03 91 43 3e 80 8d 89 bd
       0.03482527 -0.07044621 0.19098286 -0.06716442
0002a0 19 0f 40 3d d3 2b 95 3d 8d 7e c2 bd d4 82 08 3e
       0.0468894 0.072837494 -0.09496794 0.13331157
0002b0 dc 0a c2 3c 08 f6 e1 ba 5d 8c e2 3d 0a 8f db bd
       0.023686819 -0.0017239461 0.110619284 -0.10720642
0002c0 5c 17 db bb 82 56 69 bd 2d 24 95 bd 87 4c 8f bd
       -0.0066861343 -0.056967266 -0.072822906 -0.06997018
0002d0 5e c1 05 bd 90 9b e4 3d 1a 07 3c 3e 82 0e 92 3b
       -0.032655112 0.11162484 0.18362084 0.004457296
0002e0 a5 a7 ed 3d 90 60 fe 3c 68 cf 0d 3d 4c 2b 4d bc
       0.11604241 0.031051904 0.034621626 -0.01252253
0002f0 4b ee ab bc ff 69 ae bd 49 e6 8c 3c 90 03 98 bd
       -0.02098765 -0.08516311 0.017199652 -0.074225545
000300 01 dd 2b 3e eb 72 05 3e d9 2c fb 3c 07 02 27 be
       0.16783525 0.13032119 0.030661033 -0.16309367
000310 b3 e9 06 3e 6f e8 5e 3e f3 82 d1 3c 64 a6 16 bd
       0.13175087 0.21768354 0.025575137 -0.036779776
000320 13 12 f0 3c 34 a4 8f 3d af ef 4c 3e d3 a6 be bd
       0.029305493 0.07013741 0.20013307 -0.09309163
000330 78 b7 00 3e bd 3f c7 bd 1f 94 f0 bb 67 67 bb bd
       0.12569988 -0.09728954 -0.007341876 -0.09150582
000340 98 52 56 3d c7 18 54 3d 79 a0 89 bd 26 ba 5c 3c
       0.05232486 0.051781442 -0.06720061 0.013472116
000350 9a c7 9a bd da 75 ff bd fa b6 31 be 98 de c8 3d
       -0.07557602 -0.1247365 -0.17354956 0.098080814
000360 69 40 b7 3d 03 b2 ee bc d6 31 99 bb fd 63 02 3d
       0.08947832 -0.029137617 -0.0046751304 0.031833638
000370 52 f0 a5 bd 80 31 c2 bd b7 b8 4b 3d fa ba 4b bd
       -0.08102478 -0.094820976 0.049736705 -0.04973886
000380 7f 6e ae 3c 5c 72 31 3c 40 6d a6 bd 8d f6 50 bd
       0.021292923 0.010830488 -0.081263065 -0.05101638
000390 8e 3a 16 be 79 21 59 be 21 0b 0a 3d b9 2a 5c 3d
       -0.14670774 -0.21204175 0.03370202 0.05375168
0003a0 a9 0f 40 3b 3e 2c 88 3a 07 79 a2 bb a0 f4 6c 3c
       0.002930621 0.0010389162 -0.0049582752 0.01446262
0003b0 e3 1d ea 3a 21 a4 56 3e 3e ae 29 3d 3d 21 95 3d
       0.001786169 0.20961048 0.041425936 0.0728173
0003c0 e7 ab 14 3d ec 76 ff bd 1c bd 08 bd c1 11 bd bc
       0.03629675 -0.124738544 -0.033383474 -0.023079755
0003d0 27 6f fd 3c ba 8e 80 3d 8b 6b 07 3e 9e 36 87 bd
       0.03093679 0.06277223 0.13224618 -0.06602214
0003e0 3b 57 d3 3d 6c 27 a4 bd e1 12 cb 3d 3d e9 15 be
       0.10319372 -0.080153316 0.0991571 -0.14639755
0003f0 57 af 02 3e 86 ef d7 3c dc df 56 bd c6 b4 c1 3d
       0.127622 0.02635933 -0.052459583 0.09458308

model.rnn.weight_hh_l1 f4 [160, 40]
000000 08 e5 07 be 79 83 1e 3e 4b 0e 9b bc dd fe 0b 3e
       -0.13270962 0.1547984 -0.018927714 0.13671441
000010 12 5b ca bd 5f b6 d6 bc 24 68 3d 3d 87 bc 18 bc
       -0.098806515 -0.026210008 0.046241894 -0.009322292
000020 8e 88 e4 bc aa 4e b6 3d b2 ab ac 3c df 08 f9 bd
       -0.027897146 0.08901723 0.021077964 -0.12159895
000030 8f 88 cc bd 51 59 15 3e 50 73 0a bc 11 26 31 3e
       -0.09986984 0.14584853 -0.008450344 0.17299677
000040 ed 4f da 3d 14 e9 e4 bc 61 5b a7 3c 9b f1 0a be
       0.10659776 -0.027943172 0.020429315 -0.13568728
000050 d8 4c d8 bd 64 04 b2 bd 2e 74 02 be 7f fd d4 bd
       -0.10561532 -0.08692244 -0.12739632 -0.10399913
000060 14 44 f4 bc fa 7d c5 bd fc 3f 82 bd 89 2f e3 3c
       -0.029817618 -0.09643169 -0.0635986 0.027732627
000070 f9 d3 ed 3d b8 8d a2 bc e1 64 b2 bd 73 7f 0c be
       0.11612696 -0.019842967 -0.087106474 -0.13720493
000080 85 32 d6 bd 3c 88 80 3d 05 31 21 be 2b 9e c8 bd
       -0.104588546 0.06275985 -0.15741356 -0.09795793
000090 57 02 d1 bd 16 67 8a bd 04 59 42 3e 4d b7 49 bc
       -0.102055244 -0.06757943 0.1897927 -0.012311769
0000a0 9e e3 2f be 6e 5a f0 bd eb 26 ae 3c f7 72 78 bd
       -0.17176673 -0.11735998 0.021258792 -0.060656514
0000b0 a0 5d ac bd 49 00 10 3e 1d 35 1b bd 55 f7 be 3c
       -0.08416295 0.14062609 -0.03789245 0.023311296
0000c0 e3 18 05 3e 4d 4f 3c bd 51 4d 0a 3e 46 4d 12 be
       0.12997775 -0.045974065 0.13506056 -0.1428729
0000d0 b9 69 ca bd 13 4a e2 bd 21 91 85 bd 52 68 a3 bd
       -0.09883446 -0.11049285 -0.06521822 -0.07978882
0000e0 4e 77 de bc 1c 67 c2 3c 79 56 ae 3b b8 73 81 bd
       -0.027156498 0.023730807 0.005320367 -0.063209
0000f0 c7 15 1d bd a9 bb d6 3d b5 00 30 bd e9 18 e7 bd
       -0.038350847 0.10485012 -0.042969424 -0.11284048
000100 60 b5 ca bc ad 01 9f bc e9 4a 40 3d 25 36 24 be
       -0.02474469 -0.019409979 0.04694644 -0.1603628
000110 86 6b e5 bc 42 c8 fc 3d c6 dc 48 be 2e 67 4b 3c
       -0.028005373 0.12342884 -0.19615468 0.012414737
000120 66 69 1f 3e e2 32 b9 3d e9 cf 17 bd b3 4a 60 bd
       0.1556755 0.09042908 -0.037063513 -0.05475874
000130 7f e9 f4 bd 5c 57 11 be e2 43 15 3e 49 7e 08 3e
       -0.11958598 -0.14193481 0.14576676 0.13329424
000140 7c 42 5c bd a4 40 eb 3d 87 89 ea 3c df 88 84 3d
       -0.053774342 0.114869386 0.028630031 0.064714186
000150 6a 2d 60 3d 72 d6 b1 bc f2 d8 6a bd ac 58 28 3e
       0.05473081 -0.0217087 -0.0573358 0.16440076
000160 ca 65 cf 3c d6 3a 17 be 9e 5b c1 3d 92 87 72 3d
       0.025317091 -0.14768538 0.09441303 0.05921132
000170 35 e6 1f 3e 69 65 0c 3e f9 56 bf bd 4b ec 91 bd
       0.15615161 0.1371056 -0.093427606 -0.071251474
000180 3f 91 c0 3d 2e 32 6c 3d 36 55 a2 bd eb 69 15 3d
       0.094027035 0.057665043 -0.07926409 0.036477964
000190 0a f6 83 3d 15 3c 15 be f8 b5 c3 bd d9 72 27 be
       0.064434126 -0.145737 -0.09556192 -0.16352405
0001a0 29 a4 c6 3d 59 cc fc bd 36 16 07 bb bc 82 cb bd
       0.0969928 -0.12343664 -0.0020612604 -0.09937045
0001b0 d6 b7 8e bd 93 aa 05 3e 83 c9 f8 bd 40 55 fc 3d
       -0.06968658 0.1305335 -0.1214781 0.12320948
0001c0 b4 b1 8b bd fd 77 03 be c0 ba 0f be df 2d 63 bd
       -0.068210036 -0.1283874 -0.14036083 -0.055463668
0001d0 18 67 24 3e 89 ae 9e bd e0 c9 f6 3d b2 c2 9c bc
       0.16054952 -0.07748134 0.12050223 -0.019135807
0001e0 eb 14 05 3e 0a 58 b6 bd 66 35 0a be f1 63 d8 bd
       0.12996261 -0.08903511 -0.13496932 -0.10565937
0001f0 5e 33 90 bd be 7a 08 be 15 78 ef bc f6 bc 09 3e
       -0.070410475 -0.13328072 -0.029232064 0.13450989
000200 b0 85 c8 3c 12 0d 66 bd e4 9f 1b 3d 52 7d cd bb
       0.02447781 -0.05616481 0.03799428 -0.006271043
000210 ea e2 e2 3d d1 2b d9 3d 7b 8d a6 3d ac a5 0a 3e
       0.11078437 0.106040604 0.08132454 0.13539761
000220 0a d8 0f 3d 15 e7 f2 3d eb 44 a7 bd 75 4e c7 bd
       0.03511814 0.11860482 -0.08167442 -0.09731761
000230 6c 07 7e 3d f6 bb 2b 3e 6f a0 eb bd a1 79 2d bd
       0.062018797 0.1677092 -0.1150521 -0.042352322
000240 17 10 a3 bd 56 bd c4 3d a8 ee b6 bd ab c5 29 be
       -0.07962053 0.096064255 -0.08932239 -0.1657931
000250 2d e6 2d bc 50 45 16 3e e9 f3 dc bd 0c ea 15 3e
       -0.01061396 0.14674878 -0.1078871 0.14640063
000260 73 2c 08 be da ce 23 be de fc c6 3d ba 76 3d bd
       -0.13298206 -0.15996876 0.09716199 -0.046255805
000270 0e 33 3e bc ae ce 01 3e be ef 7c bb 1a 9d 04 3e
       -0.011608852 0.12676498 -0.0038595046 0.12950554
000280 80 9c 05 be bf 5f bd 3c 83 79 1e be 28 57 27 be
       -0.13047981 0.023116944 -0.1547604 -0.16341841
000290 06 67 0a 3e d2 55 b4 3d 05 21 c8 3d d7 e0 4c 3c
       0.13515863 0.088054314 0.09771923 0.012504778
0002a0 db 4f 3c 3c 8f 9c 84 3c 34 1f b5 bc 92 cf 0c be
       0.011493648 0.016187934 -0.022109605 -0.13751057
0002b0 52 8a 02 3e 38 f4 e5 3d 42 b4 07 bd 67 ef 12 be
       0.12748078 0.11228222 -0.03313089 -0.14349137
0002c0 62 b7 fd 3d 15 5d 1f 3e 01 49 2f 3e 32 26 be bd
       0.12388493 0.15562852 0.17117693 -0.09284629
0002d0 29 14 cd 3c 3e a6 ed bd 9d 3f 43 3d 14 f7 5c bd
       0.025034027 -0.11603974 0.04766809 -0.05394657
0002e0 95 78 ef bd 07 8b cd 3d fb 10 01 be 9e 44 0d be
       -0.11692921 0.10036283 -0.12604134 -0.13795707
0002f0 76 18 5b 3c 80 07 f9 3d c4 7e e8 bd 77 68 d1 bd
       0.013372531 0.12159634 -0.113523036 -0.10225003
000300 5b 27 f8 bd 25 97 de 3c 7d f4 e0 3d 45 5e bd 3d
       -0.121168815 0.02717168 0.109841324 0.09246496
000310 cb ce 51 bc 7c 2b 38 3d 17 5b ba 3d 38 d1 10 be
       -0.012805651 0.044963345 0.09099405 -0.1414231
000320 5b 75 50 bd 74 5f a5 3d 62 9e f8 3d ba c1 11 be
       -0.05089317 0.08074847 0.12139584 -0.14234057
000330 9e 50 32 bd fa 04 0f be e4 94 38 3d 30 63 5e 3d
       -0.043533914 -0.13966742 0.04506387 0.05429381
000340 cf 9b 25 3d 36 a3 00 be 56 21 25 be 97 31 41 bc
       0.040431794 -0.1256226 -0.16125998 -0.011791608
000350 39 84 25 3d f9 08 99 bc d8 8c a6 3d 29 47 72 bc
       0.0404093 -0.018681036 0.081323326 -0.014787474
000360 70 d4 22 3e ea 16 02 be e2 cd 1c bd e1 c1 e1 3d
       0.15901351 -0.12704054 -0.038282283 0.110233076
000370 14 68 26 3d eb 96 4b bd a1 42 20 3e f7 06 dd bd
       0.0406266 -0.049704473 0.15650417 -0.10792344
000380 0a 0e 0f 3e 55 2d dc bc 2d 31 b2 bd 92 51 df bd
       0.13970199 -0.026877085 -0.08700786 -0.1090423
000390 a9 a8 7f 3d 31 c3 b9 3d bb 8d 91 bd 22 36 fd bd
       0.062416706 0.09070433 -0.07107111 -0.12363841
0003a0 3a e7 42 be 6d 54 cd bd b9 89 1f 3d 24 3b 61 3e
       -0.19033518 -0.100258686 0.038949702 0.21995217
0003b0 0b 52 11 3e 04 03 af bb 95 a1 91 bd 41 d6 74 bc
       0.14191453 -0.0053409357 -0.071108975 -0.01494366
0003c0 d3 82 1c be a9 9e 1d 3e e6 bc 07 be e1 6f f3 bc
       -0.1528428 0.15392555 -0.13255653 -0.029716434
0003d0 ed 51 ab 3d ad 78 c6 3d 4d ab e1 3d ca 9d 02 be
       0.083652355 0.09690986 0.11019001 -0.12755504
0003e0 e8 71 76 bc 25 3c 2e 3e f7 ed ae bc 1a 21 ca bd
       -0.015041806 0.17015131 -0.021353705 -0.09869595
0003f0 5e f7 84 3c ab c9 91 3d 74 de b9 3d b3 cd dd 3d
       0.016231235 0.07118543 0.09075633 0.1083025

model.rnn.bias_ih_l1 f4 [160]
000000 32 02 32 bd 3a 64 60 3c 86 f3 b7 3d 6b 9d 5b 3e
       -0.043459125 0.013695771 0.08981995 0.21446769
000010 95 08 4f 3e dd a8 a0 3d dd c1 15 3e f2 5a 0d bd
       0.20218118 0.07844708 0.14624734 -0.03451056
000020 f3 f2 4b 3e 46 50 0a 3e 8d 24 05 3e fb bf 5a bc
       0.19916897 0.13507184 0.13002224 -0.013351436
000030 c5 44 21 3e af b0 c6 bd a1 35 05 3e 6b 54 ec bc
       0.1574889 -0.097016685 0.13008739 -0.028848847
000040 75 1d 5a 3e f2 db 9d 3d 28 35 8e 3d b4 b6 3c bd
       0.213003 0.07707967 0.069437325 -0.046072677
000050 72 07 23 3e 5f 56 3f 3e 65 8a 00 3d 3b e0 21 3e
       0.15920809 0.18685292 0.031381983 0.15808193
000060 07 54 eb 3d 9e f0 91 3d e1 67 c0 3c 28 89 3d 3e
       0.11490636 0.07125972 0.023487033 0.18509352
000070 b7 e8 06 bd 0f d2 82 3d 42 b0 35 bd 2a 79 1e 3e
       -0.032936778 0.06387722 -0.044357546 0.15475908
000080 8a 86 0c bd 3d 98 30 3d 62 32 35 3a e0 c3 96 bc
       -0.034307994 0.043113936 0.00069121097 -0.018403947
000090 bb 83 29 be 64 ba 53 3e e5 23 84 bd 6e 5a a5 bb
       -0.16554157 0.20676571 -0.06452159 -0.0050461804
0000a0 ba 33 a2 3d 93 44 91 3c 57 ec 57 bb 95 bd fd 3d
       0.07920022 0.017732894 -0.0032947266 0.123896755
0000b0 ad b1 2b bd 19 5c aa bd c8 2d 0f be 0a aa 2c be
       -0.04191749 -0.083183475 -0.13982308 -0.1686174
0000c0 13 26 79 bd 65 b6 fd bc a7 e4 a7 bd b0 f5 f3 3d
       -0.060827326 -0.030970762 -0.08197909 0.119120955
0000d0 cd ab ad 3d 29 a7 cd 3c 95 9a df 3b ee 96 f1 3c
       0.08480034 0.025104122 0.0068238475 0.029490914
0000e0 e1 a8 cb 3c b6 73 de 3a 65 01 0c be 55 39 0c 3e
       0.024860801 0.001697174 -0.13672407 0.13693745
0000f0 89 9f 13 3e c1 45 41 3e 2d 1c e0 3d 0e 07 14 3d
       0.14416327 0.18874265 0.10942874 0.03613954
000100 65 2f 40 3e ed 8d 05 3d d0 92 32 3d 99 92 ea 3d
       0.1876808 0.032606054 0.043597043 0.114537425
000110 12 3f d9 bd 2d 2e 98 bd 2b ce 9f 3b 88 9b 52 bd
       -0.10607733 -0.07430682 0.004876872 -0.051417857
000120 34 26 dc 3d cd fd 27 3e 3b 48 e3 3d 05 d4 04 be
       0.10749474 0.16405411 0.11097761 -0.12971504
000130 d2 8f 8f bd 3d e9 47 3d e4 bb fb 3d a2 6f 08 3b
       -0.070098534 0.048806418 0.12291697 0.0020818491
000140 69 60 0b be b2 ab f6 3d 49 66 ca bd 6b c4 3b be
       -0.13610996 0.12044467 -0.098827906 -0.18336646
000150 47 4e 24 3d f0 5a 1b bd df 1c e2 3c a4 a8 f8 3d
       0.040113714 -0.03792852 0.027601657 0.12141541
000160 2c ff 1f 3d aa 2c 51 3d 9e d7 12 be 24 44 d5 3d
       0.03906171 0.051067986 -0.14340064 0.104133874
000170 95 45 bf bd 3e 8d f8 3c c7 c6 cb bd 7b ff 43 3e
       -0.093394436 0.030340787 -0.09950023 0.19140427
000180 53 0b 18 3d 01 fc c4 3d 45 b5 ee bd 68 57 c0 bc
       0.037120175 0.096183784 -0.11655668 -0.023479179
000190 30 c3 ab 3c ff 75 ad bd 88 8b 84 3d 8b f4 fc bd
       0.020967096 -0.084697716 0.06471926 -0.1235133
0001a0 df 93 07 3e 0e 19 01 bb 99 31 7b bd 55 73 09 be
       0.13240002 -0.0019698772 -0.061326597 -0.13422902
0001b0 66 7d 3b bd 9c c8 f3 3d a4 55 92 3d e4 3e 70 3c
       -0.045773886 0.119034976 0.07145241 0.014663432
0001c0 0b b5 56 3d 60 42 2f 3c 69 d5 1e 3d 86 fb bf bd
       0.05241875 0.010696977 0.038777743 -0.09374146
0001d0 04 8f e5 bd 68 09 0c 3e 1a f6 36 be fe 0f 22 3c
       -0.11208919 0.13675463 -0.17867318 0.009891508
0001e0 d7 65 e8 bd e1 2c 25 3e ed 65 e9 bd 59 7a 3f 3e
       -0.113475494 0.16130401 -0.11396394 0.18699016
0001f0 1f 14 f6 bc c4 ba 79 3d 18 22 0f be fb 1b 07 be
       -0.030038891 0.06096913 -0.1397785 -0.13194267
000200 28 52 74 3d e3 72 a0 bd fb 95 00 be ec 51 0d 3e
       0.059648663 -0.07834413 -0.12557213 0.13800782
000210 f8 b9 28 3e cc d5 77 bc 91 50 2f 3e 24 15 0b 3e
       0.16477191 -0.015126657 0.17120577 0.13582283
000220 71 2b b4 3d 85 3c 06 3e a6 38 21 be 54 5e 0f 3e
       0.08797348 0.13109024 -0.15744266 0.14000827
000230 d4 bc 7f 3d 47 22 4c 3c d5 31 41 bd b5 81 b5 bc
       0.06243594 0.012459344 -0.047166664 -0.022156576
000240 e5 8c 09 3e 4c be e8 3d 87 f8 1f bd 9e b1 00 be
       0.13432653 0.11364421 -0.039055374 -0.12567756
000250 75 fa 27 bd 60 85 89 3b d7 3e 8e 3c 24 11 fb bd
       -0.04101034 0.0041968077 0.017363949 -0.12259129
000260 31 90 da 3d 5d ec d0 3a 2d c9 8c bc ae 73 e9 bb
       0.106720336 0.0015939582 -0.017185772 -0.007124386
000270 c7 cf 94 3d 54 6d 30 3e 1d 0e 99 3d 0b 59 42 bd
       0.07266193 0.17229205 0.07473395 -0.0474482

model.rnn.bias_hh_l1 f4 [160]
000000 8c 3d 39 bc 92 d5 6f 3d b0 86 cd bb dc a7 2c bd
       -0.011306178 0.058553286 -0.0062721595 -0.04215227
000010 3a d6 8d bc 5a 46 24 3e 27 9b ce 3d 91 4c c6 3d
       -0.017314065 0.16042462 0.10088187 0.09682573
000020 d8 17 d5 bc f7 30 81 bd 4a 9f 90 bc a0 8d 33 3d
       -0.026012346 -0.063081674 -0.01765408 0.043836236
000030 72 c8 36 3d 14 d7 02 3d 69 4d b3 bd 77 ca 56 bd
       0.044624753 0.031943396 -0.08754999 -0.05243918
000040 b0 30 52 3e 0b b2 e1 bd 45 59 f2 3d fd 28 b1 bc
       0.20526385 -0.11020287 0.11833433 -0.02162599
000050 0c 42 c5 3c 57 36 33 3e 03 5d 6d bd 0e 70 05 bd
       0.024079345 0.17501198 -0.05795003 -0.032577567
000060 45 5a 16 3d ca d5 f4 bd e2 90 3a 3e a5 98 f2 3d
       0.03670718 -0.119548395 0.18219331 0.11845521
000070 f9 28 ae bd 8c e7 c2 3d da cb c9 bd 82 4c 27 3e
       -0.08503909 0.0951682 -0.09853335 0.16337779
000080 ed 70 3f 3e b5 39 d3 bb 8c c3 fb 3d 9a 4b a6 bd
       0.18695422 -0.006446088 0.12293157 -0.081198886
000090 a4 e8 e1 3d 01 17 61 3e ab dc c6 bc 38 5a b2 3d
       0.11030701 0.21981432 -0.024275145 0.08708614
0000a0 79 a1 ad bd 7a 22 9c 3d c4 ab 0c 3e 5d a6 2d 3d
       -0.08478064 0.076237634 0.13737398 0.042394985
0000b0 c5 05 a5 3c 41 29 b7 bd b0 81 bc bd e6 ae 8f bc
       0.020144353 -0.089434154 -0.092044234 -0.017539453
0000c0 4d 42 b9 3a 52 0b 07 be 9d b1 02 3d e0 e5 28 be
       0.0014134139 -0.13187912 0.031907666 -0.1649394
0000d0 c6 54 17 be 2a f0 38 3d de 4f 7d 3c 23 5f 32 be
       -0.14778432 0.045150913 0.015460936 -0.17419104
0000e0 4b 88 cd 3d 73 70 fb bd e3 2a 03 3e ce 3e ef 3c
       0.100357614 -0.12277307 0.12809329 0.029204752
0000f0 7e 2f 9a bd 9e 4a 1a 3e 2a 76 90 3d 1d 2f ee bd
       -0.0752859 0.15067527 0.07053788 -0.1163008
000100 98 5f 0f 3e 83 3d 48 3d 92 5a b5 bc 7a 32 10 3d
       0.1400131 0.048886787 -0.022137914 0.03520439
000110 bc 03 11 bd 3d 13 03 3e 1f 75 83 bd 9e aa c3 bd
       -0.035403952 0.12800308 -0.064188235 -0.09554027
000120 62 f3 5b bd 1f 3e 1d 3e 71 f8 46 3e 2a f4 11 bd
       -0.053698905 0.15355729 0.1943071 -0.035633244
000130 04 05 21 be 4b 87 98 3d 08 3c 64 bd 43 98 fc 3d
       -0.1572457 0.0744768 -0.055721313 0.12333729
000140 65 4f 23 bd 2a 29 05 be 4f 12 8f bd 21 36 56 3d
       -0.03987064 -0.13003984 -0.06985914 0.052297715
000150 ab a4 32 bd c7 9f 15 be 79 8f ed bd f8 96 73 3d
       -0.04361407 -0.14611731 -0.11599631 0.059470147
000160 08 c7 bc bd fc 79 c3 bd 37 8b db 3d b9 75 19 be
       -0.0921765 -0.09544751 0.107199125 -0.14986314
000170 cf 59 47 bd df ae 10 be 8e 4d 58 3c ee df 3b bd
       -0.048669633 -0.14129208 0.013202084 -0.045867853
000180 a7 63 56 bd 2f 2a 20 3d 01 10 09 be ec c7 a5 3d
       -0.05234113 0.03910273 -0.13385011 0.08094773
000190 41 57 8e 3d e5 e2 a9 bb 01 c1 8a bd 84 fb 5d 3c
       0.06950236 -0.0051845186 -0.06775094 0.0135487355
0001a0 56 c8 3c 3d b9 20 f1 3d 34 af 0f 3c 71 aa fa 3d
       0.046089493 0.117738195 0.008769799 0.1223954
0001b0 ba 95 17 3e 6e ff bd bc 3c 8d ee bc 57 b2 fb bd
       0.1480321 -0.023193087 -0.02912008 -0.12289875
0001c0 96 6f 1d 3d fc a9 2c be 59 0a 41 bd 44 fb 8e 3d
       0.038436495 -0.16861719 -0.04712901 0.06981519
0001d0 f4 94 36 bd 06 ac b3 bd 96 69 0d be e6 b7 9f 3b
       -0.044575647 -0.08773045 -0.13809809 0.0048742173
0001e0 20 b2 24 bd 5b 53 3a 3d c4 6f 01 bc da 8f 24 3e
       -0.040208936 0.04548965 -0.007900182 0.160705
0001f0 5f ca 11 3e b2 51 7f 3d 41 b0 e1 3d 58 36 cd bd
       0.14237355 0.06233377 0.11019946 -0.10020131
000200 cc 99 b3 bd 47 7c 7a 3d 8e 26 70 bc 5e 81 fa bd
       -0.08769569 0.061153676 -0.01465763 -0.12231706
000210 ac 4b 81 bd 56 ca 0e be 2e c8 a9 bc 7d 00 92 bc
       -0.063132614 -0.13944373 -0.020725336 -0.017822498
000220 c7 0d d3 bc 7d bc b6 bd 99 41 6a bd 0d b0 83 bd
       -0.025763405 -0.0892267 -0.057191465 -0.064300634
000230 1c db e2 bd 5b a6 39 3e 57 2e 40 3e f7 94 1e 3d
       -0.11076948 0.18129866 0.18767677 0.038716283
000240 b3 6d 42 3e fb 3d 7d 3c f0 e4 8e bc 44 3f f1 3d
       0.1898716 0.015456672 -0.01744315 0.11779645
000250 ec ad cc 3d f3 6f c2 3d b3 ce 0a bc 85 5a aa bd
       0.099941105 0.09494009 -0.0084721325 -0.083180465
000260 40 c9 d4 3d 3a 10 8f bc 0a ee 3d bc 88 8c 18 bd
       0.10389948 -0.017463792 -0.0115923975 -0.037243396
000270 e1 34 15 3d e8 d1 36 3d f8 1b b8 3c 2a 1a a8 3d
       0.036427382 0.044633776 0.022474274 0.082081154

exp_avg f4 [1, 40]
000000 0a f8 f5 b5 50 1c d5 35 67 bd 1b 39 09 80 86 bb
       -1.8326111e-06 1.5877977e-06 0.0001485251 -0.0041046184
000010 09 4b 3c bb 9e 7f 86 bb 54 a0 a3 b6 39 1c fa 38
       -0.0028731248 -0.0041045686 -4.876443e-06 0.00011926186
000020 06 9c 5d bb 9c b1 86 bb 29 a4 e2 35 a8 39 b7 38
       -0.003381492 -0.004110528 1.6886089e-06 8.736859e-05
000030 4a ef 40 ba 42 d6 14 3a 0a 74 86 3b 62 84 99 3a
       -0.00073598756 0.0005677679 0.0041031884 0.0011712427
000040 c0 98 86 3b 52 0f 41 bb 1c 33 7b b7 13 87 86 3b
       0.0041075647 -0.0029458595 -1.4972666e-05 0.0041054576
000050 43 4f 86 bb 9c 43 86 3b d4 52 86 3b 64 3c 62 ba
       -0.004098804 0.004097415 0.0040992294 -0.0008630215
000060 7e 64 86 3b 18 6e 7f 38 a3 46 3c bb 52 dc e2 b9
       0.004101335 6.089927e-05 -0.0028728626 -0.0004327023
000070 35 df 86 bb d2 ed 86 3b b6 93 86 3b dd d6 87 3b
       -0.004115964 0.004117706 0.004106964 0.0041454867
000080 57 33 86 bb fd 55 86 bb 96 58 86 3b 04 50 ea b7
       -0.0040954757 -0.004099606 0.0040999157 -2.7932234e-05
000090 bd 38 0d b9 d5 77 86 3b 24 4d 86 bb 3b aa 4f 37
       -0.00013467945 0.0041036406 -0.0040985513 1.2377796e-05
