deep-learning/rv_only/lightning_logs/version_0/checkpoints/epoch=4-step=250.ckpt (torch, 331231 bytes, 33 tensors)

model.param_proj.proj.0.weight f4 [1, 40]
0.22107093 0.0025198886 0.083733894 -0.24113144 0.048980832 0.079242386 -0.1768082 0.14014855
-0.14119531 0.060842514 0.021077046 -0.13541704 -0.13021538 -0.14423136 -0.121535815 0.053868014
0.030934567 -0.10390406 -0.09674884 0.031093517 -0.16262756 0.048225276 0.1614803 -0.2610649
-0.03705804 0.21560301 -0.004208846 -0.04760434 -0.10025761 -0.17751004 -0.07823179 -0.02080142
-0.05801507 -0.07370434 -0.1620214 -0.18101679 -0.052007254 0.1398474 0.11648548 -0.20663847
00000000: 6b60 623e b724 253b ad7c ab3d 29eb 76be
00000010: 20a0 483d d549 a23d 350d 35be 1a83 0f3e
00000020: 8195 10be 0036 793d c5a9 ac3c c4aa 0abe
00000030: 2e57 05be 63b1 13be c5e7 f8bd b5a4 5c3d
00000040: 7d6a fd3c a7cb d4bd 4124 c6bd d5b7 fe3c
00000050: d787 26be de87 453d 175b 253e 4caa 85be
00000060: 2cca 17bd 09c7 5c3e 5cea 89bb c5fc 42bd
00000070: dd53 cdbd 31c5 35be fd37 a0bd bd67 aabc
00000080: 36a1 6dbd 4df2 96bd f0e8 25be 775c 39be
00000090: 8f05 55bd 2834 0f3e f08f ee3d 0999 53be

model.param_proj.proj.1.weight f4 [1, 40]
0.15385705 -0.1645467 -0.048229694 -0.13152555 0.13326946 0.10984047 -0.14034694 0.15570955
-0.019402338 0.025524763 -0.10153117 -0.10112799 0.09652621 -0.115612574 0.04339185 0.0077206455
-0.067633964 0.11172541 0.00213435 0.06661263 -0.017906114 0.13622414 -0.12391235 0.11675585
-0.03177935 -0.10208645 0.055233542 -0.060321283 0.05472729 -0.042117584 -0.11934723 0.062126312
-0.09543014 -0.17255118 -0.040297695 -0.030539284 0.10583194 0.12032296 0.04129535 -0.17150453
00000000: b48c 1d3e ee7e 28be 808c 45bd a2ae 06be
00000010: ca77 083e 0af4 e03d 1cb7 0fbe 5372 1f3e
00000020: a7f1 9ebc 4f19 d13c 93ef cfbd 311c cfbd
00000030: 89af c53d 49c6 ecbd a7bb 313d 78fd fc3b
00000040: ad83 8abd 4bd0 e43d 73e0 0b3b 346c 883d
00000050: d8af 92bc 577e 0b3e c2c5 fdbd b11d ef3d
00000060: 102b 02bd b312 d1bd 913c 623d 7313 77bd
00000070: b929 603d 7d83 2cbd 526c f4bd 2978 7e3d
00000080: e170 c3bd 42b1 30be 320f 25bd 852d fabc
00000090: 6bbe d83d e26b f63d 5025 293d e29e 2fbe

model.param_proj.proj.2.weight f4 [1, 40]
-0.14456172 0.04364007 -0.14682922 0.105085276 0.08103232 0.06588055 0.066207595 -0.027042035
-0.0645332 -0.07233889 -0.11459572 0.06330154 -0.03391889 0.041397244 0.03265389 0.09192391
-0.19718066 0.14922541 0.16637686 -0.15386003 0.18177839 0.00045157032 -0.14250202 0.14666298
0.17494039 -0.113537736 0.16945215 -0.14863284 -0.016324036 0.123048574 0.15733114 -0.18066478
-0.13731639 -0.11436404 0.06050821 -0.09183921 0.10813415 -0.087312445 -0.09902594 0.15818916
00000000: fd07 14be eebf 323d 665a 16be f336 d73d
00000010: 46f4 a53d 62ec 863d d997 873d 4287 ddbc
00000020: fb29 84bd 6926 94bd 29b1 eabd 3da4 813d
00000030: 89ee 0abd 2890 293d 16c0 053d 9a42 bc3d
00000040: bae9 49be 8cce 183e b25e 2a3e 7c8d 1dbe
00000050: 1d24 3a3e bec0 ec39 0dec 11be d22e 163e
00000060: 9323 333e 7986 e8bd dd84 2d3e 3533 18be
00000070: fcb9 85bc e400 fc3d 6a1b 213e 3000 39be
00000080: ab9c 0cbe b237 eabd 75d7 773d 3216 bcbd
00000090: 7075 dd3d ded0 b2bd 1dce cabd 57fc 213e

model.rnn.weight_ih_l0 f4 [160, 37]
-0.04568599 -0.14778918 -0.0765024 0.13498987 0.058138203 0.006923132 0.062421046 -0.07848768
0.05972797 -0.009684375 0.048447654 -0.036437307 0.038757313 -0.07774943 -0.0911197 0.073089965
0.055572882 0.11545244 0.028051578 -0.14540477 0.099807724 -0.0447719 -0.10847059 -0.048143752
-0.13005917 -0.10480471 0.10080119 0.0922344 0.17004973 0.089372694 0.004142958 -0.037607487
-0.14484695 -0.13686778 -0.052658398 0.0025523256 0.08878847 0.02367422 0.048793226 -0.101782724
0.13268158 0.03279624 0.024507647 -0.10707422 0.057852186 0.16624637 0.10889705 0.048302505
0.16898133 0.050633 0.051234946 0.092952274 0.012401325 0.16776663 0.045776345 0.08529317
0.16328095 0.10116704 -0.09946612 0.15881965 -0.016457492 -0.020446004 -0.037739497 -0.09660674
-0.15003075 0.050379213 -0.17370632 -0.02533605 -0.036225338 0.14646496 0.060940433 -0.13407265
-0.092813134 0.12525943 0.103828564 0.027998222 0.11551229 -0.05444615 -0.07119598 -0.0144963255
-0.13561642 -0.08115708 0.037230276 -0.0048449202 0.14127022 -0.037109673 0.03832731 -0.09155465
-0.029129371 -0.05921753 0.13656706 0.09288825 0.082942866 -0.0153962895 0.1713858 0.20819555
0.00028376983 0.12346018 0.0035059513 -0.037488576 0.13830361 0.05705524 0.05212422 -0.13293588
-0.046386704 0.06786076 -0.15269643 -0.045658857 0.10522507 0.0027241209 0.12605341 0.19891627
-0.05575106 0.089946926 0.05063524 0.036540203 0.09874806 0.12524725 -0.003311913 -0.032015704
0.055959754 0.05013496 0.13691306 0.1955632 -0.10140535 0.209994 0.07897564 0.15747102
-0.068886586 0.10642686 0.016340889 -0.014071533 -0.08656588 0.17244771 0.100253515 0.005446639
0.0055811536 0.09259461 -0.12750775 -0.14131099 -0.03320902 0.07307536 0.11684961 -0.060007054
-0.08305335 -0.0152778365 -0.15055779 0.18917719 -0.12586756 0.027500208 -0.049466986 -0.05976665
0.11317225 0.11867801 0.090648055 0.033223853 -0.13366325 0.12699217 0.03256917 -0.016572403
0.03786453 -0.09439444 0.07668373 -0.09914307 0.088041216 0.11859676 -0.03135768 -0.032975752
-0.114513785 0.028848095 0.10171922 0.029342555 0.0868093 -0.096815616 0.13300745 0.07518665
0.17753938 0.016960924 0.010872853 0.0731237 -0.1213913 -0.13034855 -0.16573559 0.054803777
0.11732154 0.19758019 0.029904375 -0.10108665 -0.063983984 0.18444113 0.17403246 0.04898347
0.16462566 -0.08441748 0.12517312 0.01614719 -0.066384256 0.15682134 0.15514797 0.18407768
-0.055135693 0.05115849 0.14726244 -0.08194929 -0.005328225 0.1200418 0.042506617 -0.044642422
0.091596775 0.090023406 0.18374543 0.07863626 0.09454823 -0.14761172 0.09926915 0.037129182
0.086648785 -0.12373112 0.25067294 0.06984714 -0.07338316 0.038995326 -0.14768328 -0.18300696
-0.056158874 -0.13263708 0.05074453 0.11943763 -0.14470221 -0.033772063 -0.0135072395 0.038604748
-0.14777318 0.133362 0.14162275 0.0027679296 -0.05680322 0.14093867 0.052527256 -0.0013537232
-0.1629129 -0.10157109 0.096725896 0.03657276 -0.1639956 -0.1476399 -0.021087935 -0.03801613
-0.018727828 0.09685133 0.051232513 0.10143499 -0.15529239 -0.050163236 0.011225971 -0.12337023
00000000: 3c21 3bbd 0c56 17be 4aad 9cbd c93a 0a3e
00000010: 5322 6e3d 71db e23b 36ad 7f3d 26be a0bd
00000020: 51a5 743d 36ab 1ebc 0c71 463d 493f 15bd
00000030: fdbf 1e3d 183b 9fbd f79c babd 31b0 953d
00000040: 64a0 633d 5472 ec3d 6ccc e53c fde4 14be
00000050: fe67 cc3d bd62 37bd d425 debd 6232 45bd
00000060: 3b2e 05be daa3 d6bd db70 ce3d 64e5 bc3d
00000070: 8421 2e3e 0809 b73d a7c1 873b 4f0a 1abd
00000080: c252 14be 1127 0cbe 55b0 57bd eb44 273b
00000090: bbd6 b53d 70f0 c13c 68db 473d 7673 d0bd
000000a0: aedd 073e 5a55 063d 43c4 c83c bb49 dbbd
000000b0: 6af6 6c3d 7d3c 2a3e 6b05 df3d d9d8 453d
000000c0: 7109 2d3e 8c64 4f3d bcdb 513d c35d be3d
000000d0: ed2e 4b3c 04cb 2b3e fa7f 3b3d 2fae ae3d
000000e0: 1f33 273e aa30 cf3d e5b4 cbbd 9ea1 223e
000000f0: ddd1 86bc 617e a7bc bb94 1abd c1d9 c5bd
00000100: a9a1 19be 6f5a 4e3d 12e0 31be 8c8d cfbc
00000110: 0561 14bd e9fa 153e ad9c 793d 574a 09be
00000120: d014 bebd 0244 003e 12a4 d43d 875c e53c
00000130: b591 ec3d ed02 5fbd 33cf 91bd ff81 6dbc
00000140: 08df 0abe af35 a6bd c67e 183d 23c2 9ebb
00000150: 24a9 103e 5000 18bd 19fd 1c3d 0181 bbbd
00000160: b8a0 eebc 158e 72bd 3cd8 0b3e 323c be3d
00000170: f3dd a93d b840 7cbc c27f 2f3e 3731 553e
00000180: f1c6 9439 b1d8 fc3d 1ac4 653b 9f8d 19bd
00000190: 769f 0d3e c1b2 693d 3580 553d 5820 08be
000001a0: fcff 3dbd 95fa 8a3d 745c 1cbe c804 3bbd
000001b0: 3e80 d73d 2a87 323b 2514 013e b5b0 4b3e
000001c0: 395b 64bd 1836 b83d e666 4f3d 2eab 153d
000001d0: 6c3c ca3d d140 003e ae0c 59bb e622 03bd
000001e0: 0e36 653d 515a 4d3d f032 0c3e b841 483e
000001f0: 9cad cfbd ab08 573e fbbd a13d 1540 213e
00000200: 6914 8dbd 53f6 d93d 54dd 853c 4a8c 66bc
00000210: 7449 b1bd 2296 303e b751 cd3d b879 b23b
00000220: 1ce2 b63b 3ea2 bd3d 6491 02be d4b3 10be
00000230: 2e06 08bd 89a8 953d d94e ef3d f5c9 75bd
00000240: e017 aabd e44f 7abc d22b 1abe aab7 413e
00000250: 6de3 00be 1e48 e13c e59d 4abd e0cd 74bd
00000260: dac6 e73d 750d f33d b0a5 b93d bc15 083d
00000270: 05df 08be 3c0a 023e 4067 053d d9c2 87bc
00000280: d617 1b3d df51 c1bd 5c0c 9d3d 860b cbbd
00000290: f44e b43d dce2 f23d e970 00bd 9511 07bd
000002a0: 3486 eabd d752 ec3c 2b52 d03d cc5f f03c
000002b0: 13c9 b13d 4447 c6bd 1b33 083e 75fb 993d
000002c0: e2cc 353e a3f1 8a3c 0d24 323c e1c1 953d
000002d0: 009c f8bd 177a 05be 97b6 29be ed79 603d
000002e0: 4746 f03d 7652 4a3e 05fa f43c 8406 cfbd
000002f0: 090a 83bd 23de 3c3e 9135 323e e4a2 483d
00000300: a193 283e 12e3 acbd 622d 003e 1d47 843c
00000310: 78f4 87bd c695 203e 1cdf 1e3e dc7e 3c3e
00000320: f7d5 61bd 918b 513d f7cb 163e 08d5 a7bd
00000330: 6498 aebb 7ad8 f53d 6b1b 2e3d f9da 36bd
00000340: 1797 bb3d 315e b83d c327 3c3e 0c0c a13d
00000350: 81a2 c13d 8727 17be a04d cb3d c514 183d
00000360: eb74 b13d be66 fdbd 3458 803e 040c 8f3d
00000370: e949 96bd 90b9 1f3d 493a 17be 2d66 3bbe
00000380: d906 66bd 04d2 07be 7fd9 4f3d b79b f43d
00000390: d12c 14be 9354 0abd 784d 5dbc 0320 1e3d
000003a0: da51 17be 0c90 083e 8e05 113e 2766 353b
000003b0: 7eaa 68bd 3a52 103e d226 573d 6a6f b1ba
000003c0: a4d2 26be 8104 d0bd 3a18 c63d 52cd 153d
000003d0: 76ee 27be ea2e 17be 9bc0 acbc cdb6 1bbd
000003e0: 1a6b 99bc fd59 c63d 2fd9 513d 26bd cf3d
000003f0: f804 1fbe f777 4dbd 23ed 373c 88a9 fcbd

model.rnn.weight_hh_l0 f4 [160, 40]
0.05783186 0.0062301536 0.09361896 0.11396843 0.105771676 -0.09238289 -0.13249661 0.024889758
-0.057668883 0.05280794 0.1164586 0.06609374 -0.10313962 0.1089203 0.0038230247 0.13208225
0.066420786 0.06580937 0.14934868 0.036519382 -0.03531568 0.051451612 0.17025977 -0.07985603
0.068554185 0.050967112 -0.11639174 -0.10226138 -0.16940968 0.12561566 0.06846502 0.0982857
-0.03244499 0.034993142 -0.045102958 -0.09550941 0.08221551 0.07427466 -0.08683551 -0.13019152
0.050438866 -0.050122123 -0.0023991244 0.12691791 -0.03967362 -0.10373729 0.14204888 0.0931707
-0.1290828 0.016078137 -0.030860022 0.151898 -0.15396973 -0.0793729 -0.025275832 -0.15231597
0.12264613 0.1407018 -0.10010288 -0.10529825 0.033094406 0.14564231 0.03698804 -0.12501061
-0.08987469 -0.09652089 0.05260445 0.15195143 -0.047947556 0.055770744 -0.10879701 -0.1735249
0.048271857 -0.1496055 0.011752351 -0.13116983 -0.029136943 0.07618474 0.04935288 -0.13226955
0.011472037 0.072594464 0.015910298 0.09078747 0.1426359 -0.031753875 -0.0205096 -0.009824146
0.08075578 0.03873772 -0.012482369 -0.10056035 -0.11408211 0.08547004 0.16686957 -0.10248614
-0.06962318 0.08547811 0.009921975 -0.104118265 -0.003654762 0.09243379 -0.113392696 0.12435922
-0.060697947 -0.10647346 -0.13631234 -0.030884987 0.04516544 0.15449701 0.15509841 -0.081921265
-0.020777134 -0.1347596 -0.0034704872 0.11906609 0.065741375 -0.06736383 -0.046682578 0.08718057
0.049588464 -0.07714557 0.015506579 -0.05200198 0.1596965 0.11660686 0.03407085 0.071525656
0.13484007 -0.106231004 -0.021598976 -0.13621177 -0.06694748 0.082254425 -0.1172013 -0.13716176
-0.05242742 -0.16693847 -0.041986685 0.058384135 -0.04534398 -0.1144959 0.062920235 -0.06763021
0.036547493 0.18428856 -0.11059678 0.063949205 0.045813464 -0.18864876 0.016608551 0.10125506
-0.20365386 -0.1321246 0.08842568 0.09141286 -0.008290198 0.113802426 -0.16312535 -0.08263684
-0.14540361 -0.14268586 0.05310121 -0.010727449 0.14177208 -0.13962479 -0.10667689 0.12077272
-0.18067144 0.06730442 -0.062468413 0.017970696 -0.15169019 0.136933 -0.085870594 -0.02127834
-0.12148817 -0.11584617 -0.15663332 0.012394547 0.07760565 -0.045956966 0.14357097 -0.14236699
0.162312 -0.045379236 0.045420576 0.13010192 -0.09307089 0.010477259 0.0577459 -0.0540348
-0.16013846 0.055269133 0.09302759 0.033345923 0.10671407 -0.019262208 0.07256962 -0.09452743
-0.02425249 0.004655476 0.04341307 0.18290259 0.04066606 -0.005137108 -0.25406128 -0.048292223
-0.14082879 -0.16653503 -0.11373188 -0.22486393 0.0033910917 0.13994202 0.00027688313 -0.056784295
0.03998433 0.01620799 -0.1465242 -0.15163893 -0.07763978 -0.11662318 0.17159867 0.06466913
0.11665501 0.21565461 -0.13172926 -0.0684935 0.1842432 0.045340326 -0.05041473 -0.08440867
-0.12619643 -0.07991865 -0.033890642 0.07130757 0.08311831 -0.15472658 -0.047712605 0.0029214646
-0.15679716 -0.018964315 0.050464362 -0.15262958 -0.08789243 -0.12556526 0.08861949 0.049510475
0.017347706 0.06256102 -0.1142169 -0.060704842 -0.07258879 0.022108786 -0.084421635 0.072169445
00000000: 1ae1 6c3d 5126 cc3b 4cbb bf3d 4868 e93d
00000010: d29e d83d 3e33 bdbd 31ad 07be 9be5 cb3c
00000020: 3536 6cbd 234d 583d d981 ee3d 285c 873d
00000030: dd3a d3bd 9b11 df3d b68b 7a3b 9240 073e
00000040: 9f07 883d 10c7 863d dcee 183e 5995 153d
00000050: 2da7 10bd edbe 523d 9458 2e3e 8f8b a3bd
00000060: 2366 8c3d e4c2 503d cb5e eebd 6a6e d1bd
00000070: bb79 2dbe 64a1 003e 6337 8c3d 034a c93d
00000080: 0ae5 04bd f854 0f3d e1bd 38bd 709a c3bd
00000090: 9b60 a83d 501d 983d d1d6 b1bd ed50 05be
000000a0: fc98 4e3d db4c 4dbd a13a 1dbb c5f6 013e
000000b0: ce80 22bd 3774 d4bd 4375 113e 48d0 be3d
000000c0: 482e 04be 4cb6 833c 28ce fcbc 268b 1b3e
000000d0: 3eaa 1dbe 428e a2bd 430f cfbc b8f8 1bbe
000000e0: e52d fb3d 2214 103e bd02 cdbd 9ca6 d7bd
000000f0: 008e 073d 4223 153e c580 173d c802 00be
00000100: 3910 b8bd bfac c5bd c477 573d 2899 1b3e
00000110: a864 44bd dd6f 643d f7d0 debd 83b0 31be
00000120: b6b8 453d 2f32 19be ef8c 403c 6251 06be
00000130: 99b0 eebc bf06 9c3d 3f26 4a3d ab71 07be
00000140: 36f5 3b3c 68ac 943d 5056 823c c8ee b93d
00000150: 250f 123e 5a10 02bd c003 a8bc 74f5 20bc
00000160: 4963 a53d 72ab 1e3d da82 4cbc 96f2 cdbd
00000170: e2a3 e9bd eb0a af3d dbdf 2a3e 41e4 d1bd
00000180: 9996 8ebd 260f af3d c88f 223c f53b d5bd
00000190: bb84 6fbb ed4d bd3d 6e3a e8bd 0cb0 fe3d
000001a0: 699e 78bd c20e dabd 7695 0bbe 8302 fdbc
000001b0: 65ff 383d 7734 1e3e 1ed2 1e3e 56c6 a7bd
000001c0: cf34 aabc 6cfe 09be 1d71 63bb ecd8 f33d
000001d0: 6aa3 863d 0cf6 89bd 3b36 3fbd ba8b b23d
000001e0: 461d 4b3d 7ffe 9dbd 4e0f 7e3c 0700 55bd
000001f0: 7b87 233e 94cf ee3d e08d 0b3d 0b7c 923d
00000200: 8413 0a3e a48f d9bd 56f0 b0bc 197b 0bbe
00000210: c31b 89bd 0275 a83d 3c07 f0bd 2274 0cbe
00000220: 22be 56bd ebf1 2abe 3bfa 2bbd 3424 6f3d
00000230: 9cba 39bd d47c eabd 53dc 803d b581 8abd
00000240: d3b2 153d 24b6 3c3e 9180 e2bd cdf7 823d
00000250: e6a6 3b3d 242d 41be a80e 883c d05e cf3d
00000260: a38a 50be ac4b 07be 8618 b53d aa36 bb3d
00000270: 9cd3 07bc 3f11 e93d 550a 27be 813d a9bd
00000280: afe4 14be 3e1c 12be a880 593d 2fc2 2fbc
00000290: b32c 113e cdf9 0ebe 6a79 dabd b057 f73d
000002a0: ef01 39be e6d6 893d e1de 7fbd 4837 933c
000002b0: ac54 1bbe 2a38 0c3e ecdc afbd ea4f aebc
000002c0: cace f8bd c240 edbd 7c64 20be 8012 4b3c
000002d0: b6ef 9e3d 5f3d 3cbd 4504 133e a7c8 11be
000002e0: 1e35 263e 94df 39bd ed0a 3a3d 7039 053e
000002f0: f39b bebd cfa8 2b3c f786 6c3d 9853 5dbd
00000300: 56fb 23be e361 623d 4085 be3d bc95 083d
00000310: e88c da3d c7cb 9dbc 629f 943d 9997 c1bd
00000320: 28ad c6bc f78c 983b e7d1 313d d14a 3b3e
00000330: 7491 263d 2f55 a8bb 5214 82be 11ce 45bd
00000340: 6c35 10be 2988 2abe 43ec e8bd bb42 66be
00000350: 143d 5e3b f64c 0f3e a02a 9139 a696 68bd
00000360: 9cc6 233d 9ec6 843c 710a 16be 3c47 1bbe
00000370: 9b01 9fbd 22d8 eebd 90b7 2f3e 4071 843d
00000380: d2e8 ee3d 90d4 5c3e 09e4 06be 5246 8cbd
00000390: 40aa 3c3e c7b6 393d ad7f 4ebd 74de acbd
000003a0: a339 01be 64ac a3bd ead0 0abd b409 923d
000003b0: ef39 aa3d a570 1ebe 4b6e 43bd 0b76 3f3b
000003c0: 6f8f 20be 0d5b 9bbc b8b3 4e3d ee4a 1cbe
000003d0: f200 b4bd 2e94 00be 237e b53d 7fcb 4a3d
000003e0: c71c 8e3c fe1f 803d 8dea e9bd a4a5 78bd
000003f0: 6ea9 94bd 7c1d b53c 40e5 acbd 93cd 933d

model.rnn.bias_ih_l0 f4 [160]
0.031992786 0.14750403 0.04240047 0.25515118 -0.061104007 0.040597714 -0.14650112 0.072604656
-0.088188805 -0.032251813 -0.057990994 0.13625681 0.10641563 0.033491436 0.040504243 -0.060611647
-0.11108363 0.15094702 0.17800339 0.04199002 -0.12439412 0.15219544 0.019142356 -0.044468757
0.054883 0.024508592 0.119215906 -0.01747614 -0.037918113 0.055184025 0.12792347 -0.16847408
-0.022455258 -0.11763819 -0.112750866 -0.053083494 0.0513903 -0.063565604 0.15273131 0.08022838
-0.042390823 0.042967707 -0.041878074 0.13202089 0.13713603 0.09955235 -0.08848807 0.10275565
0.02394484 -0.097150974 -0.0560098 0.1473518 -0.07746365 -0.05542346 -0.008626228 -0.10377159
-0.13126865 0.04316538 -0.11105775 -0.15762267 0.16634132 -0.13193308 -0.0539724 0.011622858
0.08682001 -0.115191415 0.124095984 0.009802893 -0.02146364 0.12865676 0.05171198 0.0936844
0.1552055 0.12328384 -0.06555511 0.10573853 0.0044266274 -0.018877033 0.08059428 -0.044501733
-0.08240404 -0.13645795 0.007363135 0.08057807 0.07545581 0.0061135897 0.012977539 -0.04954658
0.026194323 -0.17546894 0.0045974934 0.005804212 0.10289802 0.06836267 -0.071266346 0.0772939
0.053053956 0.014180754 -0.13859867 0.047198996 0.008938215 -0.14174391 0.16509372 -0.027601326
-0.00059064507 0.018311366 -0.052905805 -0.122604005 0.049317714 -0.12376553 0.046530865 0.05118505
-0.016846778 -0.120904654 0.02735785 0.063567884 -0.0014569411 -0.10575729 -0.057888824 -0.10728395
-0.14436816 -0.09524108 0.13152726 0.0025242616 0.028701808 -0.042008206 -0.09649181 -0.08496811
0.044410396 0.038867928 -0.119468674 0.05762572 0.17394866 -0.009595058 -0.07803054 -0.06436006
-0.052735683 0.0023439939 -0.04772915 0.1155663 -0.05088594 -0.087545 -0.011223024 -0.051599167
0.02630588 0.18962869 0.17085348 0.12436833 -0.12611961 0.18715656 0.15067612 -0.01845381
0.018465376 -0.07874983 0.037263773 0.085593 0.073727354 -0.068410546 -0.08732882 -0.032944262
00000000: de0a 033d 4c0b 173e 1dac 2d3d 2da3 823e
00000010: 3248 7abd ca49 263d 6404 16be c0b1 943d
00000020: 559c b4bd 7a1a 04bd f787 6dbd e886 0b3e
00000030: 70f0 d93d 512e 093d c7e7 253d eb43 78bd
00000040: d07f e3bd db91 1a3e 8546 363e bafd 2b3d
00000050: 58c2 febd 1fd9 1b3e 6ed0 9c3c df24 36bd
00000060: ffcc 603d 3ec6 c83c 7827 f43d 1f2a 8fbc
00000070: 0650 1bbd a508 623d 5ffe 023e 7884 2cbe
00000080: 17f4 b7bc 4bec f0bd ede9 e6bd 146e 59bd
00000090: a37e 523d af2e 82bd 9965 1c3e c74e a43d
000000a0: 00a2 2dbd e8fe 2f3d 5888 2bbd 7c30 073e
000000b0: 636d 0c3e 1ae2 cb3d 3c39 b5bd 8e71 d23d
000000c0: f827 c43c 17f7 c6bd 886a 65bd 64e3 163e
000000d0: 43a5 9ebd b603 63bd 0655 0dbc 3386 d4bd
000000e0: 4a6b 06be 2ece 303d 3f72 e3bd d667 21be
000000f0: 6155 2a3e 7719 07be 2a12 5dbd cd6d 3e3c
00000100: b0ce b13d 7ae9 ebbd 0926 fe3d 509c 203c
00000110: 84d4 afbc 99be 033e f1cf 533d 9bdd bf3d
00000120: 31ee 1e3e 3d7c fc3d c241 86bd 718d d83d
00000130: 3e0d 913b 02a4 9abc 9d0e a53d 7347 36bd
00000140: 73c3 a8bd a2bb 0bbe 7446 f13b 1d06 a53d
00000150: 9388 9a3d 8254 c83b be9f 543c 5bf1 4abd
00000160: 7a95 d63c 21ae 33be 92a6 963b 4231 be3b
00000170: 32bc d23d ba01 8c3d 17f4 91bd 444c 9e3d
00000180: 1b4f 593d 6556 683c cfec 0dbe bc53 413d
00000190: 9771 123c 5125 11be 540e 293e 2d1c e2bc
000001a0: 85d5 1aba b801 963c c2b3 58bd cf17 fbbd
000001b0: 5f01 4a3d c878 fdbd 2697 3e3d 6aa7 513d
000001c0: 4102 8abc dc9c f7bd 921d e03c e12f 823d
000001d0: d5f6 beba 4797 d8bd d51c 6dbd b0b7 dbbd
000001e0: 3fd5 13be c10d c3bd 15af 063e 156e 253b
000001f0: 0e20 eb3c cc10 2cbd 809d c5bd c303 aebd
00000200: ade7 353d fa33 1f3d feab f4bd f208 6c3d
00000210: 991f 323e 9734 1dbc 7ace 9fbd 35cf 83bd
00000220: 5f01 58bd b19d 193b a47f 43bd 06ae ec3d
00000230: c76d 50bd cb4a b3bd c6e0 37bc a659 53bd
00000240: 6e7f d73c 062e 423e 37f4 2e3e d3b4 fe3d
00000250: 8025 01be f8a5 3f3e d74a 1a3e 722c 97bc
00000260: b344 973c 9747 a1bd e6a1 183d 624b af3d
00000270: 5efe 963d d41a 8cbd 74d9 b2bd 90f0 06bd

model.rnn.bias_hh_l0 f4 [160]
-0.081009574 -0.13961402 -0.08950994 0.1096764 0.08048832 0.016614044 -0.056528255 -0.1291722
-0.05436748 0.167975 -0.07616158 0.094749644 0.13441367 -0.06852642 0.050178606 0.09851196
0.12400203 -0.06941149 0.19313487 0.07551148 0.08022377 0.16593106 0.15062802 0.06200066
0.14688891 0.035580847 0.054675207 -0.05983616 0.010431635 -0.06392526 0.16565405 -0.11323282
-0.13330853 -0.07810551 0.07921131 0.1323862 -0.13448961 0.19699839 0.09756598 -0.029022167
0.062589645 -0.05575684 -0.070712924 0.16988212 -0.03604094 0.08321597 0.07896861 -0.0035957373
-0.13202184 0.13418604 0.15926284 0.11575109 -0.0061159837 0.034712166 0.15708421 0.1334583
-0.08867608 0.14836465 0.06871344 0.08065831 -0.067869954 -0.011540964 0.029892452 -0.11031338
0.15770286 0.16541885 -0.030825462 -0.05698451 0.046781424 0.042121533 -0.09888908 0.018803945
-0.078743175 -0.10776069 0.14354749 0.14447923 -0.07775591 0.014690195 -0.09942975 -0.031082524
0.047638483 -0.032128464 0.122726284 0.058516406 0.12744749 0.017444808 -0.06736931 -0.095951155
-0.031547066 -0.16233817 -0.034695577 -0.044929594 -0.012650469 -0.04038261 0.09833699 0.0559019
0.015507556 0.055152178 -0.06343221 0.1330763 0.043164946 -0.02363197 -0.13039967 0.10748241
0.12777759 0.076349586 -0.17450282 -0.09556657 0.061165933 -0.030541178 -0.15298614 0.12358258
-0.013499712 -0.14008701 -0.013239227 0.0005117299 0.07349023 0.09016989 -0.11172623 -0.13745622
-0.13724926 0.14055239 0.033811796 -0.02590382 -0.098192446 0.04970465 0.12130285 0.10525287
0.089784384 0.076271296 0.08720755 0.13269466 -0.10220085 0.059196066 0.052052416 0.17486668
-0.03729777 0.07426564 0.14853619 0.072987266 -0.07007443 -0.0010437355 0.10589828 -0.12435081
-0.060252193 0.17315425 0.11663325 0.13605201 0.04791201 -0.047189426 0.088844724 0.09480815
-0.11560789 -0.06569772 0.030941002 0.06515267 -0.005142638 -0.013005256 0.07199109 0.13950188
00000000: 59e8 a5bd faf6 0ebe fd50 b7bd 059e e03d
00000010: 0fd7 a43d 2d1a 883c 2c8a 67bd b845 04be
00000020: 6fb0 5ebd a301 2c3e 9afa 9bbd 1a0c c23d
00000030: bda3 093e 9457 8cbd 1588 4d3d a3c0 c93d
00000040: c7f4 fd3d 9c27 8ebd 26c5 453e c3a5 9a3d
00000050: 5c4c a43d d5e9 293e 3b3e 1a3e 67f4 7d3d
00000060: 0c6a 163e 39bd 113d 1cf3 5f3d c316 75bd
00000070: 73e9 2a3c 3feb 82bd 37a1 293e 9ce6 e7bd
00000080: 0882 08be c8f5 9fbd 8a39 a23d 3f90 073e
00000090: a5b7 09be f2b9 493e acd0 c73d e5bf edbc
000000a0: 002f 803d 4961 64bd f0d1 90bd 94f5 2d3e
000000b0: aa9f 13bd 226d aa3d 4bba a13d 76a6 6bbb
000000c0: bc30 07be 1168 093e cc15 233e e80e ed3d
000000d0: 9768 c8bb 582e 0e3d afda 203e 4ba9 083e
000000e0: ce9b b5bd e7ec 173e a2b9 8c3d 2f30 a53d
000000f0: 67ff 8abd 5016 3dbc 04e1 f43c fbeb e1bd
00000100: dc7c 213e 8f63 293e ae85 fcbc 9768 69bd
00000110: e19d 3f3d a187 2c3d 5c86 cabd bb0a 9a3c
00000120: 1a44 a1bd a3b1 dcbd 1dfe 123e 5df2 133e
00000130: 7e3e 9fbd 25af 703c d3a1 cbbd c7a0 febc
00000140: 9220 433d 2399 03bd eb57 fb3d e6ae 6f3d
00000150: 9881 023e 6ae8 8e3c ecf8 89bd 0a82 c4bd
00000160: 7f37 01bd fa3b 26be f31c 0ebd 1808 38bd
00000170: ea43 4fbc 3c68 25bd e764 c93d 64f9 643d
00000180: 6713 7e3c 40e7 613d bfe8 81bd 2745 083e
00000190: bacd 303d d597 c1bc 7e87 05be bd1f dc3d
000001a0: 21d8 023e 2c5d 9c3d deb0 32be 68b8 c3bd
000001b0: 2189 7a3d 7e31 fabc 66a8 1cbe dd18 fd3d
000001c0: e52d 5dbc f872 0fbe 58e9 58bc 9d25 063a
000001d0: 0c82 963d feaa b83d b9d0 e4bd 53c1 0cbe
000001e0: 128b 0cbe f7ec 0f3e 3d7e 0a3d 3f34 d4bc
000001f0: 1f19 c9bd 1a97 4b3d a16d f83d d18e d73d
00000200: e0e0 b73d 2034 9c3d df99 b23d 1ce1 073e
00000210: ae4e d1bd 9377 723d ea34 553d 4010 333e
00000220: 8cc5 18bd 9518 983d df19 183e 597a 953d
00000230: 2f83 8fbd f4cd 88ba 33e1 d83d a3ab febd
00000240: 01cb 76bd 594f 313e 6add ee3d 3851 0b3e
00000250: 623f 443d b349 41bd 39f4 b53d c62a c23d
00000260: d4c3 ecbd 878c 86bd fc77 fd3c c36e 853d
00000270: 9383 a8bb ff13 55bc 1170 933d 95d9 0e3e

model.rnn.weight_ih_l1 f4 [160, 40]
0.0063929833 -0.06914701 0.16579384 -0.036511045 0.019503573 -0.009537977 0.060702942 0.08269878
-0.04834611 -0.07954186 -0.14490569 0.007077736 0.1166314 -0.17403471 0.14879972 0.099677734
-0.19695549 -0.08720745 -0.018162597 0.021527389 0.17228352 -0.044269208 -0.087171145 0.1558391
-0.09926739 -0.111972645 -0.015734296 0.04842492 0.12779512 -0.109620444 -0.02051003 -0.1411861
-0.078325614 -0.096899 -0.061164793 -0.17654586 -0.02430239 0.079312995 -0.1566368 -0.11916799
0.025446067 0.08792086 0.09639535 -0.00038064408 -0.062025484 -0.20088676 0.18032624 0.021766877
-0.05649151 -0.016038679 0.12019864 -0.0077011255 0.12671264 -0.061412428 0.15506311 0.1382976
-0.10183641 -0.08448248 -0.13451734 -0.043209307 0.0018025533 0.19342864 0.00920865 -0.10186869
0.08310447 0.058747035 0.22350606 0.028429095 0.22629824 0.18089621 -0.09010324 -0.17485416
-0.07382628 -0.113320515 -0.0382739 -0.1646858 -0.06961868 0.050542112 0.019126553 0.0673342
0.16858353 -0.022435086 0.08703224 -0.10640057 0.071968004 0.10397432 0.06325835 0.14089233
-0.02936793 0.00576935 -0.09648201 0.095170714 0.06347408 -0.07839744 -0.1455877 -0.08941176
-0.06879407 0.011122992 0.10733068 -0.058825314 -0.028511377 0.120316796 -0.08106592 -0.047714658
0.16159496 -0.00011768179 0.019147933 -0.058849562 -0.13662134 0.01809025 0.09826083 -0.03488828
0.09895614 0.12618193 -0.0052614687 0.08278356 0.09195242 0.14497684 -0.15973607 0.005260263
-0.019456226 0.029095788 0.018672144 0.08131378 0.029122697 0.068086594 -0.012095279 0.102602266
-0.15404792 0.051440377 0.0988899 0.09964183 -0.054308973 0.03542462 -0.12747034 -0.012209584
-0.16937673 -0.14410052 -0.0024849426 -0.11169562 -0.09794252 -0.021973588 0.11452362 0.12807414
0.12047172 0.102172755 0.013721819 0.108708136 0.12912308 0.067201726 0.07112992 0.051406518
-0.11831848 0.12541588 -0.020252956 -0.15966666 -0.10252919 -0.051871102 -0.10747213 -0.0887621
-0.021039745 0.072910085 0.111264385 -0.1584411 0.13386711 0.0060249 0.020050481 -0.011457931
0.110012114 -0.10777019 0.14213863 0.14521652 0.059065443 0.11675872 0.053839773 -0.05162897
0.12143172 -0.06653829 0.10209994 0.13167824 0.027468469 -0.093818806 0.011218761 -0.019895514
0.013543426 -0.17099719 0.023836445 -0.12497044 -0.10363564 -0.034625314 -0.062410507 -0.039322086
-0.054769732 0.04700535 -0.076912515 -0.02056081 -0.15535945 0.09830764 0.050291102 0.14288992
0.01079093 -0.12366739 0.007102279 -0.047955807 0.05216932 0.10834002 -0.029933216 -0.09979901
0.17106128 -0.02602975 -0.097962745 0.11264068 0.0038820591 0.12282916 0.07939014 0.18057379
0.0018582625 0.0138564 0.019133486 -0.102394596 0.06410215 -0.03632072 0.046434905 0.070058055
-0.022315746 0.00400355 0.16985527 0.17460504 -0.092407614 -0.06445932 0.15457724 0.10003156
-0.04733185 0.028917084 -0.023747608 -0.053104106 -0.0710606 -0.009798409 0.17189488 -0.009269311
0.056611195 -0.13548559 0.071310475 0.061854694 -0.11657241 0.0134085575 0.06039068 -0.1196871
-0.088470116 -0.042719178 0.04129461 -0.0850063 0.15368125 -0.17716877 0.022125108 -0.0051361206
00000000: 3b7c d13b f39c 8dbd dcc5 293e 9b8c 15bd
00000010: f5c5 9f3c 2d45 1cbc a6a3 783d fa5d a93d
00000020: 9206 46bd d8e6 a2bd 2862 14be 5aec e73b
00000030: 72dc ee3d 2836 32be f45e 183e d723 cc3d
00000040: b3ae 49be d299 b2bd bac9 94bc 355a b03c
00000050: 176b 303e a153 35bd c986 b2bd 4994 1f3e
00000060: b44c cbbd ea51 e5bd 36e5 80bc 3559 463d
00000070: b9dc 023e af80 e0bd a704 a8bc 1793 10be
00000080: 2e69 a0bd fc72 c6bd ef87 7abd 70c8 34be
00000090: ce15 c7bc da6e a23d 6665 20be 590e f4bd
000000a0: 4574 d03c da0f b43d ed6a c53d 2f91 c7b9
000000b0: 6f0e 7ebd 42b5 4dbe 71a7 383e 7350 b23c
000000c0: a463 67bd 8c63 83bc b42a f63d b959 fcbb
000000d0: f5c0 013e 998b 7bbd ddc8 1e3e e39d 0d3e
000000e0: 9c8f d0bd 2705 adbd eabe 09be 3efc 30bd
000000f0: a743 ec3a 2812 463e e1df 163c 88a0 d0bd
00000100: ad32 aa3d bba0 703d c6de 643e 22e4 e83c
00000110: baba 673e db3c 393e 0c88 b8bd f80c 33be
00000120: 3c32 97bd 9614 e8bd 18c5 1cbd 65a3 28be
00000130: 3d94 8ebd 3f05 4f3d 4aaf 9c3c 83e6 893d
00000140: 29a1 2c3e c9c9 b7bc f63d b23d 8be8 d9bd
00000150: f663 933d 7df0 d43d 988d 813d 1446 103e
00000160: 0395 f0bc d10c bd3b 5c98 c5bd dde8 c23d
00000170: b3fe 813d d68e a0bd f114 15be 831d b7bd
00000180: e8e3 8cbd 363d 363c 30d0 db3d d0f2 70bd
00000190: b190 e9bc a768 f63d e405 a6bd 7270 43bd
000001a0: 2679 253e eecb f6b8 20dc 9c3c 3d0c 71bd
000001b0: 77e6 0bbe 0132 943c f93c c93d 03e7 0ebd
000001c0: 84a9 ca3d d635 013e 6668 acbb 6d8a a93d
000001d0: 8d51 bc3d cf74 143e da91 23be 495e ac3b
000001e0: aa62 9fbc 4a5a ee3c 53f6 983c d787 a63d
000001f0: b992 ee3c fc70 8b3d 472b 46bc 2321 d23d
00000200: bdbe 1dbe 25b3 523d ca86 ca3d 0411 cc3d
00000210: 1673 5ebd 6819 113d 9687 02be b50a 48bc
00000220: 1871 2dbe 168f 13be 6bda 22bb acc0 e4bd
00000230: 1796 c8bd f401 b4bc 5c8b ea3d de25 033e
00000240: e1b9 f63d f33f d13d 7bd1 603c 5fa2 de3d
00000250: d738 043e 0fa1 893d 90ac 913d a48f 523d
00000260: f650 f2bd 056d 003e 87e9 a5bc a87f 23be
00000270: d3fa d1bd cb76 54bd 591a dcbd e7c8 b5bd
00000280: 8b5b acbc e251 953d 95de e33d 623e 22be
00000290: 7614 093e 866c c53b e840 a43c 0cba 3bbc
000002a0: 084e e13d 9eb6 dcbd ca8c 113e a4b3 143e
000002b0: 9bee 713d 321f ef3d 1887 5c3d e678 53bd
000002c0: 32b1 f83d 3a45 88bd c619 d13d a9d6 063e
000002d0: 8e05 e13c 1324 c0bd e5ce 373c ebfb a2bc
000002e0: 3fe5 5d3c e319 2fbe a644 c33c 81f0 ffbd
000002f0: ec3e d4bd 46d3 0dbd 29a2 7fbd 3210 21bd
00000300: 3a56 60bd af88 403d 4f84 9dbd 256f a8bc
00000310: 8c16 1fbe 8455 c93d 0bfe 4d3d bc51 123e
00000320: 71cc 303c 5445 fdbd 3cba e83b 4f6d 44bd
00000330: 7faf 553d 5fe1 dd3d 8136 f5bc 6c63 ccbd
00000340: b02a 2f3e 583c d5bc b1a0 c8bd 28b0 e63d
00000350: 256a 7e3b db8d fb3d 4c97 a23d 56e8 383e
00000360: f190 f33a f405 633c d4bd 9c3c 42b4 d1bd
00000370: fd47 833d 09c5 14bd 8732 3e3d 997a 8f3d
00000380: 83cf b6bc 3630 833b 8aee 2d3e aacb 323e
00000390: 3440 bdbd 3f03 84bd 7f49 1e3e 59dd cc3d
000003a0: 0bdf 41bd 85e3 ec3c 588a c2bc b183 59bd
000003b0: 3888 91bd 8289 20bc 3605 303e 4fde 17bc
000003c0: 24e1 673d bcbc 0abe 3a0b 923d 595b 7d3d
000003d0: 84bd eebd 91af 5b3c 385c 773d 831e f5bd
000003e0: d22f b5bd 4efa 2ebd 8924 293d c817 aebd
000003f0: 9e5e 1d3e bb6b 35be b73f b53c e74c a8bb

model.rnn.weight_hh_l1 f4 [160, 40]
0.07047043 0.033419315 -0.09795981 -0.02391215 0.04582238 0.058164172 0.0824663 -0.087623306
0.07361277 -0.10104013 0.14172266 0.07960018 0.055338137 -0.1463925 -0.049879998 -0.08713715
0.051531658 -0.027633714 -0.066727154 -0.062946595 -0.0127265295 -0.04955163 -0.14268081 -0.05264253
0.041523743 0.060827058 0.12908745 -0.10523792 0.039450232 0.09992108 0.09375409 -0.030034076
-0.021085344 -0.0016820352 -0.057143264 -0.04244731 -0.088682495 0.059391197 0.10640341 -0.102463834
0.022703221 -0.019494379 -0.1653965 -0.12128049 -0.09059462 0.10286529 -0.1186024 -0.07631646
0.04980335 -0.08676176 0.1623361 -0.106852084 0.0714952 -0.08628942 0.068783164 0.0864941
0.017860286 0.16747528 -0.08819548 -0.10750988 -0.0066954056 0.07374669 -0.16662107 -0.14569475
6.4680375e-05 -0.111553445 -0.0444406 -0.0019864226 -0.08821423 -0.13972244 0.0518543 0.09844558
0.05144899 -0.027624171 0.07266573 0.13576804 -0.13740401 0.056139216 -0.04981595 0.029836543
0.16998354 -0.15964673 0.15625717 -0.008958304 -0.026347043 0.20341569 -0.04172482 -0.020063262
0.11798906 -0.01891525 0.10203968 -0.17600007 0.031801116 0.047389362 0.22886953 -0.10646986
-0.04039025 -0.045249738 -0.16110617 -0.10522101 0.09700491 0.18130316 0.082920626 0.061006054
-0.102608405 0.046126474 -0.137483 -0.121537894 -0.00042740602 0.093014374 -0.08079296 -0.015554397
-0.06842854 -0.17410424 0.061456453 0.13282017 0.07861793 -0.038683455 -0.008955476 -0.16694705
-0.031880923 -0.1010278 0.16639484 -0.085501365 0.037154283 0.100171894 -0.13813132 0.04928049
0.13516755 0.17998706 -0.12006306 -0.12238646 0.10129195 -0.124199204 0.14321269 -0.115203656
-0.13763846 0.061509583 -0.11214825 -0.030307269 -0.081169136 0.1270789 -0.1548624 0.050012205
0.01625332 -0.10635042 0.042683765 0.15042557 0.20205252 -0.06785767 0.10887196 0.11737286
-0.1462606 0.0043704966 0.092372276 0.10610586 -0.025430428 -0.0029473363 -0.06896962 -0.11119924
-0.01946136 -0.11021884 -0.050606743 0.10171028 -0.09178311 0.07278617 -0.037187006 -0.14170319
-0.05023905 0.04165642 0.117926545 -0.006824165 -0.102245755 0.088368975 0.0071916273 0.21138057
-0.15338184 0.033391487 0.08553765 -0.00087930623 -0.093760215 0.11782389 0.13188238 -0.12766248
0.03576758 0.11348851 0.093410455 -0.16296217 -0.10355095 -0.06929996 0.056970995 0.12499143
0.11019789 -0.09012968 0.013965778 -0.06259377 0.0020797236 -0.02188383 -0.15612745 0.013184847
-0.024682885 0.17741375 -0.11905485 -0.053029362 -0.002054686 -0.015425726 -0.061064705 -0.078663155
-0.095689796 -0.12060327 0.09641695 -0.0123287905 0.06589369 -0.13131738 -0.122446604 0.13225448
-0.19443105 -0.0160994 -0.009097324 0.11929738 0.06613565 0.016169438 -0.114974394 0.14323454
-0.043408602 0.087178774 0.06526361 0.07191836 -0.10114562 0.051371112 0.082920894 0.09423677
-0.07206664 0.058105502 0.06316002 -0.049014784 -0.12525658 -0.037183277 -0.15172337 -0.0018869247
0.09582475 -0.11973697 0.039206605 -0.1491341 0.055837587 -0.09727131 -0.011654622 -0.04931164
0.03521679 0.0126054175 -0.042173263 -0.08957527 0.03358044 -0.11470942 0.15635051 -0.11292644
00000000: cd52 903d b1e2 083d 279f c8bd 6ae3 c3bc
00000010: 3fb0 3b3d 8e3d 6e3d 17e4 a83d d973 b3bd
00000020: 4bc2 963d 21ee cebd bf1f 113e 6b05 a33d
00000030: 3eaa 623d eae7 15be f84e 4cbd f674 b2bd
00000040: dc12 533d 1960 e2bc 3fa8 88bd 25ea 80bd
00000050: ef82 50bc a6f6 4abd eb1a 12be b29f 57bd
00000060: cd14 2a3d cb25 793d 802f 043e fb86 d7bd
00000070: 9196 213d 6ca3 cc3d 2502 c03d 060a f6bc
00000080: 2cbb acbc bc77 dcba 0e0f 6abd 3bdd 2dbd
00000090: 2b9f b5bd 2f44 733d 08ea d93d 8fd8 d1bd
000000a0: 1bfc b93c adb2 9fbc b35d 29be e861 f8bd
000000b0: ac89 b9bd 0aab d23d d1e5 f2bd ce4b 9cbd
000000c0: 99fe 4b3d 26b0 b1bd 6f3b 263e 44d5 dabd
000000d0: 136c 923d 82b8 b0bd 30de 8c3d d223 b13d
000000e0: bc4f 923c a47e 2b3e d59f b4bd 242e dcbd
000000f0: 2265 dbbb 8108 973d b79e 2abe 0131 15be
00000100: 03a5 8738 2276 e4bd 5907 36bd a42e 02bb
00000110: aaa9 b4bd 6613 0fbe 2d65 543d d69d c93d
00000120: 2dbc 523d 164c e2bc c5d1 943d c706 0b3e
00000130: a3b3 0cbe 3cf2 653d cf0b 4cbd c46b f43c
00000140: 2a10 2e3e 6f7a 23be e101 203e dac5 12bc
00000150: c1d5 d7bc 344c 503e a5e7 2abd b65b a4bc
00000160: 40a4 f13d 28f4 9abc 2efa d03d 5d39 34be
00000170: e341 023d 591b 423d c65c 6a3e df0c dabd
00000180: 3f70 25bd ca57 39bd 04f9 24be 1d7e d7bd
00000190: 83aa c63d 89a7 393e 4ad2 a93d 7ce1 793d
000001a0: 5b24 d2bd 1def 3c3d 58c8 0cbe dce8 f8bd
000001b0: 7715 e0b9 527e be3d c876 a5bd dfd7 7ebc
000001c0: 4324 8cbd 6248 32be c3b9 7b3d 0302 083e
000001d0: 7002 a13d 8b72 1ebd fdb9 12bc 2bf4 2abe
000001e0: 9295 02bd aae7 cebd 6963 2a3e 571b afbd
000001f0: 172f 183d ec26 cd3d 4c72 0dbe 57da 493d
00000200: 5d69 0a3e 874e 383e 9fe3 f5bd c1a5 fabd
00000210: 2772 cf3d 275c febd 59a6 123e e5ef ebbd
00000220: 19f1 0cbe 79f1 7b3d fbad e5bd f346 f8bc
00000230: 013c a6bd f920 023e 4094 1ebe 99d9 4c3d
00000240: af25 853c 40ce d9bd 2cd5 2e3d 2909 1a3e
00000250: dbe6 4e3e f6f8 8abd 43f8 de3d 2f61 f03d
00000260: 57c5 15be 6236 8f3b ad2d bd3d 074e d93d
00000270: 7953 d0bc 1928 41bb f23f 8dbd 6dbc e3bd
00000280: 6e6d 9fbc 6aba e1bd 0449 4fbd 7b4d d03d
00000290: c8f8 bbbd ea10 953d 6751 18bd a41a 11be
000002a0: 76c7 4dbd ec9f 2a3d 7983 f13d 3f9d dfbb
000002b0: 3966 d1bd cbfa b43d bea7 eb3b 2674 583e
000002c0: 2110 1dbe 83c5 083d 5d2e af3d 3e81 66ba
000002d0: 5b05 c0bd a74d f13d 2d0c 073e f4b9 02be
000002e0: 0781 123d aa6c e83d fb4d bf3d 8edf 26be
000002f0: 8512 d4bd 23ed 8dbd 6b5a 693d 82fb ff3d
00000300: 6eaf e13d e995 b8bd b8d0 643c 2a31 80bd
00000310: f94b 083b b845 b3bc e0df 1fbe 4205 583c
00000320: c333 cabc f3ab 353e 07d3 f3bd 5135 59bd
00000330: e9a7 06bb 2fbc 7cbc fc1e 7abd 261a a1bd
00000340: 03f9 c3bd d9fe f6bd 4076 c53d b2fe 49bc
00000350: 45f3 863d 1078 06be 49c5 fabd b86d 073e
00000360: ef18 47be e4e2 83bc f10c 15bc 2f52 f43d
00000370: 2172 873d c575 843c b277 ebbd 13ac 123e
00000380: 38cd 31bd c98a b23d eda8 853d ef49 933d
00000390: 6f25 cfbd 846a 523d 6ed2 a93d 35ff c03d
000003a0: ad97 93bd 0900 6e3d 0a5a 813d bac3 48bd
000003b0: 4343 00be 7e4d 18bd 5f5d 1bbe b052 f7ba
000003c0: c43f c43d a838 f5bd 1b97 203d 9cb6 18be
000003d0: f4b5 643d 2e36 c7bd 07f3 3ebc 01fb 49bd
000003e0: 7b3f 103d f486 4e3c dfbd 2cbd 3d73 b7bd
000003f0: a58b 093d c6ec eabd 591a 203e fa45 e7bd

model.rnn.bias_ih_l1 f4 [160]
-0.060602278 0.07267353 0.13033088 -0.10700315 -0.10004091 -0.033927042 0.144132 -0.024781527
-0.027549842 -0.08691743 -0.14441788 -0.07131839 -0.09202007 0.0805788 0.10034863 0.109231144
0.03536708 -0.06370699 0.013276342 0.052255597 -0.107037 0.16191322 -0.13315341 -0.09839463
0.0460205 -0.044584375 -0.07792574 0.13117395 -0.01539929 0.06668325 -0.020449197 0.0479812
-0.046660606 -0.09308388 0.012847831 -0.08487954 -0.07775108 0.09001329 0.13703088 0.117624395
0.067427 0.054975383 -0.0022405055 -0.031715076 0.036610637 -0.15299203 0.042246323 0.1291153
-0.07113081 -0.11961468 -0.036987025 -0.018249717 -0.04218346 -0.08245319 -0.08346976 -0.057805587
0.035686135 -0.10018614 -0.02123607 0.13591146 -0.06617882 0.12840855 -0.017216627 -0.051163718
0.122931354 0.015047638 -0.006402509 0.120270304 -0.1020063 0.035607416 -0.031210093 -0.09572513
0.075174496 0.05937244 -0.007707802 0.05472143 -0.06180855 0.028334372 -0.039335754 0.074332975
-0.08479733 -0.11087881 -0.02259625 0.020495906 0.109256834 0.106586985 0.046621185 -0.055186525
0.175525 0.07061164 -0.020242209 -0.038387228 0.14108668 0.12451404 0.088303685 -0.12390461
-0.098722756 0.10693078 0.069035344 -0.03378841 -0.038607337 -0.116710015 -0.030153982 0.02496799
0.1282117 0.13857482 0.13186063 0.14025989 -0.094983704 -0.096112035 0.05129512 0.11099335
0.1659252 0.0297395 -0.18762138 -0.15385298 0.07274475 -0.11947929 0.057532575 0.028206456
0.08034003 0.10577802 -0.015193838 -0.12036842 -0.12117544 -0.11866347 0.067376286 0.07382839
0.0019587288 -0.08853472 0.039896686 0.07367598 0.09244264 -0.032444794 -0.12282854 0.07367771
-0.020573188 0.17552133 -0.035735924 0.14905602 0.10973908 0.056803606 -0.034422204 -0.00060043077
0.018247979 0.064076185 -0.01801197 -0.090399444 0.14862707 0.121271476 0.17430976 0.038617127
0.05602307 -0.033698794 0.02072864 -0.057369765 -0.035028473 0.021046115 -0.04120091 0.20857354
00000000: 183a 78bd dcd5 943d 7575 053e 7824 dbbd
00000010: 40e2 ccbd 15f7 0abd 5797 133e a102 cbbc
00000020: 35b0 e1bc c401 b2bd 48e2 13be 600f 92bd
00000030: 0575 bcbd 7f06 a53d 9583 cd3d 94b4 df3d
00000040: 12dd 103d cf78 82bd 0485 593c f709 563d
00000050: 3736 dbbd 94cc 253e 5e59 08be 2083 c9bd
00000060: fe7f 3c3d 1b9e 36bd 8897 9fbd 7752 063e
00000070: 4e4d 7cbc 3a91 883d 1385 a7bc ef87 443d
00000080: 311f 3fbd c3a2 bebd b57f 523c 53d5 adbd
00000090: f53b 9fbd e358 b83d d351 0c3e 0fe5 f03d
000000a0: 2b17 8a3d de2d 613d 72d5 12bb abe7 01bd
000000b0: 09f5 153d f1a9 1cbe 7b0a 2d3d cd36 043e
000000c0: 08ad 91bd 8bf8 f4bd b57f 17bd 6e80 95bc
000000d0: 90c8 2cbd 38dd a8bd 32f2 aabd 8dc5 6cbd
000000e0: a02b 123d 642e cdbd 44f7 adbc 602c 0b3e
000000f0: c388 87bd 887d 033e e209 8dbc 0c91 51bd
00000100: 6fc3 fb3d 5e8a 763c 23cc d1bb 4750 f63d
00000110: aee8 d0bd 15d9 113d 4fac ffbc 890b c4bd
00000120: 16f5 993d 8430 733d bb91 fcbb 9423 603d
00000130: f62a 7dbd 7c1d e83c 871e 21bd e33b 983d
00000140: 39aa adbd 6e14 e3bd c51b b9bc 08e7 a73c
00000150: 0cc2 df3d 474a da3d dbf5 3e3d 440b 62bd
00000160: d3bc 333e d69c 903d fdd2 a5bc ed3b 1dbd
00000170: 0779 103e 3801 ff3d 90d8 b43d b3c1 fdbd
00000180: 282f cabd 86fe da3d 6762 8d3d b765 0abd
00000190: ba22 1ebd a905 efbd 7c05 f7bc ac89 cc3c
000001a0: ee49 033e 8fe6 0d3e 7906 073e 4aa0 0f3e
000001b0: d186 c2bd 63d6 c4bd d51a 523d 7b50 e33d
000001c0: 4ce8 293e 40a0 f33c d21f 40be a38b 1dbe
000001d0: 33fb 943d 8fb1 f4bd 47a7 6b3d 3a11 e73c
000001e0: 5089 a43d 26a2 d83d 93ef 78bc b883 f6bd
000001f0: d42a f8bd d505 f3bd 94fc 893d 5733 973d
00000200: 045e 003b b151 b5bd b56a 233d 6fe3 963d
00000210: 9152 bd3d d5e4 04bd 888d fbbd 57e4 963d
00000220: 1a89 a8bc ddbb 333e d55f 12bd 24a2 183e
00000230: e2be e03d e6aa 683d 4cfe 0cbd 3a66 1dba
00000240: c97c 953c 603a 833d d78d 93bc 5823 b9bd
00000250: b231 183e 2e5d f83d 427e 323e fe2c 1e3d
00000260: 7278 653d bf07 0abd 1ccf a93c 8ffc 6abd
00000270: 047a 0fbd e768 ac3c 49c2 28bd 4d94 553e

model.rnn.bias_hh_l1 f4 [160]
0.067176946 -0.09823878 -0.036504835 0.033756036 -0.018271921 0.11456923 0.08216293 -0.0015366498
-0.120347455 0.082002394 -0.086953565 -0.09038447 0.12003818 0.17051755 -0.0377969 0.13314088
0.041529354 -0.08945277 -0.013791626 -0.0473858 0.12171909 0.18019012 0.10076878 0.08006597
-0.056085855 -0.09224346 0.0831318 -0.016433347 -0.059707794 0.05358325 0.099670105 -0.1309778
-0.0015892459 0.024924705 -0.004007851 -0.14322732 0.09916625 -0.118458875 0.17193235 0.061098605
-0.072606124 -0.014812875 -0.06823628 0.02023929 -0.008310917 -0.10271705 0.09555697 -0.07359846
-0.16305044 -0.1568842 -0.16422413 -0.061232775 0.12337815 -0.018797135 -0.03211343 0.05537013
0.036486942 -0.06285467 -0.042389642 -0.07451391 0.06993372 0.14031133 -0.03817837 -0.09743611
0.093238376 0.07666201 0.029390434 -0.12529519 0.030967671 -0.04049849 0.06131367 0.12912914
0.07474147 -0.09426545 0.107385814 -0.15928131 -0.0194223 0.051556043 0.1504572 0.16672659
0.15378532 0.048982702 0.048357084 0.017830875 0.051741377 0.13907208 0.00041154676 0.08395533
0.024776565 0.080910124 -0.050193872 -0.14021257 -0.047079816 -0.13761733 0.054843996 -0.021060176
-0.06777987 -0.16071203 0.06052786 -0.013709184 -0.1085529 0.09360454 -0.05025104 -0.02718894
-0.1776301 -0.13748285 -0.08999322 0.06578187 0.12335867 -0.11335431 0.00070920313 -0.015091847
0.022093054 -0.0988619 -0.09651892 -0.14990261 0.16680954 0.11009045 -0.009228435 -0.12312399
-0.08487066 0.17680559 -0.03876404 0.15014026 -0.016200025 0.09360152 0.1402928 -0.084194265
0.0706609 0.09847852 -0.0889933 0.100573175 0.05768195 -0.065215826 0.12161928 0.01756818
0.110444784 0.11260001 0.03401244 -0.08783181 -0.06945966 0.013318283 0.07012107 0.031738468
-0.037971 -0.038061112 -0.11327802 -0.008643181 -0.021348523 0.05874745 0.13607217 0.16390345
0.14786434 -0.16438267 0.016980305 -0.02643027 -0.07902291 0.18976465 -0.09696856 -0.08701479
00000000: 1194 893d 6a31 c9bd 1886 15bd c543 0a3d
00000010: ffae 95bc 46a3 ea3d 0a45 a83d 6969 c9ba
00000020: ba78 f6bd dff0 a73d b614 b2bd 7e1b b9bd
00000030: 94d6 f53d 279c 2e3e ecd0 1abd 1556 083e
00000040: af1a 2a3d 0433 b7bd 46f6 61bc 9d17 42bd
00000050: dc47 f93d c283 383e dd5f ce3d a1f9 a33d
00000060: 48ba 65bd 24ea bcbd 0141 aa3d 3a9f 86bc
00000070: 2990 74bd 1c7a 5b3d d71f cc3d 0b1f 06be
00000080: 3e4e d0ba e52e cc3c 4a54 83bb 2faa 12be
00000090: ad17 cb3d 919a f2bd 090f 303e 8842 7a3d
000000a0: 85b2 94bd b3b1 72bc 76bf 8bbd decc a53c
000000b0: 832a 08bc 515d d2bd 5fb3 c33d caba 96bd
000000c0: b2f6 26be 40a6 20be 5f2a 28be 38cf 7abd
000000d0: afad fc3d 73fc 99bc 5f89 03bd cacb 623d
000000e0: 5573 153d f3b9 80bd c3a0 2dbd c09a 98bd
000000f0: 6939 8f3d c6ad 0f3e ec60 1cbd 958c c7bd
00000100: c3f3 be3d f900 9d3d 35c4 f03c 624d 00be
00000110: eaaf fd3c bfe1 25bd 0b24 7b3d 6e3a 043e
00000120: 0e12 993d 3f0e c1bd 18ed db3d a41a 23be
00000130: 841b 9fbc 6e2c 533d 7411 1a3e 60ba 2a3e
00000140: e679 1d3e 16a2 483d 1412 463d 0e12 923c
00000150: c4ee 533d e968 0e3e dfc4 d739 c6f0 ab3d
00000160: 39f8 ca3c 35b4 a53d 1798 4dbd e293 0fbe
00000170: c4d6 40bd 8feb 0cbe 19a4 603d 6486 acbc
00000180: 2cd0 8abd b291 24be 10ec 773d 7c9c 60bc
00000190: fc50 debd bdb3 bf3d 09d4 4dbd 57bb debc
000001a0: aae4 35be 4ec8 0cbe 5e4e b8bd a5b8 863d
000001b0: 78a3 fc3d 4e26 e8bd d1e9 393a cb43 77bc
000001c0: 7efc b43c 1c78 cabd b6ab c5bd 1280 19be
000001d0: 1fd0 2a3e 1a77 e13d dd32 17bc 6e28 fcbd
000001e0: abd0 adbd 860c 353e 0bc7 1ebd 5ebe 193e
000001f0: eab5 84bc 27b2 bf3d eaa8 0f3e 0b6e acbd
00000200: a9b6 903d 1baf c93d 1f42 b6bd 4ff9 cd3d
00000210: e943 6c3d e08f 85bd 8713 f93d 25eb 8f3c
00000220: e030 e23d d69a e63d a150 0b3d 2ae1 b3bd
00000230: de40 8ebd ed34 5a3c a39b 8f3d 3200 023d
00000240: 7b87 1bbd f8e5 1bbd 4efe e7bd 219c 0dbc
00000250: 19e3 aebc 2ba1 703d 8156 0b3e 4ed6 273e
00000260: c069 173e ee53 28be 481a 8b3c 4b84 d8bc
00000270: c3d6 a1bd aa51 423e 7497 c6bd cf34 b2bd

exp_avg f4 [1, 40]
-0.0017444812 0.002016345 -0.0008380792 0.0013168263 -1.6682025e-05 3.3096443e-05 0.0015719222 -0.0014083593
-6.816996e-05 -0.0011019538 -2.639414e-06 0.0017024617 -5.143884e-05 -3.1559644e-05 0.000114228176 0.0016882154
-0.0016100758 0.0016498935 0.002473387 -0.0017219118 0.0017301937 2.834329e-05 -0.00014204744 0.0007985134
0.001781506 -6.49489e-05 0.0017082897 -0.0016716511 -0.00013415897 0.0017716915 0.0017178383 -0.00021182498
-0.0005674656 -0.00020473191 0.001730273 2.0825939e-05 0.00011681454 -0.0017428889 -0.0017524586 0.0017783248
00000000: 13a7 e4ba a824 043b 8bb2 5bba 5c99 ac3a
00000010: 60f0 8bb7 09d1 0a38 f508 ce3a b298 b8ba
00000020: 78f6 8eb8 6f6f 90ba ca20 31b6 2325 df3a
00000030: 09c0 57b8 e95e 04b8 c98d ef38 1c47 dd3a
00000040: 2e09 d3ba 3d41 d83a 8c18 223b c6b1 e1ba
00000050: abc7 e23a c0c2 ed37 92f2 14b9 5453 513a
00000060: 6c81 e93a 2d35 88b8 b1e8 df3a 4e1b dbba
00000070: 06ad 0cb9 1a38 e83a 1729 e13a 561d 5eb9
00000080: f9c1 14ba 4ead 56b9 54ca e23a 5db3 ae37
00000090: 54fa f438 a671 e4ba c1b2 e5ba ae16 e93a

exp_avg_sq f4 [1, 40]
7.431933e-06 1.2004109e-05 1.0671108e-05 4.596798e-06 7.152429e-07 5.676844e-08 8.12034e-06 1.2448498e-05
2.2959189e-07 6.641627e-06 2.0810159e-08 7.1747468e-06 1.1309405e-06 1.7461533e-06 2.150468e-06 9.19196e-06
6.8016834e-06 1.1011336e-05 5.94823e-06 6.909746e-06 8.3761015e-06 4.213559e-06 1.2156711e-08 2.0648688e-06
6.394379e-06 3.3457766e-08 5.1083816e-06 9.717178e-06 9.630916e-07 1.0376918e-05 1.1242391e-05 9.029497e-09
1.0094571e-05 1.7108243e-07 1.156619e-05 2.2422644e-07 7.867647e-06 1.1972111e-05 1.0687949e-05 1.2894967e-05
00000000: d25f f936 4165 4937 0f08 3337 323e 9a36
00000010: 1eff 3f35 8fd1 7333 983c 0837 e4d9 5037
00000020: bd85 7634 24db de36 06c2 b232 9bbe f036
00000030: d2ca 9735 5f5d ea35 c250 1036 2b37 1a37
00000040: 043a e436 54bd 3837 e896 c736 44da e736
00000050: 1587 0c37 3262 8d36 c8d9 5032 2d92 0a36
00000060: 4c8f d636 34b3 0f33 aa68 ab36 f606 2337
00000070: 9343 8135 8618 2e37 b49d 3c37 2620 1b32
00000080: da5b 2937 c8b2 3734 680c 4237 e5c2 7034
00000090: 49ff 0337 d3db 4837 6450 3337 7657 5837

exp_avg f4 [1, 40]
0.019743487 -0.120234564 -0.010830626 -0.017800715 -0.003232386 0.0012397976 -0.020819098 -0.0025963709
-0.007866401 0.027394854 -0.000120392884 -0.01555419 0.028387519 -0.007890202 0.008204147 -0.0053051934
0.007857628 -0.00074166805 0.018224321 -0.0011278167 0.0025297105 0.0015854803 0.006645466 0.0860177
-0.007829122 -0.005035474 -0.014685474 -0.036425784 0.09658871 0.001630567 0.00426396 -0.0069963606
-0.11894941 0.0077838753 0.003143929 0.0026132932 -0.0069847447 -0.0010561347 -0.0031638294 0.0026594773
00000000: 18bd a13c 8a3d f6bd f072 31bc ced2 91bc
00000010: 70d6 53bb b480 a23a d08c aabc e027 2abb
00000020: 14e2 00bc 2c6b e03c 707b fcb8 00d7 7ebc
00000030: f18c e83c e845 01bc b06a 063c 30d7 adbb
00000040: 48bd 003c 806c 42ba 2c4b 953c 40d3 93ba
00000050: 80c9 253b e4cf cf3a 36c2 d93b 0c2a b03d
00000060: b845 00bc 9e00 a5bb 589b 70bc 3433 15bd
00000070: 4dd0 c53d c0b8 d53a b0b8 8b3b ba41 e5bb
00000080: c09b f3bd e10f ff3b 600a 4e3b c943 2b3b
00000090: 49e0 e4bb 006e 8aba 4058 4fbb a04a 2e3b

exp_avg_sq f4 [1, 40]
0.3443148 0.2560583 0.30788743 0.23629655 0.00028003857 0.0006261035 0.28771237 0.3617899
0.0005640125 0.2235655 7.908337e-05 0.24948934 0.015068312 0.016183224 0.012751696 0.3627658
0.3647082 0.368235 0.3130916 0.3634777 0.36778352 0.014175181 0.00029028032 0.1128446
0.3446391 0.0007546162 0.32778767 0.31894523 0.01387408 0.3639284 0.36865076 0.0007681124
0.29887915 0.0013507637 0.3693877 0.00023552781 0.009919773 0.36538148 0.3692485 0.3706753
00000000: 084a b03e 131a 833e 6ca3 9d3e b9f7 713e
00000010: 24d2 9239 1821 243a 094f 933e 873c b93e
00000020: 3dda 133a 5bee 643e 90d9 a538 227a 7f3e
00000030: 15e1 763c ae92 843c 7dec 503c 70bc b93e
00000040: 08bb ba3e 4c89 bc3e 8b4d a03e c019 ba3e
00000050: 1f4e bc3e 053f 683c c430 9839 121b e73d
00000060: 8974 b03e 70d1 453a c9d3 a73e ca4c a33e
00000070: 1c50 633c d354 ba3e cbbf bc3e 275b 493a
00000080: b006 993e 1c0c b13a 6220 bd3e 04f8 7639
00000090: 8b86 223c 4813 bb3e 240e bd3e 27c9 bd3e

exp_avg f4 [1, 40]
0.01226289 -0.022572927 -0.00067295786 -0.008595153 0.000340722 0.00024688104 -0.013309733 0.005338296
0.0013654708 0.014253858 -0.00012215922 -0.01743248 0.004048267 -0.0019551336 0.003193339 -0.010335037
0.008421431 -0.0092739705 -0.019425012 0.011482615 -0.011304902 0.0038222158 0.0014971616 0.0038052918
-0.012899341 6.938352e-05 -0.00847777 0.011145571 0.0070781023 -0.012376126 -0.011141572 0.0022907879
-0.004615433 0.000933259 -0.011519359 -0.0004195709 0.0017464595 0.011884702 0.011854359 -0.012450082
00000000: 4aea 483c dcea b8bc 7069 30ba afd2 0cbc
00000010: efa2 b239 d06f 8139 1111 5abc dfec ae3b
00000020: 99f9 b23a 0389 693c de17 00b9 8fce 8ebc
00000030: 53a7 843b b321 00bb 5747 513b 4954 29bc
00000040: 0bfa 093c daf1 17bc 3421 9fbc 9421 3c3c
00000050: 3238 39bc 247e 7a3b 683c c43a 3462 793b
00000060: c257 53bc fe81 9138 58e6 0abc ea9b 363c
00000070: 6def e73b 3cc5 4abc 248b 36bc 0b21 163b
00000080: 0f3d 97bb f4a5 743a b2bb 3cbc daf9 dbb9
00000090: 75e9 e43a 0eb8 423c c938 423c 6efb 4bbc

exp_avg_sq f4 [1, 40]
0.0021560765 0.006709801 0.005312435 0.0013139646 0.00068377814 1.5703514e-05 0.0039427304 0.0069127944
8.981796e-05 0.0025091425 7.140597e-06 0.00310987 0.00048809312 0.0009661282 0.000983712 0.0036052351
0.0016230671 0.0051066335 0.0014190658 0.0016057019 0.002482082 0.003052516 3.2021208e-06 0.0005761498
0.001551153 1.3743846e-05 0.0011826393 0.0039303508 8.6980384e-05 0.004467648 0.0053624944 2.7093388e-06
0.004721 3.292363e-05 0.0049556945 9.780248e-05 0.0060171196 0.0063621136 0.0042770095 0.006873595
00000000: f64c 0d3b e4dd db3b ef13 ae3b 5639 ac3a
00000010: 933f 333a 0abb 8337 0532 813b b984 e23b
00000020: a65c bc38 6d70 243b 4399 ef36 f6ce 4b3b
00000030: c0e6 ff39 c443 7d3a e6ef 803a cf45 6c3b
00000040: 18bd d43a 8c55 a73b f2ff b93a 6a76 d23a
00000050: 6daa 223b b80c 483b 04e4 5636 c208 173a
00000060: 0f50 cb3a 5e95 6637 ca02 9b3a 2cca 803b
00000070: 3d69 b638 5965 923b ddb7 af3b 16d2 3536
00000080: 9eb2 9a3b 7b17 0a38 6163 a23b 4e1b cd38
00000090: 422b c53b 4779 d03b 2826 8c3b e53b e13b
