deep-learning/rv_only/lightning_logs/version_60/checkpoints/epoch=4-step=250.ckpt (torch, 331231 bytes, 33 tensors)

model.param_proj.proj.0.weight f4 [1, 40]
00000000: a9e9 bcbd a6e0 b83d 25a6 e73d e7d5 90bc
00000010: a8e1 db3d 35e8 183e ae6e 9b3d f98e 12be
00000020: cc63 4b3d fdc2 8bbc 9587 14bd cc01 eabb
00000030: 4c05 3dbe 9a24 423e 09a0 c83d b29d 41bb
00000040: 92b3 d7bd 47c7 4a3e 212a 313e f838 343e
00000050: ea15 203b 92b6 403d 4016 4ebe 9110 53be
00000060: 4095 65be a44a 693e 3cd6 babc 7a9a 05bd
00000070: 9517 9b3d d35a 393e 8a9d ee3c 311f fbbd
00000080: 5048 103e e03e 47be 5980 933b 56b1 743d
00000090: 45f3 d23b 494c 073e 3b9d 143e 8ec2 92bd
-0.09224255 0.09027223 0.113109864 -0.017680122 0.107364 0.1493233 0.0758947 -0.14312352
0.04965572 -0.017060751 -0.036262114 -0.0071413275 -0.18459052 0.18959275 0.09796149 -0.0029543457
-0.10532297 0.19802581 0.17301227 0.17599857 0.0024427124 0.047049113 -0.20125675 -0.20611788
-0.22420216 0.2278238 -0.022807233 -0.032618023 0.07572857 0.18101053 0.029127855 -0.12261809
0.14090085 -0.19457579 0.004501384 0.059739433 0.0064376914 0.13212694 0.14513104 -0.071660146

model.param_proj.proj.1.weight f4 [1, 40]
00000000: 2a66 a93d a325 c83d d6fc 96bd 9040 82bd
00000010: 53fb 2dbe fa16 fe3d 302b 43bd afef 12bd
00000020: 9922 3b3d 30b5 0b3e 9f7d d7bd 334e dd3d
00000030: bdde e1bd 9399 413d 1f93 97bd daa1 d7bc
00000040: 2728 d6bd 4559 813d 1d58 143e 4a05 f7bd
00000050: 1fb9 52bd 30fa 9b3d f3e1 3dbd b2db 46bd
00000060: b276 bbbd 3223 20be d7e0 0e3d eea8 1b3d
00000070: 5507 543d fce9 df3d 5107 fdbd d093 fcbc
00000080: 5013 0f3e 3fd5 3dbe aa56 15bd fb60 a43d
00000090: 3247 09bd 6faf 033e 2382 623d ff7c 493b
0.082714394 0.09772804 -0.073724434 -0.063599706 -0.16990404 0.12406726 -0.04764861 -0.03587311
0.04568729 0.13643336 -0.10522007 0.10805931 -0.11028812 0.0472656 -0.07401108 -0.026322294
-0.10456877 0.06315855 0.14486738 -0.12061556 -0.051446076 0.07616079 -0.04635806 -0.04854936
-0.09153499 -0.15638426 0.034882393 0.0380029 0.051764805 0.10933301 -0.12354911 -0.030832201
0.13972211 -0.18538378 -0.036459602 0.0802631 -0.033515163 0.12859891 0.05529989 0.003074467

model.param_proj.proj.2.weight f4 [1, 40]
00000000: 3067 153e 678c 043e ce67 2bbe 149d ad3d
00000010: bd4d e13d 457b f5bd 3ec1 293e 7890 123e
00000020: beb7 743d e2e6 843d f900 16be c13c 6f3d
00000030: a6d3 443e fa18 27be 57d2 49bd c383 853d
00000040: b517 dc3d 9909 6bbd b6f3 0ebe abfe a8bc
00000050: 231a d23d bf5b 74bd a29a 463d 6664 da3d
00000060: 0ba6 3f3d ea2f b93c 1942 15be e47d 07bd
00000070: 5835 0d3e b288 27bd ab47 433e 39f1 873d
00000080: db45 723d c46c 143e ab38 d9bd 7406 48be
00000090: 2928 35bc 80fa e13c 05d9 3dbe 0639 423d
0.14590144 0.12944184 -0.16738817 0.08477226 0.110011555 -0.119864024 0.16577622 0.14312923
0.059745543 0.0648935 -0.14648809 0.05840755 0.19221362 -0.16318122 -0.04927286 0.06519272
0.10746709 -0.0573822 -0.13960156 -0.020629248 0.102588914 -0.05965781 0.048487313 0.10663681
0.04678921 0.022605855 -0.14575996 -0.033079043 0.1378988 -0.040901847 0.19070308 0.066378064
0.05914865 0.14494616 -0.10606512 -0.19533712 -0.011056938 0.027585268 -0.18539818 0.047417663

model.rnn.weight_ih_l0 f4 [160, 37]
00000000: 3f21 bcbd bc61 14bd 49b2 8c3d b0eb 2c3e
00000010: 3362 e5bd eb11 0abd c4b3 223e 1d95 82bc
00000020: 9dd9 7f3d 09ba 503c 1eb8 78bd a4d9 8a3d
00000030: 432e f03c 46c9 01be c08d 3a3c 2b12 f9bd
00000040: 5a06 a3bd 57f8 9abd fe16 bcbd a46d a3bd
00000050: af0f 833d d331 f53d 5fa9 e6bd 2090 e43c
00000060: 4750 263e 95a7 013e 7485 cbbc 0058 7a3b
00000070: 2e83 0c3d e04d 6fbd e0e3 10bd 2602 cb3d
00000080: 976b 5a3d 73f1 f53d da8a e9bd 3b62 20be
00000090: f48f 3dbd 395e aa3d 2343 98bc 5317 373e
000000a0: 4b12 2b3d 326d 003e b03e b63d 3ce7 d13d
000000b0: 6fd8 273d 6be6 4bbd 24b5 d6bd 1552 cdbb
000000c0: c470 cebd a3be 273d f922 14be c54a 233e
000000d0: 34e7 033e e576 ebbd 1693 19bd ee97 a53d
000000e0: 1208 273e 8fc9 193e e7e3 003e ce7c d43d
000000f0: 7f73 213e b99e 26be 5054 96bd 8d84 2dbd
00000100: f9d3 c73c dc28 4e3c a5bc 0b3d d56e 073e
00000110: e840 98bd b45a b63d 0bc6 1e3e 2bcc 063e
00000120: 3336 ee3d 3c6d db3d 2150 35be 7570 c83c
00000130: ef46 013e a447 1a3c 0e1a 61bd 9003 bb3a
00000140: 19ab 34bd 2f45 93bb 56a7 013d 72b3 43bd
00000150: 3c41 df3d f89a bc3c 1198 9f3d c1eb 03be
00000160: f21d 10be 30c6 febd 3616 91bd b304 07bd
00000170: b5c8 ff3d 6cb9 e6bd 5c1e f03c d770 dfbd
00000180: 4941 c8bd 1772 303d 8c01 bebd 31a7 8a3d
00000190: 638d 3d3e 9ddf 0a3e 92e8 20bd 74e9 fc3c
000001a0: e4ec 293e ecdf b8bc 4959 e4bc fd1d abbd
000001b0: 4006 d93c ecd9 8abd 87d6 1b3e 90dc bfbd
000001c0: 895c 2e3e d9b0 323d 49c5 82bd 1762 e13c
000001d0: 2dac 213e fb82 163e 2e5d a23d e6bb ac3d
000001e0: 6175 993c 7dce 6b3d f974 0cbe a7e8 20be
000001f0: 8aa1 683d 4545 2b3d f0e4 9e3d 7463 b73d
00000200: 1a86 d63c c384 2c3e 9826 8fbd fe39 87bd
00000210: 5c9b 453e 42a0 acbd ada3 65bc 595d 593d
00000220: f667 a73d 42e9 bcbd 14e6 d53c 21d5 eb3d
00000230: c2c0 f0bd 6d17 0c3e 3471 903d 595d da3c
00000240: a9f2 00bd 459f bbbc 4f59 fcbd 42a8 993c
00000250: ce12 46be 0104 dcbd dbb2 24be 4445 86bd
00000260: de15 a83c 226b 023c ea62 39bc 3efa b13d
00000270: 661a e23d 7126 b93d 7f9a 86bc 64c9 acbd
00000280: e6a8 3fbd 27b6 aeb9 95a4 8f3d 313e cbbd
00000290: a2e3 bb3d 9eab 043d abab 393d bd1f f0bc
000002a0: a7ad 493d 495d 25be 82d7 88bc d719 4fbd
000002b0: ec83 4c3d a377 d33d 4652 36bd 6fb1 043d
000002c0: 940d 073e 79f1 843d bbb4 b2bd d77c 973d
000002d0: a412 713c 56f3 bdbc 8908 d13c 833a fc3d
000002e0: f5ba 30bd 1b8b ce3b 825d 463e 2785 55bd
000002f0: 1342 1d3e ec76 7d3d 156b 073e 7ce7 7d3d
00000300: f1d0 a13d c978 e63c 7ac9 90bb db65 153e
00000310: 4a1d 1f3e 2064 b6bd 59ec 9e3d 1d05 af3c
00000320: a5bc c53b f6c2 30bd 5703 62bc 97f7 aa3d
00000330: cbdc 743e d639 12bd 0f81 63bd 76ab 04bc
00000340: 4528 afbd 5af1 4fbd b71e 673d 62d7 3f3e
00000350: f8fc 3fbd c29f f0bd afe9 c1bd 8ee2 01bd
00000360: 0070 cc3d 1e80 08be 2a93 cdbd 90b2 79bd
00000370: 9711 f93d b649 cfba e502 c2bd 7bed 55be
00000380: 49b0 af3d e61d 3bbe 6489 9cbd 87a3 93bc
00000390: 9c3c 1fbe 9b2b dcbd afd6 ea3d e848 b03c
000003a0: 385a 2abd ad8f 0a3e a874 a5bd 7506 dc3b
000003b0: e09b b7bc 3050 053e 0668 153e 426a a33c
000003c0: 5410 933d 6156 3a3d 51b6 023e c51c 99bc
000003d0: c686 f73d 14a5 07be 2aa3 0dbd af58 243e
000003e0: 3928 94bd 2bca 433e e763 cebd e655 a8bd
000003f0: b1fc c03d 6f47 7f3a e941 a0bd da56 d2bc
-0.09186029 -0.03622602 0.06869943 0.16886783 -0.11200371 -0.033708494 0.15888888 -0.015940243
0.06246339 0.012739667 -0.060722463 0.06779793 0.029318934 -0.12674436 0.011386335 -0.121616684
-0.07960196 -0.07566898 -0.09184073 -0.07979897 0.06399476 0.11972394 -0.11262774 0.027900755
0.16241561 0.12661584 -0.024843909 0.0038199425 0.03430479 -0.058423877 -0.03537357 0.09912519
0.053325262 0.120089434 -0.11403437 -0.15662472 -0.046279863 0.08318753 -0.0185867 0.17879991
0.041765492 0.12541655 0.088986754 0.102491826 0.04097789 -0.04978029 -0.104837686 -0.0062658885
-0.10080102 0.04095329 -0.14466466 0.15946491 0.12881166 -0.11497287 -0.037493788 0.08085619
0.16311672 0.15018295 0.12586938 0.10375367 0.15766715 -0.16271485 -0.073403 -0.04236274
0.024393069 0.012582984 0.034115452 0.13225873 -0.07434255 0.08904019 0.15505235 0.13163821
0.116314314 0.10714194 -0.17706348 0.024467686 0.12624715 0.0094164945 -0.05495649 0.001426803
-0.044108484 -0.0044943313 0.031653725 -0.047778554 0.10901114 0.023023114 0.07792676 -0.12882902
-0.14073923 -0.12440145 -0.070843145 -0.032963466 0.12489454 -0.11265835 0.029311351 -0.10910194
-0.09778077 0.043077555 -0.09277639 0.067701705 0.18510966 0.13561864 -0.039284296 0.030873038
0.16594273 -0.022567712 -0.027874606 -0.08355329 0.026492238 -0.067798465 0.15218554 -0.09368241
0.17027487 0.043625686 -0.063852854 0.027512593 0.15788336 0.14698403 0.07927929 0.08434276
0.018732728 0.05756997 -0.13716497 -0.1571375 0.05679468 0.041814107 0.0775851 0.08954516
0.026186991 0.1684752 -0.06989783 -0.06602858 0.19297546 -0.08429004 -0.014016074 0.05306754
0.08174126 -0.09224178 0.026110686 0.115152605 -0.11755516 0.13680811 0.07052842 0.02665584
-0.03148142 -0.022903094 -0.12321722 0.01875699 -0.19343111 -0.10742951 -0.16083853 -0.0655618
0.02051824 0.007960113 -0.011315087 0.08690308 0.11040191 0.09040535 -0.016431091 -0.0843685
-0.046791933 -0.0003332358 0.070138134 -0.099239714 0.09174277 0.03239023 0.04532973 -0.029312009
0.049237873 -0.16148867 -0.016704325 -0.050561752 0.049930498 0.10325553 -0.044512056 0.032395776
0.13188773 0.0649137 -0.08725878 0.07396858 0.014713917 -0.02318732 0.025516765 0.12315848
-0.043147046 0.0063032038 0.19371608 -0.052128937 0.15357237 0.06188099 0.13224442 0.06198834
0.079011805 0.028133767 -0.004418549 0.14589636 0.15538517 -0.08905816 0.077599235 0.021364743
0.006034451 -0.04315468 -0.013794742 0.08348005 0.23912351 -0.035699688 -0.055543 -0.00809752
-0.08552603 -0.05076728 0.056425776 0.18734506 -0.04687211 -0.117492214 -0.094684 -0.0317102
0.099823 -0.13330123 -0.10037835 -0.060961306 0.12161558 -0.0015814814 -0.09473208 -0.20891373
0.085785456 -0.18273124 -0.07643393 -0.018022312 -0.15550464 -0.107505046 0.11466729 0.02151914
-0.041589946 0.1353137 -0.08078891 0.006714637 -0.022413194 0.1301887 0.14590463 0.019948129
0.07180849 0.045492534 0.1276486 -0.018690476 0.12086253 -0.13246566 -0.034579434 0.16049455
-0.07234234 0.1912009 -0.100776486 -0.08219509 0.09423197 0.00097381225 -0.07825071 -0.02567618

model.rnn.weight_hh_l0 f4 [160, 40]
00000000: 0629 56bd 931b a53d 46ce eb3d 54b4 b63d
00000010: bee8 563d 2835 13bd fbb0 3fbd 47a0 12be
00000020: 4588 393e 8b6c 923d c3a4 cbbd 6a0f ad3c
00000030: 19b7 033e 97e2 e5bd b374 a23d 9153 01be
00000040: c25a babc a8f9 f6bc 5e7f 8a3d dc5a c53d
00000050: 5689 4ebd aa53 473d 7b52 6bbc e509 a3bd
00000060: b0e9 efbd 6aba 1dbd 52ad 153c 342b 1fbe
00000070: ee07 10be a63c f3bd 9d10 9a3d e419 3cbc
00000080: e1be 7a3e 6211 0d3e ed02 babd 8c66 a0bd
00000090: c2d4 063d be20 213e 7702 6b3d 52df 1c3d
000000a0: 3fa3 8fbd ade6 053e deba d53d 0ee6 14bc
000000b0: 1cf9 c6bd 77d8 343e ab44 ab3d 838b 08be
000000c0: bc14 a7bd 7920 d73d 7247 3a3d 5d23 de3d
000000d0: 004e a93b ce9f 7a3d 1b6c d93c 1e8c 04be
000000e0: 09a5 083d 8c30 123d 2525 0cbe d0da 11be
000000f0: ecb1 063d bfb0 12be 39c9 17bc edb5 463d
00000100: 537d 4e3c 5c14 013d f314 adbc 57e8 ec3c
00000110: 7e61 96bd 3c4b cabd 6a5d 083e fa08 0fbd
00000120: 6d7c 1b3d 9dad 173e 0b95 083d 994f 00bd
00000130: dc8c 63bd 54e6 03be e853 953d 4138 a6bd
00000140: e162 42bc 954d 05be 1690 dd3d 7126 28bd
00000150: 4118 7e3d 2ae2 963d f704 6a3d 28e6 cdbd
00000160: a1b2 1b3e 7eda 543d 4a51 03be 7326 ea3d
00000170: b279 7a3d 987f c93d 31b3 efbd 72b0 df3d
00000180: 660f dbbc 7d6c d93b 36a0 90bd e446 733d
00000190: b5ca c7bd 38f6 50bc 6a48 e2bc 09c1 33be
000001a0: 45b4 11be f06c 913d ed3e 08be 60da f73d
000001b0: 90da 073e 1f37 cebb 2df7 943c 4975 843d
000001c0: 1e3d 76bd 95e2 b9bd f08d ff3d a1ed 2dbd
000001d0: 5382 483d 1e94 cabd 0e75 723d 06e6 dbbd
000001e0: 1dc5 8b3c ea2c 263e c2e7 723d 3ed2 f8bd
000001f0: c67c 143e 0936 f6bd ab7d 23bd 3907 313e
00000200: 36b1 46bd 63a3 8f3d bd76 173e 58a4 013e
00000210: d61b 863d f1b5 eb3d eef6 b93d ac28 39bd
00000220: ab37 853c ee45 c9bd 5cb4 9cbd 8889 e93d
00000230: e3f2 b53d 0b35 3bbd 7e89 d73d 14b2 f83d
00000240: 4a18 1abd 2397 ad3c 534b ee3c 644a c7bd
00000250: 7e22 aebd 9a48 d9bd e274 23bd c072 3bbd
00000260: d97e 1fbe 2610 943d 8a79 183d 7daa 183e
00000270: 6f32 ec3d c197 e3bd 26e4 153d cf55 263e
00000280: 8d6b c2bd 0917 683d 8fb9 293e 2e54 c7bd
00000290: 0884 b9bd 5210 103e 5b89 e83a e062 d6bd
000002a0: 8ddb 4bbd 4128 1b3e e49f cabd 1601 01be
000002b0: 5695 87bd 0016 ef3d 1e62 65bd 496a 8b3d
000002c0: 6f77 fd3d d1fb eebd be99 9d3c ef2b 743d
000002d0: 56e1 703d 2998 1d3e 5ba3 4e3e faa6 c0bd
000002e0: 2ea9 99bd e3b2 5d3d e627 bbbc c9d1 033c
000002f0: 9430 123e 297e c93d d8cd 05be afa1 f3bb
00000300: 8140 16be 73ac 55bd 0afc 4bbe ed55 753c
00000310: ec75 05be 7681 4ebd 46ad aabd 602a 943d
00000320: c0a7 32bd b4e6 91bd 6eed a13d 7bb6 b5bd
00000330: 57f1 8cbd c626 27bc 162c 5cbd 1162 e1bd
00000340: 29a4 c43d 635e 0a3e 4549 733d 56c8 bbbd
00000350: e493 3dbb f7d5 24bb b34e 6ebe 0fb2 193d
00000360: 5e38 c03c f15c 183d f646 8d3d c272 d03d
00000370: d333 93bd fd6a 2a3c 0616 2c3e 861b 813d
00000380: 3098 28be 656b 1f3d a913 01be 20db 153c
00000390: 5db3 5a3e 1a25 17bd 43ee 833d af5b e0ba
000003a0: 116e 063d e99f 3cbe de5e 61be 1854 ac3d
000003b0: ad1a 2c3d fc6c 373d a202 91bd 75b3 2ebe
000003c0: 2bd2 d93d f597 16be 160a 8f3c e9f1 f33d
000003d0: f0ac 9dbd fcc6 d73c 0b1d d03d 60c7 1dbd
000003e0: 093e 21bd b539 8b3d fb3c a63d 3e77 64bd
000003f0: 03e4 d03d 4990 dd3d cc6a c7bd c5f8 90bd
-0.052285217 0.080619 0.11513953 0.089211136 0.052468054 -0.035939366 -0.04679964 -0.14318953
0.18118389 0.07149609 -0.09943535 0.021125514 0.12862815 -0.11224859 0.07932415 -0.12629534
-0.022748355 -0.030148342 0.067625746 0.09636471 -0.050423943 0.048663773 -0.014362927 -0.079608716
-0.11714494 -0.038507856 0.009135561 -0.15543824 -0.14065525 -0.11876802 0.075227 -0.011480782
0.24486877 0.13776162 -0.09082589 -0.07832059 0.032917745 0.15735146 0.057375398 0.038298912
-0.070135586 0.13076277 0.10436033 -0.009088052 -0.097154826 0.176607 0.08362707 -0.1333447
-0.08158252 0.105042405 0.04547829 0.10846589 0.005166769 0.061187558 0.026540807 -0.12944075
0.033360515 0.03569083 -0.13686045 -0.14243627 0.032884523 -0.14325236 -0.009264284 0.04851334
0.012603122 0.031513557 -0.021128153 0.028919382 -0.07342814 -0.09877631 0.13316885 -0.03492067
0.03796046 0.14812322 0.033345263 -0.03132591 -0.055554256 -0.12880832 0.072913945 -0.08116198
-0.011864395 -0.13017876 0.10818498 -0.041052286 0.06203485 0.07367356 0.05713364 -0.100536644
0.1520486 0.051966183 -0.12823978 0.11433115 0.061151214 0.0983879 -0.117041 0.10922326
-0.026740741 0.0066352473 -0.07061808 0.05939378 -0.0975546 -0.012754016 -0.02762242 -0.17554106
-0.14228924 0.07100856 -0.13305254 0.121021986 0.13266969 -0.006293192 0.018184269 0.06467683
-0.06011688 -0.0907642 0.12478244 -0.04246295 0.04895241 -0.09891532 0.059193663 -0.10737233
0.017061764 0.16228071 0.059303053 -0.121494755 0.14500722 -0.12022025 -0.03991477 0.17287911
-0.048508845 0.070135854 0.14791389 0.12660348 0.06548278 0.11509312 0.09080301 -0.045204803
0.016261896 -0.09827791 -0.07651588 0.11403185 0.088842176 -0.045704883 0.105242714 0.12143341
-0.03762082 0.021190232 0.029088652 -0.09730986 -0.085026726 -0.10609551 -0.03990639 -0.04576373
-0.15575732 0.072296426 0.037225284 0.14908786 0.11533057 -0.11112929 0.036594532 0.16243671
-0.0949317 0.056662593 0.16574691 -0.09732853 -0.09058386 0.14068726 0.001774113 -0.10468078
-0.049769927 0.15152074 -0.09893778 -0.1259807 -0.066202804 0.11674118 -0.056001775 0.06807382
0.12376296 -0.11669124 0.019238349 0.05961221 0.058808647 0.15390076 0.20179503 -0.09406848
-0.075029716 0.054125678 -0.022846173 0.008045622 0.14276344 0.09838516 -0.13066804 -0.0074350457
-0.14673044 -0.052166414 -0.19920364 0.0149741 -0.13033265 -0.050416432 -0.083338305 0.07234645
-0.04361701 -0.07124081 0.07906614 -0.08872696 -0.068819694 -0.010202115 -0.05375298 -0.11005033
0.096016236 0.13512568 0.059396047 -0.091690704 -0.002892726 -0.0025151947 -0.23272209 0.037523326
0.023464378 0.03719801 0.068983 0.10178138 -0.07187619 0.010401485 0.16805276 0.06304078
-0.16464305 0.03892078 -0.12605156 0.009146482 0.21357484 -0.036900617 0.06441929 -0.0017117168
0.03281981 -0.18420376 -0.22008845 0.08414477 0.042017628 0.04478167 -0.0708058 -0.17060645
0.106357895 -0.14706405 0.017460864 0.11911375 -0.07699001 0.02634 0.101617895 -0.038520217
-0.039365802 0.06798116 0.081171 -0.05577778 0.1019974 0.10818536 -0.09737167 -0.07078699

model.rnn.bias_ih_l0 f4 [160]
00000000: 10d2 d5bd a45b 04be e9aa 72bd 1e0c e9bd
00000010: 160c 163c 8c59 273e 8395 953d 7917 d0bc
00000020: 0b4d 9e3d 6e74 e43c 414a dabc b492 bebc
00000030: 692e 8ebd fc5a 233e 3c54 263e 7620 05bc
00000040: 4cbb 923d 5f37 4ebd 871b bebd ce7a 5dbd
00000050: c8b6 d73c 173f 1d3e 7f96 45bd ca51 b93c
00000060: 9440 d03d 850c fbbd 63bf 9dbd 33c5 0a3c
00000070: 7ec8 293e 5706 a73d 9257 9c3d 9e5c 32bd
00000080: 3f9a 343c 7ec6 00bd faa8 dc3d f234 013d
00000090: c4d0 06be 38cf 0a3e f3d5 e53d c577 a8bc
000000a0: ddb7 f03d 2367 e03d 054e bc3d 90e1 5c3d
000000b0: f4fc 44bd 340c 94ba df19 15be a904 ba3d
000000c0: 87e9 a53d 87ca 20be 1685 903d 44e8 213e
000000d0: 60b4 063e d679 6bbc 881f 66bd 8908 0cbb
000000e0: dbc8 1d3d 1b98 0ebd 5651 013e fb2c ddbd
000000f0: a663 c2bb dec6 fabd 8f06 e13d 6828 20bd
00000100: efd7 c73d b513 1e3e 8e37 8cbd 249d 8f3d
00000110: abbf 733d bec2 6ebd 01ff d2bd fd81 adbd
00000120: 5edf c13d 66aa 7c3d e0a6 473e 69c1 243e
00000130: 7898 fb3c 226a 013c eb23 d9bd dc98 653d
00000140: 5aff 073e 36ba cc3d 6eab 89bd abab 52bd
00000150: aa8a 1e3e 5339 11be c5c5 8ebd 0b14 15be
00000160: 829c 0e3e 8c73 f43c 5747 0b3e 7a2f 703d
00000170: 66c6 82bd 3be7 0d3e e96d 9bbd d32c 073e
00000180: 9760 a4bd ab59 cbbd 9d8a a6bd e7f4 3d3e
00000190: 7252 e63d 793f 1d3e d2a4 033e 3952 97bd
000001a0: 0771 84bd d838 43bd 59c8 87bd e874 ccbc
000001b0: 8810 1dbd 8535 2bbe 965b d0bd 6593 35bd
000001c0: 0067 11be 7c3d 023e 4a48 22be 384a fa3d
000001d0: bb13 c3bb 929a da3c 5540 18bc 403b b0bd
000001e0: 0112 3cbc 4c57 67bd 4cd8 173d e3e3 d6bd
000001f0: bca8 e63d 4688 e63c 46ce 123d 9e58 a33d
00000200: 1e4a f1bb cdf5 dfbd e924 513e 5d59 7cbc
00000210: eed6 d23d 94be c43d 77d0 793d 4e25 07bc
00000220: c302 9f3d 9a5f efbd 65fb 17bd 8006 ee3d
00000230: b5c0 e23d 0c5b d63d c070 8ebd e2db 173e
00000240: 118a 463e b5a0 fa3b 374c 93bd 4b76 2f3e
00000250: 2c05 02bd 254a b93d 1ff8 aa3d 3b69 623d
00000260: 9201 513e 5645 263e b887 3e3e 0bf7 423d
00000270: 305b 49bd 3911 b1bd 8422 553e 051e a4bd
-0.10440457 -0.12925583 -0.059245024 -0.11379264 0.009158155 0.16342753 0.07303908 -0.025401818
0.077295385 0.02788755 -0.026646735 -0.023263313 -0.06942446 0.15952677 0.1624307 -0.008125415
0.0716463 -0.050345775 -0.09282594 -0.054072194 0.026332274 0.15356098 -0.048239227 0.022622008
0.10168567 -0.12258247 -0.0770252 0.0084698675 0.16580388 0.08155506 0.0763389 -0.043545358
0.011023103 -0.031439297 0.10774417 0.031544633 -0.13165575 0.1355561 0.11222448 -0.020564923
0.11753819 0.10957172 0.091945685 0.05392605 -0.048092797 -0.0011295141 -0.1456065 0.0908292
0.081011824 -0.15702258 0.07056634 0.15811259 0.13154745 -0.01437231 -0.056182414 -0.0021367392
0.03852163 -0.034813028 0.12628683 -0.10799595 -0.005932289 -0.12244962 0.10987579 -0.039101034
0.09757983 0.15437205 -0.06846534 0.07012394 0.05950896 -0.05829119 -0.103025444 -0.08472059
0.09466432 0.061685942 0.19497252 0.16089405 0.030712351 0.007898839 -0.10602554 0.05605398
0.13281003 0.099964544 -0.06722151 -0.051433247 0.15482584 -0.14182024 -0.06971315 -0.14558427
0.1392689 0.029840253 0.13601433 0.058639027 -0.06385498 0.13857739 -0.07589323 0.13200693
-0.080262356 -0.09929212 -0.08131907 0.18550454 0.11246194 0.15356244 0.12855843 -0.073887296
-0.06466871 -0.047661632 -0.0663001 -0.024958089 -0.038345844 -0.16719635 -0.10173719 -0.04433002
-0.14199448 0.12718767 -0.15847889 0.12221187 -0.00595328 0.026685033 -0.009292682 -0.08605051
-0.011478902 -0.056479737 0.03707151 -0.10492685 0.11262652 0.028141152 0.03584125 0.07975887
-0.007363572 -0.10935555 0.20424236 -0.015402165 0.10294901 0.096066624 0.060989823 -0.00824864
0.07764199 -0.116881564 -0.037104983 0.116223335 0.11071912 0.104665846 -0.06955099 0.14829972
0.19388606 0.0076485523 -0.07192271 0.17134969 -0.031743214 0.09047345 0.083481066 0.055276137
0.20410755 0.16237387 0.1860646 0.04759888 -0.04915923 -0.08645863 0.20813948 -0.08013538

model.rnn.bias_hh_l0 f4 [160]
00000000: 0a93 7dbd 04db bd3b 997b 153e 8904 29be
00000010: 669d 99bd d2cd b8bc 2efd febd 13de d23c
00000020: deec b2bc 90cb e33c b208 773e cf3f 14bd
00000030: f793 c93d 91d1 173e 4cd9 4cbc d619 01be
00000040: fa47 82bd ff7b 073d 9f33 203e 1714 b0bd
00000050: a631 183d 9e77 6e3d fe3f f33d cd7f 8f3d
00000060: 5d7d 1e3e 777e b9bc bf87 82bd b309 c1bd
00000070: b35f bc3d c322 213e cd9c e83d 18bb 343e
00000080: 032b 3c3e e193 0b3e 0445 69bc ddf7 e33d
00000090: 8565 1d3e 7b4c a4bd 8d4b 1ebd ed98 a53d
000000a0: ce5e 06bd f7e2 07be d3ff 22bd 3894 68bd
000000b0: 494f 1d3e c045 f23b 8887 04be b0a8 88bd
000000c0: 5ed3 febc 67a8 103d ff3b 363e 75a6 b0bd
000000d0: 2d87 8c3d c8b8 f13d 8635 19be c463 113d
000000e0: ae40 85bb 9538 043e 19ba 603d 1eee 243e
000000f0: 714a 84bd 6058 dc3c e8b7 093e 0589 193e
00000100: d2db 1ebe 6885 6fbc 550b 02be 78eb 4a3d
00000110: 61b7 9a3d 48ec debd 5d37 313e 6b11 82bd
00000120: efcd 9ebd aee9 a0bd 5124 383c 2875 09bd
00000130: 179a 3ebd 0af4 173d 93c7 123e b4f3 373c
00000140: 2a06 453e cb56 c03b af9b 17bd 8886 5e3d
00000150: 5a60 c6bc a3e1 e23d 22f7 543c 0f76 ab3d
00000160: cbb7 003d 1220 25be 4a2b a3bd de0c d4bd
00000170: eabc cc3d 78d9 c2bd 1878 08be 3f31 263d
00000180: 9c8f 113e d2f2 d23c e54c e33d b2c9 69bd
00000190: 1342 bbbd 9ff6 8b3c 4a7a edbc bad8 babd
000001a0: 9b42 8e3d 8596 e3bd b3fc f23c e507 f3bb
000001b0: 2a61 003d f0b7 b7bc d0ac f7bc bffa 853d
000001c0: 03e3 d6bd 460f 18be af40 09bd 9aba e6bc
000001d0: 704a 33be ac47 173e d486 50bd ec09 2b3e
000001e0: 196a 063e 802d 813c 7f98 3cbd 60b8 aebd
000001f0: 299e f13b b48f ee3d 6622 113e 2eb1 6d3c
00000200: 47c4 0f3e 749f dd3d 3bbb de3d fcaa db3c
00000210: 7553 963d bc71 953d fcd6 12be 3dd6 483d
00000220: 5b84 273e 6d87 7e3d edec 9dbd 9a3b 383d
00000230: 5869 ff3d 20db 08bd 27e7 0b3e 38eb c83c
00000240: 20a8 2f3d ed10 90bd f808 e7bc c6d4 b2bc
00000250: f0d5 b63a 5622 1f3e f663 35bd 389b 223e
00000260: e9b7 88bd bc91 4d3e 5bf7 d13d 3998 51bd
00000270: e82b 0d3d 6e1f 703d b627 853d 3d88 09bd
-0.061907806 0.005793931 0.1459793 -0.16505636 -0.075007245 -0.02255908 -0.12450634 0.025740659
-0.021841463 0.027807027 0.24124411 -0.036193665 0.09842675 0.14826037 -0.0125029795 -0.12607512
-0.06361385 0.033077236 0.15644692 -0.08597582 0.037156723 0.058219545 0.1187744 0.07006798
0.1547751 -0.022643311 -0.06373548 -0.09425678 0.09197941 0.15735917 0.113580324 0.17649496
0.18375783 0.1363063 -0.014237646 0.111312605 0.15370758 -0.080224 -0.03864627 0.08085809
-0.032805257 -0.13270174 -0.039794754 -0.056781977 0.15362276 0.0073935688 -0.12942326 -0.066727996
-0.031106647 0.03531685 0.17796324 -0.08625499 0.0686172 0.11802822 -0.14961824 0.035495535
-0.0040665483 0.1291221 0.054864977 0.1610646 -0.06459511 0.02689761 0.13449061 0.14993675
-0.15513542 -0.014619209 -0.12699635 0.049540967 0.07554508 -0.10884911 0.17306276 -0.063509785
-0.077541225 -0.07857071 0.011239127 -0.033558995 -0.04653367 0.03709797 0.14333944 0.011227537
0.19240633 0.0058697215 -0.037013706 0.054327518 -0.024215866 0.11078193 0.012998374 0.08372127
0.03142528 -0.16125515 -0.07967241 -0.10354017 0.0999697 -0.09514135 -0.13327062 0.04057431
0.14214939 0.025750551 0.11098651 -0.057077117 -0.09143462 0.017085372 -0.028988976 -0.091233686
0.06946298 -0.11112694 0.029661512 -0.0074167126 0.031342663 -0.022426575 -0.03023377 0.06541967
-0.10492518 -0.14849576 -0.033508953 -0.02816515 -0.17508864 0.14773434 -0.050909832 0.16703004
0.1312641 0.015768766 -0.04604387 -0.085312605 0.0073735905 0.11648503 0.14173278 0.014507575
0.14039718 0.10821429 0.10875555 0.02681493 0.07340137 0.07297084 -0.14339823 0.04903244
0.16359083 0.06214087 -0.07711206 0.044978715 0.124712646 -0.0334121 0.13662396 0.024526224
0.042884946 -0.07034478 -0.028202519 -0.021829974 0.0013949256 0.15540442 -0.044284783 0.15879524
-0.06675703 0.20075125 0.102522574 -0.05117056 0.0344657 0.058623724 0.06501715 -0.033577193

model.rnn.weight_ih_l1 f4 [160, 40]
00000000: 434b d6bd b746 acbd cb8b c13d 1d38 85bd
00000010: 831b fd3d 1cfc 7abe ec8c a4bc b048 c6bd
00000020: c0b1 3dbc 3384 603d 34fc d7bd 89d9 bcbb
00000030: 78d1 c13d 1472 cfbd 0ce2 84bd 6054 7ebd
00000040: 6c3b f73d 4dac af3b a8e9 cfbd 0df9 503b
00000050: da4c d6bc 0aec ce3c 73bc 153e 3eb8 243b
00000060: 5a78 25bd 9f34 023b aee0 9f3d e448 f8bd
00000070: 844f c83d 503e d4bd d224 533d d5e3 36bd
00000080: 3303 6eba 7d24 da3d 949d 0dbe a8c3 98bd
00000090: 8c90 d8bd 362e 113d 9b69 eabd 13a0 7f3d
000000a0: 6d2f 4a3d a3f0 b33d cb7a e13c 3c6d 9c3d
000000b0: 9c03 7f3d 730f 4e3d 4107 41bd 899b e33c
000000c0: 7158 24be b670 11bd 6834 10be 059a 173d
000000d0: 25fc 56bd 8398 c1bd 5e79 f23c c627 213e
000000e0: 8313 c23c 8c4c 08be 0e33 523d c781 c2bd
000000f0: 0859 2a3d db33 1abd a93f ca3c 2e28 02be
00000100: 0d71 11be 263d 543d ad75 c8bd e5bb 9ebd
00000110: 52d3 903d 9cf6 b4bd 329e 5a3d 9cba 63be
00000120: d7d6 10bd 7839 f2bd d40e 11bd bfc1 0dbe
00000130: e1fd 043e 2e1c e2bd 85d9 a3bd 7c40 32be
00000140: 58ea be3c 9552 0fbe 902e 113e 23b0 983d
00000150: f0d1 173b 05cb 573d a452 a23d eb57 aabd
00000160: fa45 f63d 74dd 3ebe 3af0 a23d f8ea d4bd
00000170: 8247 5f3c 800c 83bd efbd ab3d 5a15 c23d
00000180: a2d4 8f3c 5914 f6bc 59e1 f4bd 67fb f33d
00000190: 20ac 543e ee69 c23d 5faf e73c 555e 89bd
000001a0: 6ad5 803c fa41 9cbd 784e 903d 808c 273d
000001b0: 3ea5 a4bd 749e 0ebe 2c9b 07be d946 1f3e
000001c0: 59a7 a23d dff9 b23d 1804 173e 40b6 88bd
000001d0: 1cba dcbd ee99 bdbc 457b 393d 9bd7 833d
000001e0: e9c2 933d edab f6bd a738 553d 9dbf a93d
000001f0: d6b0 08be 4a3d 3f3e 6dca b9bc adcc d63d
00000200: 56b5 05be 57af 093e 915a fc3c 616c 4cbc
00000210: a30f 0dbe b69d d53d 7110 edbc 63db a1bd
00000220: 6e90 91bd a1f5 093e 191f 19be f143 ad3c
00000230: 5fcb d4bd de79 48bd 48e3 813d d8f5 183d
00000240: 3744 42bb 6c2c e53d 6640 9ebb 827c 12be
00000250: 616d 09be f8ad 1c3e 1072 b43d 6da7 3ebe
00000260: fb8b 053e dbdf 12bd 2d6b 1bbe ed43 d03d
00000270: caff 913d 1e41 abbc 7bb5 43bd 74a0 0fbe
00000280: 6e4c dabd 854f 02be e9ac 853c ad5a 813d
00000290: bfd2 8b3d b1f8 2abe 1c68 453d 5d2d 56be
000002a0: 562d 313e 4137 17bd 3006 d6bd d805 f2bd
000002b0: 2fc0 203e 9e99 6abd 8679 a3bd cf5f de3b
000002c0: 736c 11be 932c eabb a48f 0bbd e3ef 82bd
000002d0: dfa5 2abe e4e1 1ebe d8de 203e 44ba 0b3e
000002e0: 4e51 023e 8ca5 f43d b3f2 fc3d 1cc4 db3d
000002f0: 260c b0bc 0c4a 1dbd 3acd b23d bf39 3d3d
00000300: c4b3 80bb 7811 0d3e 628c f1bd 1bca debd
00000310: 42dc bd3d 2205 e3bc 2189 82bd 1509 e8bd
00000320: 7117 d9bc 2c8e 153e adbb 03be 7ff6 44be
00000330: dfae 16be 8fa0 343e 821e dc3d a1f3 9e3d
00000340: 76d1 acbc db20 6f3d a5f1 be3c 35e1 323d
00000350: c148 51bd 7d89 d53d 4785 a8bd 2c93 193e
00000360: 8ca2 91bd b8f2 013d 8a76 63bc 829f fc3d
00000370: 3292 d1bd 953c 893d f08b 18be 4a28 083e
00000380: db22 0abe 68ca 71bc 84d7 07be c6b4 b03d
00000390: debf f8bd 5173 2b3e 52cd 1f3d f147 e43d
000003a0: ca8d f7bc 58b8 f53d 503b 10be 6b6c b9bc
000003b0: 17a1 13be 78c6 b13d 82d2 c73d 165c 5b3d
000003c0: e507 6bbd cdd0 24bd 0b3d 04bc fd9e ac3c
000003d0: 05b1 e33c 109a 82bd 507f c43c 0901 b2bd
000003e0: 0f30 e33c 5733 63bd 1f69 fe3d c70d f73d
000003f0: e6ec e83c e7e6 d0bd 7ab6 87bd 424c dbbc
-0.10463574 -0.08411925 0.094504915 -0.065048434 0.12358763 -0.24510235 -0.020086728 -0.09681833
-0.011578023 0.054813575 -0.10546151 -0.005763237 0.09463781 -0.101291806 -0.064884275 -0.062092185
0.12071881 0.005361116 -0.10151988 0.0031886727 -0.026159693 0.025259037 0.14622669 0.002513423
-0.04039798 0.001986779 0.07806526 -0.12123278 0.097807914 -0.10363448 0.051548786 -0.04465087
-0.0009079456 0.10651491 -0.13829643 -0.074591935 -0.10574445 0.03544446 -0.11445924 0.062408518
0.049361635 0.08786132 0.027524373 0.07638022 0.0622593 0.050307702 -0.04712606 0.027784126
-0.16049363 -0.03550788 -0.14082491 0.03701212 -0.052486558 -0.094529174 0.029598888 0.15737829
0.023690945 -0.1331045 0.05131822 -0.09497409 0.041588813 -0.03764711 0.024688559 -0.1271064
-0.14203282 0.05181613 -0.0978807 -0.07750682 0.07071556 -0.088360995 0.053373523 -0.22239155
-0.035361137 -0.118273675 -0.03541453 -0.1384344 0.12987472 -0.11040531 -0.08000473 -0.17407411
0.023305103 -0.13996346 0.14177918 0.074554704 0.0023165904 0.05268385 0.07925919 -0.0831755
0.12025066 -0.18639165 0.07955976 -0.10396379 0.013627889 -0.063988686 0.08385836 0.09476729
0.017557446 -0.030039 -0.11957044 0.119131856 0.20768785 0.09492861 0.028281866 -0.067074455
0.015726764 -0.076297715 0.07046217 0.040905476 -0.0803933 -0.13927633 -0.13242787 0.1555437
0.07942075 0.087390654 0.14747655 -0.066753864 -0.10777685 -0.023144688 0.045283575 0.06437608
0.072149105 -0.12044511 0.05205598 0.082885005 -0.13348708 0.18675724 -0.022679532 0.104882576
-0.13057455 0.13445793 0.030804904 -0.012477011 -0.13775496 0.104304716 -0.028938504 -0.07903173
-0.07107626 0.13472606 -0.14953269 0.021150561 -0.103903525 -0.048944347 0.063421786 0.03734383
-0.002964271 0.111901134 -0.0048294542 -0.14305308 -0.13420631 0.15300739 0.08810818 -0.18618555
0.1304168 -0.035858016 -0.15177603 0.10169206 0.07128866 -0.020905074 -0.047780495 -0.14026052
-0.10659109 -0.12725647 0.016317802 0.06316123 0.06827306 -0.1669643 0.04819499 -0.20915742
0.1730245 -0.03691793 -0.10450399 -0.11817521 0.15698312 -0.057275407 -0.07982163 0.0067863236
-0.14201526 -0.007146427 -0.034072533 -0.06393411 -0.16664837 -0.15515858 0.15710008 0.13645273
0.12726328 0.11945638 0.12350979 0.10730764 -0.021490168 -0.038400695 0.0873055 0.04619765
-0.0039276797 0.13776195 -0.11794354 -0.10878392 0.092705265 -0.027712408 -0.063738115 -0.11329857
-0.026500436 0.14605016 -0.12864561 -0.19234656 -0.14715146 0.17639373 0.107480064 0.07761312
-0.021095973 0.058380943 0.023308584 0.043671805 -0.051094774 0.104266144 -0.08228546 0.14997548
-0.071110815 0.031725615 -0.013883242 0.12335111 -0.10232963 0.06701008 -0.14897132 0.13296619
-0.13489859 -0.01475773 -0.13265806 0.0862823 -0.12145971 0.16743208 0.039014168 0.11146534
-0.030218977 0.119980514 -0.14085126 -0.022634706 -0.1441692 0.08680433 0.09756948 0.053554617
-0.057380576 -0.04023819 -0.008071194 0.021071905 0.02779437 -0.06377041 0.023986489 -0.08691604
0.027732877 -0.055468883 0.12422394 0.12063175 0.028433274 -0.10200291 -0.066266015 -0.026769761

model.rnn.weight_hh_l1 f4 [160, 40]
00000000: ec77 39bd 1f51 5bbd 39ac eebd 7684 1d3d
00000010: f776 0a3d a2d1 06be 677f 8f3b c3e8 5dbd
00000020: 74c5 eabd a807 cc3d 99d4 dbbc 0e64 c2bd
00000030: 96bd 20be 7ebd 6cbd ab8e a4bd 0a25 aebd
00000040: 4f18 923b c9b1 37bc 04fd 10bd 2cac d7bc
00000050: b488 ca3c 9513 cbbd ffb2 c73d 0d43 1abe
00000060: 0424 dfbd 8418 a43d bf05 93bd 14e4 c53d
00000070: c8dd d43d 6fa0 28bd 7338 15be 374b 693d
00000080: 2fdc 66bc 2b8d 3d3d b978 0fbe 5968 b5bd
00000090: 35f4 2d3e d208 283d 9ae5 3f3b 4655 d4bc
000000a0: ea95 153d 3f09 1cbe ba95 22be f363 9dbd
000000b0: dad7 06be 58e9 31be bf55 533e fea2 a93d
000000c0: c43a eebc 08d1 b03b df57 f23d ba4c 7b3b
000000d0: d411 213e b992 22be 82d1 2dbd a2ea 2bbd
000000e0: b389 aebd d951 2abd 731d 223d 81e8 523d
000000f0: 80c9 5c3e fe47 71bd 4592 86bc c529 413d
00000100: f3fe bdbd 341b 1f3e efe2 21bb 5fdf 42bd
00000110: d357 1dbd 13ed 39be aa4e 01bd 4690 783e
00000120: 80f8 e43a 6df0 0d3e f864 9abd e082 873d
00000130: d168 c2bd d77c 973c 7ddd 4ebe 57c5 853b
00000140: 515a 18bc 84e1 b63d 7286 c73d 82eb 26be
00000150: a3a0 3a3d 7fd6 fcbd 76e8 d6bb 6283 c1bd
00000160: d3a2 0b3e a1f2 96bc 8e53 113d 1cb2 cabd
00000170: 28ba 0abd 1ba1 54bc afbb 05be a7d6 02be
00000180: 55f3 c7bc e738 f03c bd5d d23c b156 44be
00000190: 6952 8fbc 794e e13d e437 9f3d 8ac1 89bd
000001a0: 5a3b 723d 31cd efbd f59e 93bd 080f 5cbd
000001b0: 38bd dd3d 5115 debc 1944 bd3d 39fe 9ebd
000001c0: d482 08be 9765 e43d 3b4c 2e3d e375 013e
000001d0: de05 c33c 2018 ea3d 1a84 9ebd 366a a6bd
000001e0: 5564 d13d 0b2f 08be 1ea0 e1bd b902 36be
000001f0: c9cb 15be 7156 a63d 352c b1bd 9af9 f2bc
00000200: e48e f8bc d80f b83b 4148 24bd e1df 79bd
00000210: 6804 2dbd 72c2 84bd 48fb 603d d6fa 96bd
00000220: e437 413c 48be acbd 84ea ec3d 52cc 80bd
00000230: 23c7 73bd 5ea3 08be ca1d a63d ca3f a0bd
00000240: e661 8a3d ff5d 06be d140 0fbd f898 043d
00000250: 8797 cebd c0b9 693d efe9 1bbd a059 e53d
00000260: 32e4 09be e568 17be 8bb0 3fbd df4a 8a3d
00000270: 68fb 41bd f71e b0bd e194 f53d c322 013d
00000280: e287 f4bd baa1 e53d 3bfe 27bc ccf9 8b3d
00000290: d3aa 55bd 3e71 e8bd 84af d6bc 7151 d63d
000002a0: c0ef aabd a4e7 bc3d 918b ebbc 0719 b6bd
000002b0: d1a3 e6bc b368 ef3d f0ec ebbd f9ad 24be
000002c0: fc45 143e edab 4b3c ae14 153d 5681 acbd
000002d0: 8921 2ebe bd2c 86bd 23ba ecbd f07a 39bc
000002e0: 0983 cb3d 6613 abbd 7aba 403e a3f1 9b3d
000002f0: 08c8 13be 6867 0ebe f0e1 fa3d 5653 71bd
00000300: 9487 fd3c 6475 d43b 775f 003d 5e00 bfbd
00000310: 8047 b0bd 65c8 4e3e d8f3 fdbd c42e 2dbd
00000320: 6f78 a3bd 075c 0fbe 8aff 33bd da33 813d
00000330: d11a e9bb 1dc7 aabb ee75 dabc 0037 1f3e
00000340: 44db 56bd 12fe 12bd 7fe0 d0bd bb9b 1cbd
00000350: 528e a43d 8d95 43bd fca3 32bc 4202 0cbe
00000360: 317a 90bd c337 acbc cb23 a3bd dcdc fb3d
00000370: 7b49 f6bd 4f95 963d e045 b33d dbf2 f1bb
00000380: ca61 463a 2a06 ba3d b4da 60bc 8c7f be3c
00000390: ce59 e6bd 004b 853d d1c0 9fbd 5ff3 073d
000003a0: 1d6c 403b 0c18 d7bc 9690 0e3e 77da 1ebd
000003b0: 257a bc3d e6c9 13be fbb9 2fbd 9664 ffbd
000003c0: 116e 2a3d 4980 303e e88d 35bc 89eb 96bd
000003d0: b905 b13d d402 763d 183c e93d baa5 06be
000003e0: 24ab cdbd abae f4bd 7e19 e93d 6fa3 a33d
000003f0: 4edb b7bd 0bf9 12be 2176 f03d aa3e 8b3d
-0.045280382 -0.05354416 -0.116539426 0.038456403 0.03380486 -0.13165906 0.004379201 -0.054177057
-0.114634424 0.09962398 -0.026834773 -0.0949174 -0.15697321 -0.0577979 -0.08035024 -0.085031584
0.004458464 -0.011211821 -0.035397545 -0.026327215 0.024723388 -0.09915844 0.09750938 -0.1506464
-0.10895541 0.080124885 -0.0717883 0.09662643 0.10393864 -0.041168626 -0.14572315 0.056956496
-0.014090582 0.046277206 -0.14010896 -0.08857793 0.16987689 0.041024037 0.002928114 -0.025919568
0.036519922 -0.15237902 -0.15877429 -0.076850794 -0.13168278 -0.1737417 0.20638178 0.082830414
-0.029080756 0.005396012 0.11833166 0.0038345293 0.15729457 -0.15876283 -0.04243613 -0.04197181
-0.08522358 -0.041581962 0.039578866 0.051491264 0.21561241 -0.058906548 -0.016427169 0.047158975
-0.09277143 0.15537721 -0.0024701913 -0.047576305 -0.038413834 -0.18156843 -0.03156916 0.24273786
0.0017469078 0.13861246 -0.075387895 0.06616759 -0.094926484 0.018492145 -0.20201679 0.0040823626
-0.009298877 0.089297324 0.0974244 -0.16300777 0.04556335 -0.123455994 -0.006558473 -0.094488874
0.13636331 -0.018426241 0.035480075 -0.09897253 -0.03386894 -0.012977864 -0.13059877 -0.12777196
-0.024408022 0.029324008 0.025679464 -0.19173695 -0.01749535 0.110012956 0.07774332 -0.06726368
0.059138633 -0.11709059 -0.07208053 -0.053725272 0.10827106 -0.027109774 0.09241504 -0.07763333
-0.13331157 0.11152189 0.042553168 0.12642626 0.023806509 0.11430383 -0.0774004 -0.08125727
0.10224215 -0.13299195 -0.11016868 -0.17774476 -0.14628519 0.08121956 -0.0865101 -0.029660035
-0.030341573 0.005617123 -0.04010797 -0.061004523 -0.04224053 -0.064824 0.05492714 -0.07372062
0.0117931105 -0.08434731 0.11568168 -0.06288971 -0.059516083 -0.1334357 0.081111506 -0.07824667
0.06756954 -0.13121794 -0.034973923 0.032372445 -0.10087495 0.05706191 -0.038064893 0.11198735
-0.13465956 -0.14786108 -0.046799224 0.06752562 -0.0473589 -0.08599656 0.11991287 0.031527292
-0.1193998 0.112124875 -0.010253484 0.06834754 -0.052164864 -0.11349724 -0.02620674 0.104647525
-0.0834651 0.092238694 -0.028753074 -0.08891492 -0.028154286 0.11689892 -0.115198016 -0.1608199
0.14479822 0.012431127 0.036396675 -0.08423106 -0.1700498 -0.06551502 -0.1155894 -0.0113208145
0.09937102 -0.08353309 0.18821135 0.07614448 -0.14431775 -0.13906634 0.122501254 -0.058917366
0.030948438 0.0064837206 0.031341042 -0.09326242 -0.086073875 0.20193632 -0.12400025 -0.042280927
-0.07981955 -0.1399995 -0.043944873 0.06308718 -0.0071137925 -0.0052117244 -0.026667561 0.15548325
-0.0524552 -0.03588683 -0.10199069 -0.038234454 0.08034958 -0.047750045 -0.010903355 -0.13672736
-0.07054556 -0.021022683 -0.07965811 0.12297985 -0.12025734 0.07352697 0.08753562 -0.007383687
0.00075676723 0.09083207 -0.013724018 0.023254178 -0.11247598 0.06508446 -0.07800449 0.03319108
0.0029361316 -0.026256584 0.13922343 -0.038782563 0.09202985 -0.14432487 -0.042901974 -0.12470357
0.041608874 0.17236437 -0.011081196 -0.073691435 0.0864367 0.06006129 0.11388415 -0.13149157
-0.10042408 -0.11947378 0.113818154 0.07990157 -0.08977376 -0.14352815 0.11741281 0.067990616

model.rnn.bias_ih_l1 f4 [160]
00000000: 4983 19be 33a5 ee3d b887 213e c57f d7bd
00000010: f893 aabd 3583 57bd 694c acbd 2d31 a13d
00000020: 8acd 7b3d 6e05 9cbd fbab 7b3d e4c1 00be
00000030: f478 f83c ab87 6fbd bb69 7bbc e350 c2bc
00000040: a152 383e 5677 fc39 4fba 6d3d de42 99bb
00000050: fc37 81bc 3013 ac3d d938 99bd 24eb a03d
00000060: 05ae 3b3e a78b 123d 1867 8a3d c621 6e3c
00000070: eda8 fdbd ce1d 253e c44f 01bd e22f a5bd
00000080: e752 89bd d0ca 103d acde 7dbc 0105 073e
00000090: 28f4 f5bd bf7c a2bd df48 5abc 0dbf 463d
000000a0: bc3d d8bd c7e7 033e 30df ec3d f7f8 a6bd
000000b0: 2b70 e23c c660 d3bd 754e ed3d 167d 8e3d
000000c0: ce88 023e c60e 023e 534f 863d 7f97 4bbd
000000d0: 46ed e43d 0f35 843c 7ff2 eebc e6f9 923c
000000e0: 849c f53d d867 8abd 2295 5ebd 6046 1cbe
000000f0: 630b acbd 4edd bdbd 56bf 023d 2cb7 743d
00000100: 6cdd cd3c 1864 913d b71f b73d b493 a23c
00000110: 7178 6d3d bc5f ba3c 7e90 fcbd 56b6 433b
00000120: 5351 a93d ab9b 88bd fc44 0f3d e491 f1bd
00000130: 6746 ba3d df64 91bd bd33 d3bc f2de 92bd
00000140: 7d69 e93c 581d 1e3b 2ac0 273e ea20 abbd
00000150: e251 e0bd 6e75 0a3e 6aa0 b43c b739 bd3c
00000160: 0bea 9b3d c588 74bc 5088 553d 575c 2a3e
00000170: 3990 14be 1c9d a1bd a540 d4bc 3132 853d
00000180: 83fb 693c 09e4 013e d51c efbc 5f54 c33d
00000190: ab49 8a3d 5466 5a3d 4688 ec3d 22d1 abbd
000001a0: 6523 b8bd 5680 f8bc 0618 173e b57f be3d
000001b0: 9d42 25be 1ba5 293d 517f eb3c 77e9 82bc
000001c0: 796a 343d 458e debd 08e3 0a3e 1185 60bd
000001d0: 7c52 703d c581 cd3d d787 e63d 44b8 ba3d
000001e0: c374 c93d c7c6 76bd a921 6b3c 2015 f53d
000001f0: 3272 9bbd 209d 2f3e e915 133e 4cea 9d3c
00000200: cc57 0fbe 3aac e1bd 00de bc3a 92e0 1c3d
00000210: 3ddc fd3d 6e09 2d3e 290c 88bd 784d 8d3c
00000220: 4199 dcbd 2f81 aa3d 6364 6fbd d326 d9bd
00000230: 3755 993d e5d2 2e3e 7d86 253e 32eb 673d
00000240: 238a 3ebd 2aa7 58bd 1637 aa3c 8938 71bd
00000250: 667d 01be 3671 353e 67e3 903c 1bab 003e
00000260: d645 af3b e937 143e e9b0 c43d e87b 753d
00000270: bdec 05bd cb6a 8b3d 6530 ac3d 7136 0a3e
-0.14991488 0.11652603 0.15774429 -0.10522417 -0.08329004 -0.052615363 -0.084130116 0.07870708
0.061475314 -0.07618223 0.06144331 -0.12573963 0.030331112 -0.058478992 -0.015345032 -0.02372021
0.1800027 0.00048154098 0.058039006 -0.0046771606 -0.015773766 0.08402097 -0.07481546 0.078573495
0.18328102 0.035777714 0.06757945 0.014534419 -0.12385736 0.16124651 -0.03157021 -0.080657735
-0.067052655 0.035349667 -0.015494984 0.13185503 -0.1200946 -0.0793395 -0.013323038 0.048522044
-0.1055865 0.12881385 0.11566007 -0.08152955 0.027641376 -0.103211924 0.1158723 0.06957452
0.127475 0.12700948 0.06558099 -0.049705025 0.11178069 0.016138582 -0.029168366 0.017941426
0.119927436 -0.06758088 -0.054341443 -0.15261221 -0.08400609 -0.09270726 0.031920753 0.059745
0.025129996 0.070991695 0.08941596 0.019845821 0.05797619 0.022750728 -0.12332247 0.002986332
0.082674645 -0.06670316 0.034977898 -0.117954046 0.090954594 -0.07099318 -0.025781507 -0.0717143
0.028492684 0.0024126377 0.16381899 -0.08355887 -0.10953118 0.13521358 0.022049148 0.02309881
0.076129995 -0.0149251865 0.05213195 0.16636787 -0.14508142 -0.07891294 -0.025909731 0.06503714
0.0142811565 0.12684645 -0.029188553 0.09537577 0.06752332 0.053320244 0.115494296 -0.08389498
-0.08991126 -0.030334633 0.14755258 0.09301702 -0.16138692 0.041417222 0.028747233 -0.015980465
0.044046853 -0.108669795 0.13563168 -0.054814402 0.058672413 0.10034517 0.11256378 0.09117177
0.09836724 -0.060248163 0.014351287 0.1196692 -0.075901404 0.17149782 0.14363827 0.01927676
-0.13998336 -0.11019178 0.0014409423 0.038300104 0.12395523 0.16898128 -0.06642944 0.017248854
-0.10771418 0.08325421 -0.058445346 -0.10603108 0.074869566 0.17072637 0.16164584 0.056620784
-0.046518456 -0.052893795 0.02077822 -0.058891807 -0.12645492 0.17718968 0.017686559 0.12565272
0.0053489013 0.14474453 0.096040554 0.05993262 -0.032696474 0.068074785 0.08407668 0.1349733

model.rnn.bias_hh_l1 f4 [160]
00000000: 6c9a f83d f763 96ba d02a 043e 7d4e e43d
00000010: cab2 403d 721a 3dbc 891a 033d c7c7 283e
00000020: a293 123e 0ded b93d e0e2 bdbd dbe2 0bbd
00000030: 2a15 823c 6e74 f8bd cd8e 1f3e c130 b5bd
00000040: ad1e 453e 96ea e7bd 0f5d 0a3e 7946 26be
00000050: 0b0f d5bc 7d0e 093e d659 033d c09a d13d
00000060: 5e0f 41bd f16e 2d3c 518c 99bd 3bdd 343e
00000070: e0c0 24bd b0fb 113e 8a51 b8bd 3a58 f93d
00000080: 62df adbc 56c9 04bc 3753 43bd 8838 8b3b
00000090: e279 d43d 0df8 8c3d ae49 82bd 4da2 47bd
000000a0: 13c7 bf3d 1d7d e8bd 7f9e a3bd f00e 0f3e
000000b0: 41c8 c73b 4eed b73d 7dfe 8abc 5cf0 9bbc
000000c0: db0c 7e3b e86c c33d 27d2 edbd 7b6f 063d
000000d0: d2c3 02be 04f1 873c efc1 27be de01 50bc
000000e0: 94d2 e83d fc74 cbbd 6d47 ca3d 125d 993d
000000f0: 1e75 c93d 3584 903d 32c0 c8bd 255b 203e
00000100: 2e85 8a3c 11d8 f3bd e1ed 083e 1f4c 16bc
00000110: e8ff 103e c1be abbd c128 9fbd 5e3c 1d3c
00000120: d8d6 19be 213d be3c c1ac 083e a36b ebbd
00000130: fd34 b73d 201b b73d 94b3 24bd 9cef cf3d
00000140: 2770 0ebe 81cc 4abd b40c b53b c4b3 76bc
00000150: ac3d ad3d 60ee 0f3e af40 04be fae9 90bd
00000160: 94c0 c43d 42f7 e9bd a052 a8bd 3e47 2ebd
00000170: 802d b1bb dbda 8abd ea34 33bd aaf9 dd3d
00000180: 1c36 0fbe bfe9 b33d bac1 24bd af58 b73d
00000190: 9dc8 0ebe 26a5 c93d d667 3fbe f216 afbc
000001a0: 80da 223c 19b9 cc3b 11ec 89bd 68aa 823d
000001b0: b210 55bd 3a90 afbd 7ad4 27be 7b90 37be
000001c0: 6081 9a3d 4925 46bd cd4b ffbc b805 b3bd
000001d0: 38c5 743d c6cd bc3d 8550 973d f22f 01bd
000001e0: 9ad3 e53d 31eb 45bb 74a0 f73d 8afd 1cbe
000001f0: 3496 0e3e a6d5 8e3d 9b43 403c 6efa 71bd
00000200: ba2e 233d 2032 c4bd 57c7 173e f3f3 dfbd
00000210: 2956 59bd 346e 07be b4d0 aa3d f7cb 91bc
00000220: a4e0 883c 75ec a53b 27db d0bd 79dc 33be
00000230: e420 6ebb bbb6 033e 655d 8dbc e7d9 0d3e
00000240: 09ef ae3b 51d7 1c3e ef25 0abe 81d1 b3bd
00000250: 7e8b 2c3e 5593 60bd dddf ba3d 4b76 9a3d
00000260: 89d7 b6bd 7033 9dbd b05f 2e3e 0906 213e
00000270: 5bdd 28be ce50 cabc 4ece 063e f7dd 87bd
0.12138829 -0.0011473884 0.12906957 0.11147783 0.047045507 -0.01154195 0.032007728 0.16482459
0.1431413 0.09078417 -0.092717886 -0.034151893 0.015879232 -0.12131582 0.15581818 -0.0884719
0.19249983 -0.113240406 0.13512062 -0.1623782 -0.02600815 0.13384433 0.032068096 0.10234594
-0.047133796 0.0105855325 -0.07497466 0.17662518 -0.040223002 0.14256167 -0.08999927 0.12175031
-0.021224681 -0.008104643 -0.04768678 0.0042486824 0.1037481 0.068832494 -0.063617095 -0.048738766
0.09364142 -0.113519885 -0.07989215 0.13970542 0.00609687 0.08980809 -0.016967053 -0.01903551
0.0038764987 0.095422566 -0.11612349 0.03282116 -0.12770012 0.016594417 -0.16382574 -0.012695758
0.113682896 -0.099344224 0.09876905 0.07488455 0.098367915 0.070564665 -0.09802283 0.15659769
0.016909208 -0.11906446 0.13371994 -0.009173422 0.1416012 -0.08385993 -0.07771445 0.009596912
-0.15023363 0.023222508 0.1334715 -0.114951394 0.089456536 0.089407206 -0.04021032 0.10153124
-0.1390997 -0.049511436 0.005525196 -0.015057508 0.084590286 0.14055777 -0.129153 -0.070758775
0.09607044 -0.11424114 -0.082188845 -0.04254841 -0.0054070354 -0.067800246 -0.043751635 0.10838635
-0.13985485 0.08784818 -0.040223815 0.08952462 -0.13943715 0.09845953 -0.18691954 -0.021373246
0.00993979 0.0062476513 -0.06734479 0.06380159 -0.052017875 -0.08572431 -0.16389647 -0.17926209
0.075442076 -0.0483754 -0.031164074 -0.08741325 0.059758395 0.09218936 0.07388405 -0.031539865
0.112220004 -0.00302 0.12091151 -0.15331092 0.13924485 0.06974344 0.011734868 -0.05907672
0.039839484 -0.09579873 0.14822136 -0.109352015 -0.053060684 -0.13225633 0.08340588 -0.017797453
0.01670868 0.0050635883 -0.1019805 -0.17564572 -0.0036335522 0.12862675 -0.017256448 0.13852654
0.005338554 0.15316512 -0.13491033 -0.08780194 0.16850087 -0.054828007 0.0912473 0.07542094
-0.08927829 -0.076758265 0.1702869 0.15724958 -0.1649069 -0.024696734 0.13164636 -0.06634133

exp_avg f4 [1, 40]
00000000: 744f ff39 9005 4b39 9d31 023b fd8d 8cba
00000010: dd30 bd37 8c23 b73a c7ba bdba 05cc b0ba
00000020: c48c 0f39 62d2 9439 5add feb9 a427 30b8
00000030: 7780 b2ba 956a ba3a a0b6 fab9 7437 f139
00000040: 4a09 9eba 750f ad3a d359 b43a 92eb 4aba
00000050: 795a acba ae2a 603a f60a b8ba 084a acba
00000060: 5c48 abba e684 5bba 2f47 813a 940a 15b8
00000070: 1a65 a339 9805 0c3b 42c8 b8ba fa3b b6ba
00000080: 2259 883a 99ca 0c38 f9bb 46ba d024 b73a
00000090: 0fa9 b0ba 723f 84b8 0cd6 a83a 0fcf 0639
0.00048696587 0.00019361661 0.0019865998 -0.0010723468 2.255331e-05 0.0013972386 -0.001447522 -0.0013488537
0.00013689982 0.00028385507 -0.00048611575 -4.1998588e-05 -0.0013618608 0.0014222438 -0.00047819782 0.00046008418
-0.0012057212 0.0013203459 0.001375968 -0.0007740791 -0.0013149522 0.00085512816 -0.0014041353 -0.0013144622
-0.001306783 -0.00083739904 0.0009863133 -3.553422e-05 0.0003116511 0.0021365639 -0.0014097767 -0.0013903372
0.001040254 3.3567285e-05 -0.00075811107 0.0013972763 -0.0013478118 -6.306068e-05 0.0012881174 0.00012856371

exp_avg_sq f4 [1, 40]
00000000: 4e59 3335 43c6 dc35 6c51 2737 f7e0 0935
00000010: 8e06 5932 7c9f c236 84df b936 12ca 3037
00000020: 44a0 2136 c92a e035 0d12 b135 97f5 0c36
00000030: 4633 1637 46dd 8f36 af9f 3d36 89ec cf34
00000040: 5a5b dd36 5a1e 3537 5bc4 3037 a186 f134
00000050: 47bc 4137 003e 0037 39c4 7136 1e7d 5037
00000060: 9565 7e37 8bad 9334 45d2 f836 b221 0933
00000070: 1a61 f836 168d c936 79d3 e436 8b54 8336
00000080: aed1 2236 fda9 6931 975c 9436 1a6d 1137
00000090: 22fc 8436 2f94 fd31 feac 5237 fc19 8a35
6.681265e-07 1.6448979e-06 9.972933e-06 5.1363844e-07 1.2632553e-08 5.800217e-06 5.5394503e-06 1.0537466e-05
2.4084156e-06 1.6701753e-06 1.3192781e-06 2.1004578e-06 8.952635e-06 4.2874917e-06 2.8256143e-06 3.8728857e-07
6.596948e-06 1.07955075e-05 1.0536135e-05 4.4987704e-07 1.1547533e-05 7.64383e-06 3.6026015e-06 1.2426897e-05
1.5163231e-05 2.7507153e-07 7.4154545e-06 3.1928444e-08 7.40228e-06 6.0066914e-06 6.819548e-06 3.9139463e-06
2.426193e-06 3.400259e-09 4.4215226e-06 8.668076e-06 3.9632587e-06 7.3801156e-09 1.2557253e-05 1.0289364e-06

exp_avg f4 [1, 40]
00000000: 2a82 b93d 4c1c 3e3b 20a0 98bb d02b debb
00000010: 5335 dbba 7000 1bbc 50c7 233c e075 df3c
00000020: 54a0 77bc 3a07 c13b dcc0 6bbd f83e d639
00000030: 20dc cf3c c0db b0bb 92a9 1d3c f837 22bc
00000040: 6079 98bc 50ec d7bc c0cd f3bc afde 203c
00000050: 4827 d53c e0e2 57bc fe24 8abd b09a d93c
00000060: a8d6 d33c 7dbe 053b 80ff 61bc 672a 1d3c
00000070: e06f 083d 516f 013e d8de af3c 48cb ea3c
00000080: dd1c 1f3c 307e 09bb 4411 42bd d470 24bd
00000090: 9e5e a3bc 483f 7f3b 2012 c1bc 426a 95bc
0.0905803 0.0029008565 -0.0046577603 -0.006780125 -0.0016724266 -0.0094605535 0.00999625 0.027277887
-0.015113909 0.005890754 -0.057556972 0.00040864176 0.025373518 -0.00539729 0.009622948 -0.009901039
-0.018612564 -0.0263578 -0.029761195 0.009818717 0.026019707 -0.01317665 -0.06745337 0.026563019
0.025859192 0.002040773 -0.013793826 0.009592629 0.033309817 0.1264012 0.021468565 0.028661385
0.009711471 -0.0020979755 -0.047379747 -0.040146664 -0.019942578 0.003894763 -0.023568213 -0.018239144

exp_avg_sq f4 [1, 40]
00000000: 9621 433d acee ec3a 4b73 d43e f138 693c
00000010: 076c 7238 4800 c83e 3d40 c73e 889f f13e
00000020: 2282 e23b 1c8b a23a e856 1a3e e726 f13a
00000030: ad85 eb3e f92e c43e ec35 2f3b 8d24 803c
00000040: 9a2f be3e fda0 e33e 1c0a ee3e a9d3 093b
00000050: 9ed4 f33e e07d 7f3e cb44 fc3d be19 f23e
00000060: ea16 f53e 8d51 9b3a 5851 b83e 5fdd 7139
00000070: 869b d43e 50bc 2d3e 02be a13e 08d1 7f3e
00000080: a36c 1f3c 4175 a438 c18e 713e fc6a ea3e
00000090: d1f2 f33c 8802 4a39 7751 f23e 2844 b43b
0.047639452 0.0018076501 0.41494212 0.014234767 5.7797904e-05 0.39062715 0.38916197 0.47192025
0.0069124857 0.0012401077 0.15072215 0.0018398435 0.46000424 0.38317087 0.002673502 0.015642429
0.37145692 0.44458762 0.46492088 0.00210307 0.47623152 0.24950361 0.12317809 0.47285265
0.47869045 0.0011849866 0.3599956 0.00023066018 0.41524905 0.16966367 0.31590277 0.24982083
0.009730491 7.84197e-05 0.23589613 0.45784748 0.02977887 0.00019265164 0.47327778 0.005501289

exp_avg f4 [1, 40]
00000000: feec 893b 3a2f 83ba 4207 cfbc b530 373c
00000010: 5ff8 a0b8 2e22 a4bc 567b aa3c e92c a33c
00000020: e6fc 7dbb 3a01 8d38 aa50 50bb eda6 ee3a
00000030: cdef a13c 6f19 97bc 050b 0f3b 0bb3 1e3b
00000040: 49a0 533c ed8f 90bc 1740 a7bc 9080 603b
00000050: 2575 9c3c 2659 31bc 5f35 593c 5dd0 9a3c
00000060: 76bf 9a3c ee9c a63b 95aa 79bc c730 f33a
00000070: 5a65 ed3b 6842 5ebc c9b2 733c 0106 3b3c
00000080: fdb4 ccbb 1a17 c138 a41f e5bb fbb5 b6bc
00000090: ecfa 563c 5812 6c3a e732 9abc 41cb 50bb
0.00420916 -0.0010008581 -0.025272015 0.011181046 -7.675657e-05 -0.02003583 0.020810764 0.019918876
-0.0038755476 6.7236324e-05 -0.003178636 0.0018207707 0.019767666 -0.018444745 0.0021826637 0.0024215605
0.012916633 -0.017646754 -0.020416303 0.0034256317 0.019098828 -0.010824477 0.013257354 0.018898183
0.018890124 0.0050846254 -0.015238424 0.0018553965 0.007244748 -0.013565637 0.014874169 0.011415006
-0.0062471614 9.20726e-05 -0.0069922972 -0.022303572 0.013121348 0.0009005419 -0.0188231 -0.003185943

exp_avg_sq f4 [1, 40]
00000000: 6799 0e39 94cc 713a b983 6d3b 978c 9838
00000010: e31f cd35 a8b2 c83a 1b77 8c3a 59ca 763b
00000020: 8898 f33a fa3d ba3a ae4e ed39 18d4 aa3a
00000030: 9cc7 273b 77d4 513a 9d4f ef3a 9c58 1e39
00000040: bedb 023b a71f 883b 9f25 8a3b 2e92 fe38
00000050: 6555 953b fd23 613b 1727 983a 0ee5 ad3b
00000060: 2aa5 d73b 0ade b437 53d9 293b 0666 1537
00000070: 9720 1a3b 8245 1c3b 0dec 103b 14f7 2d3a
00000080: 4b49 dc3a 5183 5135 6814 8b3a dd2c 263b
00000090: 3a3c eb3a 274e a635 86fa b13b ac81 8039
0.00013599322 0.0009223905 0.0036241843 7.274112e-05 1.528297e-06 0.0015312033 0.0010716649 0.003765723
0.0018584887 0.0014209144 0.00045262784 0.001303318 0.0025601154 0.0008004377 0.001825798 0.00015101064
0.0019967402 0.004154164 0.0042159106 0.00012138892 0.004557299 0.0034353726 0.0011608329 0.0053068465
0.0065809684 2.1561067e-05 0.002591689 8.904846e-06 0.002351796 0.002384514 0.0022113353 0.0006636244
0.0016806511 7.804966e-07 0.001061094 0.002535633 0.0017947026 1.2390709e-06 0.005431476 0.00024510676
