lightning_logs/version_26/checkpoints/epoch=4-step=250.ckpt (torch, 21723 bytes, 21 tensors)

model.nn.0.weight f4 [20, 5]
000000 1d b1 0c ba 5e 79 05 ba 9e 33 a9 bc 7b f1 23 bd
       -0.0005366968 -0.00050916325 -0.020654496 -0.040025216
000010 98 9f c6 bc 8c 95 c5 bc a5 c1 09 bd 0d ca 3e 3d
       -0.024246022 -0.024119161 -0.03363194 0.04657941
000020 59 22 4c bd 1b 1e 0e bd d7 ef 2a bd e8 18 1f bd
       -0.049837444 -0.03469668 -0.041732635 -0.03884211
000030 b3 2a a9 3c f4 1c d2 3c 20 21 7a bd d4 c8 cc bd
       0.020650243 0.025648572 -0.061066747 -0.099992424
000040 cb f8 38 bd ee e9 9b 3b b8 b1 c9 3d 4d 81 8c 3d
       -0.045159142 0.004758111 0.0984835 0.068606
000050 dd 48 97 3d 52 7e 88 3d fb 00 23 3e 23 94 4f 3e
       0.073869444 0.06664719 0.15918343 0.20271353
000060 24 e9 b4 3d d6 ad 18 3c f2 c4 83 3d 73 1b 1e 3d
       0.088335305 0.0093187895 0.06434049 0.038600396
000070 ab c6 c4 3d 3a f8 0b 3e f1 ad 9f 3b de 8a 45 bd
       0.096082054 0.1366891 0.0048730304 -0.048228137
000080 19 c4 e5 3c f8 d6 60 3c 00 78 54 bd 1c a4 f7 3d
       0.028047608 0.013723128 -0.051872253 0.12091848
000090 76 50 85 3d 68 13 04 3e 13 50 2c 3e 3c 4f 4f 3e
       0.06509487 0.12898028 0.16827421 0.2024507
0000a0 d3 aa e7 3c 98 06 03 3e 3b ac ec 3d 43 78 3b 3e
       0.028279698 0.12795484 0.11556288 0.18307595
0000b0 8c 2b d8 3d d2 e1 5e 3d aa d9 ae 3c 21 06 60 bd
       0.10555181 0.054414578 0.021344025 -0.054693345
0000c0 3e e2 32 bd 7a be 2e bd 81 31 d4 3d f8 3f 0c 3e
       -0.043672793 -0.04266212 0.103610046 0.13696277
0000d0 de 13 0f 3e 77 3e cd 3d 88 cd 30 3e 5e 2d 77 3d
       0.13972422 0.1002168 0.17265904 0.060346
0000e0 95 63 aa 3d 56 78 33 3e 56 d8 3e 3e 25 4a cc 3d
       0.08319775 0.17526373 0.18637213 0.099750794
0000f0 68 41 fc 3d ac d8 c4 3d 46 2a 33 3e bf 6f 54 3e
       0.12317163 0.096116394 0.17496595 0.20745753
000100 45 2a 2a 3e 5a 76 a4 bc 94 82 3e bd dc 39 c4 3c
       0.16617687 -0.020075966 -0.046511248 0.02395337
000110 3f 16 0b bd a2 d4 86 bb b3 3e bd 39 aa b0 d5 bc
       -0.033956762 -0.0041147033 0.00036095604 -0.026085217
000120 0b 6a f6 3c 04 5a 21 bb 80 ea 1f bd 81 91 be 3d
       0.030079862 -0.0024620304 -0.039041996 0.093050964
000130 4e e1 ba 3d 79 97 29 3e 65 4e 05 3e 6d 28 13 3e
       0.09125005 0.16561688 0.13018186 0.1437089
000140 7d 46 ea bd dd 02 2b 3d b7 aa c7 3c 78 fb ee 3c
       -0.11439226 0.041750778 0.024373395 0.029172644
000150 d4 8a 05 3d 20 55 26 3d 83 ec bd 3c b3 b3 db bc
       0.0326031 0.040608525 0.023184067 -0.026819086
000160 f6 e0 23 bd c8 54 a1 bc a7 6e eb 3d c8 e1 8a 3d
       -0.04000946 -0.019693747 0.11495715 0.067813456
000170 f3 19 c2 3d 12 e5 55 3e 82 f0 64 3e 6c 1b f4 3c
       0.09477606 0.20888165 0.22357371 0.029798232
000180 8d d3 17 3e 94 12 22 3e 4d 56 57 3e 11 ca 3a 3e
       0.14826794 0.158274 0.21029015 0.18241145

model.nn.0.bias f4 [20]
000000 00 00 00 00 00 00 00 00 99 c6 0a bc 5e 17 be 3a
       0.0 0.0 -0.008470201 0.0014502814
000010 b1 23 fd 3d 74 0e 99 3d 00 00 00 00 6a 96 d0 3d
       0.12360323 0.0747346 0.0 0.10184939
000020 72 91 e7 3d 00 00 00 00 77 e5 c8 3d 49 e0 e8 3d
       0.11307038 0.0 0.09809392 0.11370904
000030 49 7c 03 3e 00 00 00 00 00 00 00 00 b4 fc e5 3d
       0.1284038 0.0 0.0 0.1122984
000040 25 9e 0e 3b 00 00 00 00 ef 92 01 3e c9 e3 f3 3d
       0.0021761742 0.0 0.12653707 0.11908681

model.nn.2.weight f4 [20, 20]
000000 80 6f 13 3c a1 41 b6 3c 95 f0 77 3d 2f 6b 0e be
       0.008998752 0.022248091 0.06053217 -0.13908075
000010 f7 73 a8 3d c3 eb 19 bd ed ab 5d 3d 81 4d 65 bd
       0.082252435 -0.037578356 0.05411904 -0.055982117
000020 ec f9 9e bc 21 cf e2 3c ff c8 27 3c 3f 17 a2 3d
       -0.019406281 0.027686657 0.010240792 0.0791459
000030 17 05 a5 3d 29 40 a4 ba 9c a6 0e bd 7e e6 8c 3c
       0.080576114 -0.0012531328 -0.03482686 0.017199751
000040 6a f6 6d bd 8d 50 36 bd a5 f0 24 3d 32 69 25 3d
       -0.058096327 -0.044510413 0.04026856 0.040383525
000050 de 0d f9 3b 6f 98 52 3d ac 42 95 bd 2f e3 3b be
       0.00760053 0.051414903 -0.07288107 -0.18348382
000060 87 7e 4e bd f8 e5 f6 bd d6 50 ab 3b f3 69 0e be
       -0.050413635 -0.12055582 0.0052281423 -0.13907604
000070 fe dc ef bd cf a1 a7 bc 88 82 1a bd fd 1b 00 be
       -0.11712073 -0.020462899 -0.03772214 -0.12510677
000080 f1 e4 e0 bd 83 07 4b 3c 93 55 44 3d 58 78 83 bd
       -0.10981167 0.012391928 0.047933172 -0.06419438
000090 4a 67 23 be bb 9b 49 3d 45 f9 dc bd de df 07 be
       -0.1595737 0.04922078 -0.10789732 -0.13268992
0000a0 98 f8 c8 3c db 28 2b bb 12 a0 20 bd b3 33 1a 3e
       0.024532601 -0.002611688 -0.039215155 0.15058784
0000b0 9e da 85 bc 7e 81 aa 3c ef 91 91 bc 42 ea a1 bd
       -0.016339596 0.0208137 -0.017769782 -0.07906009
0000c0 44 f6 59 bc 66 bf 16 bd a5 e9 88 bd dc 54 0c 3a
       -0.013303343 -0.036803626 -0.06685189 0.0005353221
0000d0 9d b6 15 be d9 20 1e 3d 62 8a 0c bd 4d cd 86 bd
       -0.14620443 0.038605545 -0.03431166 -0.06582127
0000e0 10 84 75 3d a4 43 4a 3c 1c 0e df bd ea 14 15 bd
       0.059940398 0.012345228 -0.10891363 -0.0363969
0000f0 e2 05 1c bd 4f a3 bb bb d0 fd 5f bd df ad 3e be
       -0.038091548 -0.005726255 -0.054685414 -0.18621014
000100 53 b0 42 be 74 27 22 be f5 58 e9 bc e1 0b 47 be
       -0.19012575 -0.15835363 -0.0284848 -0.19438125
000110 4a e5 6d be dd 26 1a ba 12 b1 19 be 66 63 ed bd
       -0.23231998 -0.0005880425 -0.15008953 -0.11591224
000120 79 4e f0 bd 99 f6 ba bb 8e 6a 50 bd 94 06 69 be
       -0.117337175 -0.0057056663 -0.05088287 -0.22756416
000130 8e 06 d1 bd 5a b5 02 bd 69 c6 57 be d7 69 6b be
       -0.10206328 -0.03191123 -0.21071781 -0.22989593
000140 3e 09 62 3d 5e 55 5b 3d f8 84 ea bc d9 96 18 3e
       0.055184595 0.05354821 -0.028627858 0.14901294
000150 be ab 3c bc 6c 7f de 3d 03 74 45 3d 8d 3f f9 3d
       -0.011515556 0.108641475 0.04820634 0.121703245
000160 1b 26 86 3d f2 b5 48 3d b9 6f 2b 3d b0 a5 0d 3e
       0.06550237 0.04900164 0.041854594 0.13832736
000170 b0 4c a9 3d 4d 76 cc 3c 85 f5 d5 3a 2a 6f b7 3d
       0.0826658 0.024958754 0.0016323781 0.0895675
000180 d3 f1 14 3d 24 7a 25 bc 43 b1 87 3d 72 97 44 3c
       0.036363434 -0.010099921 0.06625607 0.011998998
000190 c3 62 0c bd df 91 51 3d 9d 31 93 3c 5f c3 4f be
       -0.034273874 0.051164504 0.017967993 -0.20289372
0001a0 5a 8c c8 3c 07 51 b0 3c 07 a3 12 3d d2 a1 dc bc
       0.024480987 0.021523012 0.035800006 -0.02693263
0001b0 5c 36 6d bd e6 97 6a 3c 22 a5 89 bd 40 10 92 bd
       -0.05791317 0.014318442 -0.0672095 -0.07132006
0001c0 f6 88 e5 bd 5b fe 4b 3d fd 04 c4 bc 2b 4c 8d 3b
       -0.11207764 0.04980312 -0.02392816 0.0043120584
0001d0 f0 98 b2 bd 63 6f e9 bc 9d 50 a1 bd 75 14 99 bd
       -0.08720577 -0.028495496 -0.07876704 -0.07474605
0001e0 f3 a0 b7 3c df ad 2c bd 46 98 42 b9 51 cd 2b be
       0.022415614 -0.042158004 -0.00018558008 -0.1677754
0001f0 a1 e0 88 bd f7 a8 19 be 59 6b 48 bd 87 8a fa bd
       -0.066834696 -0.15005861 -0.0489305 -0.12233453
000200 b9 d7 ad bd 71 f9 1c bc 38 73 2e be 27 5c ad bd
       -0.084884115 -0.009580956 -0.1703614 -0.08464842
000210 66 a5 37 be 28 38 4c 3d 9a 63 c1 3b e9 4b e8 bd
       -0.17934188 0.049858242 0.005901766 -0.11342604
000220 6a 9b a0 bd ca 82 af bc 3b 91 10 be 1b f8 ee bd
       -0.07842143 -0.02142467 -0.14117901 -0.11668416
000230 ee 9f 57 3d 30 7a b1 3c 67 5e fc bc 8f 71 7e bd
       0.052642755 0.021664709 -0.030806733 -0.062120017
000240 c4 d4 16 3e fc 77 ef 3d eb 7f 6e bb e0 40 b5 3d
       0.14729601 0.11692807 -0.0036392163 0.088502645
000250 06 c6 6f 3e 38 8a 0a 3c 0e 2e 06 3e 27 1d 1a 3e
       0.23415384 0.0084558055 0.13103506 0.15050183
000260 e3 ba 2b 3e 6e 60 ab bc f9 31 09 bd 54 9c 3a 3e
       0.1677051 -0.020920005 -0.033494923 0.18223697
000270 f7 0e f9 bd 33 ce 28 3d 80 72 0c 3e 9a 0d 36 3e
       -0.121610574 0.041212272 0.13715553 0.17778626
000280 09 a6 60 3c e6 b5 c7 bc 83 b5 3d 3d 0d f9 c7 bd
       0.013711461 -0.024378728 0.04631568 -0.097642995
000290 3f ea b1 3c eb 7e 91 bd bb a2 9b 3c 6f ba c0 bc
       0.021718143 -0.07104286 0.018998494 -0.023526398
0002a0 81 c3 1d bd 80 41 0e 3d 66 00 98 bd 5b 19 f2 bc
       -0.038516525 0.034730434 -0.07421951 -0.029553106
0002b0 07 9c c6 bd b3 b5 26 3d 2f 26 a7 3c fa b1 9a 3c
       -0.096977286 0.040700626 0.02040395 0.018883694
0002c0 cb ca e8 bd 9a 76 09 3d 9f ef 67 3c b0 cb 20 bd
       -0.11366805 0.033560373 0.014156251 -0.03925675
0002d0 ca 64 99 3b f5 a8 a0 bc fb 5d 85 bc 8b a7 4a 3e
       0.0046812044 -0.019611815 -0.016280165 0.19790475
0002e0 22 80 38 3e 48 c8 32 3e 42 77 92 3b 31 fa 0b 3e
       0.18017629 0.17459214 0.004469783 0.13669659
0002f0 12 4e 2e 3e b1 e4 38 bd 58 6e 46 3e 25 c4 2d 3e
       0.17021969 -0.045139972 0.1937803 0.16969354
000300 e3 63 54 3e 0b d6 92 3c 85 cc ac bc 08 17 0c 3e
       0.20741229 0.01792433 -0.021093616 0.1368066
000310 34 93 95 3d 21 b0 6a 3c 90 35 73 3e 15 e5 4b 3e
       0.073034674 0.014324219 0.23750901 0.19911607
000320 56 36 8f 3c 2c 3b 3a 3d 5d 6e 9f bc 84 8d c9 3d
       0.017481964 0.045466587 -0.019461805 0.09841445
000330 41 5b 2e 3d 27 c6 8e 3d a7 4c b5 3c bc b2 6e 3d
       0.042567495 0.06971388 0.022131277 0.058275923
000340 cf 68 6a 3d ee ad b7 3c 91 ee 9e 3d 30 f9 ce 3d
       0.05722886 0.022421803 0.07760347 0.101061225
000350 04 6f 23 3d 90 26 50 bd 7c 83 0e bd 28 0d b8 3d
       0.039900795 -0.050818026 -0.034793362 0.08986884
000360 43 da 9b 3d 14 9a 0a bd e5 2d 42 3c 49 c7 e6 3d
       0.076099895 -0.033838347 0.011851762 0.112684794
000370 d9 c6 33 3d b2 24 ab 3c 6e 26 33 3d 73 c2 06 3e
       0.043890808 0.020891521 0.04373782 0.13160114
000380 1f 1b 2b 3e f0 0e 08 3d ee 0b 5c 3d 81 19 25 3e
       0.16709565 0.03321737 0.053722315 0.1612301
000390 61 d3 6f 3e 2b 70 ce bc 12 3a e5 3d 79 c4 3e 3e
       0.23420478 -0.02519997 0.11192717 0.18629636
0003a0 a0 68 12 3e 90 62 d4 3c c0 2a 37 3d 2e 90 15 3e
       0.14297724 0.025925905 0.044718504 0.14605781
0003b0 3d bb f2 3d 01 99 95 3c 14 63 68 3e 0e c5 0a 3e
       0.11852119 0.018261435 0.22694045 0.13551733
0003c0 93 9b bf 3c b7 53 0d bd 05 db 1e 3c 3e ce 5a be
       0.023389613 -0.034503665 0.009695773 -0.21367738
0003d0 0b a9 99 3c 8d 0f ec bb b0 da 0c bd ac a3 89 bd
       0.018757364 -0.0072040022 -0.034388244 -0.06720671
0003e0 7c fe 90 3d 5c 41 06 3c fd 99 29 bd 27 8b dd 3c
       0.07079789 0.008194294 -0.04140662 0.027043892
0003f0 03 28 20 3d 55 d3 92 3b 5f d0 c8 3c 1e de 2e bc
       0.03910066 0.004480759 0.024513422 -0.010673074

model.nn.2.bias f4 [20]
000000 d6 ef e2 3b 1b 15 99 bd fe 37 19 bd 84 c5 fc bd
       0.0069255633 -0.07474729 -0.037406914 -0.123423606
000010 e5 49 65 3d a9 9b 38 bd 6b 9b d0 bd f8 cd 17 3e
       0.055978674 -0.045070324 -0.101858936 0.14824665
000020 c1 f8 23 bd d9 05 de 3d 58 0a 17 3d 96 b5 f1 3d
       -0.040032152 0.10840959 0.0368751 0.11802213
000030 84 bc 3f bc 3f 1b b4 3d 96 71 78 bd 94 96 f6 3d
       -0.0117026605 0.08794259 -0.0606552 0.12040439
000040 ae eb 38 bd db c8 26 bd d8 e6 5b bd 52 cd 71 3c
       -0.045146637 -0.040718894 -0.053686947 0.014758425

model.args_proj.proj.0.weight f4 [1, 20]
000000 89 fd b9 be ad 7a 20 3e cf d7 6d bd e1 6f 0c 3e
       -0.36326244 0.15671797 -0.05806714 0.13714553
000010 87 c4 7e 3e 8a 47 4b be 6c 3e 27 3e c2 70 c1 bc
       0.24879657 -0.19851509 0.16332406 -0.023613337
000020 2e 63 c0 bd 76 be 1d be 2e 2e 89 3e b1 aa 17 be
       -0.09393917 -0.15404686 0.26793045 -0.14811207
000030 e9 a1 14 be 18 ef 43 3e 0b a5 53 be 6e fd 10 3d
       -0.14514889 0.19134176 -0.20668428 0.03539794
000040 b2 d0 08 be 9c 92 1b 3d b6 60 80 3d 7d 2f 55 be
       -0.13360861 0.037981614 0.06268446 -0.20818897

model.args_proj.proj.1.weight f4 [1, 20]
000000 31 c2 cd bd c3 de 3e be ae 6b 02 3e fc 41 62 bd
       -0.10046805 -0.18639664 0.12736389 -0.05523871
000010 af 9e 30 3e f4 c8 cb bd 82 de ef bd 94 05 c1 bd
       0.17248033 -0.09950438 -0.11712362 -0.09424892
000020 12 e8 4b be 98 98 1b 3e 7f ae 5d 3e 4f 6d 1e 3e
       -0.19912747 0.15194929 0.21648596 0.15471385
000030 30 20 00 be 65 09 a1 3d 3f ed 55 be 0c 93 fa bd
       -0.12512279 0.0786312 -0.20891283 -0.12235078
000040 41 5e f8 bd 53 88 25 be aa dd 25 be c1 b3 61 be
       -0.121273525 -0.16165285 -0.1619784 -0.22041227

model.args_proj.proj.2.weight f4 [1, 20]
000000 cc c8 5f bc ed b3 46 3e ed af fb 3d b4 7c 34 3e
       -0.013658714 0.19404574 0.122894146 0.17625695
000010 b7 8a 13 be 57 91 c8 3d ca e4 65 3e 1c c7 a5 be
       -0.14408384 0.097933464 0.22450557 -0.3237847
000020 14 c9 be 3d 7c fe 84 be 20 d4 ba bd d0 b5 9a be
       0.09315696 -0.25975406 -0.09122491 -0.30216837
000030 0c 0e a9 3c d7 ec 2e be 4a e9 2d 3e 0a e2 ae be
       0.02063658 -0.17082535 0.16983524 -0.3415683
000040 76 cc cb 3d 97 05 b8 3d 50 b7 0d 3e 80 32 0e be
       0.09951107 0.08985441 0.1383946 -0.13886452

exp_avg f4 [20, 5]
000000 de c1 be ac 9c f8 b4 ac 10 5c 65 af 5d 2f de af
       -5.4216484e-12 -5.143509e-12 -2.0860136e-10 -4.0415218e-10
000010 9c 9d 86 af 59 e9 85 af 38 b5 ba af 73 46 01 30
       -2.4486446e-10 -2.4358363e-10 -3.3961967e-10 4.703004e-10
000020 12 50 0a b0 d9 9d c0 af af a8 e7 af c2 9e d7 af
       -5.0317894e-10 -3.5036754e-10 -4.2138512e-10 -3.9221076e-10
000030 bd 0f 63 2f 63 02 8d 2f 5c db 27 b0 13 ca 96 3e
       2.0651121e-10 2.5649446e-10 -6.1065974e-10 0.29451045
000040 36 8a 43 3e fd 64 d1 3d 18 be 1e 3c 28 b2 e2 bd
       0.19095692 0.1022434 0.009688877 -0.11069137
000050 12 78 e0 3c 3a 2f 7b 3c eb ac 0a 3c f0 cb 52 3a
       0.027401004 0.015331084 0.008464078 0.00080412533
000060 eb 99 10 bc 01 91 a0 3d 6e 07 56 3d f9 85 07 3d
       -0.008825759 0.07840157 0.05225318 0.03308675
000070 cb d6 5e 3c 3c 5f 3a bc a0 7d 58 2e 44 d9 05 b0
       0.013601015 -0.011375245 4.922429e-11 -4.869387e-10
000080 43 b7 9b 2f ca 66 18 2f f6 f4 0f b0 1d 31 10 3e
       2.832455e-10 1.3860837e-10 -5.237121e-10 0.14081235
000090 c0 6c c2 3d a0 5a 77 3d 9b 8d d2 3c 91 97 99 bc
       0.09493399 0.06038916 0.025702288 -0.01874903
0000a0 2a 20 05 3e 9b f1 b1 3d bc 5d 60 3d fb 00 b7 3c
       0.13000551 0.08688661 0.054776892 0.022339335
0000b0 83 af 9d bc 2a 02 17 30 c6 03 6d 2f 1a c8 17 b0
       -0.01924873 5.4936555e-10 2.1556365e-10 -5.521784e-10
0000c0 81 6c f2 af f4 d0 ec af 06 c7 b6 3d 97 60 71 3d
       -4.409664e-10 -4.307662e-10 0.089246795 0.058930006
0000d0 7e 3b 17 3d 8c 3a 6e 3c d0 4f 66 bc 52 e3 e7 3d
       0.03692197 0.014540326 -0.014057115 0.11322655
0000e0 38 aa 9a 3d 78 2f 43 3d 41 aa 9f 3c 58 96 87 bc
       0.07551998 0.04765269 0.019490363 -0.016551182
0000f0 fa 2f 81 3d 74 1b 21 3d 1a dc c2 3c 90 4c f4 3b
       0.06307979 0.039332822 0.023786593 0.007455416
000100 36 91 58 bc ce ef 5e af 0a 16 01 b0 c4 fd 84 2f
       -0.013218215 -2.0275978e-10 -4.6961246e-10 2.4190971e-10
000110 b1 82 bc af 7a cd 36 ae 57 4b 80 2c f9 d2 90 af
       -3.4289863e-10 -4.156451e-11 3.646343e-12 -2.6343352e-10
000120 b4 fe a6 2f 94 c3 da ad b5 ba d8 af 2e ff be 3d
       3.0376202e-10 -2.4870585e-11 -3.9422834e-10 0.093260154
000130 67 f2 7a 3d db d7 1c 3d 9a 7d 73 3c aa 8c 76 bc
       0.06126633 0.038291793 0.014861489 -0.015048185
000140 73 8a 0e 3e 6a af bb 3d 60 56 46 3d f0 62 39 3b
       0.13920002 0.09164317 0.048422217 0.002828773
000150 1e 63 65 bd f3 6b e1 2f 9d b8 80 2f b6 e5 94 af
       -0.05600273 4.1003964e-10 2.341424e-10 -2.7084263e-10
000160 fd 18 de af 7a b1 5a af 02 5e c1 3d 53 e2 7b 3d
       -4.039932e-10 -1.9890037e-10 0.09441759 0.061495136
000170 fb 0a 1c 3d de ec 65 3c 8a 49 89 bc ef ec 00 3e
       0.03809641 0.014033524 -0.016758699 0.12590383
000180 45 0d ac 3d 41 25 59 3d 9e 49 b1 3c db 07 98 bc
       0.084009685 0.053014044 0.021641549 -0.018558433

exp_avg_sq f4 [20, 5]
000000 a6 d8 1e 19 9d f7 0e 19 34 55 64 1e ec 28 55 1f
       8.21216e-24 7.391233e-24 1.2087839e-20 4.5138354e-20
000010 a2 27 9d 1e 3c 85 9b 1e be c6 16 1f 12 14 90 1f
       1.6639413e-20 1.6466368e-20 3.192813e-20 6.1019576e-20
000020 4f ca a4 1f e2 6c 20 1f 5b 9f 67 1f e2 cf 48 1f
       6.979139e-20 3.3971384e-20 4.904797e-20 4.2523604e-20
000030 a0 42 00 31 e9 cc fd 30 1c f7 fd 30 3b 83 26 3d
       1.8664323e-09 1.8466412e-09 1.8478405e-09 0.040652495
000040 e1 5b 21 3d fb 53 1d 3d d1 c4 1e 3d 4f 9e 2a 3d
       0.039394263 0.03841017 0.038761918 0.04165488
000050 b6 02 d2 3a 19 c7 d0 3a 08 3c d3 3a bb 18 da 3a
       0.0016022536 0.0015928476 0.0016115913 0.001663945
000060 fd 2f e8 3a 94 e8 84 3b c5 d6 82 3b 8b fb 81 3b
       0.0017714497 0.004056046 0.0039928877 0.003966754
000070 62 0c 84 3b 77 a3 8b 3b 23 56 4c 1c 54 63 9a 1f
       0.0040297965 0.00426143 6.7609267e-22 6.538586e-20
000080 b2 10 d2 1e 9d 03 ca 1d f2 6b b2 1f c9 15 64 3c
       2.224152e-20 5.347269e-21 7.556451e-20 0.01392121
000090 7b c0 61 3c ae 8e 60 3c 83 62 64 3c 1f 84 71 3c
       0.013778801 0.0137058925 0.013939503 0.014740973
0000a0 a9 15 53 3c 8b 20 51 3c e0 73 50 3c 00 46 54 3c
       0.012883582 0.0127641065 0.012722939 0.012956142
0000b0 d9 4c 60 3c 13 34 c4 1f 51 c8 73 1e 2b 34 c6 1f
       0.013690197 8.309538e-20 1.2905737e-20 8.3942566e-20
0000c0 81 85 7d 1f ea fd 71 1f 4d 41 e1 3b 05 5e df 3b
       5.3685266e-20 5.1243768e-20 0.0068742395 0.006816628
0000d0 d4 14 df 3b 74 8d e3 3b ce d0 f0 3b 12 49 24 3c
       0.006807903 0.0069443528 0.00734911 0.010027187
0000e0 6a c7 22 3c 0f 4a 22 3c 11 52 25 3c 2d d7 2e 3c
       0.009935239 0.009905352 0.010090367 0.010671419
0000f0 c3 46 a4 3b 59 68 a3 3b 00 e2 a4 3b 8a ab a9 3b
       0.0050133183 0.0049868044 0.005031824 0.0051779198
000100 a2 7c b4 3b 1c c2 57 1e ee a8 8f 1f b9 65 99 1e
       0.0055080215 1.1422146e-20 6.0842326e-20 1.6241577e-20
000110 47 b0 19 1f 0c b9 11 1c 53 b5 8f 18 88 cd b5 1e
       3.2544823e-20 4.8215643e-22 3.7147724e-24 1.9249126e-20
000120 77 77 f1 1e cd cb 50 1b 5f df 4a 1f eb e5 fa 3b
       2.5566277e-20 1.7271208e-22 4.2959932e-20 0.007656803
000130 81 d6 f8 3b 6e e2 f8 3b e8 35 fe 3b f3 a7 06 3c
       0.0075939302 0.007595352 0.007757891 0.008218753
000140 9b 37 f2 3b dd 03 e9 3b 57 cb e2 3b 0b d5 e4 3b
       0.0073918826 0.0071110562 0.0069212127 0.0069834045
000150 fa 50 f8 3b dd 61 5b 1f 2d bc 8f 1e 8e 22 c0 1e
       0.0075780125 4.6456004e-20 1.5218542e-20 2.0343082e-20
000160 41 fe 54 1f 0c a5 4f 1e 6d a2 fb 3b 25 3d f9 3b
       4.510306e-20 1.099262e-20 0.007679275 0.007606166
000170 c8 be f9 3b fa 55 ff 3b 48 07 07 3c bf 12 41 3c
       0.00762162 0.0077922316 0.008241482 0.011784255
000180 a6 28 3f 3c 32 b2 3e 3c 6c 56 42 3c 0b 88 4d 3c
       0.011667406 0.011639165 0.011861425 0.012544642

exp_avg f4 [20]
000000 00 00 00 00 00 00 00 00 35 40 ba ae e9 86 d4 3d
       0.0 0.0 -8.469706e-11 0.103772946
000010 8e e0 1a 3c 68 42 11 3d 00 00 00 00 b6 85 86 3d
       0.009452952 0.03546372 0.0 0.06568472
000020 97 d9 70 3d 00 00 00 00 10 86 24 3d a8 8b 54 3d
       0.05880126 0.0 0.040166914 0.051891
000030 cc 8c de 3c 00 00 00 00 00 00 00 00 e3 37 2c 3d
       0.027166747 0.0 0.0 0.042045485
000040 d3 4a 42 3d 00 00 00 00 e9 39 26 3d 72 f1 69 3d
       0.04743464 0.0 0.04058257 0.057115026

exp_avg_sq f4 [20]
000000 00 00 00 00 00 00 00 00 73 6d 37 30 5d 40 1d 3d
       0.0 0.0 6.673055e-10 0.03839146
000010 e0 0f d4 3a 8a e9 81 3b 00 00 00 00 93 ef 5f 3c
       0.0016179048 0.0039646076 0.0 0.013667959
000020 25 e3 4f 3c 00 00 00 00 04 a4 de 3b 9c e7 21 3c
       0.012688433 0.0 0.0067944545 0.00988188
000030 c1 17 a5 3b 00 00 00 00 00 00 00 00 73 94 f8 3b
       0.005038232 0.0 0.0 0.007586056
000040 90 d4 e2 3b 00 00 00 00 5f 85 f9 3b 5b 57 3e 3c
       0.006922312 0.0 0.007614776 0.011617507

exp_avg f4 [20, 20]
000000 94 e1 c7 2e 2e 0d 77 2f 91 64 26 30 72 09 17 3c
       9.089543e-11 2.2469201e-10 6.053336e-10 0.0092185605
000010 6e e6 f6 bc ef 22 5b bc 52 30 16 30 1d 2d fe bc
       -0.030139174 -0.013375028 5.463835e-10 -0.031027371
000020 b4 89 de bc 68 b6 99 2f 28 0c 07 bd 1a e3 f5 bc
       -0.027165271 2.7960145e-10 -0.032970577 -0.030015517
000030 ec 86 1a bd 94 b2 5e ad ca 56 c1 af e4 89 01 bd
       -0.037726328 -1.2658891e-11 -3.5168163e-10 -0.031625643
000040 a2 46 a4 3b 3c 12 f7 af e4 ce ff bc df 08 00 bd
       0.005013303 -4.4941995e-10 -0.031226583 -0.03125846
000050 91 d3 a8 2e 36 b0 0e 30 15 56 48 b0 29 f9 92 3c
       7.677337e-11 5.190971e-10 -7.2881906e-10 0.017941074
000060 1f 41 3b bd 08 67 96 bc 1f 44 68 2e 48 11 3e bd
       -0.0457164 -0.018359676 5.2811196e-11 -0.0464032
000070 fc 72 26 bd 87 3b 63 af ca e7 4f bd 6f 3f 3a bd
       -0.040637 -2.0666678e-10 -0.05075816 -0.04547065
000080 55 2d 6b bd b9 9e 09 2f ce 07 05 30 94 81 45 bd
       -0.05741628 1.2516467e-10 4.839621e-10 -0.04821928
000090 49 d0 1e 3c 2c 9a 08 30 74 17 3b bd 8c 22 3c bd
       0.009693214 4.9695603e-10 -0.045676664 -0.045931384
0000a0 d4 34 88 2f b9 0f e8 ad 45 97 d7 af a3 4a 58 bc
       2.4775793e-10 -2.6382329e-11 -3.9215756e-10 -0.0132013885
0000b0 bf 29 19 3d 3e 7f 80 3c 1b 55 45 af 9c 0d 1d 3d
       0.037393328 0.015685674 -1.7947281e-10 0.038343057
0000c0 9a d9 09 3d fe 4e cc af 94 ff 29 3d 22 41 19 3d
       0.033654787 -3.716351e-10 0.041503504 0.03741563
0000d0 a8 be 40 3d b5 4e d6 2f de 7a be af d3 b7 21 3d
       0.047056824 3.8982298e-10 -3.46481e-10 0.03948195
0000e0 24 71 e5 bb fa 19 09 2f b8 78 1b 3d 6c a1 1d 3d
       -0.007002013 1.2469306e-10 0.037956923 0.038484022
0000f0 91 74 d3 af d2 64 7e ae e6 52 16 b0 4d 9b a3 3b
       -3.8463502e-10 -5.784246e-11 -5.468749e-10 0.0049928785
000100 1e 7c 26 bc 34 90 6c bb 71 24 9e af 98 46 25 bc
       -0.010161428 -0.0036096694 -2.8765926e-10 -0.010087632
000110 0c 4b 10 bc c2 01 d1 ac 47 35 3a bc 2c 08 24 bc
       -0.008806955 -5.9403324e-12 -0.011365241 -0.010011714
000120 be cb 50 bc ae 7a 7d ae 6c 36 0d b0 ba bd 2f bc
       -0.012743888 -5.76345e-11 -5.137284e-10 -0.010726387
000130 b3 c9 33 3b 9d 28 b1 af a4 7c 1f bc f8 bc 1e bc
       0.0027433455 -3.222497e-10 -0.0097343065 -0.009688608
000140 ea 24 19 30 02 9b 14 30 ad 62 9d af 34 51 83 bc
       5.5713534e-10 5.4062366e-10 -2.8628247e-10 -0.016029932
000150 f1 a7 3c 3d 1a d3 9f 3c cb c9 05 30 c2 ca 40 3d
       0.0460586 0.01950984 4.8671883e-10 0.047068365
000160 24 ae 28 3d 8e fe 07 30 68 a4 4f 3d 5a 8f 3b 3d
       0.0411817 4.947446e-10 0.0506939 0.045791008
000170 fe 63 6c 3d 5d 92 8a 2f ea 0b 91 2d 74 58 46 3d
       0.057712547 2.520605e-10 1.6489882e-11 0.0484242
000180 e6 fe 0e bc 6e 56 e0 ae bc 25 40 3d 56 4f 40 3d
       -0.008727765 -1.0201694e-10 0.046910986 0.04695066
000190 30 45 be af 68 fe 0d 30 64 90 45 2f 40 a7 14 3c
       -3.460996e-10 5.1657034e-10 1.7968343e-10 0.009073079
0001a0 f2 0a db bc 3b 82 3b bc 41 bd c6 2f 69 15 e0 bc
       -0.026738618 -0.011444624 3.6150463e-10 -0.02735396
0001b0 c8 ec c3 bc fe 02 1f 2f 9c 86 f0 bc 3f 9e d9 bc
       -0.023916617 1.4462029e-10 -0.029361062 -0.026564715
0001c0 29 21 09 bd b1 37 0a 30 f3 d9 84 af f0 11 e6 bc
       -0.03347889 5.028325e-10 -2.4165522e-10 -0.028084725
0001d0 ce 96 a2 3b a2 33 9e af 8c f8 df bc 59 b0 df bc
       0.004961825 -2.877672e-10 -0.027340196 -0.027305769
0001e0 48 e9 78 2f e6 04 ea af 12 92 02 ac 3e a2 33 3c
       2.2638347e-10 -4.2567833e-10 -1.8555196e-12 0.0109639745
0001f0 fc 45 d3 bc fb 3f 23 bc 08 cc 07 b0 25 d4 d4 bc
       -0.025790207 -0.009963985 -4.940266e-10 -0.025980065
000200 8a 34 ba bc cc cf d4 ae 6a 0e eb bc 4e 6e d1 bc
       -0.02273013 -9.677556e-11 -0.028693397 -0.025565293
000210 38 94 04 bd d6 5e 0a 30 64 18 83 2e e0 da de bc
       -0.032367915 5.033888e-10 5.961523e-11 -0.027203977
000220 b1 7d c3 3b fc e8 6d af 4e 35 d0 bc c4 96 d0 bc
       0.0059659113 -2.1637797e-10 -0.025416043 -0.025462516
000230 13 18 12 30 30 93 70 2f ac 5d a9 af 9c 06 2f 3c
       5.31487e-10 2.1880164e-10 -3.080748e-10 0.010682728
000240 6a b7 0b bd 0d b6 74 bc e4 ad 21 ae e6 b6 10 bd
       -0.034110464 -0.014935982 -3.6761608e-11 -0.035330676
000250 59 5a fe bc 85 d2 bb 2e f0 e7 1a bd 8c 85 0c bd
       -0.03104894 8.541171e-11 -0.03781885 -0.034307048
000260 14 1e 30 bd ad 4e 68 af 91 f2 b9 af 0c a0 13 bd
       -0.042997435 -2.1128228e-10 -3.3823658e-10 -0.036041304
000270 fb 33 b6 3b 89 c5 e4 2f 6a 27 10 bd 5a 07 13 bd
       0.005560396 4.1613316e-10 -0.03519384 -0.035895683
000280 a0 45 18 2f 2d 5a 87 af 3e a0 fe 2f df 1c 9d 3c
       1.3849055e-10 -2.462043e-10 4.631619e-10 0.019178806
000290 1e 8b 5b bd 46 ae b7 bc 6e f9 52 2f 64 4b 60 bd
       -0.05359947 -0.022421967 1.9188004e-10 -0.054759398
0002a0 a6 6a 44 bd cd cd c0 2f 44 99 72 bd e8 a8 5a bd
       -0.04795327 3.5070827e-10 -0.059228197 -0.053383738
0002b0 a4 c5 89 bd c2 ee e1 2f fc 93 62 2f 93 3b 67 bd
       -0.0672715 4.109691e-10 2.0607155e-10 -0.0564533
0002c0 96 ae 29 3c 8c 4f ba 2f 76 9d 5e bd 9d c1 5f bd
       0.010356566 3.3889724e-10 -0.054349385 -0.054628003
0002d0 15 f8 4f 2e 9c c8 59 af 9d 01 33 af b5 54 69 bc
       4.7286692e-11 -1.9807306e-10 -1.6280528e-10 -0.014241387
0002e0 3b 70 0d 3d c2 05 5e 3c af 93 46 2e 48 d3 0e 3d
       0.03453086 0.013551177 4.5151157e-11 0.034869462
0002f0 f0 f6 f9 3c 71 90 fa af 5c 1b 1d 3d 10 4c 0c 3d
       0.030513257 -4.5577367e-10 0.03835617 0.034252226
000300 53 7a 31 3d 60 0c 47 2f 18 3c 6a af 92 1f 15 3d
       0.043329548 1.8103341e-10 -2.1303526e-10 0.03640706
000310 47 c7 fd bb 6a 13 1f 2f cf 24 0c 3d 78 6e 0c 3d
       -0.007744703 1.4467863e-10 0.03421479 0.03428504
000320 0a 23 42 2f 54 60 fc 2f cb fc 55 af 35 b8 a8 bc
       1.7656646e-10 4.5906978e-10 -1.9462047e-10 -0.02059565
000330 16 87 74 3d 7c b5 cf 3c 32 c1 75 2f c9 46 7a 3d
       0.05969914 0.025355093 2.2351257e-10 0.061102662
000340 6e 1b 5b 3d e0 fa 78 2f fe bc 86 3d db 7a 73 3d
       0.053492956 2.2644597e-10 0.06579016 0.059443336
000350 03 55 99 3d 60 08 0d b0 32 27 c1 af 5c a4 80 3d
       0.07486918 -5.13074e-10 -3.5134345e-10 0.06281349
000360 68 b7 36 bc 75 da bb af b3 51 79 3d 7a 31 7a 3d
       -0.011152126 -3.4170325e-10 0.06086893 0.06108234
000370 2a a2 f3 2f b9 fd 67 2f ea 74 f0 2f b0 9d 6a bc
       4.4316667e-10 2.1099468e-10 4.3738818e-10 -0.014319822
000380 ce 37 0c 3d d8 a5 5a 3c a0 16 15 30 22 55 0d 3d
       0.034232907 0.013345204 5.4238036e-10 0.034505017
000390 ce 44 f7 3c 1d e9 8b af 0a b2 1b 3d b2 eb 0a 3d
       0.030184176 -2.544959e-10 0.03801159 0.033916183
0003a0 f0 d9 2f 3d 99 f0 8f 2f cd 39 f8 2f e0 c7 13 3d
       0.04293245 2.6182503e-10 4.5152007e-10 0.036079288
0003b0 a6 f0 ff bb 85 ca 4a 2f d0 98 0a 3d ea a1 0a 3d
       -0.00781067 1.8443742e-10 0.03383714 0.03384582
0003c0 b0 dc 81 2f a4 8b bf af 65 37 d5 2e 2c 50 40 3c
       2.362177e-10 -3.4841918e-10 9.6959586e-11 0.011737864
0003d0 84 a0 0e bd e5 22 74 bc ac e7 be af 66 3d 12 bd
       -0.03482105 -0.014900898 -3.4725411e-10 -0.035703085
0003e0 28 09 00 bd 9e 03 b6 2e 82 1c 1d bd 56 21 0e bd
       -0.031258732 8.277044e-11 -0.038357265 -0.03469976
0003f0 db eb 32 bd 81 10 47 2e 92 19 88 2f 38 0b 16 bd
       -0.04368196 4.526202e-11 2.4756425e-10 -0.036631793

exp_avg_sq f4 [20, 20]
000000 ac fa 2d 1d 7e 66 84 1e 55 47 ca 2c 1b aa 83 37
       2.3025954e-21 1.4018433e-20 5.7491048e-12 1.5695628e-05
000010 ba 1b 06 3b 4c cb 45 3a ef 17 c2 1f 12 3a 31 3b
       0.0020463304 0.0007545247 8.220179e-20 0.002704267
000020 be 57 ff 3a 01 b7 cc 1e ca 84 1e 3b f4 91 11 3b
       0.0019481105 2.1675029e-20 0.0024188035 0.002221224
000030 31 47 5b 3b cd 72 58 1a 1e a0 21 1f e1 f4 16 3b
       0.0033459181 4.4760488e-23 3.4225522e-20 0.0023034143
000040 d6 6a ca 36 94 a3 83 1f ee 9e 40 3b 0c 86 4b 3b
       6.0325065e-06 5.5751275e-20 0.0029391604 0.003105524
000050 c7 55 f8 1c b3 4f af 1f 23 52 74 2d 65 00 71 38
       1.6433436e-21 7.4247234e-20 1.3888032e-11 5.7459245e-05
000060 c0 7a f1 3b 12 db 31 3b 55 2d 6b 1c b3 af 20 3c
       0.0073693693 0.0027138633 7.781357e-22 0.009807515
000070 93 f5 e5 3b 23 21 60 1e c5 d1 0e 3c 97 5b 03 3c
       0.0070178 1.1865314e-20 0.008717005 0.008017442
000080 a2 3f 45 3c 07 ca a4 1d 8a 84 98 1f 04 e0 07 3c
       0.012039097 4.361933e-21 6.459377e-20 0.008293156
000090 5a 68 b1 37 c2 c3 a0 1f 30 38 2d 3c 33 18 38 3c
       2.1148637e-05 6.808649e-20 0.010572478 0.011236238
0000a0 d4 e0 a0 1e c2 f0 6a 1b 89 1b 3b 2d 18 10 03 38
       1.7033646e-20 1.943382e-22 1.0635833e-11 3.1247822e-05
0000b0 62 ae 5b 3b d5 45 a1 3a 11 27 29 1e e2 a8 93 3b
       0.0033520688 0.0012304137 8.954864e-21 0.0045062164
0000c0 fd 60 54 3b 46 64 34 1f 4b 93 83 3b 79 98 72 3b
       0.0032406442 3.8199427e-20 0.0040153614 0.003701715
0000d0 aa 43 b5 3b fc 62 46 1f e6 e6 1c 1f b2 55 7a 3b
       0.005531748 4.201001e-20 3.322528e-20 0.003819805
0000e0 ca 79 34 37 49 8d a3 1d 88 e1 9e 3b fd 63 a9 3b
       1.0757192e-05 4.3291826e-21 0.0048486628 0.0051693902
0000f0 d9 2a 41 1f 60 0a 8d 1c 6e be ca 2b 40 24 a1 36
       4.0904782e-20 9.333279e-22 1.4405818e-12 4.802394e-06
000100 8a 7d 3d 3a c4 f8 8a 39 25 a3 d8 1e b6 24 83 3a
       0.00072284846 0.00026506756 2.2937365e-20 0.0010005448
000110 9e 65 39 3a d7 b0 3e 19 aa 67 66 3a 77 5f 54 3a
       0.0007072332 9.858482e-24 0.0008789251 0.00081013836
000120 1a 13 9e 3a 75 07 8c 1c 12 ba ab 1f 55 81 5a 3a
       0.0012060136 9.26635e-22 7.2729145e-20 0.0008335312
000130 eb e9 ed 35 6d cf 07 1f 81 01 8b 3a 93 56 95 3a
       1.7725955e-06 2.875894e-20 0.0010605307 0.0011393599
000140 e5 c0 c9 1f dd 0c be 1f 77 2a 87 2d 14 f8 46 38
       8.544593e-20 8.048941e-20 1.5366581e-11 4.743792e-05
000150 dd d4 cf 3b 08 47 19 3b db 3f 9a 1f 21 56 0a 3c
       0.006342514 0.0023388285 6.532718e-20 0.008443386
000160 4b bb c5 3b 99 58 9f 1f fb f0 f5 3b 6a d8 e1 3b
       0.00603429 6.748569e-20 0.0075055338 0.0068922536
000170 89 bf 29 3c c4 7e a6 1e c5 9e b7 1a 13 d1 e9 3b
       0.010360607 1.7628363e-20 7.594353e-23 0.0071355193
000180 44 0c 97 37 00 17 5b 1d 11 1f 15 3c c9 5f 1e 3c
       1.8006314e-05 2.89963e-21 0.009101645 0.009666392
000190 f4 8e 1c 1f a3 9e ad 1f ab 15 ef 2c b1 df 80 37
       3.3152533e-20 7.353079e-20 6.795194e-12 1.5362953e-05
0001a0 96 d8 09 3b 01 79 4b 3a 83 bc 2a 1f bb 6b 37 3b
       0.0021033636 0.00077618664 3.6154833e-20 0.0027987796
0001b0 c3 33 03 3b 9c e1 db 1d 59 30 23 3b 9a ca 15 3b
       0.0020019866 5.820209e-21 0.0024900644 0.0022856356
0001c0 ff 5e 61 3b 9c 90 a4 1f 66 13 99 1e 9d 2e 1b 3b
       0.0034388897 6.969594e-20 1.6207528e-20 0.0023678907
0001d0 22 bc c5 36 a4 cc d8 1e 69 1a 46 3b 34 09 52 3b
       5.892959e-06 2.2954527e-20 0.0030228144 0.0032048943
0001e0 1f 65 86 1e 11 57 6c 1f e2 92 ad 2c 92 e1 b8 37
       1.4229625e-20 5.0046964e-20 4.933263e-12 2.2039549e-05
0001f0 49 83 46 3b ff 05 92 3a 04 e3 9e 1f 41 1c 87 3b
       0.0030290654 0.0011140703 6.729117e-20 0.004123241
000200 78 a5 3f 3b 39 2f 45 1d 44 5a 6e 3b 71 61 5b 3b
       0.0029242914 2.6097146e-21 0.003636972 0.0033474828
000210 31 ba a3 3b 46 ed a4 1f 95 cf 95 1c bb 2c 62 3b
       0.004996561 6.984924e-20 9.913652e-22 0.0034511525
000220 e1 f8 08 37 66 9f 75 1e a1 d7 8f 3b 00 1e 9a 3b
       8.164178e-06 1.3003155e-20 0.0043897186 0.0047032833
000230 0a b9 b7 1f a9 23 7b 1e 20 e6 6c 2c d9 ca ba 37
       7.7809636e-20 1.3295204e-20 3.3665362e-12 2.2267386e-05
000240 48 75 08 3b 80 80 44 3a 8b 03 e4 1b f1 a5 51 3b
       0.0020821858 0.00074959546 3.7721726e-22 0.0031989778
000250 58 01 12 3b e0 a4 19 1d 28 51 35 3b c5 53 28 3b
       0.0022278633 2.033462e-21 0.002766678 0.0025684696
000260 01 5d 72 3b 0a 39 6a 1e 70 8e 15 1f b9 2a 2a 3b
       0.0036981704 1.2399652e-20 3.16698e-20 0.0025965406
000270 50 25 e8 36 61 ea 61 1f a9 6d 53 3b f0 44 6c 3b
       6.9184825e-06 4.7839477e-20 0.0032261407 0.0036051832
000280 db ab c9 1d a7 df 9e 1e 8b b0 d3 2d 46 fe 8a 38
       5.338195e-21 1.6821401e-20 2.4066324e-11 6.627715e-05
000290 1e 75 09 3c fa 80 4a 3b 66 48 41 1e b6 66 36 3c
       0.008389739 0.003089963 1.02323066e-20 0.011132887
0002a0 4c b1 02 3c 7b bc 20 1f 59 67 22 3c 36 3f 15 3c
       0.007976841 3.4037225e-20 0.009912335 0.009109309
0002b0 a3 5f 60 3c 60 5f 5c 1f 06 d8 5e 1e df 7e 1a 3c
       0.013694677 4.6665704e-20 1.1797255e-20 0.0094296625
0002c0 b7 37 ce 37 78 23 16 1f 66 ef 44 3c 3c 12 51 3c
       2.4583058e-05 3.1793075e-20 0.012019968 0.012760695
0002d0 ce 93 3c 1c f0 ec 4d 1e 39 44 b8 2c 97 6e 1b 38
       6.2395015e-22 1.0901607e-20 5.2371688e-12 3.7057875e-05
0002e0 ca 70 a5 3b ea 72 f3 3a 8c f0 2b 1c 0e cf e0 3b
       0.005048846 0.0018573676 5.6890053e-22 0.0068606203
0002f0 ea ba 9f 3b 90 5d 87 1f a5 8e c6 3b 6a cb b6 3b
       0.004874577 5.732951e-20 0.006059485 0.005578448
000300 b5 6b 08 3c 7e 19 2c 1e 2d 1d 6e 1e ac 7f bc 3b
       0.008326461 9.110876e-21 1.26056485e-20 0.0057525244
000310 3b 09 67 37 f2 0e dc 1d 75 b4 ef 3b 76 4e 00 3c
       1.3770822e-05 5.824897e-21 0.0073152133 0.007831207
000320 41 bb 23 1e 9c 51 89 1f 93 3b f8 2d a6 99 a1 38
       8.667871e-21 5.815677e-20 2.8220792e-11 7.7056975e-05
000330 f1 71 22 3c d7 67 6f 3b af 04 83 1e 04 b3 57 3c
       0.009914861 0.00365304 1.3872102e-20 0.013165239
000340 9d 77 1a 3c 15 78 86 1e a0 07 40 3c 7c 63 30 3c
       0.009427932 1.4237467e-20 0.011720568 0.010765906
000350 07 9d 84 3c ef 4a ab 1f e8 50 21 1f 9b a1 36 3c
       0.016188158 7.2545284e-20 3.416e-20 0.011146928
000360 9f b6 f2 37 bc 9f 18 1f 31 d4 68 3c 76 29 77 3c
       2.8933688e-05 3.231938e-20 0.014210747 0.015085569
000370 8f 05 80 1f 4a 96 69 1e 5e 86 87 2c 0a b5 1f 38
       5.4219305e-20 1.2365996e-20 3.8518485e-12 3.807716e-05
000380 0d 46 ae 3b 39 1d 00 3b 63 47 bf 1f 2b ba f0 3b
       0.0053184093 0.0019548668 8.1009746e-20 0.0073464117
000390 c4 0e aa 3b 88 b7 a9 1e d8 97 d3 3b 47 e3 c2 3b
       0.0051897485 1.7969478e-20 0.00645731 0.0059475037
0003a0 e2 bc 10 3c f6 98 b3 1e 72 dd 84 1f 72 78 c8 3b
       0.008834096 1.9015625e-20 5.6270525e-20 0.006117874
0003b0 70 fe 6d 37 a8 9d 32 1e 3c 4d fe 3b 9a fa 08 3c
       1.4185542e-05 9.455844e-21 0.007760672 0.008360529
0003c0 42 49 92 1e 76 a7 1e 1f 92 aa 2d 2d 21 d6 c3 37
       1.548865e-20 3.3596322e-20 9.871786e-12 2.3345523e-05
0003d0 5e 23 3f 3b ce ad 8c 3a 88 99 1d 1f a1 55 7d 3b
       0.0029165368 0.001073295 3.337304e-20 0.0038655775
0003e0 a2 15 36 3b a0 4c 10 1d 33 1e 62 3b 19 cd 4f 3b
       0.002778389 1.9097856e-21 0.0034502863 0.003170794
0003f0 51 44 9c 3b cb c8 2c 1c b1 a0 a0 1e b9 37 57 3b
       0.004768886 5.7169545e-22 1.700712e-20 0.003283961

exp_avg f4 [20]
000000 f4 cb 5e bd 2e fd 91 bd 71 2f 68 3d c1 80 7a bc
       -0.054393724 -0.07128368 0.05668587 -0.015289486
000010 a6 db a1 3d 4a bb 40 bd 47 d2 23 bd 8c a7 50 bd
       0.07903223 -0.047053613 -0.039995458 -0.050941035
000020 38 1d b3 bd ac a4 5e 3d 15 9c cd 3d 5c 04 5f 3d
       -0.087458074 0.054356262 0.10039536 0.054447517
000030 20 36 6d bd 67 d7 11 3d 62 2d be bd aa c4 7d bd
       -0.057912946 0.035605814 -0.09286 -0.06195513
000040 0b 48 5f bd 55 a7 89 bd 28 69 85 bd 1e c8 d8 bd
       -0.054512065 -0.06721369 -0.065141976 -0.10585044

exp_avg_sq f4 [20]
000000 23 9e 95 3b 0b 99 8d 3c de 5b fb 3b 1a 83 ea 3a
       0.0045659705 0.01728489 0.0076708635 0.0017891855
000010 c4 68 74 3c 98 6b a0 3b ea 0f f4 3b b1 c6 bc 3b
       0.014917556 0.0048956387 0.007448186 0.0057609905
000020 2a b9 a0 3c ad 77 47 3c 1f 2d be 3c 7d 8e 58 3c
       0.019619543 0.012174529 0.023214875 0.013217566
000030 85 16 da 3b 2b 52 64 3b 3e e1 b2 3c 34 38 10 3c
       0.0066555166 0.0034839015 0.02183592 0.008802462
000040 89 1c e9 3b 68 3e 50 3c 2f fa 5c 3c b7 18 c3 3c
       0.0071139974 0.012710191 0.013487383 0.023815496

exp_avg f4 [1, 20]
000000 08 c5 ec 3a 60 b7 27 bc 66 80 a2 bb d2 04 91 bc
       0.0018064091 -0.010236591 -0.004959154 -0.017702494
000010 31 ec eb 3b c2 98 b0 bb 86 2a 4e bc 80 c6 7e 3c
       0.007199787 -0.005389304 -0.012583381 0.015550256
000020 29 12 77 bb 7f fd 8c 3c 33 49 ca 3b 92 26 80 3c
       -0.0037700033 0.01721072 0.006173277 0.015643392
000030 c0 0e 15 ba 98 2d 4f 3c 69 12 00 bc 18 d5 75 3c
       -0.0005686097 0.012645148 -0.007816889 0.015004419
000040 c1 43 a5 bb 65 cc 94 bb f9 d6 a1 bb c8 66 83 3b
       -0.0050434773 -0.0045409673 -0.004938957 0.004010055

exp_avg_sq f4 [1, 20]
000000 47 b2 5b 36 c6 9c 9b 38 aa ef a3 37 12 5e 67 39
       3.2737314e-06 7.420177e-05 1.9542716e-05 0.0002206492
000010 60 59 21 38 76 59 b9 37 3a df e3 38 ae d6 25 39
       3.846863e-05 2.2095377e-05 0.00010865783 0.000158156
000020 18 e9 30 37 8d da 63 39 4e 0f 06 38 81 94 31 39
       1.0544689e-05 0.00021729823 3.1962343e-05 0.00016935357
000030 94 10 f6 35 a9 46 f2 38 ab 94 3a 38 0c b6 25 39
       1.8333253e-06 0.00011552621 4.4484314e-05 0.00015803444
000040 0f e5 9d 37 d8 2b 81 37 71 c9 7f 37 3c b7 6b 37
       1.8822522e-05 1.5398415e-05 1.5246086e-05 1.4049754e-05

exp_avg f4 [1, 20]
000000 7a 7d bc 3d 3c 47 8e be f2 5e 3f be a2 b8 06 bf
       0.0920362 -0.27788723 -0.18688563 -0.5262548
000010 f7 b2 4d 3e e4 80 09 be ba ea b9 be 6b 88 fa 3e
       0.20087801 -0.13428074 -0.36311895 0.48932204
000020 52 6f bc bd 66 16 05 3f 81 9a 3d 3e 96 a3 f0 3e
       -0.0920092 0.519873 0.1851597 0.46999806
000030 43 8a aa 3c c2 b6 c6 3e 96 93 64 be 4c fe fe 3e
       0.020817881 0.38811308 -0.22321925 0.49803388
000040 48 46 e8 bd ae 6e da bd 75 a4 d1 bd 68 95 28 3e
       -0.1134153 -0.10665642 -0.10236446 0.16463244

exp_avg_sq f4 [1, 20]
000000 94 74 6f 3c 87 68 93 3e de 48 b1 3d 62 43 68 3f
       0.014615197 0.28790686 0.086564764 0.9072782
000010 94 be 15 3e 77 2f a1 3d 6f 7f dd 3e f1 1a 2c 3f
       0.14623481 0.07870381 0.43261287 0.6722861
000020 56 c5 0c 3d ba 7e 65 3f ac 8a fd 3d f4 73 34 3f
       0.03436788 0.89646494 0.12379965 0.7048943
000030 d3 01 72 3a 43 1e fb 3e a1 52 32 3e 78 1d 31 3f
       0.0009231839 0.49046525 0.17414333 0.6918559
000040 f8 1e 7d 3d 70 70 4b 3d 02 80 4c 3d 05 f8 81 3d
       0.061797112 0.049667776 0.049926765 0.06346134

exp_avg f4 [1, 20]
000000 48 d9 04 3c 68 4e e5 bc 62 b7 8b bc c9 99 52 bd
       0.0081084445 -0.027991489 -0.017055217 -0.051416192
000010 46 48 a2 3c 42 47 61 bc 71 b5 10 bd f6 40 3b 3d
       0.019809853 -0.013749899 -0.035329286 0.04571625
000020 a2 34 17 bc 6a 45 51 3d 8a 37 97 3c b4 bc 3a 3d
       -0.009228857 0.05109159 0.0184591 0.045590118
000030 30 86 9b 3a 2e 23 1a 3d a6 f3 b3 bc 11 77 3f 3d
       0.0011865553 0.037631206 -0.021966767 0.04674441
000040 3a bb 41 bc d0 28 33 bc 71 18 2f bc c3 b2 76 3c
       -0.011824423 -0.010935023 -0.01068698 0.015057269

exp_avg_sq f4 [1, 20]
000000 98 c6 90 3a 45 91 0a 3c fb be c7 3a 0a c7 a6 3c
       0.0011045514 0.0084574865 0.0015239412 0.020358581
000010 1c 99 b2 3b 47 99 73 3b 28 7d 1b 3c 4d 73 42 3c
       0.005450381 0.0037170218 0.009490289 0.01186831
000020 fc 1b 30 3b 4b ac b8 3c 76 ee f1 3b bd 52 8b 3c
       0.0026872149 0.022543093 0.007383163 0.017007226
000030 b6 dc e1 3a 40 ca 3f 3c d5 a7 c9 3b 4c bd 4c 3c
       0.0017231915 0.011705935 0.0061540403 0.012496304
000040 14 a6 44 3b 64 61 67 3b 80 37 ed 3a 11 29 df 3a
       0.0030006217 0.0035305852 0.0018098205 0.0017025789
