deep-learning/rv_only/lightning_logs/version_17/checkpoints/epoch=4-step=250.ckpt (torch, 27739 bytes, 21 tensors)

model.nn.0.weight f4 [20, 30]
00000000: 9b63 d03d b356 863d 8cc7 313a 689a 343c
00000010: 2766 993c 9c9f 4f3c 2a1e a33c 9417 aabc
00000020: 62fe 5d3d 0f0b a13d 32ff 933d f1c3 c23b
00000030: cf90 1ebd 5133 0b3d 1d33 08bd a600 3d3d
00000040: 6f53 ac3d 4156 1dbd 2118 503d 2dd1 b33d
00000050: 160e 713d 8fec 9d3d b37d 033d 9dae 15bb
00000060: 3f95 e83d 3398 103e c881 063e 2f22 a93d
00000070: 47a4 c13d c02f e13d 7745 e83d 0a02 e13d
00000080: bcd7 04bc 94e3 d03d 088a 983d 8776 fa3d
00000090: e72f c13d 027e 913d 5462 093d aad7 043e
000000a0: 8879 b83d 3aaa 293c 8877 cb3d 6f94 5a3d
000000b0: 5bd8 af3c cef9 ea3d aa25 b93c 7187 d93d
000000c0: 6177 823d 7f73 033e bed6 db3d d3d8 5d3d
000000d0: 44b9 a23d ebf8 063d 9780 dd3b ef97 803d
000000e0: c9e0 963d 06b3 6b3d 9890 003d 6ecf 4d3d
000000f0: 3be7 e8bc c27a 3cbb 8a15 463d 1c0c 593c
00000100: 5da8 2bbd dd59 2e3d 9ae4 3cbd cbb9 0c3c
00000110: 0f1c dcbb f8c9 9dbc 7134 453d 7da9 9a3d
00000120: c361 27bd 74f5 423d 4d8a 333c 8801 803d
00000130: fa66 783d 1d37 673d c8dc 643d e6d7 4bbd
00000140: 0e3a d33c c443 95bc 0598 cd3d 36b1 7f3d
00000150: ab15 d5bb 1e73 6b3d 82d8 0b3e 8d2a 323d
00000160: f491 183e 3b2c 7a3d 320b 59bd 534d 07bd
00000170: c79c 1d3d 506e 04bd 8963 e5bb e14b 92bd
00000180: 5d3f bcbc 76de 21bd acff ae3c 1f23 233d
00000190: a13b 143d 926a 77bd 6769 d6ba 9d1e 03bd
000001a0: 7daa 593c cddb d4bb 2ab6 173d 90c6 0cbd
000001b0: 2f81 cebc 02ab 83bc db3e 47bd 71f7 5abd
000001c0: b4ee 4bbd efa0 53bd f9b7 48bd e28f 6fbd
000001d0: 6045 b93d 7c14 a83d 27d9 913d 03dc bcbc
000001e0: e4e4 833d b39f 4abc e871 eabc 7855 263d
000001f0: b362 533d 1970 f7bc 0558 ce3c c943 5fbd
00000200: 6c33 623d d458 d2bc 19fb 353d 24d8 8abb
00000210: 84a4 80bd 8532 bdbc f9e7 0fbd de43 6e3d
00000220: 509a 6fbd 05b4 443d d878 633d b820 243d
00000230: 716a 0fbd a86f e13c a151 713d e873 ca3c
00000240: faf2 df3d 9fd5 cf3d 5337 fa3d 2190 ac3d
00000250: b8c9 203e 5b57 183e edaf 8ebd 62bd dcbc
00000260: da21 5f3d b836 50bd 35cb 91bd abc4 543d
00000270: 05d3 3d3d 3f75 a5bc bec2 933b 0020 f2bc
00000280: 0534 603d 60d1 2a3b 8bf2 af3c 76b4 90bd
00000290: 31d9 453d aeda d53c 4002 14bd a752 5e3d
000002a0: fa07 9ebd 7be6 243c f71b 2d3d 28ab 26bd
000002b0: c1f0 c9bb 2302 9fbd 7d79 07bc f6f5 8dbc
000002c0: 5fd6 243d 1e07 c83d be84 c53d bf81 8e3d
000002d0: 0d4a b0bc 33c1 2ebd 0f5b 99bd 4596 83bc
000002e0: e1a4 19bc 4956 ca3c 46ff e83b da56 d33b
000002f0: 1a67 cbbb aba3 77bd c867 7abd af54 09bd
00000300: 65b6 063c c57a 1dbd 3dd6 333d 636c 7f3d
00000310: e99f 0f3d 212d 3b3d 27d4 6abd a4b7 6c3d
00000320: f263 0fbc 3202 42bd 94f1 72bd 933f e1bc
00000330: a1d4 77bd 26e7 5b3d ec7f 5dbd 79e0 90bd
00000340: 2c17 4d3c 4fe6 183d d977 4d3d d964 2c3b
00000350: 3be7 34bc a7d9 92bd d41e 57bc 2ce2 1dbb
00000360: eda0 8cbd 9e1f 0d3c c812 67bc d1c8 d6bc
00000370: 5496 22bd e07e 413c 5c8f 3ebd e1d5 983c
00000380: 1757 47bd 8557 aa3b 7273 b03c 9af5 413d
00000390: 24bc b93c d26b 3bbd b9d9 73bc 8162 45bd
000003a0: 6870 073c 2073 3e3d a507 0c3a 94f0 233d
000003b0: e29b 9e3c 293c 1a3c ec83 85bd 2a3b 73bd
000003c0: 2121 8b3d 3e93 11ba 0099 79bc a80d 933d
000003d0: 1b10 f3bc 6c47 01bd 4d8d 1c3d f0fe d23a
000003e0: 116b 7d3c 0b8f b63d b326 ebbc 82ac b53d
000003f0: 281f ad3b 04f7 c6bc 755c d23c 9f5d 9a3d
0.10175248 0.06559505 0.0006781749 0.011023141 0.018725468 0.012672331 0.019911844 -0.020763196
0.054197676 0.078634374 0.07226409 0.005943768 -0.03871232 0.033984486 -0.03325187 0.046143197
0.08414351 -0.038412336 0.05080426 0.087801315 0.058851324 0.077111356 0.032102298 -0.0022839673
0.113565914 0.1412056 0.13135445 0.08258473 0.094551615 0.10995436 0.11341374 0.10986717
-0.008108076 0.10199657 0.07448202 0.122296385 0.09432965 0.07104112 0.03354104 0.12972894
0.09007555 0.010355527 0.09934908 0.053364214 0.021465471 0.11473428 0.022600967 0.106215365
0.06370426 0.12837027 0.10734318 0.054161858 0.07945493 0.03295223 0.006759714 0.06278979
0.07367093 0.057543777 0.031387895 0.05024665 -0.028430572 -0.0028759693 0.048360385 0.013247516
-0.04190861 0.04256617 -0.04611645 0.008589218 -0.006717212 -0.019261345 0.048145715 0.075518586
-0.040864717 0.047597364 0.010958266 0.06250292 0.06064508 0.056449044 0.055874616 -0.049766444
0.025784519 -0.01822079 0.10038761 0.06242486 -0.006502827 0.05748283 0.1365681 0.04349761
0.14899427 0.061077338 -0.052989192 -0.033032726 0.038479593 -0.032331765 -0.007000391 -0.07143379
-0.022979433 -0.039518796 0.021362148 0.039828416 0.03618968 -0.060404368 -0.0016358317 -0.032011617
0.0132852765 -0.006495929 0.03703896 -0.03436905 -0.025208084 -0.016072754 -0.048643928 -0.053458635
-0.049788192 -0.05166715 -0.049003575 -0.058486827 0.09046435 0.08207032 0.07121497 -0.023054129
0.06440142 -0.012367177 -0.028618768 0.040608853 0.0516078 -0.03020482 0.025188455 -0.054508004
0.05522482 -0.025677122 0.04442892 -0.0042371918 -0.06281379 -0.023095379 -0.035133336 0.058170192
-0.058496773 0.048023243 0.055535167 0.040070266 -0.03501362 0.027519062 0.058915738 0.024713472
0.10935016 0.10148167 0.122175835 0.08425928 0.1570195 0.14877073 -0.06967149 -0.026945774
0.054475643 -0.050833434 -0.07118837 0.05194537 0.046343822 -0.020197509 0.004509299 -0.029556274
0.05473711 0.0026064739 0.021477958 -0.0706567 0.048302833 0.026105251 -0.03613496 0.054278042
-0.07716365 0.010064716 0.042262997 -0.04069057 -0.0061627333 -0.077640794 -0.008268711 -0.017329197
0.040243503 0.097669825 0.09644459 0.06958341 -0.021519685 -0.042664718 -0.07488071 -0.016062865
-0.009377689 0.024699347 0.007110509 0.0064495625 -0.006207359 -0.06045882 -0.06113413 -0.033528026
0.008222197 -0.03844716 0.043905485 0.062359225 0.03506461 0.045697335 -0.05733123 0.05779232
-0.008751856 -0.047365375 -0.059312418 -0.027496135 -0.060505513 0.053687237 -0.054077074 -0.07074065
0.012517732 0.037329014 0.050163124 0.0026305227 -0.011041458 -0.0717042 -0.013129909 -0.0024091108
-0.06866632 0.008613495 -0.014103599 -0.026218804 -0.039694145 0.0118100345 -0.046523437 0.018656673
-0.04866704 0.0051984214 0.021539424 0.047353365 0.02267272 -0.045757122 -0.014883452 -0.048189644
0.008266546 0.04649651 0.00053417153 0.040024355 0.01936144 0.009413757 -0.06519303 -0.059382595
0.06793428 -0.0005553252 -0.015234232 0.07180339 -0.029670766 -0.031562254 0.038220692 0.0016097706
0.015467421 0.08914002 -0.028704977 0.08870794 0.005283255 -0.024287708 0.025678853 0.07537388

model.nn.0.bias f4 [20]
00000000: a7ee 413d e173 823d cb6d f83c de7c 0d3c
00000010: a244 b03c a58d 383a 6b47 85bc 9d9e 3bbc
00000020: 2e51 373d fa9e 7d3d ab2e 333d 270f f1bb
00000030: 8b1d d63c 7746 d53c cb6a 043d 44da a63d
00000040: 93ee d83b 135c 023d c674 85bc 2e3c 6b3c
0.047346737 0.063697584 0.03032579 0.008635728 0.021517102 0.00070401496 -0.016269406 -0.011451391
0.044755153 0.06191919 0.043745678 -0.0073565426 0.026137134 0.026034577 0.03232841 0.081470996
0.006620237 0.03182609 -0.016291033 0.01435761

model.nn.2.weight f4 [20, 20]
00000000: a824 adbc 1783 6abb 0412 983d 4970 b2bd
00000010: b885 1abd 8c52 24bd a6c0 0bbd 0c0e 67bd
00000020: e57a 8f3d 9b0c 23be 959b b93c d749 a4bd
00000030: 075f f8bc b586 11bd 65c3 26bc f541 09be
00000040: 1709 f6bd 5544 a03c 7d20 783b e907 76bc
00000050: 68a7 c93d e860 fb3d 58ff 953d a5c7 89bd
00000060: 4fb1 4b3c 1c69 2cbd a1de 08bd 1910 f2bc
00000070: 1fc7 453c aa0c a0bc fba0 953c 7e69 47bd
00000080: 34af a53d 17bd 053e e5b7 e63c 5e78 dcbd
00000090: 7135 bd3d 70ee f13d 1cc7 dd3c 1cf3 6fbd
000000a0: f6b1 063d 76eb e93d a016 e7bb d393 42bd
000000b0: ced3 5a3d abf2 00bd e85e e63c bc22 4c3d
000000c0: 13a9 f13d 67ed 64bc 9085 1a3d 8058 a33b
000000d0: c11a e13c 3fda 2a3d 6c15 9f3d bce8 14be
000000e0: abe3 853d 9242 383d 14e6 1bbd 4a9a d8bd
000000f0: 0869 e63d 0737 94bc e48a ab3d a3a8 13bd
00000100: c86a 11bb 36d5 e7bb 05ae f83c 99d7 02bd
00000110: 91de de3d 24b2 433d 664d a93c b168 f6bc
00000120: 791b 043e 798e 26bc f89c 793d 99b4 7bbc
00000130: a83f 8d3d 86fa a33d 9139 53bb 5256 b53d
00000140: a052 103d c246 8ebd 8956 453c 7253 143d
00000150: 759c f03b 0899 87bc 5dc3 123d 8a9a 23bd
00000160: ad29 fbbc aa18 7d3e be4a 8a3c fa1c 1bbd
00000170: 34fc 573d e9fe c2bc b369 43bc 4878 883c
00000180: fdc6 bc3d 24b5 7f3d 1e48 3f3d 2ee5 1f3a
00000190: 7480 cc3d d50e df3d 8c2a 0f3d 31a3 2dbc
000001a0: 7856 85bc cb9a 8abd dd3f 3f3d b74d 1f3d
000001b0: 3d8b 323d e8a6 67be c6c7 913d 4375 95bd
000001c0: ee18 963d 07d4 9b3d 3c8f 0f3e 1be0 1ebe
000001d0: f6d8 55be b7f4 d93d 0672 1cbd d8ca f5bd
000001e0: a783 55bd 4ae3 cbbc 0fe4 36bd 1636 d63c
000001f0: 104b f8bd dc9a 5fbd 1a54 e0bc bd54 b43c
00000200: 5ff5 8ebd 04d1 81bd 2c31 9dbd bec9 433c
00000210: e431 c4bd f5dc 8fbd 1fcf ee3b beb7 a83c
00000220: 62b2 05be 0072 5bbc 1373 d1bc 17ec 8fbc
00000230: 87db a33d a157 be3d 1c06 4d3d 7217 e4bc
00000240: 9359 db3d ed09 023d a3ca 19bb 514d 8cbc
00000250: a2d2 9c3d 3ee2 443b a37c a93d 8641 89bd
00000260: a494 063e b28d 243d c393 9c3c a285 1ebe
00000270: 2ae5 e23d 6b7a 733c 9d76 27bc 7fb5 b53b
00000280: 4313 f93c ef6e fe3d c846 303d 6443 48bd
00000290: 68db b23d 1786 41bd eb5a 0bbd abc4 a13b
000002a0: c0ae d63d 9a69 1dbd 1c33 3c3d b17b 333c
000002b0: 6c45 583c 25c5 c23d cd7a a13d 8695 d2bd
000002c0: 691a 683d fa00 993d 5ab4 1bbd f88c cbbd
000002d0: 2315 d3bc b5fe 843d be0d 47bd 355b e4bd
000002e0: 6f7f c2bd 666c 93bd 2a04 143c 95b0 e2bc
000002f0: 4797 24bd dbaf 3abe 4b5d 89bc ae6e 04bd
00000300: 9ea4 4dbd 8517 10bd 7dc6 adb9 9282 a33d
00000310: 9543 b7bd 571c 5abd 3ed0 383d 571b 52bc
00000320: d170 5abc 12dc 89bd 20ee f13c 9fa3 dbbd
00000330: 1491 0a3c 81f2 c2bd 712e 98bd db1f 73bb
00000340: ff51 e3bc 8095 f6bd feb2 9d3c bbd8 e3bc
00000350: 55a8 4bbd a732 f43c 723b 33bd e57e 003c
00000360: 8898 24be 4bc9 84bd 75d2 87bc c4a7 abbd
00000370: d8ad 75bd 4350 bbbb e3a7 d23b 7a8b cc3d
00000380: 092c 973d f93c 04bc 5e2a a7bc 389e b8bc
00000390: 93b3 7e3d 48f3 293e 440e 94bd 06ab 083c
000003a0: cdf4 163d 75cc 403d d248 11bd 9dd0 b93d
000003b0: 081e 383e b903 59bd 70d6 42bd bbf7 ea3c
000003c0: f585 953c 68c8 0fbd dd25 72bc 0075 4c3d
000003d0: c092 20bd d8c6 443b 64a7 3cbd a8a8 97bc
000003e0: ccb8 72bd 2d1b 1bbe 9d8a 7abd 5477 aeba
000003f0: be88 89bc 6b6e 94bd 68f7 a1bc f27f 373d
-0.021135643 -0.0035783702 0.07425311 -0.08712823 -0.03772518 -0.040117785 -0.03411927 -0.05640988
0.07005862 -0.15922777 0.022657195 -0.08021896 -0.03031875 -0.035528857 -0.010178422 -0.13404067
-0.120134525 0.019563833 0.0037861161 -0.015016534 0.09846383 0.12274343 0.073240936 -0.06727532
0.01243241 -0.042092428 -0.03341544 -0.029548692 0.0120714 -0.019537289 0.018265238 -0.04868459
0.08090058 0.13060413 0.02816386 -0.10765146 0.09238709 0.118130565 0.027072482 -0.058581457
0.03288456 0.11421864 -0.0070522577 -0.047504257 0.05342465 -0.031481426 0.028121427 0.049837813
0.117998265 -0.013972617 0.03772503 0.0049849153 0.027478578 0.041712042 0.07767758 -0.14541906
0.06537565 0.04498536 -0.038061216 -0.10576303 0.11250502 -0.018092645 0.08376101 -0.036049496
-0.002218889 -0.0070749773 0.030356416 -0.03194389 0.10882295 0.04777731 0.02066679 -0.030079218
0.12901105 -0.010165804 0.060940713 -0.015362882 0.06896907 0.08006768 -0.0032230357 0.08854355
0.035235047 -0.0694709 0.012044557 0.036212392 0.00734287 -0.016552463 0.035830844 -0.0399423
-0.030659521 0.2471644 0.016881343 -0.03786943 0.052730754 -0.023803191 -0.011927056 0.016658917
0.092176415 0.06242861 0.046699636 0.0006099519 0.09985438 0.10891501 0.034952685 -0.01059799
-0.016276583 -0.06767806 0.046691764 0.038892474 0.04358982 -0.22622263 0.07118182 -0.072977565
0.07328974 0.076088004 0.14019483 -0.15515177 -0.20883545 0.10642379 -0.03819468 -0.1200158
-0.052127507 -0.024888653 -0.044651087 0.026148837 -0.12123692 -0.054591045 -0.027383853 0.022013063
-0.069803946 -0.06338695 -0.076753944 0.011949955 -0.095798284 -0.07024566 0.0072878744 0.020595428
-0.13056329 -0.013393879 -0.025567567 -0.017568631 0.08000856 0.09294058 0.050054654 -0.02784321
0.10710444 0.031747747 -0.0023466728 -0.017126711 0.076573625 0.0030042077 0.08275726 -0.06701951
0.1314264 0.040174194 0.019113427 -0.15480664 0.11078866 0.01486073 -0.010221151 0.0055453177
0.030404693 0.12423503 0.043036252 -0.048892394 0.08733255 -0.04724702 -0.034022253 0.0049367747
0.1048255 -0.038430788 0.04594718 0.010954783 0.013200145 0.095102586 0.078847505 -0.102824256
0.05666581 0.074708894 -0.038013794 -0.09938997 -0.025766915 0.06493894 -0.04859709 -0.11150209
-0.09496962 -0.0719841 0.009034196 -0.027672091 -0.04018333 -0.18231146 -0.016768118 -0.032332115
-0.05020582 -0.03517868 -0.00033145017 0.07983889 -0.08948437 -0.053249683 0.04512047 -0.012823901
-0.013332562 -0.06731428 0.029532492 -0.107245676 0.008457441 -0.0951891 -0.07430733 -0.0037097845
-0.02774906 -0.120402336 0.01925039 -0.027813306 -0.04972108 0.02980931 -0.043757863 0.007842754
-0.16073811 -0.06483706 -0.016579846 -0.08381608 -0.059980243 -0.005716355 0.006428705 0.099875405
0.07381446 -0.008071178 -0.020405944 -0.022536382 0.062182974 0.1659671 -0.072292835 0.008341556
0.036854554 0.047069985 -0.035469837 0.09072993 0.17980206 -0.052982066 -0.047567785 0.02868258
0.018252352 -0.03510323 -0.014779535 0.049916267 -0.03920245 0.0030025747 -0.046058074 -0.018513039
-0.059258267 -0.15147085 -0.06116735 -0.0013310709 -0.016788837 -0.07247623 -0.019771293 0.044799753

model.nn.2.bias f4 [20]
00000000: 514e 353d ef4c 513d 032e 493d 82fa ef3c
00000010: c189 9cbc 961e d43d ee66 f3bc 48f6 533d
00000020: 071a 9d3d 46d4 9aba 5c8c 8fbc de76 8dbc
00000030: 0da5 2dbb df74 4a3d c82a ccbd c4e3 dd3d
00000040: 4927 433d d3ce a7bb 5ebd acbc 5a28 c83d
0.04426414 0.05109876 0.049116146 0.029294256 -0.019108655 0.10357396 -0.029712167 0.051748544
0.0767098 -0.001181253 -0.017522983 -0.017268594 -0.0026496083 0.049427863 -0.099690974 0.108344585
0.047644887 -0.005121091 -0.021086391 0.097733214

model.args_proj.proj.0.weight f4 [1, 20]
00000000: fa26 a0bd 842b 41be e60f 1c3e 4c6e edbd
00000010: 403c f43d b61e 3e3d 8f74 3c3e 4c00 51bd
00000020: c3bc f5bc a607 eebc 9003 533e c92b edbd
00000030: 9898 22be 259c 33bd ce1a aebd 94d1 2fbe
00000040: 7cf8 17be 7966 65bd 9794 79be bed2 89be
-0.07819934 -0.18864256 0.1524044 -0.11593303 0.11925554 0.046416007 0.18403839 -0.051025674
-0.029997235 -0.029056381 0.20606828 -0.11580617 -0.15878522 -0.043850083 -0.08501206 -0.17169791
-0.14840883 -0.05600593 -0.24373089 -0.26918596

model.args_proj.proj.1.weight f4 [1, 20]
00000000: ed78 f1bd 581b 373e 034c ad3d 4161 433e
00000010: 76f4 853e 21ca 4ebd ac0c 58be e275 323e
00000020: a1e9 993d 0eca 5fbe d26f 33be b6e0 7e3e
00000030: 43e8 49be 2add 313e 3f94 bb3c cd01 45bd
00000040: be01 be3d a689 2f3e f167 293e 4fad 06bd
-0.11790643 0.17881525 0.08461764 0.19080068 0.2616307 -0.050485734 -0.21098584 0.17427781
0.07515264 -0.21854421 -0.17523125 0.24890408 -0.19717507 0.17369524 0.022897838 -0.04809742
0.09277676 0.17142352 0.16543557 -0.032880124

model.args_proj.proj.2.weight f4 [1, 20]
00000000: 0d6f 2bbe 60e6 a1be 1ebc 49be bf5f 37be
00000010: 7dca 1f3e dcbd 8dbe d67f 3f3e 86cf 97be
00000020: e429 90be 60f0 ba3b ad13 b53d 9e55 123e
00000030: 3871 ef3c 1130 95be 482a 793e e5e2 8bbe
00000040: 94c5 27be a896 2a3d f276 da3d ef1f 9ebe
-0.16741581 -0.31621075 -0.19700667 -0.17907618 0.15604587 -0.27683914 0.1870111 -0.29650515
-0.2815696 0.0057049245 0.088416435 0.14290473 0.029228792 -0.29138234 0.24332535 -0.27321544
-0.16383964 0.041647583 0.10667218 -0.30883738

exp_avg f4 [20, 30]
00000000: 6756 06bd 5cde fcbc 6652 f1bc 346e fcbc
00000010: 9ec9 f8bc 0af7 e0bc 184b d6bc 66cb e0bc
00000020: c2e1 f0bc 87d6 fcbc 749f e6bc 3871 9fbc
00000030: 3a8a acbc 31aa a1bc ba3a 98bc df40 72bc
00000040: 8bca 64bc ce88 9cbb 94d2 00bb cafc c73b
00000050: 2781 5e3c 07d8 4b3c 3ff2 633c 90c4 323c
00000060: e8a3 d43b 006d 2f3a b43a b0bb 7615 55bc
00000070: c01c dcbc 0491 febc e825 dfbb fe9c b5bb
00000080: 1995 d1bb df75 e4bb a0d7 ecbb 742a f2bb
00000090: e71a f4bb 3ff0 06bc 6a7a 0dbc 4961 12bc
000000a0: 8cb0 0bbc 1efa cebb ff36 d4bb f21b c6bb
000000b0: a3af 98bb 5480 1bbb ca07 ceba e82a 0039
000000c0: 6904 953a b41a c23b 964c 3d3c e2b4 3c3c
000000d0: aaf6 4b3c 888a 4f3c 45bb 563c 1f96 8c3c
000000e0: 99ae 923c ac78 9b3c 9e63 a53c 2464 0a3d
000000f0: 4894 eabc f6df ddbc 1af1 d1bc 0c45 dbbc
00000100: e67d d7bc 2060 c1bc 2769 b7bc 26e6 bfbc
00000110: 3027 cebc c0ac d8bc dabe c4bc 83a8 86bc
00000120: 2754 92bc c4ca 88bc 1a17 82bc 18d7 51bc
00000130: 0ae3 47bc 3a07 86bb d870 ddba b458 9d3b
00000140: b93a 2e3c 8432 1d3c e47f 303c fe43 023c
00000150: b493 783b d427 19bb a610 04bc a6aa 7abc
00000160: 5be0 e7bc 2ca8 0ebd 1632 cd38 ccd9 c738
00000170: 6a1e c338 7b0e c738 4539 b838 94eb a638
00000180: 1f57 ac38 4d1c b238 ceff c638 9c82 cc38
00000190: 26fc cb38 960a c738 4c01 c338 6dfe b938
000001a0: e55b ae38 fc52 a538 f9f8 9d38 f5b7 9538
000001b0: 364f 8c38 0c28 8638 c831 7f38 fa73 7938
000001c0: 5126 6938 3f67 4f38 9061 6338 cb9c 22bb
000001d0: e122 25bb f2cc 3fbb 5ef8 3fbb 1485 3fbb
000001e0: 476c 6dbd 745f 63bd 3f0b 54bd 4c85 5cbd
000001f0: b6ac 57bd 2603 3fbd 1802 34bd c2ec 3abd
00000200: 7c3c 49bd 08e3 53bd c477 3fbd 953c 02bd
00000210: 0898 0ebd 28a4 05bd 6c86 02bd f987 dbbc
00000220: 2c57 d5bc 24a1 1bbc 7460 a3bb 9ca2 c03b
00000230: 7898 6f3c 72c9 4a3c 2c24 6a3c d00e 033c
00000240: 9070 b3ba 0b04 90bc 033d fabc 6d9d 40bd
00000250: 9afa 9bbd 5a28 cbbd 14fc cabc c821 cabc
00000260: 0a9e b0bc c685 b2bc e078 aebc 7345 9bbc
00000270: 4cae 98bc 36ba 96bc 3c60 9cbc ae57 a3bc
00000280: 3d88 9abc 08bb 79bc f0b7 87bc 473d 8abc
00000290: 529a 91bc 903b 93bc 5a83 94bc 9cd7 57bc
000002a0: 75d6 4cbc 8692 38bc 9015 4fbc 4683 5cbc
000002b0: cf14 52bc a210 69bc 0d97 8abc 40fb bfbc
000002c0: 8055 ddbc a20a 04bd 1d69 2abd 6d55 69bd
000002d0: 7510 67af f5c8 e7af b274 4cb0 c427 2baf
000002e0: 286e c3ae 3871 8a2f 8a96 a62e 59ec 972e
000002f0: c670 7dae 3bfc 24b0 2adb 26b0 004b 8a30
00000300: a61b 3337 2fe7 3237 fae8 8538 fcbc 8538
00000310: 5970 8538 f023 8538 6b8b 8438 cd19 8438
00000320: 94c8 8038 a02b 8038 2627 7138 bc97 7538
00000330: ab07 7a38 646a 8038 6861 8238 6ced 8838
00000340: 6b97 8a38 fd60 8939 59e7 0930 bde8 e72d
00000350: 90ac f2ae 3d15 45b0 f64c 10af fe64 d3ad
00000360: 83bb 3cb0 448b bd2e 5c01 1baf 441b 90af
00000370: 2230 daaf 29eb 012f 7fbb ffaf c332 4d2f
00000380: 11c2 05b0 a4e9 642e 48e6 6c2f 832e 0230
00000390: ac5c 792f 2984 fbaf 9792 23af ca71 04b0
000003a0: 0874 c02e cb24 0130 c342 332d 0ab2 de2f
000003b0: f52f 5a2f 3e99 d92e e1e5 31b0 18f0 21b0
000003c0: a89a 1fbd fe73 16bd 3a14 0fbd f898 15bd
000003d0: b23e 13bd 6aa8 04bd 170e fcbc f21b 04bd
000003e0: f6c4 0dbd 40ee 14bd fb76 07bd 511b babc
000003f0: 4ead c9bc 7c4f bcbc 8dd6 b1bc afce 8dbc
-0.032797243 -0.030867748 -0.029458236 -0.030814268 -0.030369576 -0.027461547 -0.026158854 -0.027440738
-0.029404525 -0.030864013 -0.028152205 -0.019463167 -0.021062005 -0.019734474 -0.01858269 -0.014785974
-0.013964306 -0.0047770506 -0.0019656764 0.006103133 0.013580597 0.012441642 0.013912736 0.010911122
0.0064892657 0.00066919625 -0.0053780917 -0.013005605 -0.026869178 -0.031075008 -0.0068099387 -0.0055423966
-0.0063959477 -0.006972059 -0.007227853 -0.0073903147 -0.007449496 -0.00823599 -0.008635143 -0.008934327
-0.008525979 -0.0063164374 -0.0064762826 -0.006045812 -0.0046596094 -0.0023727613 -0.0015718874 0.00012223015
0.0011369112 0.0059235934 0.011553904 0.011517735 0.012448946 0.012667306 0.013106172 0.017161427
0.01790552 0.01897844 0.020189103 0.033786908 -0.02863516 -0.027084332 -0.025627661 -0.026766323
-0.02630515 -0.023605406 -0.022389008 -0.023425173 -0.02516517 -0.026449561 -0.024016786 -0.016437775
-0.017862393 -0.016698249 -0.015880156 -0.01280763 -0.012200126 -0.004090217 -0.0016894592 0.004801834
0.010634118 0.009594563 0.010772679 0.007950781 0.0037929835 -0.0023369687 -0.00806061 -0.015299475
-0.028305223 -0.03482835 9.784491e-05 9.529627e-05 9.30399e-05 9.491757e-05 8.784471e-05 7.959377e-05
8.217827e-05 8.492973e-05 9.489023e-05 9.751806e-05 9.7267606e-05 9.491031e-05 9.298566e-05 8.868878e-05
8.314083e-05 7.88327e-05 7.532718e-05 7.139138e-05 6.6904744e-05 6.397077e-05 6.08431e-05 5.9474238e-05
5.5587214e-05 4.94488e-05 5.421188e-05 -0.0024812694 -0.0025197791 -0.0029266444 -0.0029292325 -0.0029223608
-0.05796459 -0.055510953 -0.051768538 -0.05383806 -0.052654944 -0.046633862 -0.04394731 -0.045635946
-0.049129948 -0.051730186 -0.046745077 -0.031796057 -0.034812957 -0.032627255 -0.031866476 -0.026798235
-0.026042543 -0.009498868 -0.0049858633 0.0058787595 0.014623754 0.01237713 0.014290851 0.007999137
-0.0013690162 -0.017580053 -0.03054667 -0.047025133 -0.07616158 -0.09919806 -0.024778403 -0.024674311
-0.021559734 -0.021792304 -0.021297872 -0.018954014 -0.018637799 -0.01839934 -0.019088857 -0.01993927
-0.018863792 -0.015242346 -0.0165672 -0.016874922 -0.017773781 -0.017972738 -0.01812904 -0.013173964
-0.012502302 -0.011265403 -0.012639418 -0.013459032 -0.012822344 -0.014225157 -0.01691773 -0.023435235
-0.027018309 -0.032236703 -0.04160415 -0.056966234 -2.1015174e-10 -4.2161444e-10 -7.43806e-10 -1.5566487e-10
-8.887141e-11 2.51825e-10 7.575547e-11 6.908669e-11 -5.7625703e-11 -6.0021293e-10 -6.07019e-10 1.0062138e-09
1.0675669e-05 1.0663453e-05 6.3853295e-05 6.377135e-05 6.3628606e-05 6.348628e-05 6.320219e-05 6.299056e-05
6.140876e-05 6.1116414e-05 5.7495337e-05 5.8553866e-05 5.9611786e-05 6.1233324e-05 6.2170264e-05 6.5292086e-05
6.6085566e-05 0.00026202938 5.0169074e-10 2.6365016e-11 -1.1035539e-10 -7.1698364e-10 -1.3124066e-10 -2.4032772e-11
-6.866047e-10 8.6194635e-11 -1.4097651e-10 -2.621282e-10 -3.968817e-10 1.1816027e-10 -4.6517454e-10 1.8662676e-10
-4.8660903e-10 5.2048713e-11 2.1545887e-10 4.735982e-10 2.2679342e-10 -4.575054e-10 -1.4876843e-10 -4.8183024e-10
8.7517604e-11 4.698221e-10 1.0189796e-11 4.050807e-10 1.9844022e-10 9.895239e-11 -6.47189e-10 -5.891265e-10
-0.03896585 -0.036731713 -0.0349314 -0.036522835 -0.035948463 -0.032387175 -0.030768437 -0.032253213
-0.034611665 -0.036360025 -0.033072453 -0.022718104 -0.02461877 -0.02298712 -0.021708751 -0.017310468

exp_avg_sq f4 [20, 30]
00000000: 7b9c 603b be25 5e3b f4cd 5d3b f57c 613b
00000010: 6007 623b 4bdb 613b a67c 603b acf5 613b
00000020: 2193 603b 9058 5f3b 7fba 5b3b 1cea 5b3b
00000030: 56e7 5e3b 59ed 593b 628e 5a3b db9f 5e3b
00000040: ccef 623b a281 613b 5f3e 6a3b d25f 6e3b
00000050: d703 7b3b 5c35 7c3b 9c00 7a3b f371 793b
00000060: ecb1 793b dec4 793b 8a09 803b d1de 7e3b
00000070: 24c0 843b 2887 913b 06ee 8d3a 77f6 8c3a
00000080: 03b4 8c3a 8761 8d3a 3d4e 8d3a dc35 8d3a
00000090: 0c8d 8c3a c728 8c3a 6883 8b3a b836 8a3a
000000a0: df54 873a e36d 883a 85ed 893a 354a 883a
000000b0: 8352 873a fb23 8a3a 2acb 8b3a 7d1b 893a
000000c0: d3c4 8c3a 2122 913a 9b35 993a 7ece 9a3a
000000d0: 7139 983a b122 993a a3f8 9d3a b24f 9c3a
000000e0: 6753 aa3a fd0d ac3a bcdd be3a 4435 093b
000000f0: 4c3f 3d3b f346 3b3b b413 3b3b e93b 3e3b
00000100: 26ae 3e3b 3b8f 3e3b f387 3d3b 2fcb 3e3b
00000110: e1af 3d3b 7b8d 3c3b 63c8 393b 9253 3a3b
00000120: fe0b 3d3b cc6a 393b b63a 3a3b c346 3d3b
00000130: db01 413b ca52 403b 14a6 473b f410 4b3b
00000140: 31f1 543b e7a6 543b f30c 533b bbc1 523b
00000150: 7f8b 523b 9c41 533b a698 573b 747d 573b
00000160: 3df4 5f3b 9c02 6d3b ac89 5935 7c3e 4e35
00000170: f5e5 4835 7561 4e35 660b 3835 e308 1835
00000180: 7bec 2035 61ae 2935 e8d2 5135 643b 5a35
00000190: 41ae 5935 52d2 5135 3c6b 4f35 ae2a 4435
000001a0: af34 3635 24a2 2d35 9c5e 2535 4544 1c35
000001b0: bd54 0d35 553c f734 5dde e734 65bd e034
000001c0: d8a2 cc34 8fb0 b734 9048 c934 030b 0137
000001d0: 70a5 1237 2c8a 4737 1a4d 4737 55a9 4637
000001e0: 5248 063c dec1 043c 8f5f 043c e2da 063c
000001f0: ab29 073c 5715 073c 8a5e 063c 6699 073c
00000200: dc82 063c e53b 063c dadf 043c 5ea9 043c
00000210: e85a 063c d82f 033c bee0 033c 1e9c 053c
00000220: 8be2 073c 32ba 073c 84c6 0c3c b94c 0e3c
00000230: 9087 143c 18b9 143c 26c6 133c 5a31 133c
00000240: 439d 123c e9f0 133c 5845 163c 91ff 163c
00000250: c733 1d3c c534 253c 4865 cb38 4c70 ca38
00000260: dba0 c038 82e0 bf38 f4f6 bd38 6ce4 bc38
00000270: e943 ba38 1689 bc38 f7ba ac38 3ce9 aa38
00000280: d9d1 a738 038f b338 8df2 af38 6f7a ab38
00000290: 213d a938 d82d 9c38 0a9c 9738 4193 8e38
000002a0: a61c 8c38 b79a 8838 24f0 8d38 9fd9 8f38
000002b0: d626 9138 e0d6 9038 df92 9938 f445 b038
000002c0: d4f5 bc38 720b d438 ed52 f438 24df 3f39
000002d0: ec0e f536 e2ad f536 3b73 f336 d8e3 f136
000002e0: 2318 ee36 dcea e936 08c5 e636 58a0 e336
000002f0: 2330 db36 f0d1 d636 2c20 d436 35fc d136
00000300: fd59 d736 e733 de36 e428 e636 c14f dc36
00000310: 6987 d736 3cc7 c936 be6e c536 01e9 bd36
00000320: e302 b936 1b51 b136 c1b8 ac36 e741 ac36
00000330: d11e a736 cf1c bc36 da5b bb36 1434 cd36
00000340: 7917 5c37 43c5 ec37 f64b 8036 7cea 8136
00000350: b169 8036 65bd 7b36 e169 7c36 1b01 7b36
00000360: ca43 7b36 496e 8336 2775 8236 c544 8436
00000370: bab5 8336 472a 8436 ccb7 8236 6dfc 8236
00000380: b4dd 8236 32d8 8436 0997 8436 c0c4 8336
00000390: 9fe5 8436 ad6d 8236 00fd 8236 7c32 8236
000003a0: c647 8236 6386 8236 4ca8 8436 91f3 8236
000003b0: 8faa 8036 8f01 7d36 80d0 7c36 675b 7e36
000003c0: f1af b43b c7cc b23b e49b b23b d68d b53b
000003d0: 4b04 b63b 1fe2 b53b 92ee b43b 4020 b63b
000003e0: 3e36 b53b 7c2f b43b 8f82 b13b e7ed b13b
000003f0: 0886 b43b 8909 b13b 58bf b13b 25f3 b43b
0.0034272957 0.0033897008 0.0033844681 0.0034406756 0.003448926 0.0034462984 0.0034253984 0.0034478707
0.0034267383 0.0034079887 0.0033527908 0.0033556288 0.0034012399 0.0033253042 0.0033349027 0.0033969793
0.0034627793 0.0034409543 0.0035742742 0.0036373031 0.003830185 0.0038483953 0.0038147336 0.0038062304
0.0038100434 0.0038111727 0.003907387 0.0038890133 0.0040512253 0.0044411607 0.0010828383 0.0010754605
0.00107348 0.0010786512 0.0010780763 0.0010773498 0.0010723188 0.0010693305 0.001064402 0.0010544872
0.0010324976 0.0010408725 0.0010523057 0.0010398092 0.0010324273 0.0010539287 0.0010665406 0.0010460463
0.001073981 0.0011072793 0.0011688949 0.0011810807 0.0011613799 0.0011683312 0.0012052249 0.0011925607
0.0012994827 0.0013126727 0.0014561932 0.002093629 0.002887684 0.0028576225 0.002854568 0.0029027408
0.00290955 0.0029077071 0.0028920143 0.0029112806 0.0028943943 0.0028770852 0.00283482 0.002843116
0.002884626 0.0028292416 0.0028416342 0.0028881289 0.002945057 0.002934622 0.003046398 0.0030985447
0.0032492394 0.0032448114 0.0032203763 0.003215893 0.0032126603 0.003223515 0.0032897382 0.0032881172
0.0034172677 0.0036164885 8.103914e-07 7.6831907e-07 7.484044e-07 7.68828e-07 6.856193e-07 5.6637344e-07
5.994877e-07 6.321116e-07 7.8165476e-07 8.1297753e-07 8.109237e-07 7.8164624e-07 7.7269556e-07 7.3077797e-07
6.787695e-07 6.468347e-07 6.1604965e-07 5.8213874e-07 5.2649904e-07 4.6051233e-07 4.3188894e-07 4.1861054e-07
3.8116445e-07 3.421487e-07 3.7491964e-07 7.691563e-06 8.740797e-06 1.1893495e-05 1.1879276e-05 1.1841145e-05
0.008195953 0.008102862 0.008079424 0.008230897 0.0082496805 0.008244834 0.008201251 0.008276319
0.00820991 0.008192991 0.008110011 0.008097021 0.008200385 0.008007012 0.008049188 0.008154897
0.008293758 0.0082841385 0.008592252 0.008685284 0.009065524 0.009077333 0.00901941 0.008983934
0.008948627 0.009029605 0.009171806 0.009216205 0.009594864 0.010083382 9.6986594e-05 9.6530275e-05
9.185235e-05 9.1494076e-05 9.058221e-05 9.0070855e-05 8.8818204e-05 8.990073e-05 8.236424e-05 8.149675e-05
8.002268e-05 8.562023e-05 8.389829e-05 8.1767204e-05 8.069934e-05 7.447199e-05 7.2293056e-05 6.798516e-05
6.6810564e-05 6.513803e-05 6.7681336e-05 6.8593064e-05 6.9213726e-05 6.906479e-05 7.3229654e-05 8.405364e-05
9.0103276e-05 0.000101110796 0.00011650273 0.00018298306 7.303306e-06 7.3218116e-06 7.255379e-06 7.208884e-06
7.0957626e-06 6.9712823e-06 6.8774716e-06 6.7837937e-06 6.5323125e-06 6.402137e-06 6.3218376e-06 6.258046e-06
6.4179753e-06 6.622158e-06 6.8592944e-06 6.5657955e-06 6.423263e-06 6.0134607e-06 5.8839496e-06 5.659764e-06
5.5137657e-06 5.284453e-06 5.1475076e-06 5.1336715e-06 4.9805753e-06 5.6061904e-06 5.583727e-06 6.115539e-06
1.3118487e-05 2.822525e-05 3.8235403e-06 3.871797e-06 3.8270014e-06 3.7512157e-06 3.7612556e-06 3.7402558e-06
3.7441373e-06 3.916943e-06 3.8879402e-06 3.9419124e-06 3.92526e-06 3.9388283e-06 3.8956987e-06 3.903688e-06
3.9001116e-06 3.959075e-06 3.9514894e-06 3.927009e-06 3.960638e-06 3.88707e-06 3.903755e-06 3.880179e-06
3.8826574e-06 3.8899466e-06 3.953499e-06 3.9026568e-06 3.834553e-06 3.7700845e-06 3.767229e-06 3.7902153e-06
0.005514138 0.0054565403 0.0054507125 0.00554059 0.005554711 0.0055506374 0.005521604 0.0055580437
0.005530148 0.0054988246 0.005417175 0.0054299715 0.005509142 0.005402748 0.0054244213 0.005522149

exp_avg f4 [20]
00000000: 1b8e 74bc febf 223b 1561 64bc 65af 05ba
00000010: c66a 04bd 14fa a8bc a12f 2a38 46e6 f8ae
00000020: c276 94bc ce27 11be 4c3e 07bc 93e0 7fb8
00000030: 7b53 03bd a151 b1bc cea5 f1ba db3e e4bb
00000040: 815a 99bd 9178 88bc 7e0d 23b8 32a3 01bd
-0.014926459 0.0024833675 -0.013939162 -0.0005099683 -0.03232839 -0.020627059 4.0575516e-05 -1.1318639e-10
-0.018123034 -0.1417534 -0.008254599 -6.100589e-05 -0.032062035 -0.021645369 -0.0018436254 -0.006965501
-0.074879654 -0.016659053 -3.8874794e-05 -0.031649776

exp_avg_sq f4 [20]
00000000: 5f3e 563b f80e 843a a3a8 343b ecfe 5f35
00000010: a938 003c a290 a338 0a51 bb36 4668 8136
00000020: 3a42 ad3b fb7d 993c e6a4 d73a 63ea 1d32
00000030: 8c0e f73b 8931 a23b 2d01 873a 3fe7 b438
00000040: b474 e43c 002e 493b 132c da36 ba9c 8739
0.0032690985 0.0010075262 0.0027566336 8.3444934e-07 0.007826009 7.799386e-05 5.5824685e-06 3.8566386e-06
0.005287436 0.01873683 0.0016452342 9.191896e-09 0.007539576 0.0049497527 0.0010300033 8.626142e-05
0.02788768 0.0030697584 6.502037e-06 0.00025865977

exp_avg f4 [20, 20]
00000000: 10ba 5f3d 716d 743d ba7b 103d 9e83 383a
00000010: 0c38 443d d6f7 533c 88d0 6139 73f8 1ab0
00000020: 7f6d 493d a280 383d f6af 803d 385d 6739
00000030: 87e4 2b3d 172e 2a3d 7cef 123d 6522 253c
00000040: ba07 e53c 945b 373d 9466 bb38 ef2a b23c
00000050: 711d 60bd fd1e a8bd bef6 00bd d4fe 3bb9
00000060: 8cb7 1fbd 4449 1ebc 7a9b c839 ce5a a2af
00000070: 6872 32bd 6ebd d8bc 3e1d 95bd c04d c639
00000080: bebf f4bc f8b5 1bbd fea3 3fbd 5ec9 0f3b
00000090: ae78 1cbc d94f 26bd 9193 1439 a73b febb
000000a0: 24ad aabc 1eb1 13bd fca5 37bc ad72 3338
000000b0: b6cf 53bc b875 49bb 3f5b c239 9a13 0930
000000c0: 14fd 7abc 0160 ccbb 5c55 f5bc d8e6 be39
000000d0: b66e 0ebc 90b1 60bc b9be a5bc 187f 6b3b
000000e0: 503a ad39 2873 6ebc 4cfc 0a39 00e2 7e37
000000f0: 1842 87bd 5377 b7bd 8239 22bd 5a35 e9b9
00000100: 32c5 50bd 5e4f 57bc 28d9 5d39 109e afaf
00000110: 2994 60bd d16e 24bd c093 abbd efc8 5739
00000120: 7211 29bd c430 42bd 1a56 54bd dea5 26bb
00000130: 3492 9fbc df37 50bd b8a4 9b38 0523 7cbc
00000140: 0ee3 e0bd 4332 03be f937 8ebd 18cb a1ba
00000150: a2d3 bebd 5eaf ccbc 9336 42b9 8ed0 dbaf
00000160: 5a66 c5bd cbb2 acbd e646 05be 79b7 4db9
00000170: e0cc a3bd fe51 a8bd 10ce 9bbd 0c43 80bc
00000180: 7c6a 4bbd fa38 b5bd b855 b3b8 e890 1ebd
00000190: 7545 113d 31dd f33c 327e c73c 231c 313a
000001a0: c7b2 0e3d 9d21 203c 7fcb e739 9d14 d62f
000001b0: 800d 0b3d a8de 173d 083e 173d 4bf6 e739
000001c0: b91b 043d 14aa e83c ca5c 9a3c f260 3c3c
000001d0: 8bd5 d23c c65e fc3c f02c 3139 5252 a23c
000001e0: 3cfb 973d 2d33 cc3d e9eb 363d cabc 083a
000001f0: fe1f 6c3d e1c5 733c f7b2 46b9 ac19 722f
00000200: 2b6d 7d3d 7bcc 3b3d 86de bf3d 1629 41b9
00000210: 1827 403d 91d1 5a3d 549e 6c3d 8a89 5f3b
00000220: 5fb6 b93c b4b1 6a3d efed 8bb8 c272 923c
00000230: ddb2 57bd 2b61 a2bd 0508 f8bc 9e81 2eb9
00000240: fe43 19bd ce60 18bc 27cd dc39 6807 3caf
00000250: 2a6b 2bbd ce39 cfbc d0da 8fbd 6b3c d939
00000260: 560a eabc 60b6 15bd 0d28 39bd 2ac2 173b
00000270: 45b3 12bc 95db 1fbd 433e 2039 968a efbb
00000280: e09b 6abc 52f2 00bd d434 d7bb a1c6 4939
00000290: cc8b c8bb 02af 88ba 7237 d839 94ab 5a2e
000002a0: 5819 13bc 5817 ce3a 6e0c c0bc 605c d639
000002b0: 1433 17bb 6acd 08bc 1e8d 8cbc 4ed7 c73b
000002c0: 49b3 bf3b ecb9 0ebc 78f9 2039 3ff8 8b3b
000002d0: 42da ad3d 00c6 d63d e5b5 573d 0d80 563a
000002e0: ffc4 8e3d 1670 973c 8599 98b7 5f05 98af
000002f0: 0269 953d 887d 773d f46a d33d 88d4 1fb7
00000300: b64c 703d 2c30 803d b87c 7c3d 8c67 113c
00000310: eba7 093d 82d8 893d 6c49 8d36 8b56 d73c
00000320: 4e4b 863d ee8f ac3d 3444 243d 7d09 103a
00000330: a8fa 563d 155c 603c 6761 14b8 fa6e 22ae
00000340: d5f3 633d f4ec 323d 87ff a53d aadc 04b8
00000350: 8a75 323d c9de 433d e74f 493d 8c5f a93b
00000360: 881d be3c 345b 523d 1b3e 2cb7 3a20 953c
00000370: 2302 dabd 8c50 fdbd affe 89bd 0fc6 9dba
00000380: 4d4f b9bd 9b04 c6bc aca7 90b9 7e56 78af
00000390: e3e3 bfbd 63b7 a7bd 47d4 00be 1736 94b9
000003a0: 4871 9fbd 7854 a3bd 5465 96bd 323b 7fbc
000003b0: 1db4 46bd 0cd9 afbd 1cad edb8 8ec4 1abd
000003c0: 2679 973d adb3 be3d 77c8 3a3d 30cb 303a
000003d0: fe01 763d 0a6e 823c 2f26 f4b8 4f77 4baf
000003e0: 2820 813d 2a50 523d 78f2 b93d 2ecf deb8
000003f0: d25a 4d3d a03d 5e3d 56a3 5f3d 4c66 db3b
0.054620802 0.059674684 0.035274245 0.00070386555 0.047905013 0.012937507 0.00021535356 -5.637794e-10
0.04917669 0.04504455 0.06283562 0.00022064603 0.041965988 0.04154786 0.03587292 0.010079001
0.027957786 0.04476507 8.9359615e-05 0.021748988 -0.054715578 -0.082090355 -0.03148531 -0.0001792864
-0.038993403 -0.009661023 0.00038262812 -2.953215e-10 -0.043566138 -0.026457515 -0.07280968 0.0003782343
-0.029876586 -0.038015336 -0.046787255 0.0021940093 -0.009550257 -0.040603492 0.00014169353 -0.007758576
-0.020834513 -0.036057584 -0.011209007 4.2783726e-05 -0.01292794 -0.0030740332 0.00037070547 4.9868165e-10
-0.015319128 -0.0062370305 -0.02994793 0.00036411616 -0.008693388 -0.013714209 -0.020232545 0.0035933908
0.00033040578 -0.014553823 0.00013254693 1.51921995e-05 -0.06604403 -0.08958306 -0.039605625 -0.00044480973
-0.05096931 -0.013141481 0.000211571 -3.1944625e-10 -0.054828797 -0.040144745 -0.083777905 0.00020578851
-0.041276403 -0.047409788 -0.051839925 -0.0025428454 -0.019478895 -0.050834533 7.421657e-05 -0.015389209
-0.10980807 -0.12812142 -0.0694427 -0.0012343852 -0.093177095 -0.024985965 -0.00018521612 -3.9984055e-10
-0.09638663 -0.084325396 -0.13015327 -0.00019618672 -0.07998061 -0.08218764 -0.07607663 -0.01565697
-0.0496621 -0.08848758 -8.5513515e-05 -0.038712412 0.03546663 0.029768558 0.024352167 0.0006756207
0.034838464 0.009773639 0.0004421137 3.894102e-10 0.03394842 0.037077576 0.036924392 0.00044243256
0.032253 0.028401412 0.018843073 0.011497723 0.02573659 0.03080691 0.00016896776 0.019814644
0.07420966 0.099706985 0.044658575 0.000521612 0.057647698 0.014878721 -0.00018949421 2.2018892e-10
0.06187169 0.045849305 0.09368615 -0.0001842122 0.046912283 0.053422514 0.05776818 0.003410908
0.02266997 0.057298377 -6.672355e-05 0.017876986 -0.05266081 -0.079286896 -0.030277262 -0.00016642219
-0.037418358 -0.009300424 0.0004211452 -1.7101132e-10 -0.041850246 -0.025296118 -0.07024157 0.0004143448
-0.028569382 -0.03655088 -0.04520421 0.0023156502 -0.008953874 -0.03902777 0.00015281983 -0.007310222
-0.01431939 -0.031481095 -0.006567577 0.00019242849 -0.0061201807 -0.0010428133 0.0004124004 4.9719853e-11
-0.00897821 0.001572351 -0.023443427 0.00040886085 -0.0023071216 -0.008349756 -0.017157134 0.0060986644
0.00585023 -0.008711319 0.00015351723 0.0042715366 0.08488895 0.10486984 0.052663703 0.0008182533
0.06971168 0.018486064 -1.81913e-05 -2.7652455e-10 0.07295419 0.06042245 0.10323134 -9.526622e-06
0.058666907 0.06259188 0.06164238 0.008874785 0.033607405 0.06730749 4.210675e-06 0.026286384
0.06557332 0.0842589 0.040104106 0.0005494578 0.05248514 0.013693829 -3.5376663e-05 -3.6933102e-11
0.05565246 0.043683007 0.081053786 -3.1676762e-05 0.043569125 0.047819886 0.049148466 0.005168861
0.023207441 0.05135651 -1.0266459e-05 0.018203843 -0.10644939 -0.12368879 -0.0673803 -0.0012037175
-0.090483285 -0.024172118 -0.00027590746 -2.2586197e-10 -0.09369638 -0.08189275 -0.12580977 -0.0002826906
-0.077852786 -0.079750955 -0.073435456 -0.015578078 -0.048511613 -0.0858632 -0.00011333285 -0.037785105
0.07396154 0.09311614 0.045601334 0.00067441445 0.060060494 0.015921611 -0.00011641939 -1.850513e-10
0.063049614 0.05134598 0.0907945 -0.00010624375 0.05013544 0.05425799 0.05459913 0.0066955443

exp_avg_sq f4 [20, 20]
00000000: 9f0f 033c a032 663c 5288 643b 66fb 0f35
00000010: 5b85 983b 4ac2 8c37 8b27 6837 f95d 4934
00000020: b9da 1f3c ffb5 5c3a 52a2 383c 1e28 9c34
00000030: fa80 543b 3feb a23b f6dd a73b e6f8 9037
00000040: 59f2 103a d151 a23b f4d4 6236 1ca4 f238
00000050: fcda f13c 41c5 4d3d a975 4f3c f463 3434
00000060: 19e1 893c 3920 c737 8a17 8637 3f5a 9434
00000070: 9190 143d 4fd9 223b 01cd 263d c2bf 4b35
00000080: f78e 423c 8b9b 923c fb21 913c 09eb 3e38
00000090: c37f ec3a d16b 943c 2660 bc36 41b0 c039
000000a0: ba7e ed3b 63f1 473c f9e9 4d3b 8c23 2f34
000000b0: eb12 8a3b 2e64 f036 082e 3a37 898f a333
000000c0: 6356 123c 1962 2d3a 55a5 233c 7484 fb35
000000d0: f732 433b 1953 913b 76fe 8d3b 9558 8b37
000000e0: 4d97 003a 3f35 933b 584e d735 226a d938
000000f0: 693e 003d 9c77 5b3d 62cb 5a3c 4d24 8334
00000100: 083b 903c 02ed f637 7c77 0837 eec7 c534
00000110: fb0f 1d3d 5bda 333b 3aa6 303d 1418 9634
00000120: b75f 4c3c fec4 993c 8e98 993c 6eb4 3538
00000130: a652 003b fe78 9c3c cc7d f036 c90c ca39
00000140: 95fb 3e3d a17f a63d ea89 a23c e9c3 d035
00000150: 807a d43c bd22 9238 0af7 a237 e950 5635
00000160: f44f 683d 467a 963b 4456 843d 0e40 d933
00000170: 2a7a 963c 7fee e33c a270 e93c 6e62 9f38
00000180: 2a9b 4a3b 7006 e83c 914c 7637 cb99 233a
00000190: e4ba 073b a406 673b dc74 783a 4528 3435
000001a0: 5916 b33a 16a3 0f37 0ab7 4c37 c645 1d31
000001b0: f9e7 273b 263e e439 919a 3f3b 65c4 df35
000001c0: a29b 7b3a 8e30 b53a 0f75 b23a a0c9 8237
000001d0: b912 9439 1784 ae3a 0fd8 0e34 7455 7c38
000001e0: 5a22 1a3d 8917 843d 0147 833c 1037 a834
000001f0: 96cb ac3c 06a5 1038 6f67 1337 2040 b934
00000200: c597 3c3d fd28 593b e53f 543d 1516 1434
00000210: c307 753c 8569 b83c e19c b83c 2f4d 5938
00000220: 911c 1a3b 54ca bb3c ef84 ea36 7ebe f239
00000230: 0292 e13c 2911 403d 468a 413c e4d8 6234
00000240: 6542 803c 7a0e b637 ebd0 9a37 2589 3334
00000250: db73 0a3d e7cc 193b 3e7b 1b3d 76f9 d935
00000260: 153e 353c be7b 883c 1451 873c 2b4c 3d38
00000270: a6bb de3a 7b64 8a3c 3b61 7836 e45e b839
00000280: d760 d33b 55ec 303c bba8 393b fcda 6834
00000290: a7b1 7d3b c49e c736 bc8f 5a37 043d 7333
000002a0: 2111 033c 65ec 173a 38a6 123c c1f7 bf35
000002b0: 0440 313b 6f28 853b 7e9b 803b 53b7 9337
000002c0: 91f6 e239 c196 843b 0352 a835 9402 cc38
000002d0: e27e 173d a9c6 823d 71ec 803c d6f5 3435
000002e0: d8ea a83c 9b70 3638 47c0 0f37 a162 0535
000002f0: ede0 383d 18d6 613b 730a 513d 9607 a433
00000300: f0b3 6f3c 63a4 b43c 17b5 b63c c8a5 5b38
00000310: 889a 1c3b 6534 b83c ab3c 2037 8bc5 f539
00000320: 5398 ca3c 941b 2e3d c594 2c3c 0b1c aa34
00000330: 2af6 633c e8b5 fa37 71cb c336 33aa 0935
00000340: edde f73c e0ec 113b d4ef 0b3d 9c9c 1633
00000350: 5a1e 213c 9f22 733c 4724 743c 53f8 0d38
00000360: 8e4a cd3a 2a08 773c 6f65 2237 35d6 9f39
00000370: 5180 2a3d bfc2 943d e7b6 903c 3c88 d135
00000380: 43f8 bc3c f7ff 8438 0298 9e37 2f2c 2e35
00000390: 8f22 4f3d d2e4 893b 5ffe 6b3d 963a 5035
000003a0: d01b 863c 8ad0 ca3c bf04 d03c ae89 9438
000003b0: 4846 383b b5af ce3c 8188 4737 688a 143a
000003c0: c39e 003d f538 5d3d 09ac 5b3c e171 fb34
000003d0: 9a64 903c 32d4 1538 5b8b 2037 f219 f734
000003e0: 1747 1d3d fb09 3c3b 4e86 313d e5ff 0d35
000003f0: 8ba2 4c3c ca05 9a3c 6dfd 9a3c 2170 3738
0.00799933 0.014050156 0.0034871292 5.3637484e-07 0.004654569 1.6779773e-05 1.3837484e-05 1.8753771e-07
0.009756737 0.00084194535 0.011269169 2.9086453e-07 0.0032425509 0.004971891 0.0051228954 1.728204e-05
0.00055292767 0.004953601 3.380058e-06 0.00011570027 0.029523365 0.050236944 0.01266233 1.6800169e-07
0.016830968 2.3737653e-05 1.5985006e-05 2.763281e-07 0.03627068 0.0024848764 0.04072285 7.590244e-07
0.011874906 0.017896434 0.017716398 4.5518424e-05 0.0018043447 0.018117817 5.6140298e-06 0.00036752413
0.007247773 0.012203547 0.0031419976 1.6311077e-07 0.004213681 7.16422e-06 1.1097181e-05 7.616388e-08
0.008931729 0.0006614044 0.009988149 1.8739506e-06 0.0029785016 0.004434955 0.0043333126 1.661134e-05
0.0004905358 0.0044924314 1.6041549e-06 0.00010367135 0.03130952 0.053580865 0.013354154 2.4427064e-07
0.017606273 2.943585e-05 8.134051e-06 3.6839577e-07 0.03834532 0.0027443382 0.043127276 2.7957196e-07
0.012473992 0.018770691 0.018749502 4.33218e-05 0.0019580512 0.019100662 7.167202e-06 0.00038537968
0.046626646 0.08129812 0.019841153 1.5554225e-06 0.025937319 6.968293e-05 1.9426941e-05 7.983895e-07
0.056716874 0.004592213 0.06461766 1.01165014e-07 0.0183688 0.027823685 0.02849609 7.600045e-05
0.003091524 0.028323382 1.468057e-05 0.00062408735 0.002071076 0.003525176 0.00094778626 6.7113825e-07
0.0013663276 8.561436e-06 1.2201965e-05 2.2886169e-09 0.0025620444 0.00043533853 0.0029236416 1.6671953e-06
0.0009598081 0.0013823675 0.0013615208 1.5591097e-05 0.0002824271 0.0013314512 1.3303382e-07 6.0161066e-05
0.037630416 0.064498015 0.016025068 3.1332502e-07 0.021093171 3.4485965e-05 8.785965e-06 3.4505592e-07
0.046043176 0.0033136003 0.051818747 1.3791608e-07 0.014955464 0.022511253 0.022535743 5.1808714e-05
0.0023515562 0.022923626 6.989219e-06 0.00046299765 0.027535442 0.046891365 0.011812752 2.1126795e-07
0.01565666 2.1702832e-05 1.8455516e-05 1.6720567e-07 0.033801895 0.0023468079 0.03795933 1.6240363e-06
0.011062165 0.016660567 0.016518153 4.513205e-05 0.001699318 0.016893616 3.7011475e-06 0.00035165914
0.006450753 0.010798533 0.002832933 2.168635e-07 0.0038710625 5.949145e-06 1.3027278e-05 5.663334e-08
0.007999689 0.00057954184 0.008950762 1.4302715e-06 0.0027046213 0.004063658 0.003924786 1.7609133e-05
0.00043289785 0.0040462916 1.2540844e-06 9.727958e-05 0.03698624 0.06385548 0.015737744 6.7412964e-07
0.020619795 4.3497053e-05 8.568232e-06 4.9689885e-07 0.04513638 0.0034459885 0.051035356 7.638225e-08
0.014630303 0.022051042 0.022303147 5.2368065e-05 0.0023895819 0.022485921 9.5508685e-06 0.00046877222
0.024730837 0.04250677 0.010533516 3.1685371e-07 0.013913671 2.9887029e-05 5.8351366e-06 5.128415e-07
0.030257666 0.0022266433 0.034164265 3.5067032e-08 0.0098338965 0.014839797 0.014901227 3.384829e-05
0.0015662478 0.01507763 9.679569e-06 0.0003048644 0.04162628 0.07263707 0.01766534 1.5611363e-06
0.0230676 6.341928e-05 1.8905852e-05 6.4884347e-07 0.050570067 0.0042081857 0.057615634 7.757129e-07
0.016370684 0.024757642 0.025392888 7.082835e-05 0.0028118063 0.025230268 1.1893107e-05 0.0005666376
0.031401407 0.054009397 0.013407716 4.683525e-07 0.017626096 3.572199e-05 9.569189e-06 4.6026213e-07
0.038397875 0.0028692472 0.043340974 5.289897e-07 0.012489925 0.018801589 0.018919671 4.3735028e-05

exp_avg f4 [20]
00000000: 96e7 ec3c 1ed6 1cbd 6c2e 82bc 7413 2dbd
00000010: 9a8c 7bbd 6ea6 7e3c 9d81 413d 1216 16bd
00000020: dee5 62bc 315a 4c3d 6e4a 253d eb56 75bd
00000030: cb7b 333d a48f 15bd b5e4 13bc 4e7a 5e3c
00000040: 7078 a4bc 2417 25bd 087f 28bd 8e84 223c
0.028919023 -0.038290136 -0.015891276 -0.04225488 -0.061413385 0.01554261 0.04724275 -0.03664214
-0.01384875 0.0498907 0.040354185 -0.059897345 0.04381923 -0.03651394 -0.009026696 0.013578964
-0.02007696 -0.04030527 -0.04113677 0.009919299

exp_avg_sq f4 [20]
00000000: 3442 8c3b 1b89 783c f457 763b 91c9 823c
00000010: 9680 c33c 592a 933a 5062 9c3c f95a 663c
00000020: 3678 603b 8442 9a3c 90c1 513c 41f7 ac3c
00000030: 1302 843c 6eb0 663c 210f e739 e9cd 8b3a
00000040: d4b9 823b fe9c 1f3c 7f02 fb3b 2cb2 6d3a
0.004280353 0.015169407 0.0037589045 0.015965255 0.023865025 0.001122783 0.019089848 0.0140597755
0.0034251339 0.018830545 0.012802497 0.021113994 0.01611427 0.01408015 0.00044071025 0.0010666224
0.0039894376 0.00974202 0.0076602097 0.0009067382

exp_avg f4 [1, 20]
00000000: 5fc6 1cbb 4a80 b53b 288c 7f3b faa3 d03b
00000010: 7169 683b 28a1 bc3a c69b e4bb c6d3 dc3b
00000020: 4493 a93b 5047 a7bb 116c 96bb c3f6 5f3b
00000030: 6ae0 abbb 24cb c33b 8765 39bb 1a60 253b
00000040: 4d65 d33b 9eb1 ad3b 567c 773b e2b7 9c3a
-0.002392195 0.005538975 0.0038993452 0.006367204 0.0035463239 0.001439129 -0.0069765775 0.0067391125
0.005175026 -0.0051049367 -0.0045905192 0.003417418 -0.005245258 0.005975144 -0.0028289275 0.0025234283
0.006451285 0.0053007146 0.003776332 0.0011956657

exp_avg_sq f4 [1, 20]
00000000: 40c8 8037 a154 d238 1075 9438 b5c0 e838
00000010: e15c 2838 c7ce 1c38 fdaa 1639 562c 2039
00000020: 1659 d638 318a ad38 26ef 4338 f71d d937
00000030: 16ee b938 b726 e938 ba5c 9538 629a 8738
00000040: bb5b 0439 8951 ac38 329c e137 c27a fa37
1.5352038e-05 0.00010029344 7.0789945e-05 0.000110985166 4.014082e-05 3.7385875e-05 0.00014368813 0.00015275305
0.00010220909 8.275023e-05 4.6714347e-05 2.588237e-05 8.8658344e-05 0.00011117517 7.122145e-05 6.466058e-05
0.00012622673 8.216786e-05 2.6894824e-05 2.9859486e-05

exp_avg f4 [1, 20]
00000000: cb48 2c3d 8f43 74be 5667 42be 3844 59be
00000010: 4dea a2bd fefa 2abe f76d 733e b6d0 89be
00000020: b1dc 73be ecf2 173e f885 113e 8a69 5ebd
00000030: c58b 313e e8b2 75be 6097 573e 0567 57be
00000040: 7842 76be 2278 f4bd ebef 90bd 6b97 15be
0.04206161 -0.23853897 -0.18984732 -0.2121743 -0.079548456 -0.16697308 0.23772417 -0.26917046
-0.23814656 0.14838761 0.14211261 -0.05429987 0.17338474 -0.23994029 0.21053839 -0.21035393
-0.24048793 -0.11936976 -0.07077011 -0.14608543

exp_avg_sq f4 [1, 20]
00000000: c81d b53b 7b48 ac3e ea67 8a3e cef7 5b3e
00000010: 0d68 293c f73b a73e 9431 753e 56cf c03e
00000020: e074 c33e 8ee6 873d 4957 463d fd3b d73b
00000030: bc58 e83d 7e88 a53e 8ee3 fd3e 7fe5 fa3e
00000040: 2707 923e a544 ea3c a1b6 cc3b 1739 793e
0.005527232 0.33649048 0.27032405 0.21481249 0.010339749 0.32662937 0.23944694 0.37658185
0.38175106 0.06635772 0.048423085 0.0065684305 0.1134505 0.32330698 0.49587673 0.49003217
0.28521082 0.028597185 0.006247357 0.24338184

exp_avg f4 [1, 20]
00000000: d4a5 b73c e57f e5bc 76f6 82bc 4fb4 27bd
00000010: a69b fbbc 159c 2b3c 40fd 373d 5bfc 1abd
00000020: 0707 bbbc 9632 1d3d b627 033d 6eda febc
00000030: fed1 123d d801 05bd 7050 0fbb c87b ad3b
00000040: c2cf 1dbd 7096 34bd ef67 0dbd 0aeb 263c
0.02241794 -0.028015086 -0.015986662 -0.04094344 -0.030713867 0.010474225 0.044919252 -0.03783832
-0.0228305 0.03837832 0.032020293 -0.031110015 0.035844795 -0.03247246 -0.0021868013 0.005294297
-0.03852821 -0.04408878 -0.034522947 0.010187874

exp_avg_sq f4 [1, 20]
00000000: a40a 093b 0d28 b93b 1835 963b 2f71 973b
00000010: a8ff df3a d6e7 803b a64f b03b 4d75 d63b
00000020: 0428 b23b 5d51 4f3b 5c69 8e3a 981c a33a
00000030: 2bbe 863b 212b ba3b 57fb d13b f461 c43b
00000040: b61a ae3b a500 0b3b b754 a83a e4b7 2b3b
0.0020910883 0.0056505264 0.004583966 0.004621647 0.0017089741 0.003933887 0.0053805886 0.006544745
0.005436899 0.003163419 0.001086514 0.0012444435 0.0041120253 0.005681411 0.006408136 0.0059931222
0.005313243 0.00212101 0.001284263 0.0026202137
