deep-learning/rv_only/lightning_logs/version_26/checkpoints/epoch=4-step=250.ckpt (torch, 27739 bytes, 21 tensors)

model.nn.0.weight f4 [20, 30]
000000 b0 30 79 bd fe 7b 96 3c 84 32 25 bd 0b 57 15 3c
       -0.060837448 0.018369671 -0.04033138 0.009114991
000010 6f 99 99 bd 25 ff 13 bd b5 fd f8 bc da 4d bf bd
       -0.07499968 -0.036131997 -0.030394414 -0.09341021
000020 cc e9 75 bd 26 4b c2 bd 89 0c f7 bc 71 03 9f 3c
       -0.06003742 -0.0948699 -0.030157344 0.01941082
000030 6c ae 12 bd 2f 2e 98 bd ed 0b 7b bd 7a 7b b3 3c
       -0.035810873 -0.07430684 -0.06129067 0.021909464
000040 1a 85 ea 3c 80 e5 04 bd a1 91 37 3c cf d4 5c 3b
       0.02862792 -0.03244543 0.011204154 0.003369618
000050 fd af 7f 3b f7 af 41 3d e6 f9 74 3d ad 86 87 3d
       0.003901481 0.047286954 0.059808634 0.06617484
000060 80 fc 58 bc a8 7b d3 3b 79 a3 1f 3d 06 88 1e bc
       -0.013243794 0.00645395 0.03897426 -0.009675985
000070 6f fe 50 3d b4 f0 cf 3d a8 a0 63 bd 15 02 7f bd
       0.051023897 0.10153332 -0.055573136 -0.062257845
000080 03 d6 07 3c 64 41 69 bc f0 23 33 3c 67 7e c4 bc
       0.00829077 -0.014236782 0.010933861 -0.023986055
000090 8e f3 d7 bd 10 60 6b 3c f0 97 84 3b 0e 63 17 ba
       -0.10544501 0.014366165 0.0040464327 -0.0005774953
0000a0 25 89 62 bd 91 d8 95 bd b0 c2 cc bd c5 10 23 bd
       -0.055306572 -0.073166974 -0.09998071 -0.039810915
0000b0 ac e9 00 bc 71 e7 6e bd 43 c5 8f 3c 5a d2 35 bd
       -0.007868212 -0.05832619 0.017550116 -0.04439006
0000c0 1e bd 9b bd 19 00 89 3d db 39 83 3c 1c 55 74 3d
       -0.076044306 0.06689472 0.016018799 0.05965148
0000d0 f2 fa 84 bc 0f 4b a4 bc 3e 08 74 3d ed 1a 94 3d
       -0.016232941 -0.020055322 0.059578173 0.07231698
0000e0 63 dc 09 3e 42 40 ef 3d e0 6b a5 3d ea a1 3d 3e
       0.13462977 0.11682178 0.08077216 0.18518797
0000f0 97 66 81 3c 6f cb 05 3b 4e 89 40 3d 10 4c 26 3c
       0.015795989 0.0020415445 0.047005944 0.010149971
000100 a0 be d2 3c 86 94 2b 3c cb 3a 23 bc 96 a0 66 bd
       0.025725663 0.0104724225 -0.009962748 -0.05630549
000110 ec d7 98 bc 22 2d ad bc a2 35 d2 bc d1 43 7a 3b
       -0.018657647 -0.021139685 -0.02566034 0.0038187394
000120 d6 79 34 3d 58 db e8 3c b7 24 49 bd f9 cc 6b bd
       0.044061504 0.028424904 -0.04910728 -0.057568524
000130 3b 56 ab bd 73 87 27 3d 0d 24 47 bc af 0e 48 bd
       -0.083660565 0.04090066 -0.012154591 -0.04884213
000140 f5 fd 48 bd 3f 39 44 3d 6b 83 15 bd 94 fa c7 3b
       -0.049070317 0.047906157 -0.036502283 0.0061028693
000150 7f af a1 bd cf b9 05 3d f3 a8 57 bb 5a ef 41 3c
       -0.07894801 0.032647904 -0.0032907098 0.011836851
000160 49 f8 32 3c 9a ae 68 3d 18 b0 94 3b 91 a7 4d bd
       0.010923454 0.056807138 0.0045375936 -0.050208632
000170 44 ca 38 3d 8c 06 01 3d a4 ff aa bd cc 7e 22 3d
       0.04511477 0.031500384 -0.08349541 0.039671704
000180 41 47 0a 3c f3 01 28 bd 64 34 78 bd ed a3 36 bc
       0.00843984 -0.041017484 -0.06059684 -0.011147481
000190 41 a8 a4 3b 3a b1 75 bd a8 ba c4 bc 5a b2 2e bd
       0.0050249402 -0.05998347 -0.024014786 -0.042650558
0001a0 65 fa 41 bc 46 2a bf bc 67 78 ab bd 1d 4a c6 3b
       -0.011839484 -0.023335587 -0.08372574 0.0060513155
0001b0 09 9c 7c bd f6 d9 77 3d f4 1a 6b bd ee 0e 6e 3d
       -0.061672244 0.060510598 -0.05739875 0.058119707
0001c0 9b 87 15 3c 3a 04 a4 3d c5 2e 93 3d 2c 74 8b 3c
       0.009126569 0.08008619 0.07186655 0.017023169
0001d0 e8 82 79 3d c0 1b 77 3d e3 97 1b 3e b9 f5 34 3e
       0.060915858 0.0603292 0.15194659 0.17671861
0001e0 76 fb d8 3a 7b ab 23 3d e1 57 06 bb 9f b0 45 bc
       0.0016554433 0.03995846 -0.0020499157 -0.0120660355
0001f0 6a 30 f5 bc a7 37 bb 3c 0c c5 0a bd 1f c5 da bc
       -0.029930312 0.022853686 -0.033879325 -0.026705323
000200 7e 12 b5 bc cf f7 a7 3b d8 f1 96 3c 68 37 d8 bb
       -0.022103544 0.0051259766 0.018425867 -0.006598402
000210 84 3c b6 3c fa 8e 22 bd f2 f2 49 bc a0 fd 03 3c
       0.022245653 -0.039687134 -0.012325989 0.008056074
000220 59 89 ad bc 49 97 0d 3d 6f cf 15 bd 58 a5 bc ba
       -0.021183657 0.034568105 -0.036574777 -0.0014392538
000230 86 e3 35 3d 4d 20 80 bd cf cc 9c 3c 8c 5c 97 bd
       0.044406436 -0.06256161 0.01914063 -0.07390699
000240 62 9c 67 bc d8 49 22 bd a9 82 14 bd 31 18 91 3d
       -0.014136406 -0.039621204 -0.03625742 0.07084692
000250 43 67 bc 3d 8f ae 04 3e 03 19 95 3d 46 5f 0c 3e
       0.09199383 0.12957214 0.07280161 0.13708219
000260 42 eb ea 3b 20 a8 82 3d 24 bd 9a 3d 40 da 09 3e
       0.007169158 0.063797235 0.07555607 0.13462162
000270 04 86 cf 3d bf 41 4d 3d c8 bc 6b 3d c1 4b a5 3c
       0.10132983 0.05011153 0.057553083 0.020177724
000280 bb ac cd 3c 31 1b 0f 3e e8 c1 cb 3d 83 ab ec 3d
       0.025106778 0.13975216 0.09949094 0.11556151
000290 f9 ea 84 3d 7e b3 64 3d 78 1d 83 3d 38 d8 f6 3d
       0.0649013 0.05583524 0.06402105 0.12052959
0002a0 07 ca 04 3e fc a4 d9 3c 53 08 fa 3d cb 0f 22 3d
       0.12967692 0.026567928 0.12208619 0.039565843
0002b0 d7 90 d4 3d 40 37 9c 3c e1 14 b4 3d 05 d4 69 3d
       0.103791885 0.019069314 0.08793045 0.057086963
0002c0 a5 4b cf 3d e9 a3 8f 3d c8 a0 ce 3c 5b 72 ab 3b
       0.1012185 0.07013685 0.02522315 0.005232138
0002d0 ca e9 d3 bc 95 dc 56 3c ff 95 1c 3d 58 f6 ec 3c
       -0.025868315 0.013114114 0.038228985 0.02892606
0002e0 b2 0d 9a bd 4e ce 5c 3d 61 3b 76 bd c8 e1 23 bd
       -0.075221434 0.053907685 -0.060115222 -0.040010244
0002f0 aa 48 2a bc 90 2a 24 3d 06 1c 17 3d 9e 2a 56 3d
       -0.010393301 0.040079653 0.03689196 0.052286737
000300 b1 04 94 bd 63 e8 8e bd 39 53 80 bc 88 71 e6 bb
       -0.07227457 -0.06977918 -0.015664684 -0.007032577
000310 e5 f9 87 bd d8 3a 3f bd 72 86 73 3c 25 e0 56 3d
       -0.066394605 -0.046686977 0.014863597 0.052459855
000320 bb 5a aa 3c fe 09 80 bd d8 2e 84 3d fc be 83 3c
       0.020795217 -0.06251906 0.06454247 0.01608228
000330 07 8a 1b bd 3a 2e b6 b9 7e da 7c bd 52 9e 87 bc
       -0.03797343 -0.00034748187 -0.061731808 -0.016554985
000340 6f cc 8e 3d 62 7e 09 3d 8c 67 2d bd 60 9e 1d 3d
       0.06972586 0.033567794 -0.042335078 0.038481116
000350 47 87 dc bc 2a d1 d8 3c 0a 3d 80 3d 04 7d 94 3d
       -0.026919974 0.026466925 0.06261642 0.07250407
000360 18 63 08 3d 15 67 0e bd 9a a6 35 bd 61 73 31 3d
       0.03329763 -0.034766275 -0.044348337 0.043322925
000370 36 92 73 3d df b4 08 bd 21 0c 8a 3d 1c cc 07 3d
       0.05946561 -0.033375617 0.06740595 0.03315364
000380 bc fc f7 3c 9e e1 09 3d 30 c4 6d 3d d0 1c c1 bb
       0.03027188 0.03366243 0.058048427 -0.0058933273
000390 b9 b1 52 3c 16 d0 85 b8 5d 8f c8 3d 00 91 67 3d
       0.012859755 -6.380693e-05 0.097929694 0.056534767
0003a0 d9 e5 b5 3d f3 e9 77 3d 50 40 cb 3d f2 49 ba 3d
       0.088817306 0.060525846 0.09924376 0.09096135
0003b0 d6 a5 15 3e 08 d1 15 3e 2e ca 0d 3e 38 b2 20 3e
       0.14614043 0.1463052 0.13846657 0.15692985
0003c0 f8 f6 37 3d db 59 e8 bc b8 1b bc 3c 8c de 37 bd
       0.044913262 -0.028363159 0.022962436 -0.04488997
0003d0 bc 73 a5 3c 17 50 ef ba 0c 42 c9 3c b3 66 a0 3c
       0.020196788 -0.0018258122 0.024567626 0.01958022
0003e0 4c 18 98 3d 52 fe 40 bd c0 3c 2b bd b0 c5 ef bc
       0.07426509 -0.04711754 -0.041805983 -0.02926907
0003f0 d3 21 35 3c 60 a3 41 3d 41 be 20 3b a8 92 8f 3d
       0.011055428 0.047274947 0.0024527463 0.07010394

model.nn.0.bias f4 [20]
000000 62 72 8b 3d 30 1e 2f 3d 54 5b 31 bc 6f 81 12 3c
       0.06808926 0.0427534 -0.010824997 0.008941992
000010 4b c5 88 3d 53 79 85 3d d0 20 06 bb 19 41 08 3d
       0.06678256 0.065172814 -0.0020466335 0.033265207
000020 47 67 05 3d e7 fd 5a 3d f9 6f 8d 3d ca a7 a1 3d
       0.032569196 0.053464796 0.06906123 0.07893331
000030 d2 fb 12 3d d7 85 8a 3d 3a b1 87 3c 7f 09 be 3c
       0.035884686 0.06763809 0.016564 0.023197887
000040 3b b7 0c 3d bd ff d1 3c 34 6a af 3d 57 aa 27 bc
       0.03435443 0.02563464 0.085651785 -0.010233483

model.nn.2.weight f4 [20, 20]
000000 61 37 a8 bd 17 db 4a be 30 ae b9 bc 40 4c f8 bd
       -0.08213688 -0.19810139 -0.022666067 -0.121239185
000010 22 25 12 be e8 3a b0 3d f7 34 48 3c 49 4f 6d bd
       -0.14271978 0.086049855 0.012219659 -0.05793694
000020 03 9b ac bd 4b e7 21 be 01 d1 ad 3d 60 72 e6 3c
       -0.08428004 -0.15810888 0.0848713 0.02813071
000030 e1 6c 3f bc 89 84 a3 3d 1b 85 6c bd 9c 1c 1f be
       -0.011683674 0.079842634 -0.057744127 -0.15538257
000040 44 21 78 bd 29 f1 07 bd 65 36 5b bc 59 fa b4 bc
       -0.0605786 -0.033188973 -0.013379668 -0.022092031
000050 b5 f0 0a be f4 85 bf bd 1f 55 1a bd 84 f1 41 bd
       -0.13568385 -0.093517214 -0.037678834 -0.047349468
000060 79 0d 92 bd b4 72 33 3e 21 35 6c bd ed e2 96 3d
       -0.07131476 0.17524225 -0.057667855 0.073675014
000070 16 13 90 bc 66 13 06 be 3d b5 0b 3e 29 a5 16 3e
       -0.017587226 -0.13093337 0.13643356 0.14711441
000080 7a 5d c7 3d 5a bf 9f 3d 67 ce 0d b7 ac f3 ec bd
       0.09734626 0.07800169 -8.452312e-06 -0.11569914
000090 33 87 21 3d 3a 03 4c 3d e0 c4 8b bd 92 f8 4b 3d
       0.039435577 0.049807765 -0.0682466 0.049797602
0000a0 83 59 47 bc 51 ba cb bd 35 bb ab 3c d0 d9 ee bd
       -0.012167337 -0.099476464 0.02096329 -0.11662638
0000b0 c9 2e c9 bc c4 01 c0 bd 48 a7 50 bd eb f5 c2 bc
       -0.024558442 -0.09375337 -0.05094078 -0.023798903
0000c0 ca 1a bb bd 45 d6 2e be c5 32 e2 bd 9b 96 a5 bd
       -0.09135969 -0.17073925 -0.1104484 -0.08085366
0000d0 de 35 19 bd e4 14 d9 bd 48 df 0c be 60 79 83 bd
       -0.037404887 -0.10599688 -0.1375705 -0.06419635
0000e0 32 bf bb bd fb 11 d8 bb df 0f 9a bd 00 82 e1 bc
       -0.09167327 -0.0065939403 -0.075225584 -0.02752781
0000f0 90 dc 05 3e cf fe a1 3d 43 6e 5e bc 72 1f a6 3d
       0.13072419 0.07909929 -0.013576093 0.081114665
000100 c7 ca 72 3c 82 91 a6 bb 46 17 c2 3c e3 06 fa 3c
       0.014818854 -0.005083264 0.023692738 0.030520862
000110 11 52 31 3d 0e 27 1f 3e ef f9 70 bd 46 d2 f9 bd
       0.043291155 0.15542242 -0.058832105 -0.121983096
000120 07 50 a9 3b f6 17 ef bd cd 61 24 bd 8f 64 e6 3d
       0.0051670107 -0.11674492 -0.040132333 0.11249649
000130 31 fb 78 bd 4c a3 d8 bd f0 b8 9f 3d 66 40 93 3c
       -0.06078643 -0.105780214 0.07798946 0.017975044
000140 f5 65 f9 3c c4 37 c9 3d b3 28 bd 3a 5a 9d c7 3d
       0.030444125 0.098250896 0.0014431685 0.09746809
000150 89 88 a6 3d bd e6 2e 3d 5e 93 0c 3d fe 9b de 3c
       0.08131511 0.042700518 0.034320228 0.027173992
000160 b7 35 8e ba 12 27 4c 3e 83 4f 54 3c 9b f3 01 bd
       -0.0010849749 0.19936779 0.01295841 -0.03172646
000170 cc 87 8b 3a 0a b1 3f 3d a8 9b a9 3d 1b 6b 20 3e
       0.0010645329 0.046799697 0.08281642 0.15665857
000180 3d 46 c9 bc 51 62 60 3c 6d 28 c1 3b 5e 0d 46 3d
       -0.024569625 0.013695315 0.0058947117 0.04835259
000190 d3 92 5e bd 27 dc 1d be 13 9a 76 bc 69 4c ed bd
       -0.05433924 -0.15416013 -0.015051383 -0.1158684
0001a0 57 c1 00 be fd 72 63 bd bc 78 38 bd c6 c6 8f bd
       -0.12573753 -0.055529583 -0.045037016 -0.07020335
0001b0 b5 c5 1a bc da 79 47 be 0e 91 35 bd c8 91 a9 3b
       -0.009446551 -0.19480076 -0.044327788 0.005174849
0001c0 fb a2 62 3d 3c e7 1c 3d ed ae be bd ed ec 05 be
       0.05533121 0.03830646 -0.09310708 -0.13078661
0001d0 64 c9 2f 3b 5c 60 61 3d f0 29 70 bc 3c cb 67 3d
       0.002682292 0.055023536 -0.014658436 0.056590304
0001e0 d6 9f ce bd aa 57 ab bd d2 40 46 bd 86 7c 9f bb
       -0.1008908 -0.0836633 -0.04840166 -0.0048671393
0001f0 50 a1 2e bd 0f 93 ab 3d 63 1e 9c bd ed 75 03 3e
       -0.04263431 0.083776586 -0.07622983 0.12837954
000200 fe 51 2a 3d ea bd 36 bd 03 65 cd 3b 8f 14 80 3d
       0.0415821 -0.04461471 0.006268145 0.06253921
000210 fc ed f0 3d b4 91 18 3d 57 b8 3d 3d 26 4b 3a 3d
       0.11764142 0.03724833 0.04631838 0.045481823
000220 94 9e aa 3c 5d fb cb 3d 8d 96 f1 bd e1 14 20 3c
       0.020827569 0.09960053 -0.117962934 0.009770603
000230 09 60 e0 bd 8b 25 bd bd 61 23 2b bd cd b0 d3 3d
       -0.10955817 -0.092356764 -0.041781787 0.103364564
000240 49 70 80 bd 8f a9 12 3e da 10 b3 bd 39 2b a4 3d
       -0.06271417 0.14322494 -0.087434486 0.080160566
000250 72 57 b3 3d 69 36 ad bc 79 1b f5 3d 92 b5 40 3d
       0.08756913 -0.021144109 0.119681306 0.04704816
000260 03 a9 48 3d f7 ef 04 3e 09 be 27 ba bb 0e 13 3d
       0.048989307 0.12982164 -0.0006398862 0.03590272
000270 ac d3 f9 3d 8e 41 ba 3c 3b 46 42 bc f9 c2 b8 3c
       0.12198576 0.022736337 -0.011857565 0.022553908
000280 e6 18 01 bc a1 56 2f be 88 f6 30 3d 9b ea 70 bd
       -0.007879471 -0.1712289 0.04320386 -0.058817487
000290 3a 4a 74 3d ef 6d 0a bd 25 a9 0a bd 2a 97 e8 bb
       0.0596411 -0.033796247 -0.033852715 -0.0070980983
0002a0 8d 38 9d bd b2 bd ea bd 0d 2e 1f b9 af 6a ac 3c
       -0.07676802 -0.11461963 -0.00015180577 0.021046964
0002b0 a2 d0 7e bc ac ff be 3b 3c 37 de bd 4b b7 04 be
       -0.015552672 0.0058288183 -0.10850379 -0.12960546
0002c0 1e b7 45 3d 85 b8 7d bd a8 3d b4 3b de a0 0c bd
       0.048270337 -0.06194355 0.005500514 -0.034333102
0002d0 e7 3b ed bd 89 5d 73 bd 67 31 25 bd ef 4d ed 3d
       -0.11583691 -0.059415374 -0.040330317 0.1158713
0002e0 b6 eb 9d bd 0e 71 83 3c 09 f3 e6 bb ed cb e8 3d
       -0.07710974 0.01604512 -0.007048015 0.11367021
0002f0 82 37 58 3c 43 7e 9e 3b d7 0b f1 3d 75 7a eb 3d
       0.013196828 0.004836829 0.117698364 0.11497966
000300 07 ef e5 3d 32 14 0d 3e f3 f5 cf 3d 5d 59 1f bd
       0.112272315 0.13777235 0.10154333 -0.038903583
000310 2e 17 ec 3d 4b ba 56 3d 3c c3 eb bd 85 21 06 3d
       0.11527859 0.052423757 -0.115118474 0.03274681
000320 2c aa 9d ba 20 ec b0 3d 1c 82 c6 bc a2 7a 8a 3c
       -0.0012028865 0.08638787 -0.024231963 0.016904179
000330 7a 0e f3 3d c6 2c d6 bd ac 07 e9 3d 1a 6b 24 3c
       0.118679956 -0.104577586 0.113784164 0.010035301
000340 2d 85 8e bd 91 66 a0 3d ef e7 e1 bc a4 ed d5 bd
       -0.06958995 0.07832063 -0.027576415 -0.10445717
000350 a4 39 5d bc 90 08 d5 bd 77 8c 85 3d 40 79 c9 3d
       -0.013502512 -0.10402024 0.06520932 0.0983758
000360 66 95 f8 bc d4 40 c3 bd ba 2e 82 3d 6f c9 8a 3d
       -0.030344676 -0.09533849 0.06356569 0.06776702
000370 67 4c 6f bd 47 c7 42 be d8 f9 76 bd 89 48 c5 bd
       -0.058422472 -0.19021331 -0.060296863 -0.096329756
000380 cc 58 1c bd bf b2 c3 3d a8 b5 24 bd 47 4b 4c bd
       -0.03817062 0.095555775 -0.040212303 -0.049876478
000390 91 36 13 3d d5 2b 2b be 0a e0 dc 3d 2f e7 83 3d
       0.03594071 -0.1671594 0.107849196 0.06440579
0003a0 dd 11 22 bd ee 90 91 3d 42 70 29 3d 57 4c 31 be
       -0.039567817 0.07107721 0.041366823 -0.17314278
0003b0 db 58 5c bd 4a 6e 99 3d 8f f1 a3 3b e5 8c 48 3d
       -0.053795677 0.07491739 0.0050031613 0.048962492
0003c0 58 47 09 3e 28 8e 3a bd e1 7a 3d bd d2 19 3a bd
       0.13406122 -0.045545727 -0.046259765 -0.04543478
0003d0 59 43 d7 3d c5 6e 33 bd 3b 91 b9 bc 8a 3c 0c be
       0.105108924 -0.04380681 -0.02265226 -0.13694969
0003e0 c6 78 f2 bd 82 b0 9a bd 51 42 00 be c3 90 e3 bd
       -0.11839442 -0.075531974 -0.12525298 -0.111115955
0003f0 59 c0 73 bd 45 f1 8e bd f2 58 3c bd fa 19 d1 bd
       -0.05950961 -0.06979612 -0.045983262 -0.10210033

model.nn.2.bias f4 [20]
000000 d1 b1 02 3b 49 7e cf 3d b9 e4 29 bd f6 27 17 bd
       0.0019942413 0.10131509 -0.041477893 -0.036903344
000010 ee 68 e9 ba 47 bd a4 bb 4d 88 88 3d 85 65 90 3d
       -0.0017807761 -0.0050274464 0.06666622 0.07050613
000020 9c 54 55 bc a2 25 69 3d 50 a0 34 bd 21 91 8e 3c
       -0.013020661 0.056920655 -0.0440982 0.017403187
000030 9f 76 4d bd 26 49 16 bc 22 37 a7 3b 22 13 6f bc
       -0.050161954 -0.009172713 0.005103008 -0.014591964
000040 6b 28 03 bc fd 40 8e 3a 7b 0a 7e bd ba 00 7c bd
       -0.008005242 0.0010853108 -0.062021714 -0.06152413

model.args_proj.proj.0.weight f4 [1, 20]
000000 2b 8a 5e bd c3 fb 35 bd 67 63 6f 3e 0e 35 9e bd
       -0.054330986 -0.04442955 0.23377763 -0.07724963
000010 18 28 72 bd 49 58 ba 3d a9 c4 bb 3d df 00 21 3e
       -0.059120268 0.0909887 0.09168369 0.15722989
000020 4c 7b 06 be a6 cb 38 3e 6b 90 28 3e fe 87 1f 3e
       -0.13132972 0.18046436 0.16461341 0.1557922
000030 4c a8 8b 3b f1 c6 b5 bb fb d7 cb 3d e0 21 d6 bd
       0.004262006 -0.0055473973 0.099533044 -0.1045568
000040 c8 b5 13 bd c3 61 13 3e ae 60 de bd 23 ae 48 be
       -0.036062032 0.14392762 -0.10858284 -0.19597678

model.args_proj.proj.1.weight f4 [1, 20]
000000 fb 56 a9 be 46 9d 6d bc 22 20 31 be 1e 4c 98 3d
       -0.33074173 -0.014502829 -0.17297414 0.07436393
000010 0e 9c 4e 3e 25 b1 f6 bd 00 d4 6a 3d e4 68 c4 3d
       0.20176718 -0.120455064 0.057331085 0.09590319
000020 00 3e 2f be 23 44 d1 3d d3 5c 59 3d 17 c8 17 be
       -0.17113495 0.10218074 0.05306704 -0.14822422
000030 06 c2 44 be 6c 2b 83 be eb 7a 4f 3e 74 05 e1 3d
       -0.19214639 -0.25619066 0.20261733 0.10987368
000040 eb 82 a3 be 08 b3 d2 bd cb a0 e1 bd 2d a7 e3 bc
       -0.3193582 -0.10288054 -0.11016997 -0.027789677

model.args_proj.proj.2.weight f4 [1, 20]
000000 67 94 7a be ae 5c 7a be 31 f7 19 3e 8e 25 79 3e
       -0.24470674 -0.24449417 0.15035702 0.24330732
000010 57 8e 0c 3e 28 34 30 bd 26 aa 2c be d3 c4 8a be
       0.13726173 -0.04301849 -0.16861781 -0.2710329
000020 5f bd 8a bc 42 6a 4a be 0c c4 37 3e f9 94 87 be
       -0.016936002 -0.19767097 0.1794588 -0.26480845
000030 b4 05 7d 3e 4b 0d a5 bd 7d 03 c5 3d dc b3 48 3e
       0.24709207 -0.08059176 0.09619806 0.19599861
000040 2f 2b 12 be 42 2d 5d bd e9 0e 66 3e 7f 79 52 3e
       -0.14274286 -0.05399824 0.22466625 0.2055416

exp_avg f4 [20, 30]
000000 8d 9a 0e ba 52 82 1a ba a1 95 28 ba 2f 9c 12 ba
       -0.00054399 -0.0005894053 -0.0006430988 -0.0005592731
000010 3e 26 12 ba 78 8f af b9 a2 8a a5 b8 08 d7 77 b7
       -0.00055751565 -0.00033485494 -7.8936355e-05 -1.4772413e-05
000020 c6 fd 4c 39 98 71 23 3a 1f 40 48 3a 91 4b a8 3a
       0.00019549494 0.00062348833 0.00076389493 0.0012839903
000030 06 08 bb 3a 9b e0 ad 3a 39 3f d3 3a e2 fd c0 3a
       0.0014269359 0.001326579 0.0016116864 0.00147241
000040 ad e4 39 3a 91 27 00 3a 3c 11 10 ba f2 32 55 ba
       0.0007091265 0.00048887084 -0.0005495732 -0.00081328966
000050 0e cf 42 ba be 87 1c bb ea 7e 25 bb f2 38 2b bb
       -0.0007431366 -0.002388462 -0.0025252649 -0.0026126471
000060 88 6e 20 bb 13 7b 0d bb 84 5c e2 ba ea 48 d9 ba
       -0.0024479944 -0.002158825 -0.0017270003 -0.0016577516
000070 2c 74 06 bb 32 4d 21 bb 82 29 ac 3c da 44 d8 3c
       -0.0020516021 -0.0024612662 0.021015886 0.026400018
000080 6d 5b 10 3d 54 af 20 3d 03 0f 35 3d ad e2 21 3d
       0.03524344 0.039229706 0.04420377 0.039522815
000090 a4 65 87 3c ba 25 87 3c dc f9 10 3c 86 a8 bc bc
       0.016527958 0.016497482 0.008848634 -0.023029577
0000a0 34 70 d2 bc 5a 26 b0 bc 4a 3b 9e bc b8 4b 5e bc
       -0.025688268 -0.021502662 -0.01931538 -0.013567857
0000b0 68 ba 4f bc f0 78 6f bc e0 c6 bd 3a 6c c0 69 3c
       -0.01267872 -0.014616236 0.0014478825 0.014267068
0000c0 94 1a d0 3c 78 d4 0f 3d 25 e0 3f 3d a0 e2 72 3d
       0.025403298 0.035114735 0.04684462 0.059298158
0000d0 04 7a 84 3d c4 a5 8b 3d 90 74 8e 3d 88 28 85 3d
       0.06468585 0.06818727 0.06955826 0.06501871
0000e0 45 1b 36 3d d0 eb 71 3c 4c a8 9a bc 38 50 5c bd
       0.0444596 0.014765695 -0.018879078 -0.05378744
0000f0 d6 c5 2d 2f b2 54 b4 2d 88 3b 01 30 c1 63 df 2e
       1.5804544e-10 2.0501243e-11 4.7014526e-10 1.0158586e-10
000100 cc 79 8d 2f ed 7a e6 2e 7a e4 da ae 59 bf 1a b0
       2.5734292e-10 1.0481025e-10 -9.954078e-11 -5.6296795e-10
000110 e9 0b 4d af 18 56 68 af 29 05 8d af 10 58 28 2e
       -1.8648873e-10 -2.1130864e-10 -2.5651417e-10 3.8276993e-11
000120 dc 47 f2 2f 5f 51 9c 2f b5 f5 06 b0 b6 37 1e b0
       4.4070603e-10 2.8434052e-10 -4.9098087e-10 -5.7559235e-10
000130 54 f0 65 b0 bf e7 e0 2f e3 88 05 af b8 3a 06 b0
       -8.365124e-10 4.0910028e-10 -1.2144911e-10 -4.883236e-10
000140 f6 da 06 b0 f9 dd df b8 63 92 e2 b8 17 aa 89 b7
       -4.906008e-10 -0.00010674814 -0.000108037864 -1.6410877e-05
000150 1d 9c 11 39 d4 98 34 39 3c 9d 3a 39 fd ba ec 38
       0.00013886434 0.0001722307 0.00017796917 0.00011288186
000160 55 28 e6 b7 0f 76 67 b9 6c b8 44 bd 85 f8 2e bd
       -2.7436918e-05 -0.00022073857 -0.04802744 -0.042717475
000170 54 1d 10 bd 03 67 03 bd 2a 5a dd bc 06 19 fe bc
       -0.03518422 -0.03208066 -0.027020533 -0.031017791
000180 e1 23 4a bd e8 40 4b bd be d3 64 bd da a6 a0 bd
       -0.049350623 -0.049622446 -0.055865996 -0.078443244
000190 8e 59 a2 bd a6 55 9c bd 2a b6 97 bd 52 e4 80 bd
       -0.079272375 -0.07633524 -0.07407792 -0.06293549
0001a0 48 41 76 bd b7 39 7b bd 34 12 50 bd cf cc 1d bd
       -0.06012085 -0.061334338 -0.05079861 -0.0385254
0001b0 9a 3c e8 bc 76 29 8f bc 88 4d 9b bb 80 c6 b5 3b
       -0.02834921 -0.017475825 -0.004739467 0.0055473447
0001c0 a0 8d 19 3c c8 01 1f 3c 34 b1 38 3c a8 5e 10 3c
       0.009372145 0.0097050145 0.011272717 0.00881163
0001d0 a0 a8 f6 bb 80 54 f8 bc 94 81 73 bd 1c ba b2 bd
       -0.007527426 -0.03031373 -0.059449747 -0.08726904
0001e0 64 a8 b6 bc ee 59 a4 bc a8 6b 8b bc 9c de 7a bc
       -0.022297092 -0.020062413 -0.017019108 -0.015311863
0001f0 d8 54 52 bc 36 d1 69 bc 17 29 b8 bc 59 68 b8 bc
       -0.012837611 -0.014271071 -0.02248053 -0.022510694
000200 ee cf cd bc 2e 7b 11 bd 3c 7b 12 bd 38 ba 0a bd
       -0.025123563 -0.035517864 -0.035762057 -0.033869
000210 e8 99 05 bd db 63 e3 bc 6c b4 d7 bc ae 45 db bc
       -0.03261748 -0.027757576 -0.026331149 -0.026766624
000220 00 aa b2 bc fc 58 80 bc 54 80 40 bc 58 b3 e1 bb
       -0.021809578 -0.015667431 -0.011749346 -0.0068878345
000230 20 1f 83 ba 90 08 26 3b 24 70 8a 3b d4 4e 8e 3b
       -0.0010003783 0.0025334693 0.004224794 0.004342893
000240 f0 cd ad 3b 90 30 93 3b a8 71 2b bb 82 76 51 bc
       0.0053040907 0.004491873 -0.0026160274 -0.012784602
000250 df d9 d2 bc a4 fe 1c bd 5f 95 05 bb 69 e9 fa ba
       -0.025738655 -0.03832878 -0.0020383222 -0.0019143048
000260 9d a5 d2 ba b5 7c 02 bb 77 2c 17 bb 73 bc 38 bb
       -0.0016071085 -0.0019910757 -0.0023067275 -0.0028188496
000270 c2 3e 56 bb 1a 1e 55 bb b3 e9 63 bb 33 bf 59 bb
       -0.0032691215 -0.0032519163 -0.0034776747 -0.0033225536
000280 bb c6 63 bb a5 61 86 bb a7 af 8d bb 30 e5 81 bb
       -0.0034755904 -0.0041009956 -0.004323918 -0.003964089
000290 4f 0e 87 bb 6c 26 87 bb b1 e4 81 bb 3d 8f 7e bb
       -0.0041215788 -0.0041244533 -0.0039640297 -0.00388427
0002a0 36 3e 57 bb 34 88 54 bb 54 b2 55 bb d8 cd f2 ba
       -0.0032843477 -0.0032429816 -0.0032607513 -0.0018524481
0002b0 c0 84 e5 ba a4 9a e1 ba 3a ca f0 ba 58 f7 fb ba
       -0.0017510876 -0.0017212224 -0.0018370815 -0.0019223494
0002c0 ae 4f fb ba 0d ea de ba 92 4b bf ba f2 f4 8a ba
       -0.0019173527 -0.0017007008 -0.0014594665 -0.0010601564
0002d0 4d 33 8e af 35 37 10 2f a8 2d d2 2f ff 08 9f 2f
       -2.58661e-10 1.3116337e-10 3.8231218e-10 2.8928324e-10
0002e0 c8 c2 4e b0 c2 2f 14 30 be 3c 25 b0 44 f2 db af
       -7.5219164e-10 5.3909954e-10 -6.011297e-10 -4.0008008e-10
0002f0 5e 80 e4 ae 4b 5a dc 2f 08 d4 ca 2f 1e bb 0f 30
       -1.0391042e-10 4.0081924e-10 3.6894243e-10 5.2289006e-10
000300 20 a9 46 b0 22 cd 3f b0 cc 35 2c af df 98 9a ae
       -7.227232e-10 -6.9776906e-10 -1.5662421e-10 -7.0302646e-11
000310 6c 7f 36 b0 68 53 00 b0 0e 18 94 b8 62 ee 93 b8
       -6.639229e-10 -4.6684656e-10 -7.0616705e-05 -7.0539085e-05
000320 03 9a 93 b8 eb 45 93 b8 9a 61 a3 b8 b6 08 a3 b8
       -7.038193e-05 -7.0225295e-05 -7.7906254e-05 -7.774068e-05
000330 df b7 a0 b8 10 96 44 b7 6e 0d 31 38 43 2b 4b b8
       -7.663643e-05 -1.17174495e-05 4.2212596e-05 -4.8439262e-05
000340 f5 dc 70 b9 26 1f 0c ba ca 82 bf bc 74 a6 ac bc
       -0.00022970497 -0.00053452177 -0.023377795 -0.021075465
000350 06 44 91 bc 9b 77 88 bc 74 28 71 bc e7 c6 88 bc
       -0.017732631 -0.016658595 -0.014719117 -0.016696407
000360 62 ed c9 bc 96 5d ca bc ee a5 e0 bc e2 86 16 bd
       -0.024649326 -0.024702828 -0.027422871 -0.036749728
000370 26 6f 18 bd 72 de 14 bd 02 80 11 bd 2c eb fa bc
       -0.037215374 -0.036344953 -0.03552247 -0.030629717
000380 80 ee f1 bc ec e9 f5 bc 0c 6a cf bc 1d e8 a0 bc
       -0.029532671 -0.03001877 -0.025319122 -0.01964193
000390 0c 18 76 bc 82 05 2b bc b0 8f a7 bb 00 ea 42 38
       -0.015020382 -0.010438325 -0.0051135644 4.6471134e-05
0003a0 20 23 dc 3a b0 ed f7 3a 28 d0 1f 3b 00 c3 b9 3a
       0.0016795136 0.0018915441 0.0024385545 0.0014172494
0003b0 dc 2b b0 bb e9 9f 71 bc 55 67 db bc e1 7c 1c bd
       -0.005376322 -0.014747598 -0.026782671 -0.03820503
0003c0 66 d1 b0 bc 0f 62 9f bc a0 1b 86 bc 8f a7 7b bc
       -0.021584224 -0.019455938 -0.016370595 -0.015359773
0003d0 96 03 5e bc 7f bd 7b bc cb 2b ba bc b8 92 ba bc
       -0.01355066 -0.015365004 -0.02272596 -0.02277504
0003e0 72 26 cf bc 08 0a 0b bd 4b c7 0c bd d2 5d 09 bd
       -0.025286887 -0.033945113 -0.034369748 -0.03353674
0003f0 1f 33 06 bd 20 53 e7 bc 11 f1 de bc 0b 9c e2 bc
       -0.032763597 -0.02823788 -0.027214559 -0.027662298

exp_avg_sq f4 [20, 30]
000000 1f 18 3d 38 80 f7 3e 38 e8 48 3e 38 68 b9 43 38
       4.5083576e-05 4.5530032e-05 4.536743e-05 4.6664296e-05
000010 6f 4e 49 38 17 cf 45 38 d1 ae 4b 38 7e 2c 53 38
       4.799518e-05 4.7161328e-05 4.8561782e-05 5.0347757e-05
000020 12 70 56 38 63 4d 5f 38 45 4e 6f 38 ef 14 81 38
       5.112595e-05 5.3239415e-05 5.7054935e-05 6.1550985e-05
000030 0f df 87 38 fb 5b 90 38 bd a1 99 38 05 86 9f 38
       6.4788495e-05 6.883588e-05 7.3257346e-05 7.606674e-05
000040 d1 54 a6 38 8d 31 ab 38 ca a4 a9 38 7c 28 b1 38
       7.931295e-05 8.163145e-05 8.089242e-05 8.4475585e-05
000050 12 76 b4 38 16 83 c0 38 c4 0e b0 38 cb 8b bd 38
       8.605061e-05 9.17969e-05 8.395084e-05 9.038261e-05
000060 fb d5 bf 38 6e 2c e1 38 1e fd ec 38 c1 2e 0d 39
       9.147447e-05 0.00010737112 0.00011300504 0.00013464225
000070 23 67 a6 39 a2 39 88 3a 6f 7e cb 3c 34 5c c5 3c
       0.0003173883 0.0010393152 0.024840562 0.024091817
000080 17 a2 c0 3c 79 42 c1 3c 7d 08 c3 3c 31 80 c0 3c
       0.02351479 0.023591267 0.023807758 0.023498626
000090 5e d1 bd 3c a4 9d bd 3c 55 ff bb 3c e9 70 b7 3c
       0.023171123 0.023146458 0.0229489 0.022392707
0000a0 15 d5 b7 3c 05 d9 b4 3c b7 94 b7 3c 76 18 ba 3c
       0.022440473 0.02207614 0.02240978 0.022716742
0000b0 05 ca bb 3c 42 ba bd 3c 6f 69 bf 3c 82 40 c3 3c
       0.022923479 0.023160104 0.023365704 0.02383447
0000c0 7f de c7 3c d4 c1 ca 3c 4f 85 c9 3c 2d 84 cf 3c
       0.024398087 0.024750628 0.0245997 0.025331581
0000d0 ba 39 d3 3c 42 0e d7 3c 00 47 dc 3c 80 1f e1 3c
       0.025784362 0.026251916 0.026889324 0.02748084
0000e0 85 2d e9 3c 3d 33 f7 3c 39 2a 08 3d 0f 54 1b 3d
       0.028464088 0.0301758 0.03324339 0.03792196
0000f0 85 3d 42 36 3d ed 43 36 ba d2 44 36 0d a4 48 36
       2.8944062e-06 2.9195355e-06 2.9328935e-06 2.9897813e-06
000100 f7 88 48 36 9a 61 47 36 12 f6 48 36 19 58 48 36
       2.9882046e-06 2.9710122e-06 2.9945554e-06 2.9853602e-06
000110 65 c4 4c 36 d6 62 4e 36 b7 c0 53 36 e7 5e 54 36
       3.0512685e-06 3.0753922e-06 3.1553625e-06 3.1645702e-06
000120 5c 73 5d 36 72 b5 5f 36 53 b8 60 36 7a 10 67 36
       3.2998714e-06 3.3335205e-06 3.3485892e-06 3.4431273e-06
000130 60 3f 67 36 30 7b 69 36 20 96 80 36 b0 42 82 36
       3.4458571e-06 3.479141e-06 3.832174e-06 3.8820654e-06
000140 fb 5a 86 36 f8 2c 94 36 a2 ba 98 36 db f2 a1 36
       4.0041027e-06 4.4159788e-06 4.55168e-06 4.826446e-06
000150 89 1f b3 36 88 de d2 36 6a 2c fd 36 39 ce 06 37
       5.338287e-06 6.2843937e-06 7.545158e-06 8.035037e-06
000160 84 b3 6b 37 bd 06 e0 37 59 b8 98 3c d1 94 94 3c
       1.4048888e-05 2.6706019e-05 0.018642591 0.018137367
000170 ee 1e 91 3c e8 28 91 3c d4 f1 90 3c 62 80 8f 3c
       0.017714944 0.017719701 0.017693438 0.017517272
000180 19 f2 8d 3c bb fc 8c 3c 2c 26 8b 3c 64 29 89 3c
       0.017327355 0.017210355 0.016985975 0.01674337
000190 6a 1d 87 3c 86 3e 84 3c 26 b8 84 3c 58 fe 84 3c
       0.016493518 0.016143095 0.01620109 0.016234562
0001a0 13 a8 83 3c 6a 1a 84 3c 27 17 83 3c fb 61 84 3c
       0.016071355 0.016125876 0.01600225 0.016160002
0001b0 58 a7 85 3c e3 97 86 3c e1 4d 84 3c fc e7 86 3c
       0.016315147 0.016429847 0.016150417 0.01646804
0001c0 3c 06 88 3c 9a 5b 89 3c d0 68 8b 3c 3a 22 8d 3c
       0.016604535 0.016767312 0.017017752 0.017228235
0001d0 37 f4 8f 3c cc 9f 95 3c e3 fb 9d 3c 79 a3 a9 3c
       0.017572505 0.018264674 0.019285148 0.020707833
0001e0 39 ec 66 3a 5f bc 62 3a 8a 50 60 3a 7e 97 66 3a
       0.00088090036 0.00086492853 0.0008556923 0.0008796378
0001f0 34 61 66 3a 49 90 62 3a 91 39 5f 3a 17 20 60 3a
       0.0008788288 0.0008642716 0.0008515353 0.00085497036
000200 94 b9 5f 3a ec 68 65 3a c5 18 64 3a 69 80 66 3a
       0.0008534428 0.00087512913 0.0008701201 0.00087929383
000210 ee f8 65 3a 35 18 68 3a 4e e3 65 3a 82 f0 63 3a
       0.000877275 0.0008853705 0.0008769528 0.0008695201
000220 84 e3 62 3a 42 7d 66 3a 6f f2 68 3a d4 89 69 3a
       0.0008655118 0.00087924686 0.0008886223 0.00089087826
000230 8d 4b 6b 3a 34 0f 6c 3a d0 41 6d 3a 4d a2 6f 3a
       0.00089757965 0.0009004951 0.00090506393 0.0009141311
000240 1f 2e 71 3a 85 a9 73 3a 60 46 78 3a 31 19 80 3a
       0.0009200293 0.0009294975 0.0009470936 0.0009773133
000250 3c d1 8d 3a 95 50 a1 3a 33 18 82 39 0c 23 80 39
       0.0010819803 0.001230734 0.00024813562 0.00024440174
000260 dc 66 7e 39 23 ba 80 39 e0 82 81 39 aa 00 82 39
       0.00024261646 0.00024552745 0.00024702307 0.00024796027
000270 af 9b 81 39 f3 96 81 39 fd 5b 80 39 24 f7 80 39
       0.0002472079 0.00024717263 0.000244826 0.00024598197
000280 7c 00 81 39 e2 75 7e 39 7a 2a 7c 39 43 3d 7d 39
       0.00024605158 0.00024267242 0.00024048417 0.00024150782
000290 d2 11 7e 39 d0 90 81 39 3b 77 81 39 a2 1b 7f 39
       0.00024229966 0.0002471269 0.0002469363 0.00024328989
0002a0 0b 4d 7f 39 06 e9 82 39 77 ab 80 39 d3 12 86 39
       0.00024347396 0.00024969148 0.00024541814 0.00025572497
0002b0 e2 fd 86 39 5c 83 8e 39 b7 1e 95 39 06 8d a6 39
       0.0002574763 0.0002718222 0.0002844238 0.00031767058
0002c0 ae 85 bb 39 13 7e e4 39 29 6a 37 3a 18 fd d6 3a
       0.0003576702 0.0004358148 0.0006996715 0.0016402332
0002d0 f3 e6 39 35 8f 49 3c 35 82 c6 3d 35 49 c6 45 35
       6.9253946e-07 7.01425e-07 7.0696854e-07 7.367676e-07
0002e0 7f 60 46 35 22 aa 46 35 de 14 45 35 af be 42 35
       7.390117e-07 7.4008324e-07 7.3418585e-07 7.2548113e-07
0002f0 a8 c3 47 35 5d 53 48 35 9e 40 4b 35 41 04 49 35
       7.4417994e-07 7.4627116e-07 7.5717423e-07 7.4884525e-07
000300 67 ef 47 35 eb b6 4a 35 55 3e 49 35 c0 c8 51 35
       7.4481653e-07 7.5517045e-07 7.496904e-07 7.8150697e-07
000310 e1 96 50 35 86 6f 53 35 65 d4 84 35 8a 3e 86 35
       7.7705596e-07 7.8765913e-07 9.896581e-07 1.0001979e-06
000320 c2 dd 87 35 a7 0f 89 35 bd cf 92 35 49 66 96 35
       1.0122824e-06 1.0211851e-06 1.0938307e-06 1.120564e-06
000330 60 b7 97 35 29 e6 a4 35 ad 3a a3 35 c1 9a ae 35
       1.1303746e-06 1.2285938e-06 1.2161523e-06 1.300905e-06
000340 07 62 12 37 9c 72 5a 37 7d 8a 8f 3b 7e ba 8b 3b
       8.725102e-06 1.3020497e-05 0.0043805228 0.004264175
000350 79 95 88 3b 87 96 88 3b 0f 56 88 3b 8a 34 87 3b
       0.004168209 0.004168335 0.0041606496 0.004126136
000360 2a e2 85 3b 6c c2 84 3b 6c e2 82 3b 4f 27 81 3b
       0.0040857987 0.004051497 0.0039942767 0.0039414535
000370 e8 2a 7e 3b f1 18 78 3b ac 03 79 3b 81 13 79 3b
       0.0038782898 0.0037856663 0.0037996573 0.003800601
000380 05 1a 77 3b e2 87 78 3b 87 1e 76 3b ed c5 77 3b
       0.0037704718 0.003792279 0.0037554817 0.0037807182
000390 d9 7f 79 3b b7 7b 7c 3b 1e d2 76 3b 89 32 7b 3b
       0.0038070588 0.0038525888 0.003766186 0.0038329682
0003a0 23 7e 7d 3b 23 e8 80 3b 13 6b 82 3b 6c 43 84 3b
       0.003867992 0.003933923 0.0039800494 0.0040363576
0003b0 01 10 86 3b 72 2d 8a 3b 69 bf 90 3b 8b f9 a9 3b
       0.0040912633 0.0042168433 0.004417349 0.0051872185
0003c0 93 0a 63 3b 54 e8 5c 3b 15 f6 57 3b 87 09 58 3b
       0.0034643754 0.0033707814 0.0032953073 0.0032964663
0003d0 02 9c 57 3b 40 c4 55 3b 48 b4 53 3b 6a 16 52 3b
       0.0032899384 0.0032618195 0.00323035 0.0032056817
0003e0 39 49 4f 3b 50 92 4c 3b f6 4f 49 3b 3f 93 44 3b
       0.0031629337 0.0031215139 0.0030717826 0.0029994992
0003f0 12 52 45 3b b5 7f 45 3b 1d d0 43 3b 78 ed 44 3b
       0.0030108732 0.0030135934 0.0029878684 0.003004877

exp_avg f4 [20]
000000 83 b0 0a ba 2e 09 97 3c 9b 17 89 36 72 14 1c bd
       -0.00052905845 0.018436994 4.085666e-06 -0.038105436
000010 14 48 8a bc a3 e2 34 bb 7c 39 35 b8 1e 4f 9d bc
       -0.016880073 -0.0027600906 -4.32073e-05 -0.019202765
000020 ba db 90 bc 13 8c 53 bd f8 0f b2 bb 50 09 8c 3a
       -0.017682899 -0.051647257 -0.0054340325 0.0010683928
000030 a4 fc 4b bc 5b 05 ea bb 48 5c cf bc e4 76 67 bc
       -0.012450371 -0.0071417517 -0.025312558 -0.014127467
000040 20 bf 57 bc 33 9f cc bb 06 5a 08 bc e2 07 e1 ae
       -0.013168126 -0.006244564 -0.0083222445 -1.0233216e-10

exp_avg_sq f4 [20]
000000 52 2d 89 38 76 10 bf 3c 15 ac 81 36 22 10 83 3c
       6.5411106e-05 0.023323279 3.8645326e-06 0.015998904
000010 11 35 63 3a 79 2b 7a 39 e6 97 73 35 f4 ef 74 3b
       0.00086672703 0.00023858053 9.0745596e-07 0.0037374469
000020 5d 45 42 3b dd b9 b7 3c 7f cd 10 3a 36 39 a3 39
       0.0029643395 0.022427494 0.00055237854 0.00031132408
000030 af 83 e8 3a fd f1 35 3a 94 22 da 3b eb ef f9 3b
       0.001773944 0.0006940661 0.006656954 0.0076274774
000040 50 9a db 3a cb 26 4d 3a ad 37 02 39 82 65 00 32
       0.0016754363 0.000782591 0.00012418507 7.473661e-09

exp_avg f4 [20, 20]
000000 66 10 59 bb ae e8 3e bc 31 63 d2 b8 10 99 ae 3a
       -0.0033121346 -0.011652155 -0.00010032056 0.0013320763
000010 38 a9 90 3c 2b 6e da 3d d5 51 3e b9 a4 d5 6c 3d
       0.017658815 0.10665544 -0.00018150297 0.05782093
000020 10 09 11 3d be 5f 94 3c ab 3e ec 3d e8 b5 05 3e
       0.035409033 0.01811206 0.115353905 0.13057673
000030 56 1d 47 3d 64 74 db 3d 46 e1 08 3c bf f1 bb 3c
       0.04861196 0.10715559 0.008354491 0.022942422
000040 6b 4f 80 3d 1a 59 b7 3c e2 e5 2f 3c f0 e6 72 af
       0.06265148 0.022381354 0.010735961 -2.2091817e-10
000050 73 e7 a2 39 7e c0 40 b9 c6 c7 b7 38 4d 9b de 39
       0.0003107149 -0.00018382256 8.763331e-05 0.00042458848
000060 5b 51 77 3a aa ca 01 bb 14 ef cf 38 dc 3e 82 ba
       0.0009434425 -0.0019804635 9.915061e-05 -0.0009936946
000070 f0 98 dc b9 28 d8 6b 3a 6c dc 9e ba fa 4f 1c bb
       -0.00042075617 0.00089967484 -0.0012120134 -0.002385138
000080 72 4c a9 ba f8 cc e8 ba d8 0c f3 b9 ff 1c e0 3a
       -0.0012916459 -0.0017761281 -0.0004635814 0.0017098485
000090 a0 e0 c2 b9 16 a9 94 ba 81 b6 1e 3a 11 e2 08 30
       -0.00037169922 -0.0011341895 0.0006054417 4.979777e-10
0000a0 bb db 11 bb 31 65 d3 bb 4a 41 1d b9 90 5c a5 39
       -0.0022256214 -0.006451272 -0.00014997009 0.00031540217
0000b0 bc c3 14 3c 7a f3 81 3d 3c ac 5d b9 54 a0 0c 3d
       0.00907987 0.063452676 -0.00021140365 0.03433259
0000c0 9e 9a aa 3c ba c4 19 3c ec 63 8a 3d 6f ff 9e 3d
       0.02082568 0.009385282 0.0675734 0.07763564
0000d0 fe 85 f0 3c 92 09 82 3d 78 4e af 3b 77 f1 37 3c
       0.029360767 0.06349482 0.0053499304 0.011227003
0000e0 4c 0e 15 3d 20 a2 67 3c 71 b7 b3 3b 0d 56 97 af
       0.036390588 0.014137775 0.0054845144 -2.7527883e-10
0000f0 28 2e b9 39 da a7 19 3b 6f 8f 74 b8 bc 17 23 ba
       0.0003532034 0.0023445995 -5.8307716e-05 -0.0006221493
000100 f9 5b 87 bb 95 dc 97 bc 02 44 58 b8 c2 ea 25 bc
       -0.004130837 -0.018537799 -5.156175e-05 -0.010126771
000110 18 86 d0 bb c6 bf 88 bb da 99 aa bc d0 2f ba bc
       -0.0063636415 -0.004173252 -0.020825315 -0.022727877
000120 c6 33 05 bc 62 fe 99 bc 1c c0 9e ba a8 af bc bb
       -0.0081300195 -0.018798057 -0.0012111696 -0.0057582445
000130 75 41 3d bc 70 51 58 bb b7 7a 26 bb f2 a2 45 2f
       -0.011551251 -0.0033007525 -0.0025402734 1.7974935e-10
000140 3d ab 04 3b 7e f9 e9 3b 88 16 7d 38 f0 56 47 ba
       0.0020243668 0.0071403375 6.0340884e-05 -0.0007604202
000150 64 39 30 bc 6e a3 84 bd 6c 4a e8 38 e1 9c 0f bd
       -0.0107558705 -0.06476484 0.00011076484 -0.03506172
000160 9d ef af bc fe 4a 34 bc c8 79 8f bd 51 6b a2 bd
       -0.021476561 -0.011004208 -0.0700565 -0.07930625
000170 d0 34 f1 bc 93 32 85 bd 92 95 a4 bb 4f bb 64 bc
       -0.029444128 -0.06503787 -0.005022713 -0.0139606735
000180 ee d9 1b bd 58 d9 5d bc 55 67 d6 bb 02 e9 04 30
       -0.03804963 -0.013540588 -0.00654308 4.8352444e-10
000190 e3 a5 a8 ba 5f 3e 8e bb 41 9f 4d b8 b0 fa c0 39
       -0.0012866821 -0.0043409313 -4.9024125e-05 0.0003680787
0001a0 c6 0a d1 3b 42 75 22 3d b0 9b ab b8 64 8b af 3c
       0.006379458 0.039662607 -8.1829145e-05 0.021428771
0001b0 6f 80 56 3c 26 6a d5 3b 58 28 2f 3d 34 f4 46 3d
       0.013092144 0.006512898 0.042763084 0.048572734
0001c0 02 1a 94 3c 2b fd 22 3d 58 34 4b 3b bc 53 06 3c
       0.018078808 0.03979222 0.003100654 0.008198675
0001d0 8c ba bd 3c 71 a0 09 3c 5d 96 7e 3b fc 8d 1b 30
       0.023160242 0.008400069 0.0038846948 5.6590443e-10
0001e0 6b ce 83 3a 4c 27 18 3b 49 50 e1 38 80 35 01 39
       0.0010056024 0.0023216782 0.0001074379 0.00012322329
0001f0 57 64 3d bb b6 fb c8 bc f7 4d 0d 39 b0 9d 58 bc
       -0.0028898919 -0.024534088 0.00013475852 -0.013221189
000200 56 bf 01 bc fd 1f 47 bb 38 4d d2 bc be c0 f5 bc
       -0.007919153 -0.0030384057 -0.025671586 -0.029999133
000210 0d ed 3c bc b9 4f c8 bc 54 bd 0f bb 32 66 59 bb
       -0.011531127 -0.024452077 -0.0021932917 -0.0033172485
000220 37 31 60 bc c7 05 be bb c6 ad e1 ba f9 db d6 2e
       -0.013683609 -0.0057990286 -0.0017217926 9.770668e-11
000230 a2 99 d9 3a cc 4e 7c 3b c8 40 38 39 80 84 27 39
       0.0016601572 0.0038499115 0.0001757174 0.00015975721
000240 5f e9 9e bb 26 f7 27 bd 5b 93 67 39 34 50 b5 bc
       -0.0048495973 -0.041007183 0.00022084771 -0.02213297
000250 0b 4b 59 bc 95 6e a7 bb b6 d6 2f bd ce 59 4d bd
       -0.013262521 -0.005109618 -0.042929374 -0.050134473
000260 21 28 9e bc 92 7d 27 bd 58 fc 71 bb e3 fd b6 bb
       -0.019306244 -0.040891238 -0.003692409 -0.005584465
000270 74 88 bb bc 3d ff 1e bc 01 61 3d bb ef fb 77 2f
       -0.022892214 -0.009704408 -0.002889693 2.2554024e-10
000280 7d f0 ff ba 76 a0 cb bb e9 ee d6 b8 80 3c f1 39
       -0.0019526627 -0.006214197 -0.00010248816 0.00046012178
000290 24 f4 13 3c 8b 27 6e 3d 7f ab 1e b9 71 ca 00 3d
       0.009030376 0.05814318 -0.00015131941 0.031443063
0002a0 1b f4 9c 3c c5 34 18 3c 12 c1 7f 3d 8e c3 91 3d
       0.019159367 0.009289925 0.062439986 0.07117377
0002b0 90 38 da 3c 53 cd 6e 3d ce 79 98 3b fa 8a 3c 3c
       0.0266383 0.05830128 0.004653192 0.011507744
0002c0 d0 56 0a 3d 86 e2 4c 3c 16 47 b3 3b 79 bf bc af
       0.033774197 0.012505179 0.0054711206 -3.433305e-10
0002d0 5f 83 d0 3a 1a 88 82 3b 1b 50 1e 39 c0 d9 2e 38
       0.0015908292 0.0039835097 0.00015097896 4.168763e-05
0002e0 14 5e ab bb 47 bb 27 bd a4 7d 4a 39 5d 22 b5 bc
       -0.005229721 -0.040950086 0.00019311026 -0.022111112
0002f0 fe fe 59 bc 7c 62 b3 bb ee bc 30 bd 9c 20 4d bd
       -0.013305424 -0.0054743867 -0.043148927 -0.050079927
000300 61 d1 9c bc 98 7d 27 bd 64 83 6a bb 18 f5 cb bb
       -0.019142808 -0.04089126 -0.0035783881 -0.006224286
000310 0b 37 bd bc 3c 02 1b bc 20 24 4d bb 39 07 b4 2f
       -0.023097536 -0.009460982 -0.003130205 3.274694e-10
000320 d8 f6 92 39 64 bc da 3a 60 40 03 b8 cc 24 e1 b9
       0.00028031203 0.0016688225 -3.1292788e-05 -0.0004294276
000330 4a 68 3f bb 88 85 5b bc 91 71 e7 b7 5e 12 f0 bb
       -0.0029206448 -0.013398536 -2.759023e-05 -0.0073264083
000340 67 4f 96 bb ea 39 43 bb 22 da 75 bc 14 80 86 bc
       -0.004587102 -0.0029789158 -0.01500562 -0.016418494
000350 54 b9 c1 bb 9e ba 5e bc 6c d8 68 ba 26 a8 85 bb
       -0.0059119854 -0.013594298 -0.0008882347 -0.0040788827
000360 d3 3f 08 bc 24 8d 1e bb 94 46 ea ba cb 46 3a 30
       -0.008315998 -0.0024193013 -0.0017873817 6.776701e-10
000370 c9 6d 95 ba 82 5d a3 bb bc d1 e6 37 e8 ff 67 3a
       -0.0011400516 -0.0049855122 2.7515802e-05 0.00088500837
000380 c9 2c 04 3c 94 fc 30 3d 6c d8 db 33 df 7d c0 3c
       0.008067318 0.043209627 1.0237349e-07 0.02349752
000390 02 1e 6e 3c 5e 92 06 3c bb 24 42 3d b1 cb 58 3d
       0.014533522 0.008213608 0.04739831 0.05292863
0003a0 8f 17 9f 3c 81 66 32 3d 34 01 51 3b 06 0a 31 3c
       0.019420413 0.043554787 0.0031891586 0.010805612
0003b0 8b 98 d4 3c f8 5d 0c 3c 05 93 a1 3b 70 96 06 30
       0.025951644 0.008567326 0.004930856 4.89627e-10
0003c0 7f 6f 2f bb e2 8c ee bb 83 1a 60 b9 20 c8 53 39
       -0.0026769338 -0.007279978 -0.00021372181 0.0002019708
0003d0 1b be 23 3c 5c fb 95 3d 3b 15 96 b9 1f 42 22 3d
       0.009994055 0.073233336 -0.00028626047 0.03961384
0003e0 3a 30 c4 3c 94 4d 2a 3c b0 ff 9e 3d ac 74 b7 3d
       0.023948777 0.010394473 0.07763612 0.089578
0003f0 e8 83 0b 3d bc f7 95 3d 22 3d ce 3b d8 7a 47 3c
       0.034061342 0.07322642 0.0062939087 0.012175284

exp_avg_sq f4 [20, 20]
000000 76 eb 0b 39 31 d0 67 3b 08 e0 a8 37 15 86 bc 3b
       0.00013343789 0.0035371894 2.0131483e-05 0.0057532885
000010 67 32 6b 39 ef 30 fb 3d 8b 18 ab 35 9e 2f 92 3d
       0.00022430123 0.12265193 1.2747636e-06 0.071379885
000020 bf be d6 3c 79 21 64 3b 76 ba 08 3e 75 a6 2b 3e
       0.026214002 0.003480999 0.13352379 0.16762717
000030 52 c5 70 3d b0 d2 15 3e fd 7f 32 3c 74 16 73 3a
       0.05878193 0.14631152 0.010894773 0.000927306
000040 1a d6 3f 3d 1e 52 8a 3c ba 74 5e 38 35 41 23 32
       0.046835043 0.01688486 5.3037635e-05 9.502675e-09
000050 aa 66 2c 37 8b 01 dc 38 07 9c 86 35 0e 25 81 39
       1.0275902e-05 0.00010490705 1.0029188e-06 0.00024632405
000060 6d f5 15 37 75 25 88 3a a7 d0 da 34 96 c8 8f 3a
       8.938235e-06 0.001038714 4.075748e-07 0.0010969813
000070 e7 fb d6 39 55 d4 c2 38 20 86 a5 3a d9 b4 b4 3a
       0.00041004943 9.290191e-05 0.0012628473 0.0013786807
000080 66 a7 50 3a 43 f7 c0 3a ca 7d 93 39 2d 1f 7d 37
       0.00079595146 0.0014722127 0.00028131745 1.5087234e-05
000090 78 dc 2f 3a 2d b1 33 39 59 0d ee 36 c0 e4 1f 30
       0.00067085726 0.00017136773 7.0945066e-06 5.8168936e-10
0000a0 c9 7d 26 38 8d e1 7c 3a 94 bc 98 36 b2 12 db 3a
       3.969463e-05 0.0009646647 4.5519064e-06 0.0016713946
0000b0 60 14 7a 38 e7 6e 15 3d f7 29 bb 34 bc 7f b0 3c
       5.962362e-05 0.036482718 3.4861998e-07 0.021545283
0000c0 9c 90 00 3c 66 9e 70 3a 62 64 23 3d 32 bd 4b 3d
       0.007846978 0.00091788766 0.039890654 0.049740978
0000d0 a2 2e 91 3c 75 ad 33 3d aa 2c 56 3b 70 4e 79 39
       0.017722432 0.043866593 0.003268043 0.0002377571
0000e0 58 e8 66 3c c4 39 a5 3b 5d b1 67 37 37 eb 27 2f
       0.014093481 0.0050422866 1.3809969e-05 1.5272127e-10
0000f0 f6 f1 ad 37 18 48 b7 39 64 3e 3f 36 9e b0 29 3a
       2.0735879e-05 0.00034958194 2.8497534e-06 0.00064731564
000100 96 8e d4 37 9d dd e8 3b d1 d9 1c 35 da 4a 9f 3b
       2.5338766e-05 0.0071064965 5.8431493e-07 0.004861218
000110 4b c7 ee 3a a8 36 a9 39 35 b4 01 3c d5 e9 1d 3c
       0.0018217353 0.00032274914 0.0079165 0.009638269
000120 06 a2 79 3b 34 8b 0f 3c 5d 49 72 3a 1c e6 93 38
       0.0038090958 0.008761216 0.00092424994 7.0523674e-05
000130 4f e1 4b 3b 8c 94 86 3a 3f bf 78 37 1d e2 44 31
       0.0031109636 0.0010267659 1.482648e-05 2.8650284e-09
000140 45 ca 5d 38 05 48 c0 3a 1c 2c 3b 37 69 33 25 3b
       5.2878884e-05 0.0014669901 1.1156339e-05 0.0025207645
000150 51 4d b6 38 a7 6a 45 3d 5d fd 36 35 76 0c ee 3c
       8.6928376e-05 0.048197415 6.8168976e-07 0.029058676
000160 28 4c 2e 3c e2 79 b7 3a 4c 6d 58 3d c6 99 86 3d
       0.010638274 0.0013998116 0.05283861 0.06572299
000170 9b 4f c2 3c fc eb 6d 3d 77 e5 95 3b 1d b9 ba 39
       0.0237196 0.05808638 0.0045744735 0.00035614605
000180 fa 13 9b 3c 28 18 dc 3b c2 51 be 37 92 61 cd 31
       0.018930424 0.006716747 2.2687836e-05 5.9773777e-09
000190 1e 99 91 37 4b 6a e0 39 1e e3 f3 35 a7 56 35 3a
       1.7356648e-05 0.00042803804 1.8171011e-06 0.0006917514
0001a0 61 f8 f6 37 3c 9a 7c 3c ce 70 08 34 79 f9 10 3c
       2.9441146e-05 0.015417632 1.2707025e-07 0.008848541
0001b0 9b 5a 55 3b db 69 de 39 6a 2c 89 3c 12 c8 ac 3c
       0.0032555226 0.00042422008 0.016744811 0.021091495
0001c0 98 73 ef 3b 31 07 96 3c a2 20 af 3a 35 40 ef 38
       0.007307481 0.018313976 0.0013361166 0.000114083676
0001d0 ef e7 be 3b dd 5c 0a 3b 4b dc f2 36 88 52 6f 30
       0.0058259885 0.002111248 7.2378075e-06 8.706498e-10
0001e0 3a 64 84 37 de 25 12 39 fc c2 bd 35 fc 5c 8e 39
       1.5782298e-05 0.00013937752 1.4138345e-06 0.0002715363
0001f0 e4 cf 82 37 4c fe 93 3b cf ff ba 34 0c 0e 39 3b
       1.5594014e-05 0.0045163985 3.4831325e-07 0.0028237132
000200 ec 63 87 3a 75 17 06 39 15 fa a2 3b 04 f1 c8 3b
       0.0010329462 0.00012787974 0.0049736598 0.006132247
000210 5d d0 15 3b c4 ea b4 3b b1 70 f5 39 4d 76 e7 37
       0.002285979 0.0055211503 0.00046814003 2.7592434e-05
000220 05 7c f1 3a 3d cf 24 3a e8 0a 3f 37 bf cb d4 2f
       0.0018423802 0.00062869844 1.13870265e-05 3.8707346e-10
000230 81 87 34 38 7b 83 c3 39 c2 13 88 36 1d 42 52 3a
       4.3041542e-05 0.0003729126 4.055416e-06 0.0008020716
000240 f3 07 36 38 9f 4b 47 3c 67 54 81 35 40 e5 fe 3b
       4.3399585e-05 0.012164026 9.635813e-07 0.0077787936
000250 fc 9f 39 3b db 9b b4 39 37 20 5c 3c af 4d 87 3c
       0.0028324118 0.00034448397 0.013435415 0.016516535
000260 da b8 cd 3b 9c ba 74 3c 43 8d ae 3a 60 d6 9b 38
       0.0062781395 0.014937069 0.0013317246 7.4309064e-05
000270 d3 0d a6 3b 96 85 de 3a 2a 40 03 38 f9 99 f2 30
       0.005067566 0.0016977068 3.129259e-05 1.7651579e-09
000280 3f 98 1f 38 79 4b 65 3a 18 59 ea 36 9f 4e bd 3a
       3.8050344e-05 0.0008746903 6.9841153e-06 0.0014442987
000290 e1 f0 7a 38 69 da 09 3d 87 95 b9 34 36 30 9f 3c
       5.982898e-05 0.033655558 3.456773e-07 0.019432168
0002a0 4f 40 e8 3b 86 44 62 3a f5 0b 16 3d 7a 57 3c 3d
       0.0070877443 0.00086314266 0.036632497 0.04598186
0002b0 f0 b5 83 3c e7 9f 24 3d 20 31 3d 3b e4 b1 75 39
       0.016077965 0.040191557 0.0028868392 0.0002343129
0002c0 0e 52 51 3c 83 5f 97 3b 1d 57 87 37 15 78 d1 30
       0.012775911 0.00461954 1.613382e-05 1.5240881e-09
0002d0 03 bf 14 38 50 6c c1 39 20 0e 69 36 d4 28 39 3a
       3.5463843e-05 0.00036892528 3.4727927e-06 0.0007063274
0002e0 3f 9d 20 38 46 7f 5a 3c fb 8c 2d 35 1c b7 04 3c
       3.829342e-05 0.013336008 6.4652676e-07 0.008100297
0002f0 73 80 41 3b 73 d9 b5 39 99 a2 6f 3c e9 9e 94 3c
       0.0029526025 0.00034685023 0.014626169 0.01814218
000300 5c e6 d8 3b 98 83 84 3c ad 19 a9 3a 0d ff ab 38
       0.006619258 0.01617603 0.0012901329 8.201422e-05
000310 ee de ad 3b cf e1 f1 3a fb 48 d0 37 18 2c 1a 30
       0.0053061163 0.0018454137 2.4829516e-05 5.6087535e-10
000320 d7 50 ad 36 9f e3 09 39 52 37 2a 35 27 59 8f 39
       5.1652128e-06 0.00013150134 6.3410437e-07 0.0002734151
000330 84 b0 fa 36 58 c7 6d 3b f5 62 15 34 3b 8e 1c 3b
       7.4711297e-06 0.0036282148 1.3912707e-07 0.0023888487
000340 9b 27 66 3a 21 05 06 39 6e 76 84 3b ac c0 a1 3b
       0.00087797054 0.00012781147 0.004042438 0.0049362984
000350 42 77 fc 3a cd ad 92 3b ac 6f df 39 3f c3 06 38
       0.0019261616 0.004476285 0.00042617077 3.2129927e-05
000360 65 f9 ca 3a ff 69 08 3a bf e3 02 36 0f d5 9c 30
       0.0015485702 0.0005203783 1.9504075e-06 1.1411049e-09
000370 0c 8b 37 38 aa ac 7b 3a c9 a6 dc 36 a9 23 d4 3a
       4.3760097e-05 0.0009600619 6.5759273e-06 0.0016184944
000380 ae 8a 84 38 12 00 d4 3c 4c a5 6e 35 8b f3 82 3c
       6.3200816e-05 0.02587894 8.890245e-07 0.015985271
000390 d0 66 c2 3b 1b 70 6f 3a d1 98 e8 3c ac 6d 10 3d
       0.0059326664 0.00091338315 0.028393181 0.03526084
0003a0 f5 19 53 3c a2 9c ff 3c b0 01 2f 3b e3 f5 68 39
       0.012884607 0.031202618 0.0026703887 0.00022216844
0003b0 f0 eb 29 3c f8 c8 6d 3b cd eb db 37 6e 71 ad 31
       0.010371193 0.0036283117 2.6216638e-05 5.047858e-09
0003c0 27 4b 83 38 bc 29 95 3a f8 e0 ce 36 96 0d 0a 3b
       6.260565e-05 0.0011380236 6.165468e-06 0.0021065227
0003d0 58 41 ae 38 58 6f 3a 3d 37 8d 5f 35 b2 27 dd 3c
       8.309138e-05 0.045516342 8.327947e-07 0.026996467
0003e0 6a 68 20 3c fc 8f 8f 3a e2 f9 4b 3d 64 28 7e 3d
       0.009790519 0.0010952945 0.049798854 0.06205024
0003f0 19 62 b6 3c 4f e1 60 3d c8 d0 86 3b 9c 2d 95 39
       0.022263573 0.05490237 0.004114244 0.00028453476

exp_avg f4 [20]
000000 04 ce 4b 3d dc 03 1e ba 99 a5 ef 3c d0 32 12 bc
       0.04975702 -0.0006027797 0.029253768 -0.008923247
000010 d2 97 f7 bc 8e 35 97 3c b8 91 36 bc ae a1 98 bc
       -0.03022376 0.018458154 -0.0111431405 -0.018631782
000020 de e7 dc 3c 48 35 99 bc 23 75 d2 bb 20 1e a7 3c
       0.026966032 -0.018702164 -0.006422655 0.020400107
000030 c7 bc 09 3d 29 8b 22 3d 92 26 00 bd 90 81 78 bc
       0.033627298 0.039683495 -0.031286784 -0.015167609
000040 0e 98 49 3d c0 4e 7e 3c d8 49 a6 3c 64 26 e3 3b
       0.049217276 0.015521705 0.020298883 0.0069320668

exp_avg_sq f4 [20]
000000 a3 5b 04 3d a5 38 ed 39 a3 9a 21 3c a8 b6 07 3b
       0.032313954 0.00045246366 0.009863528 0.0020708237
000010 77 f9 58 3c d6 4f 82 3b 96 38 a7 3a 99 ae 67 3b
       0.013243071 0.0039768023 0.0012757953 0.003535187
000020 60 fa 12 3c 9e db 72 3b 21 60 8b 3a f7 7e e6 3b
       0.008970827 0.0037057172 0.0010633507 0.0070341784
000030 a5 1b 4c 3c 63 50 a8 3c 61 3a 33 3c 6e 5b 89 3b
       0.012457763 0.020546144 0.010939212 0.0041918075
000040 b7 f9 e6 3c 28 ad 3b 3b 4e 3a 8d 3b 13 bd 19 3a
       0.028195245 0.0028637145 0.004309929 0.0005864661

exp_avg f4 [1, 20]
000000 a8 cf 98 b9 8f 02 41 ba 36 62 cb 39 ca 55 df 39
       -0.00029146415 -0.0007362747 0.0003879235 0.00042597792
000010 84 c5 cd 37 ad 76 9a b8 33 e8 dc b9 ee b7 13 ba
       2.452988e-05 -7.365397e-05 -0.00042134672 -0.00056350126
000020 10 a5 d5 b6 ff 28 1d ba ba 65 ef 39 c7 3f ca b9
       -6.3671105e-06 -0.00059951836 0.00045661425 -0.0003857596
000030 2f af 02 3a 33 57 9b b8 ab 96 20 39 04 1a 35 39
       0.0004985211 -7.407218e-05 0.00015314917 0.00017271197
000040 56 34 4b b9 da cb 5d b8 54 5f 02 3a 22 0d 2e 3a
       -0.00019379085 -5.2880358e-05 0.00049733114 0.000663953

exp_avg_sq f4 [1, 20]
000000 b0 16 e5 38 fe 38 09 39 81 53 de 39 e4 7e ab 37
       0.00010923797 0.0001308657 0.00042405355 2.0443877e-05
000010 50 4d 99 38 6f 4c f3 38 c6 c7 e7 38 6b 5a a7 39
       7.310009e-05 0.0001160138 0.00011052149 0.0003192009
000020 a2 85 9f 38 3e e0 c0 39 f8 ba 38 38 5c 74 95 37
       7.606602e-05 0.00036788167 4.4043147e-05 1.7816368e-05
000030 79 f3 98 39 44 04 de 38 03 f2 b4 37 14 9f dc 36
       0.000291731 0.000105865794 2.1570368e-05 6.57503e-06
000040 db 6b 40 38 e8 1d 0f 38 7f 8a b2 39 c0 90 38 39
       4.5876815e-05 3.412171e-05 0.00034053993 0.00017601531
