deep-learning/rv_only/lightning_logs/version_85/checkpoints/epoch=4-step=250.ckpt (torch, 331231 bytes, 33 tensors)

model.param_proj.proj.0.weight f4 [1, 40]
-0.20291221 -0.24915496 0.1647201 -0.100008585 -0.14901751 -0.033116926 -0.054350477 0.18596844
-0.0910231 0.24985796 -0.01500444 0.054264076 0.07388516 -0.2899798 0.105550505 -0.2077374
-0.12842911 0.16458426 -0.14563358 0.114249885 -0.15259539 0.18867911 -0.18977605 0.0086136125
-0.20576529 0.20553511 -0.11991337 0.18759923 -0.2153263 0.020086018 -0.15023686 -0.033778116
-0.065041654 0.061014675 -0.05588991 -0.084182344 0.03909523 -0.14986175 0.090707086 0.17219362
00000000: 38c8 4fbe 7a22 7fbe 63ac 283e 4dd1 ccbd
00000010: 0c98 18be 9da5 07bd 9b9e 5ebd 836e 3e3e
00000020: 526a babd c4da 7f3e 2fd5 75bc 0244 5e3d
00000030: 1a51 973d 3b78 94be dd2a d83d 1db9 54be
00000040: ec82 03be c788 283e f820 15be d8fb e93d
00000050: f741 1cbe 1935 413e a754 42be 1c20 0d3c
00000060: 23b4 52be cc77 523e 2495 f5bd 031a 403e
00000070: 7f7e 5cbe 6f8b a43c b1d7 19be ec5a 0abd
00000080: 8f34 85bd 86ea 793d d1ec 64bd cb67 acbd
00000090: 5222 203d 5c75 19be a3c4 b93d 8653 303e

model.param_proj.proj.1.weight f4 [1, 40]
-0.10401408 0.06514113 0.024186738 0.1134257 -0.14325486 0.14116512 -0.11918928 -0.17763653
-0.0947142 0.14821829 0.10058114 0.053054117 0.015772723 0.0254529 0.12592565 0.12453831
0.04706468 0.046473846 0.16662908 0.10983535 -0.006235826 0.076433204 -0.13097395 0.14198162
-0.0070050913 0.15674156 -0.08086905 0.011484945 -0.0023196419 -0.042461384 -0.209559 0.12712793
-0.10642725 -0.007859756 0.07633841 -0.059701093 0.06461851 -0.01719791 0.077645406 -0.15180221
00000000: 5505 d5bd b668 853d 4423 c63c bc4b e83d
00000010: 67b1 12be 978d 103e 8219 f4bd 5ae6 35be
00000020: 85f9 c1bd 89c6 173e 7cfd cd3d 464f 593d
00000030: cc35 813c 9a82 d03c a7f2 003e f10d ff3d
00000040: e5c6 403d 5c5b 3e3d d0a0 2a3e 5bf1 e03d
00000050: e655 ccbb 0389 9c3d 091e 06be a163 113e
00000060: f78a e5bb dc80 203e ac9e a5bd 5a2b 3c3c
00000070: 2205 18bb fdeb 2dbd a296 56be d32d 023e
00000080: 88f6 d9bd 35c6 00bc 5057 9c3d 2289 74bd
00000090: b656 843d a2e2 8cbc 8e04 9f3d 0a72 1bbe

model.param_proj.proj.2.weight f4 [1, 40]
0.1868371 0.16066858 0.11088438 -0.10141755 0.24455352 0.1322379 -0.020232957 -0.03308592
-0.092029914 -0.1835674 0.058996763 -0.11872785 -0.1311048 0.14615402 -0.1449043 0.11030351
-0.10611415 0.08066289 0.11846072 0.039588556 0.13720615 -0.09950505 -0.023644894 0.122815676
0.124348916 -0.1762283 0.2177521 -0.017162433 0.12419227 0.00807299 -0.011533998 -0.17632401
-0.034003958 0.2243305 0.06442246 0.244945 -0.2533432 0.14648789 -0.1565608 0.05772097
00000000: 3a52 3f3e 4e86 243e 5a17 e33d 01b4 cfbd
00000010: 3d6c 7a3e 5f69 073e 96bf a5bc 1a85 07bd
00000020: 2e7a bcbd 18f9 3bbe 97a6 713d 9627 f3bd
00000030: 5640 06be 66a9 153e cb61 14be cfe6 e13d
00000040: 6052 d9bd 9632 a53d 899b f23d 9c27 223d
00000050: c57f 0c3e 4ec9 cbbd f0b2 c1bc c986 fb3d
00000060: a5aa fe3d 3175 34be 68fa 5e3e 3b98 8cbc
00000070: 8458 fe3d 9344 043c 18f9 3cbc 488e 34be
00000080: bc47 0bbd e5b6 653e ecef 833d ddd2 7a3e
00000090: 33b6 81be ec00 163e 7951 20be d36c 6c3d

model.rnn.weight_ih_l0 f4 [160, 37]
-0.04382703 0.021504601 0.21056181 0.1937014 0.18481869 -0.011280569 0.13020122 0.018608358
0.04240278 -0.01714999 0.07248651 0.22325979 0.14131011 0.19959985 0.2091286 0.20269018
0.11997897 0.090824805 0.10313925 -0.08387605 0.041626018 -0.08957357 0.009838399 0.062637754
0.19732563 0.17039016 0.013803321 0.16060789 0.14833593 -0.13071568 -0.069314666 0.0398392
-0.035314348 -0.054739416 0.022191355 0.026633268 -0.033619463 0.09293101 0.21954359 0.13108273
0.07580402 0.23295304 -0.031065296 0.2246436 0.06711456 -0.07152604 0.027538596 0.05412838
0.18620627 0.14020443 0.20313297 0.04992785 0.009837606 0.046369456 -0.064578146 0.06870434
0.20943832 0.1322259 0.15915601 -0.0067797666 0.18447155 0.09076077 0.23358272 -0.03283615
-0.10971913 0.12571192 -0.01102582 -0.07082742 -0.02786365 -0.013967946 -0.10913666 -0.064153194
0.007607577 0.06258308 0.050313957 -0.027211526 -0.159521 -0.13193609 0.010826086 -0.12005597
-0.12874484 0.03640564 -0.12430471 -0.14868216 0.15714046 -0.067216516 0.04487956 0.064024664
0.11627422 0.06976566 0.016559018 0.11087539 0.048379343 0.014241801 -0.096258074 -0.04928798
0.15976971 -0.04788495 0.035150748 0.06060717 -0.03335125 -0.07818326 0.036804684 -0.013379725
0.0907152 -0.012526585 -0.20112166 0.10939445 -0.16614261 0.046673894 0.1756299 -0.2079727
-0.02212095 0.05270566 0.047101088 0.024476165 -0.18807076 -0.039502814 -0.060212888 0.09538905
0.06120575 0.06654786 -0.08529191 0.048296746 0.080139786 -0.10213452 -0.060556706 -0.093438216
0.07070255 -0.11671477 -0.08644572 -0.025755702 -0.015868511 0.03622482 -0.1446957 0.08920956
0.07168099 0.092338145 0.17649359 -0.03374123 -0.03762132 -0.006326068 -0.0060974606 0.24583368
-0.057396762 -0.117171705 -0.11865172 0.008829565 0.056331035 -0.029626247 -0.0062404415 0.19038805
-0.021967674 -0.08098487 -0.014846763 0.1562263 -0.12831052 0.17446508 -0.029057853 0.17606334
-0.03340628 -0.1266043 0.055987906 0.05984736 -0.011564829 -0.12788276 -0.057707295 -0.15725327
0.06607479 -0.11249865 0.05091845 -0.13442078 0.1798097 0.120841525 0.1658146 -0.059754062
-0.039444227 -0.1700723 -0.14345951 0.035491448 0.02697578 0.1590844 -0.16970535 0.12867434
0.020625403 -0.20404959 -0.14343013 -0.07756521 -0.15779857 0.02212808 -0.12302038 0.069911055
-0.08823008 0.020963555 0.09882102 -0.02102723 0.15951677 -0.092257746 -0.005471551 0.069884494
0.109606884 0.012949037 -0.026652265 0.08687029 -0.117660545 -0.14504917 0.008614876 0.14258154
-0.026351131 0.06880017 0.08680067 0.0056478754 -0.08946744 -0.04953057 -0.098078 -0.11549362
0.056196824 -0.02807466 -0.0497661 -0.043703355 -0.120027445 -0.00084483897 0.1702053 0.034709983
-0.033949856 0.14881507 0.1119805 0.0092836805 0.16919008 -0.0024768866 0.14356413 0.121746846
0.055942915 0.09447249 -0.10169037 0.152892 0.1010423 0.046287093 0.11262996 0.035955485
0.1487101 0.183332 0.001732491 -0.05447613 0.029825864 -0.060972802 -0.076696 0.07724765
-0.00995536 0.14293733 -0.04482776 0.070214525 -0.022892416 -0.055765484 0.042488534 0.020705212
00000000: f983 33bd 6b2a b03c 849d 573e a959 463e
00000010: 1c41 3d3e 23d2 38bc 7853 053e 8e70 983c
00000020: 8aae 2d3d 237e 8cbc cf73 943d 379e 643e
00000030: 99b3 103e e763 4c3e cf25 563e 048e 4f3e
00000040: 89b7 f53d 5b02 ba3d ac3a d33d 35c7 abbd
00000050: 0b80 2a3d 5972 b7bd 3c31 213c 3948 803d
00000060: bb0f 4a3e c27a 2e3e 5327 623c 6576 243e
00000070: 60e5 173e 55da 05be d9f4 8dbd 6e2e 233d
00000080: c7a5 10bd 7036 60bd a5ca b53c 032e da3c
00000090: 90b4 09bd 9d52 be3d 09d0 603e 8d3a 063e
000000a0: 233f 9b3d 3e8b 6e3e a67c febc f908 663e
000000b0: 5c73 893d 3f7c 92bd 9f98 e13c b8b5 5d3d
000000c0: dbac 3e3e c091 0f3e 1702 503e 2581 4c3d
000000d0: e92d 213c e6ed 3d3d 8c41 84bd dcb4 8c3d
000000e0: 0077 563e 3a66 073e cbf9 223e ce28 debb
000000f0: 1ce6 3c3e c8e0 b93d 4f30 6f3e 337f 06bd
00000100: 6cb4 e0bd a0ba 003e a4a5 34bc f70d 91bd
00000110: 4f42 e4bc d0d9 64bc 0b83 dfbd c062 83bd
00000120: fb48 f93b 8f2b 803d 0216 4e3d b5ea debc
00000130: 7959 23be 411a 07be e55f 313c e8df f5bd
00000140: b0d5 03be 151e 153d 7893 febd 2340 18be
00000150: 6ee9 203e d0a8 89bd a1d3 373d 5d1f 833d
00000160: 2e21 ee3d 4ce1 8e3d c7a6 873c a312 e33d
00000170: 6b29 463d 7156 693c f422 c5bd 31e2 49bd
00000180: ac9a 233e 0223 44bd 3bfa 0f3d 393f 783d
00000190: 529b 08bd 8c1e a0bd 82c0 163d a236 5bbc
000001a0: e4c8 b93d 4e3c 4dbc d6f2 4dbe 330a e03d
000001b0: 4a21 2abe 202d 3f3d 53d8 333e ccf6 54be
000001c0: ff36 b5bc e4e1 573d 12ed 403d 3d82 c83c
000001d0: 9f95 40be b4cd 21bd caa1 76bd 565b c33d
000001e0: e1b2 7a3d 3f4a 883d 86ad aebd cfd2 453d
000001f0: 5420 a43d e72b d1bd 4f0a 78bd 895c bfbd
00000200: 80cc 903d 2708 efbd 740a b1bd 9ffd d2bc
00000210: aefe 81bc 7a60 143d 1c2b 14be 80b3 b63d
00000220: 7ccd 923d c81b bd3d bcba 343e 3e34 0abd
00000230: d018 1abd e84a cfbb 35cd c7bb d3bb 7b3e
00000240: de18 6bbd b8f7 efbd acff f2bd e1a9 103c
00000250: 5fbb 663d beb2 f2bc 9e7c ccbb 16f5 423e
00000260: 8df5 b3bc 65db a5bd d63f 73bc caf9 1f3e
00000270: d563 03be f9a6 323e bc0a eebc f349 343e
00000280: 06d5 08bd 8fa4 01be 9353 653d 8122 753d
00000290: 697a 3dbc b3f3 02be 7c5e 6cbd 0007 21be
000002a0: 3852 873d b165 e6bd dd8f 503d 9aa5 09be
000002b0: 0920 383e c37b f73d 4dcb 293e adc0 74bd
000002c0: 4590 21bd 6f27 2ebe 0de7 12be 7b5f 113d
000002d0: 50fc dc3c 05e7 223e 3dc7 2dbe 35c3 033e
000002e0: 9bf6 a83c 60f2 50be 59df 12be 82da 9ebd
000002f0: f395 21be f245 b53c 1cf2 fbbd 872d 8f3d
00000300: f9b1 b4bd c3bb ab3c ad62 ca3d 4c41 acbc
00000310: 5d58 233e a1f1 bcbd b24a b3bb 9a1f 8f3d
00000320: 9379 e03d 3328 543c da55 dabc 0de9 b13d
00000330: 03f8 f0bd c587 14be 6925 0d3c e500 123e
00000340: 54de d7bc 1be7 8c3d 8dc4 b13d d011 b93b
00000350: b53a b7bd 91e0 4abd 1edd c8bd eb87 ecbd
00000360: a42e 663d d4fc e5bc 8ad7 4bbd 4a02 33bd
00000370: f3d0 f5bd 2f78 5dba 4c4a 2e3e 0e2c 0e3d
00000380: 010f 0bbd fa62 183e 0856 e53d 941a 183c
00000390: 2a40 2d3e 4353 22bb 7a02 133e 6956 f93d
000003a0: 6624 653d cb7a c13d 0a43 d0bd b88f 1c3e
000003b0: 44ef ce3d 8997 3d3d 89aa e63d 0f46 133d
000003c0: 7647 183e 62bb 3b3e c014 e33a 5d22 5fbd
000003d0: 5f55 f43c 9ebe 79bd cb12 9dbd 0434 9e3d
000003e0: ce1b 23bc 2a5e 123e 509d 37bd a2cc 8f3d
000003f0: e088 bbbc 596a 64bd 7508 2e3d fa9d a93c

model.rnn.weight_hh_l0 f4 [160, 40]
-0.051812787 0.077175565 0.08437063 -0.052294362 0.02759542 0.13628232 -0.17931925 -0.21278667
0.07539656 0.004694476 -0.21283197 0.008115148 -0.12411661 -0.17899226 0.1376081 -0.10616425
0.10881217 -0.04927616 -0.111741394 0.047718786 -0.17378874 -0.041767683 0.028527977 0.041168146
-0.14897448 -0.10058042 0.12482805 0.12679118 0.076083206 -0.08809615 -0.16974066 -0.13649857
0.0702716 -0.11965434 -0.02716413 0.19971052 0.04403036 0.08090963 0.07795516 0.08883595
0.22924952 -0.12479778 -0.000160645 0.20911352 0.05516578 -0.02765941 0.055922177 0.12200588
0.071394816 -0.07833006 -0.19261757 0.0069937524 0.0034803837 -0.17219643 -0.123002306 0.08384051
0.0010640137 -0.2117182 0.15198237 -0.24755174 0.031565376 0.0893735 0.21159202 0.08075484
-0.22020462 0.06723283 0.036972184 0.09001576 0.058599982 0.07548537 -0.13280235 -0.15310149
0.011091652 0.100278206 0.14633821 -0.04357904 0.06051436 -0.20561333 -0.049255952 -0.057174847
-0.062962905 0.11463596 0.072165444 -0.059008684 0.15855898 0.15744871 -0.04539491 -0.14210464
-0.04549012 -0.13588141 -0.110652395 -0.12846938 0.011126185 -0.2041058 -0.036765873 0.13597009
0.13272046 -0.06540094 -0.069812715 0.03156962 0.121618785 0.13384914 -0.02752909 0.058428783
0.085253485 -0.19267063 0.13552487 0.03434614 -0.17292184 0.13596797 0.11514622 0.020935768
-0.016797094 -0.022029405 0.15737064 0.006348823 -0.13154475 0.141297 0.09936148 0.11480857
0.07606869 0.090764254 -0.091839746 0.17569251 0.02379933 0.009761529 -0.15923744 0.0068016113
0.10005522 0.038925003 -0.056649342 0.057464365 -0.1296156 -0.12776425 0.021551842 -0.10921779
0.034104887 -0.008593379 0.05920232 -0.14277208 -0.07109108 0.10784696 0.017118523 -0.17054121
-0.22025861 -0.14907508 0.17248967 0.043351103 -0.10294381 -0.09769485 0.08213304 0.0780617
0.08341478 -0.04362994 -0.11240778 0.09158658 0.078015804 0.04434015 0.12244728 0.018609926
-0.0011636056 -0.057150472 0.06252579 -0.0061531602 -0.0019261246 -0.06376032 8.0152706e-05 0.081859104
0.18596645 -0.14826973 0.062729694 -0.004473898 -0.11029946 -0.098740146 0.08486941 0.10957726
0.021653496 -0.041762635 -0.06735158 -0.11889898 0.0027236643 0.1187061 0.062020607 -0.17186289
-0.14190276 -0.015024979 0.18644217 0.10368505 0.079939455 -0.017531227 -0.115844004 0.10538711
-0.09870418 -0.1267639 -0.104531355 0.21914631 -0.040131815 -0.011336941 0.013153968 -0.04782129
-0.12759228 0.094824776 -0.11715015 -0.13020732 -0.0539145 0.045197267 -0.023288067 0.0028431418
-0.098981045 0.1307122 0.16913888 0.064540096 -0.080715485 -0.06419408 0.056653887 -0.08543206
-0.026701648 0.13602145 0.17404136 0.008887244 0.119768664 -0.031562176 0.044945948 0.008100564
-0.14579588 0.121377915 -0.07691523 -0.0819314 0.079457745 -0.046110526 -0.14834087 0.10765099
0.0768396 0.07863585 0.0738477 -0.004631132 -0.014444477 0.08369262 -0.032810308 -0.07738154
0.18150987 -0.1162396 -0.15855078 -0.011956174 -0.09658497 -0.13944337 -0.09160559 0.04227003
-0.072903365 -0.07204781 -0.21628015 -0.08456907 0.027372492 0.12908398 -0.021700118 0.019486524
00000000: a539 54bd 390e 9e3d 82ca ac3d 9d32 56bd
00000010: ca0f e23c 988d 0b3e 779f 37be c0e4 59be
00000020: 8369 9a3d 1ed4 993b a0f0 59be 66f5 043c
00000030: d930 febd bf49 37be 23e9 0c3e a46c d9bd
00000040: ead8 de3d ccd5 49bd acd8 e4bd c674 433d
00000050: adf5 31be 9714 2bbd 81b3 e93c ee9f 283d
00000060: c48c 18be 1bfd cdbd d9a5 ff3d 8cd5 013e
00000070: 83d1 9b3d c16b b4bd 7fd0 2dbe 48c6 0bbe
00000080: 8eea 8f3d 560d f5bd 4f87 debc ea80 4c3e
00000090: 2e59 343d f3b3 a53d f4a6 9f3d 9fef b53d
000000a0: 63c0 6a3e fa95 ffbd d072 28b9 db21 563e
000000b0: 83f5 613d fd95 e2bc a70e 653d 38de f93d
000000c0: 7237 923d 836b a0bd 8a3d 45be d92b e53b
000000d0: 2617 643b 4354 30be a2e8 fbbd 93b4 ab3d
000000e0: 6076 8b3a a8cc 58be 44a1 1b3e 347e 7dbe
000000f0: b24a 013d 7409 b73d 94ab 583e cb62 a53d
00000100: 527d 61be 5eb1 893d 2570 173d 2f5a b83d
00000110: 8906 703d 1398 9a3d 57fd 07be a3c6 1cbe
00000120: c3b9 353c a95e cd3d afd9 153e ef7f 32bd
00000130: e8dd 773d 4d8c 52be 9cc0 49bd 2c30 6abd
00000140: b2f2 80bd 42c6 ea3d 7acb 933d 17b3 71bd
00000150: 495d 223e 3c3a 213e 03f0 39bd e183 11be
00000160: d953 3abd 7f24 0bbe b99d e2bd 7a8d 03be
00000170: 9a4a 363c 1c01 51be d097 16bd be3b 0b3e
00000180: dfe7 073e eef0 85bd f8f9 8ebd 254f 013d
00000190: 4513 f93d c00f 093e b084 e1bc 0553 6f3d
000001a0: 6199 ae3d 734b 45be 08c7 0a3e 8aae 0c3d
000001b0: 6c12 31be 303b 0b3e c8d1 eb3d 7d81 ab3c
000001c0: 0f9a 89bc 0377 b4bc c525 213e ca09 d03b
000001d0: abb3 06be 29b0 103e 087e cb3d c120 eb3d
000001e0: e7c9 9b3d 9ce2 b93d 7a16 bcbd bde8 333e
000001f0: d0f6 c23c d2ee 1f3c 240f 23be 0de0 de3b
00000200: c0e9 cc3d d36f 1f3d 2409 68bd c15f 6b3d
00000210: f4b9 04be a2d4 02be 7d8d b03c 94ad dfbd
00000220: 91b1 0b3d 3ecb 0cbc 227e 723d d832 12be
00000230: 3398 91bd dede dc3d 253c 8c3c 5ba2 2ebe
00000240: 798b 61be 23a7 18be 22a1 303e ed90 313d
00000250: 34d4 d2bd 3d14 c8bd 5e35 a83d d0de 9f3d
00000260: 5ed5 aa3d 4fb5 32bd 0d36 e6bd bf91 bb3d
00000270: c0c6 9f3d 049e 353d a4c5 fa3d d873 983c
00000280: 2084 98ba 9d16 6abd 850d 803d 73a0 c9bb
00000290: 0476 fcba c594 82bd a817 a838 bfa5 a73d
000002a0: fd6d 3e3e 05d4 17be 6d78 803d c799 92bb
000002b0: afe4 e1bd 4638 cabd 03d0 ad3d 0b6a e03d
000002c0: ac62 b13c 4c0f 2bbd a0ef 89bd 4f81 f3bd
000002d0: 817f 323b 2f1c f33d 5209 7e3d d3fc 2fbe
000002e0: f54e 11be 542b 76bc b2ea 3e3e d458 d43d
000002f0: 4cb7 a33d a69d 8fbc 9f3f edbd 32d5 d73d
00000300: 6b25 cabd 65ce 01be 8914 d6bd e467 603e
00000310: 4261 24bd 94be 39bc be83 573c 42e0 43bd
00000320: 8da7 02be 7e33 c23d 6bec efbd 1155 05be
00000330: 73d5 5cbd c520 393d 9ec6 bebc 0154 3a3b
00000340: 93b6 cabd 6bd9 053e be32 2d3e 992d 843d
00000350: 294e a5bd 3078 83bd e80d 683d 01f7 aebd
00000360: 6abd dabc 3549 0b3e e637 323e ce9b 113c
00000370: 4649 f53d 5747 01bd 3e19 383d 3ab8 043c
00000380: 844b 15be fc94 f83d bb85 9dbd a6cb a7bd
00000390: beba a23d 64de 3cbd abe6 17be 1f78 dc3d
000003a0: 155e 9d3d d50b a13d 773d 973d c0c0 97bb
000003b0: 87a8 6cbc 0967 ab3d 1a64 06bd 367a 9ebd
000003c0: b9dd 393e 070f eebd 235b 22be d4e3 43bc
000003d0: 57ce c5bd 3eca 0ebe b69b bbbd 5723 2d3d
000003e0: 5c4e 95bd cd8d 93bd 8b78 5dbe 8c32 adbd
000003f0: 473c e03c 972e 043e 72c4 b1bc 34a2 9f3c

model.rnn.bias_ih_l0 f4 [160]
0.006715972 0.17597233 0.17859387 -0.17282316 0.10106458 0.14676638 -0.0664742 0.0075191148
0.012117712 0.0564211 0.0030314233 0.14300917 0.14767656 0.028412526 -0.0066948845 0.1439466
-0.07415045 0.079689935 0.034074415 0.029105239 0.05302369 0.023655709 0.16900988 0.031253763
0.14706318 0.0452769 -0.05842283 -0.08743324 0.118593134 0.013029854 -0.05830452 0.05650606
-0.012250233 0.08195033 0.026233906 -0.12160522 -0.09813983 0.13285747 0.11300609 -0.09277407
0.092538156 -0.007855228 0.10375172 0.021513766 0.11384981 0.036370344 -0.031832516 0.03739488
0.04366243 -0.079227306 0.08765805 0.18167803 -0.074281484 0.12464978 -0.089493796 0.1509961
0.049659174 0.102160044 0.104403526 -0.12501456 0.07581073 0.061918218 -0.025676982 0.06371979
-0.13270608 -0.12380555 -0.11328396 -0.028729456 0.012795901 0.057992194 0.06393317 0.17228706
0.0451718 0.05073066 -0.03826235 -0.1303497 -0.12630576 0.028386999 -0.053874243 0.16428757
0.021797447 -0.048500594 -0.09157412 0.010147297 -0.10039399 0.059066538 0.022494724 -0.12322247
0.014905449 -0.10655193 -0.13628675 -0.040080834 -0.0019210132 -0.19596338 0.005160956 0.059473842
-0.003510591 0.00618217 0.02009564 0.10114618 0.042752575 0.07826644 -0.04885266 -0.10036488
-0.058073375 -0.18026233 -0.07870823 0.100445844 -6.1995524e-05 -0.08232742 -0.10889116 -0.09489684
0.031113282 0.10688063 0.09346618 0.013681709 -0.003057841 -0.116271734 0.020959668 -0.11266354
-0.05589963 0.05109891 -0.12140558 0.030935852 0.057864413 0.1745283 0.08210948 0.12426093
-0.07914291 -0.08353962 -0.015668394 -0.0468365 -0.12401723 -0.02359232 0.08254313 0.12408605
-0.11425796 0.041523475 -0.08264727 -0.12475276 0.08034106 -0.120897375 0.015623363 0.17654009
-0.11590381 0.07788895 -0.01572179 0.1672766 -0.053500637 -0.070984475 -0.08675628 -0.00504944
0.07762491 0.0032417893 -0.031088196 0.017976359 0.0044576996 -0.08653721 0.15219538 0.040162496
00000000: a811 dc3b 1732 343e 50e1 363e 8ef8 30be
00000010: f2fa ce3d ed49 163e a023 88bd e862 f63b
00000020: 5e89 463c d019 673d d8aa 463b ff70 123e
00000030: 8638 173e 63c1 e83c c360 dbbb bd66 133e
00000040: 31dc 97bd 7a34 a33d 9d91 0b3d 1c6e ee3c
00000050: 5e2f 593d 9ec9 c13c ed10 2d3e f203 003d
00000060: bb97 163e 4574 393d c74c 6fbd 3310 b3bd
00000070: f5e0 f23d 2b7b 553c b8d0 6ebd e672 673d
00000080: 34b5 48bc 93d5 a73d 7de8 d63c 280c f9bd
00000090: 89fd c8bd ca0b 083e bd6f e73d 5500 bebd
000000a0: a584 bd3d 37b3 00bc c87b d43d a33d b03c
000000b0: 172a e93d 12f9 143d d062 02bd 602b 193d
000000c0: 60d7 323d ed41 a2bd 1086 b33d ce09 3a3e
000000d0: e420 98bd 6248 ff3d 8648 b7bd b99e 1a3e
000000e0: 6b67 4b3d 4939 d13d 84d1 d53d d103 00be
000000f0: a842 9b3d f59d 7d3d 8958 d2bc 857f 823d
00000100: 1ae4 07be c48d fdbd 6c01 e8bd 095a ebbc
00000110: e6a5 513c 3989 6d3d 65ef 823d 056c 303e
00000120: 1106 393d f4ca 4f3d fbb8 1cbd 647a 05be
00000130: 4c56 01be da8b e83c 3dab 5cbd 003b 283e
00000140: 8f90 b23c 8fa8 46bd 368b bbbd d940 263c
00000150: 5d9b cdbd c1ef 713d db46 b83c 105c fcbd
00000160: fc35 743c e637 dabd c18e 0bbe cd2b 24bd
00000170: 82ca fbba a0aa 48be 3d1d a93b d89a 733d
00000180: f211 66bb cd93 ca3b 9d9f a43c ba25 cf3d
00000190: 531d 2f3d 284a a03d ba19 48bd 1a8c cdbd
000001a0: 59de 6dbd b096 38be c831 a1bd 8db6 cd3d
000001b0: 9803 82b8 479b a8bd 5402 dfbd 4659 c2bd
000001c0: 48e1 fe3c 3be4 da3d 326b bf3d 3f29 603c
000001d0: 0f66 48bb e01f eebd 9cb3 ab3c 24bc e6bd
000001e0: 03f7 64bd 174d 513d 7da3 f8bd 2f6d fd3c
000001f0: 3c03 6d3d 8cb7 323e 0429 a83d 847c fe3d
00000200: ae15 a2bd d216 abbd 015b 80bc a1d7 3fbd
00000210: bffc fdbd ae44 c1bc 5f0c a93d d420 fe3d
00000220: 1400 eabd 8514 2a3d f942 a9bd 607e ffbd
00000230: db89 a43d 0b99 f7bd 22f9 7f3c edc6 343e
00000240: fa5e edbd 3e84 9f3d fcca 80bc 8f4a 2b3e
00000250: 7c23 5bbd 4f60 91bd 47ad b1bd c675 a5bb
00000260: cff9 9e3d 3374 543b acac febc 2843 933c
00000270: e511 923b 6c3a b1bd 1bd9 1b3e 6e81 243d

model.rnn.bias_hh_l0 f4 [160]
-0.025606686 0.19056378 -0.0057760007 -0.09606257 0.091646425 -0.01995264 -0.045619424 0.17118749
-0.04285579 0.11389802 0.15931037 0.1189004 -0.10807039 -0.096566826 -0.13023835 0.016945502
0.1753283 0.12121213 0.06710581 -0.058128055 0.02865407 -0.09057441 0.045287233 -0.08126904
0.09291927 -0.042124152 0.029869184 -0.09443537 -0.010469001 0.017879352 0.1514066 0.17958166
0.12822542 -0.07892617 0.118055426 0.12903109 0.093401425 -0.09169106 0.023823688 -0.034711055
0.04392162 -0.09265101 0.06873159 0.15027075 0.13461618 -0.055152122 0.025141232 0.12953046
-0.14452536 0.023624158 -0.15755491 0.084082015 0.15160112 0.019451264 -0.07731464 -0.009939798
-0.11566851 -0.005428995 -0.0010672675 0.0691612 -0.11960612 0.057347674 -0.12238887 -0.09849779
0.16495806 0.04289516 -0.060953174 -0.081310935 0.120948814 -0.06640195 0.07243825 -0.053146787
-0.065327294 -0.075387016 -0.013272794 -0.050107565 -0.073117875 0.00079742935 -0.011969 -0.024524093
0.111039475 -0.042784043 -0.047067493 -0.12048755 0.016606964 0.1826132 -0.10418396 -0.0032709138
0.00030226895 -0.17077921 0.07213458 -0.13360283 0.1577397 0.09158066 -0.19596286 -0.14868723
0.0074757817 -0.047953967 0.09884331 0.08488005 0.11839311 0.052243814 -0.18373764 0.0876515
-0.15562329 -0.069581784 0.11302945 0.13456254 -0.0066498015 -0.16108686 0.10582355 0.0037342887
-0.041307636 -0.12249275 0.051458 -0.059674513 0.08631934 -0.16685124 0.11783977 0.114769295
-0.0011548472 0.039782874 -0.044412572 -0.09464094 0.18481459 0.1198995 0.14159371 0.15222535
-0.0136408275 0.12386733 -0.08755035 0.12104769 -0.03631936 0.17864841 0.1669583 -0.06897926
0.120391384 0.0052628545 0.16469891 -0.0015401237 0.026855843 0.16567768 -0.09407649 0.16397676
0.039371297 0.1451899 0.082492046 0.11039053 -0.003266343 0.07056535 -0.10741672 0.0908312
-0.15059696 0.11898165 -0.08107992 0.08740617 0.16087508 0.17309456 0.19095033 -0.09701147
00000000: 1dc5 d1bc 2723 433e 9b44 bdbb 74bc c4bd
00000010: 1fb1 bb3d b873 a3bc 6fdb 3abd c64b 2f3e
00000020: 8e89 2fbd 5d43 e93d 4222 233e 0e82 f33d
00000030: 0254 ddbd d4c4 c5bd 345d 05be 4bd1 8a3c
00000040: 4389 333e 113e f83d c56e 893d af17 6ebd
00000050: f1bb ea3c 147f b9bd 1b7f 393d 6270 a6bd
00000060: 754c be3d 608a 2cbd 38b0 f43c 5567 c1bd
00000070: 2c86 2bbc b877 923c 550a 1b3e 41e4 373e
00000080: 864d 033e 0ba4 a1bd 0bc7 f13d ba20 043e
00000090: 3f49 bf3d 86c8 bbbd e529 c33c 2e2d 0ebd
000000a0: 28e7 333d d0bf bdbd 26c3 8c3d 93e0 193e
000000b0: d3d8 093e 31e7 61bd fcf4 cd3c a2a3 043e
000000c0: 75fe 13be 7387 c13c 1356 21be 3133 ac3d
000000d0: 533d 1b3e 4258 9f3c 2357 9ebd 89da 22bc
000000e0: 9de3 ecbd b6e5 b1bb 8ee3 8bba 63a4 8d3d
000000f0: 0ef4 f4bd 65e5 6a3d 04a7 fabd 36b9 c9bd
00000100: c4ea 283e d6b2 2f3d 09aa 79bd 5986 a6bd
00000110: 03b4 f73d bffd 87bd 815a 943d 72b0 59bd
00000120: 51ca 85bd 8264 9abd 2276 59bc 973d 4dbd
00000130: d3be 95bd 940a 513a a019 44bc c0e6 c8bc
00000140: aa68 e33d 523e 2fbd d8c9 40bd 2dc2 f6bd
00000150: 540b 883c f4fe 3a3e 665e d5bd d45c 56bb
00000160: da79 9e39 bfe0 2ebe 4bbb 933d 2ecf 08be
00000170: 8486 213e a48e bb3d 7daa 48be 7741 18be
00000180: 67f7 f43b 616b 44bd 5c6e ca3d 97d5 ad3d
00000190: 1678 f23d 9cfd 553d b825 3cbe a182 b33d
000001a0: b65b 1fbe e580 8ebd fc7b e73d c3ca 093e
000001b0: 94e6 d9bb f4f3 24be 04ba d83d f8ba 743b
000001c0: 3232 29bd 7bdd fabd a0c5 523d 436d 74bd
000001d0: 32c8 b03d 0ddb 2abe fa55 f13d 2a0c eb3d
000001e0: 3e5e 97ba 5ef3 223d f5e9 35bd 1cd3 c1bd
000001f0: 0940 3d3e de8d f53d f1fd 103e f6e0 1b3e
00000200: c77d 5fbc 28ae fd3d 994d b3bd dae7 f73d
00000210: 9cc3 14bd 9cef 363e 1ef7 2a3e 0045 8dbd
00000220: c28f f63d 0674 ac3b d5a6 283e fadd c9ba
00000230: c900 dc3c 69a7 293e 2dab c0bd 86e9 273e
00000240: cc43 213d a9ac 143e 97f1 a83d 6e14 e23d
00000250: 2410 56bb 9184 903d 4cfd dbbd b505 ba3d
00000260: 1736 1abe a7ac f33d 3b0d a6bd 0202 b33d
00000270: 70bc 243e b33f 313e 7c88 433e f3ad c6bd

model.rnn.weight_ih_l1 f4 [160, 40]
-0.0817426 -0.18928342 -0.16587366 0.1465357 -0.111367464 0.022450369 -0.062838346 -0.00025243798
-0.021083277 0.08911364 0.02293317 -0.13404785 -0.075033545 0.07912009 -0.030391285 -0.10247189
0.17555027 -0.060548186 0.06460194 -0.15157908 -0.03220341 0.078408666 0.16884948 0.07966467
-0.016000442 -0.051063888 0.19998692 0.038840994 0.05502173 -0.11708812 -0.19301367 -0.035517868
-0.10199396 -0.10315687 0.123675734 0.022872753 0.040564395 -0.0019476843 0.055048257 0.103800304
-0.023229359 0.1514493 0.06531742 0.011227129 0.047173798 -0.08138656 -0.028677106 0.024890551
0.12200338 0.14680816 -0.13237529 0.08851659 0.18549456 -0.13543917 -0.080807224 -0.15174429
-0.070445865 -0.016829789 0.008014276 0.0386614 -0.13457727 0.10184234 -0.17829333 0.022524202
-0.087377 -0.10978474 0.16955902 0.15274401 -0.02964855 -0.06189721 -0.07853167 -0.013496486
-0.108461015 -0.06502741 0.15369458 -0.056736592 0.13699576 0.0979817 0.06550191 -0.16291632
0.049495585 -0.106757626 0.06164245 0.10510512 0.13498005 -0.07316999 0.10022166 0.13559212
-0.09510065 -0.07988553 0.12757254 0.03696442 0.011913363 0.038489312 -0.10234299 -0.13113207
0.13197078 0.0014164291 -0.01759532 -0.13329062 0.15817045 0.1259724 -0.100351654 0.04362551
0.08845029 -0.06508097 -0.04614889 0.10072245 -0.041137945 -0.047548287 -0.051484596 -0.07413178
-0.044524796 0.07941004 -0.14984056 -0.05634899 0.04958792 0.03911041 0.04947309 -0.11888511
-0.028537154 -0.19327562 -0.062458113 -0.0050534136 0.14648162 -0.11976498 0.12695347 -0.03863093
0.02382625 -0.034574464 -0.14320749 0.09946435 0.0021562967 0.117488824 -0.11789468 0.18484491
0.08540828 -0.11819256 -0.12290228 0.042001814 -0.100566454 -0.058520813 0.097461104 0.04124152
0.052789867 0.21072948 -0.011326378 0.07846621 0.0076691774 -0.066141635 0.15675677 0.15529807
0.07018796 0.15018952 -0.06268282 0.09791652 0.03661345 -0.02314816 0.06255604 0.10633695
0.12482658 -0.14880334 0.063389555 -0.06598042 0.017522648 -0.08797026 -0.1352043 -0.013439906
-0.0042627323 -0.05437707 -0.11352441 -0.1350518 -0.12662604 -0.08715055 -0.019925158 0.06572021
0.1319528 -0.1275143 -0.05048792 0.083823584 -0.1614939 0.14332794 0.121307224 0.1089928
-0.09785896 0.085268214 0.048555497 0.14383975 -0.019933252 0.034593206 -0.15037598 0.08886014
0.053947605 0.03984299 -0.04393386 0.16277036 -0.025032649 -0.0072296383 -0.097040005 0.036464114
0.15950069 -0.08086557 -0.036793273 0.11010526 -0.08431963 0.11800421 0.044495046 -0.043325152
0.009501829 -0.077887796 -0.03922939 -0.10715325 0.058977973 -0.09455687 -0.10013869 -0.097065985
0.1082069 -0.09727836 -0.14270331 -0.0029199177 0.045435235 0.12176319 0.08328921 0.08118164
-0.07561767 -0.039447524 -0.11452477 -0.14573377 0.07611934 -0.13764521 -0.036995653 -0.15653026
-0.14914317 0.027575355 -0.13997102 -0.13234088 -0.13179556 0.11259113 -0.118352026 -0.14580682
-0.11732525 0.00832752 0.16365434 -0.1369624 -0.019649886 0.14537495 0.10449114 -0.1442889
-0.048629545 -0.054948114 -0.17758231 0.11937834 -0.013361948 0.15787257 0.021363633 -0.18537723
00000000: aa68 a7bd 83d3 41be c9da 29be 740d 163e
00000010: a014 e4bd d6e9 b73c 64b1 80bd a759 84b9
00000020: d6b6 acbc 3681 b63d 58de bb3c d743 09be
00000030: 30ab 99bd b709 a23d 25f7 f8bc c8dc d1bd
00000040: 73c3 333e 6001 78bd 064e 843d 8c37 1bbe
00000050: b9e7 03bd b994 a03d e1e6 2c3e 3b27 a33d
00000060: 5c13 83bc 5e28 51bd 5fc9 4c3e bc17 1f3d
00000070: 775e 613d e5cb efbd 60a5 45be 2f7b 11bd
00000080: 36e2 d0bd e943 d3bd b449 fd3d a45f bb3c
00000090: da26 263d 7149 ffba 487a 613d 4195 d43d
000000a0: 7f4b bebc 8615 1b3e 24c5 853d fef1 373c
000000b0: 5039 413d ffad a6bd 40ec eabc 45e7 cb3c
000000c0: e8dc f93d e154 163e 638d 07be 3048 b53d
000000d0: 49f2 3d3e 91b0 0abe 427e a5bd db62 1bbe
000000e0: ec45 90bd a0de 89bc 4f4e 033c 6b5b 1e3d
000000f0: a0ce 09be b792 d03d 8792 36be ad84 b83c
00000100: b6f2 b2bd d2d6 e0bd e1a0 2d3e ed68 1c3e
00000110: 84e1 f2bc ee87 7dbd 36d5 a0bd 5d20 5dbc
00000120: cf20 debd 172d 85bd 1d62 1d3e a164 68bd
00000130: 9e48 0c3e a1aa c83d de25 863d 89d3 26be
00000140: e2bb 4a3d bea3 dabd cb7c 7c3d 5a41 d73d
00000150: 3638 0a3e 26da 95bd 0441 cd3d a9d8 0a3e
00000160: 21c4 c2bd 069b a3bd 60a2 023e 0168 173d
00000170: 4430 433c f8a6 1d3d 3499 d1bd 7c47 06be
00000180: 5923 073e 79a7 b93a 0f24 90bc 567d 08be
00000190: 6ff7 213e e9fe 003e 2b85 cdbd aab0 323d
000001a0: 6d25 b53d 2c49 85bd 9e06 3dbd 9247 ce3d
000001b0: 4380 28bd fec1 42bd 83e1 52bd 67d2 97bd
000001c0: a25f 36bd bba1 a23d ce6f 19be 33ce 66bd
000001d0: b41c 4b3d 3d32 203d 4ba4 4a3d 097a f3bd
000001e0: c0c6 e9bc 0bea 45be 14d4 7fbd 1b97 a5bb
000001f0: 47ff 153e 5847 f5bd 1700 023e 773b 1ebd
00000200: 452f c33c f49d 0dbd fca4 12be f7b3 cb3d
00000210: a850 0d3b fb9d f03d c472 f1bd fc47 3d3e
00000220: 89ea ae3d f10e f2bd 31b4 fbbd 180a 2c3d
00000230: c9f5 cdbd 85b3 6fbd b099 c73d deec 283d
00000240: 303a 583d 78c9 573e 4692 39bc e4b2 a03d
00000250: b94d fb3b 4475 87bd d984 203e 7506 1f3e
00000260: b5be 8f3d 48cb 193e da5f 80bd 7588 c83d
00000270: fcf7 153d 36a1 bdbc 621d 803d 30c7 d93d
00000280: 14a5 ff3d e75f 18be 62d2 813d be20 87bd
00000290: a88b 8f3c c029 b4bd ff72 0abe 0d33 5cbc
000002a0: 64ae 8bbb 7eba 5ebd 7c7f e8bd 054b 0abe
000002b0: 42aa 01be fd7b b2bd 163a a3bc 5198 863d
000002c0: a31e 073e 1c93 02be 6ccc 4ebd b3ab ab3d
000002d0: a85e 25be 8fc4 123e ec6f f83d 9e37 df3d
000002e0: 476a c8bd 1aa1 ae3d 21e2 463d ba4a 133e
000002f0: 0f4b a3bc 9bb1 0d3d 29fc 19be 4efc b53d
00000300: 2af8 5c3d 6732 233d fef3 33bd 46ad 263e
00000310: 4511 cdbc 9ae6 ecbb e9bc c6bd 655b 153d
00000320: 2654 233e d99c a5bd 8bb4 16bd de7e e13d
00000330: c5af acbd 31ac f13d 7040 363d b775 31bd
00000340: 8fad 1b3c a383 9fbd ffae 20bd 2a73 dbbd
00000350: e392 713d 08a7 c1bd 8315 cdbd 88ca c6bd
00000360: 949b dd3d e039 c7bd d120 12be 175c 3fbb
00000370: 4c1a 3a3d fb5e f93d 8993 aa3d 8f42 a63d
00000380: 70dd 9abd ba93 21bd f68b eabd 3c3b 15be
00000390: 75e4 9b3d def2 0cbe c188 17bd 7849 20be
000003a0: fdb8 18be b6e5 e13c 9054 0fbe 5e84 07be
000003b0: 6af5 06be 2e96 e63d 8c62 f2bd 624e 15be
000003c0: 3848 f0bd 2770 083c 0195 273e df3f 0cbe
000003d0: ccf8 a0bc 2cdd 143e 73ff d53d 78c0 13be
000003e0: c62f 47bd 4611 61bd 23d8 35be a27c f43d
000003f0: 12ec 5abc 59a9 213e c902 af3c 87d3 3dbe

model.rnn.weight_hh_l1 f4 [160, 40]
0.10995746 -0.01492531 -0.055259883 0.106682055 -0.054016408 0.030396422 0.039802454 -0.07067165
0.079606265 -0.013829814 -0.030147811 -0.0475696 0.14430416 0.12070718 -0.12604615 -0.14719297
0.11991098 0.02181237 0.10644227 0.02916562 0.06233751 0.13026743 -0.047401052 0.165253
-0.12215707 -0.070790574 -0.09612279 0.06862589 0.007806592 -0.039821163 -0.052605603 -0.046744574
0.023609014 -0.015414892 0.12033355 -0.097566396 -0.20275116 0.09639718 0.118744634 -0.061182953
0.11166996 0.11592758 -0.107644446 0.14921048 0.081345856 0.11449621 0.002104634 -0.020228088
-0.05590766 -0.122412704 0.13674982 0.0065182257 -0.013533381 -0.03146896 -0.12324714 -0.08319892
-0.09416742 0.13092731 -0.0048432704 0.028372005 0.054835618 0.13825107 0.1010455 -0.0806148
-0.11866517 0.04015107 -0.13401361 -0.07096905 -0.071018875 0.017586717 0.023736088 0.07031682
-0.13265345 -0.2290899 -0.11301061 -0.03191207 -0.0948877 -0.037835255 -0.1035097 -0.13662721
0.17259668 -0.075381294 -0.12845092 0.06775677 0.083068825 -0.08174596 -0.014133839 -0.024909012
-0.07249607 -0.023402046 -0.15656649 -0.093971886 -0.039751206 -0.087789394 -0.14643887 0.0731734
0.111180305 -0.14670117 0.08587958 -0.17673585 0.043226432 -0.059212614 -0.019670205 -0.1497863
-0.04151782 0.08965354 -0.09228822 0.08220226 0.13934022 -0.1116078 0.105965346 0.12864052
0.012231794 0.111778595 -0.16743812 -0.08099338 0.14913818 -0.019955134 -0.13787562 0.0049691442
0.18318824 0.060137648 0.11750798 -0.027023103 0.06258868 -0.10319379 -0.06952288 0.0029020752
0.17150745 -0.09649066 0.043652397 0.05921425 -0.0258355 0.058091644 -0.1072413 0.002131929
0.024046296 0.022833124 0.07913815 -0.16105299 0.039871663 0.028816484 0.1813412 -0.08416403
0.14047998 0.03214667 0.13727726 0.10901963 0.042746827 0.1862044 0.18227817 -0.102419786
0.042266212 0.09248657 0.12849416 0.15425031 -0.1953419 -0.013040536 0.051588345 0.07589894
-0.17250048 -0.073623486 -0.054705165 -0.14282605 -0.04998768 -0.09289062 0.008039187 0.16133979
0.06965031 -0.035471994 -0.10962361 -0.1040454 0.19739899 0.05030574 -0.038847588 -0.006964364
-0.16229367 0.114503965 -0.08998867 -0.020420417 -0.107772544 0.10687931 -0.13760516 -0.12170672
0.07468533 0.024989316 -0.09737098 0.055820186 0.048457075 -0.15516703 -0.09139273 0.16890363
-0.008120348 0.14584725 0.17197359 -0.10122897 -0.045816828 -0.115941726 0.067720756 -0.06585262
-0.07587357 0.07140631 0.067335054 0.110433064 0.05234967 -0.1314465 -0.096307755 -0.0012261281
-0.07787871 0.08181634 0.064878665 0.06999276 0.17154035 0.0005358533 -0.12268385 0.024427917
0.022911668 -0.1333456 0.11964369 -0.12006836 0.1206662 0.13870217 -0.09170008 -0.081155516
0.07851049 -0.10982996 -0.11122402 0.066919595 -0.00087735895 -0.053749718 -0.1272303 -0.007348287
-0.065584116 0.14650904 0.024827432 -0.03887312 0.012310035 0.14509612 -0.13364454 0.078077115
-0.14259982 -0.098716944 0.11987912 -0.034796413 -0.09904275 -0.10232305 -0.08069238 0.061377376
-0.12133545 -0.13970618 0.086675964 0.011057522 -0.008165937 0.1944358 -0.04254125 0.00031327305
00000000: 6031 e13d 4a89 74bc 3058 62bd 1f7c da3d
00000010: 4f40 5dbd eb01 f93c e607 233d 4cbc 90bd
00000020: 9c08 a33d 7296 62bc 8bf8 f6bc 57d8 42bd
00000030: 78c4 133e 5335 f73d 3e12 01be c1b9 16be
00000040: e393 f53d dbaf b23c 68fe d93d bdec ee3c
00000050: 9e55 7f3d d364 053e 9b27 42bd 1538 293e
00000060: 7c2d fabd a6fa 90bd 06dc c4bd bb8b 8c3d
00000070: 71ce ff3b 841b 23bd f978 57bd 3d77 3fbd
00000080: b167 c13c be8e 7cbc 7071 f63d e4d0 c7bd
00000090: 009e 4fbe e26b c53d 6330 f33d fa9a 7abd
000000a0: 38b3 e43d 706b ed3d b174 dcbd a2ca 183e
000000b0: a898 a63d fd7c ea3d e6ed 093b 60b5 a5bc
000000c0: 6eff 64bd 83b3 fabd 2508 0c3e d796 d53b
000000d0: 1dbb 5dbc 99e5 00bd ff68 fcbd 3264 aabd
000000e0: d9da c0bd cf11 063e 4cb4 9ebb 686c e83c
000000f0: 509b 603d b091 0d3e f1f0 ce3d 5f19 a5bd
00000100: ba06 f3bd 7375 243d dd3a 09be 3958 91bd
00000110: 5872 91bd 0512 903c 2f72 c23c 4402 903d
00000120: 4ed6 07be 8b96 6abe 1b72 e7bd 3bb6 02bd
00000130: 7c54 c2bd 24f9 1abd e5fc d3bd 01e8 0bbe
00000140: 2fbd 303e 8261 9abd a388 03be 10c4 8a3d
00000150: fd1f aa3d 6d6a a7bd 9e91 67bc fc0d ccbc
00000160: d278 94bd a6b5 bfbc f752 20be 5574 c0bd
00000170: 29d2 22bd edca b3bd 12f4 15be efdb 953d
00000180: 80b2 e33d d538 16be a2e1 af3d 3efa 34be
00000190: 330e 313d ed88 72bd 6923 a1bc 9461 19be
000001a0: 970e 2abd 469c b73d 9b01 bdbd a959 a83d
000001b0: 34af 0e3e a192 e4bd 5c04 d93d 57ba 033e
000001c0: dd67 483c 2dec e43d e674 2bbe dbdf a5bd
000001d0: aeb7 183e f378 a3bc 442f 0dbe 34d4 a23b
000001e0: b395 3b3e e552 763d 06a8 f03d 8e5f ddbc
000001f0: 7e2e 803d 4457 d3bd 0362 8ebd be30 3e3b
00000200: a69f 2f3e e59c c5bd dbcc 323d a48a 723d
00000210: f8a4 d3bc 81f1 6d3d 54a1 dbbd d5b7 0b3b
00000220: bdfc c43c 880c bb3c 2f13 a23d 13eb 24be
00000230: 7850 233d 8c10 ec3c 82b1 393e 315e acbd
00000240: fcd9 0f3e 3aac 033d 6992 0c3e af45 df3d
00000250: 4c17 2f3d 5eac 3e3e 21a7 3a3e 77c1 d1bd
00000260: 561f 2d3d 9969 bd3d f993 033e cbf3 1d3e
00000270: b507 48be f9a7 55bc 4d4e 533d e770 9b3d
00000280: f7a3 30be e9c7 96bd 8612 60bd fe40 12be
00000290: e2bf 4cbd 703d bebd cbb6 033c 4236 253e
000002a0: d2a4 8e3d 154b 11bd 5882 e0bd c115 d5bd
000002b0: f622 4a3e 640d 4e3d a61e 1fbd 5235 e4bb
000002c0: 5030 26be 0e81 ea3d fb4b b8bd b848 a7bc
000002d0: dab7 dcbd 8ae3 da3d 5ee8 0cbe 5f41 f9bd
000002e0: 9ff4 983d 65b6 cc3c 706a c7bd b5a3 643d
000002f0: ed7a 463d 1be4 1ebe 1d2c bbbd 13f5 2c3e
00000300: 350b 05bc fb58 153e d819 303e 2251 cfbd
00000310: 6daa 3bbd db72 edbd 2eb1 8a3d bddd 86bd
00000320: 9a63 9bbd 793d 923d f6e6 893d bb2a e23d
00000330: 9c6c 563d e999 06be 003d c5bd 08b6 a0ba
00000340: e07e 9fbd 538f a73d 1bdf 843d 5d58 8f3d
00000350: 46a8 2f3e 8278 0c3a ac41 fbbd 0e1d c83c
00000360: 40b1 bb3c c08b 08be c007 f53d 66e6 f5bd
00000370: d71f f73d f107 0e3e 40cd bbbd dd34 a6bd
00000380: 1cca a03d 88ee e0bd 6bc9 e3bd 240d 893d
00000390: 90fe 65ba aa28 5cbd a948 02be e6c9 f0bb
000003a0: f750 86bd 7706 163e e662 cb3c 6c39 1fbd
000003b0: 07b0 493c 1494 143e 1dda 08be e5e6 9f3d
000003c0: b005 12be 1c2c cabd 2f83 f53d af86 0ebd
000003d0: edd6 cabd bf8e d1bd 0c42 a5bd d866 7b3d
000003e0: b87e f8bd 230f 0fbe 2b83 b13d 9c2a 353c
000003f0: 6cca 05bc 2e1a 473e bc3f 2ebd cc3e a439

model.rnn.bias_ih_l1 f4 [160]
0.060570553 0.08133235 0.06488616 0.014719853 0.12877777 0.039540987 0.016324457 0.08327811
-0.0720596 0.14793971 0.044735372 0.063689575 0.11570896 -0.10762947 0.08175018 0.09608845
0.04366199 0.021934122 0.054688223 -0.098944895 0.033622365 0.11293612 0.040800005 0.07229346
0.02877648 -0.04496508 0.0112048155 0.0073092612 0.09077043 0.0030374199 -0.107610434 0.22912432
0.18140478 0.12347027 -0.0801984 -0.042689633 -0.027262362 0.07924466 -0.08346358 0.15623727
-0.042387173 0.1760949 -0.09810629 0.027806751 -0.12639049 0.14952919 0.096893884 -0.13371998
0.12746911 -0.0075781858 -0.07014495 0.14076689 0.14455217 0.15411142 -0.09574782 -0.059734054
-0.16622372 0.060357835 -0.13017818 -0.16135356 -0.045785464 0.08016523 0.12737373 -0.037687257
-0.011266114 -0.027681587 0.101800576 0.14751941 -0.056141786 -0.11067261 0.0014187306 -0.111990646
0.14409909 0.038387336 0.13373931 -0.034526963 -0.05855793 -0.019898029 0.11773159 0.1481662
-0.052772995 -0.04485726 -0.10167318 0.12669463 -0.096782744 0.12869932 -0.0038718146 -0.04269247
0.044422295 -0.05328411 -0.08764567 -0.08290177 0.13924606 0.09544788 -0.081852525 -0.04713283
0.20224883 0.116476536 0.17231217 -0.10085444 -0.15027621 0.022303456 0.011082525 0.00038586266
-0.18197575 0.0026389735 -0.075240225 0.029048923 0.08858712 -0.102878615 0.1193417 -0.08551402
-0.06316509 -0.07394897 -0.100507066 0.01953974 -0.04902506 -0.07831081 -0.022229783 -0.035458848
0.17431396 0.15681644 -0.13608484 -0.07363344 -0.07577504 -0.028603498 0.11290112 -0.13918951
-0.14532427 0.076805495 -0.14594026 -0.096866824 0.21976642 -0.01453019 -0.043995474 -0.011776383
0.10149686 0.056085154 -0.122652605 -0.14996187 0.027281044 -0.029163346 0.101376705 0.090529636
-0.10617316 0.1620287 -0.079053655 -0.06353777 0.0132166855 -0.108499266 0.06268228 0.019372275
-0.16933098 0.015609034 -0.06813721 -0.018771207 -0.05275185 0.08601695 -0.0074964673 0.053890556
00000000: d418 783d 9391 a63d 09e3 843d 8a2b 713c
00000010: 52de 033e bbf5 213d deba 853c b78d aa3d
00000020: fc93 93bd 827d 173e 703c 373d ae6f 823d
00000030: d2f8 ec3d d76c dcbd a36c a73d 05ca c43d
00000040: ead6 323d 30af b33c c200 603d 9fa3 cabd
00000050: 9bb7 093d 0d4b e73d e81d 273d 980e 943d
00000060: a7bc eb3c 4e2d 38bd 6794 373c 8782 ef3b
00000070: d9e5 b93d 730f 473b dc62 dcbd 919f 6a3e
00000080: 2dc2 393e fbdd fc3d 0f3f a4bd 53db 2ebd
00000090: 5155 dfbc 064b a23d f4ee aabd aafc 1f3e
000000a0: 2c9e 2dbd 3952 343e f3eb c8bd fcca e33c
000000b0: 826c 01be 2e1e 193e 4d70 c63d e4ed 08be
000000c0: 4387 023e 6e52 f8bb 28a8 8fbd 3225 103e
000000d0: 7c05 143e 62cf 1d3e 6f17 c4bd b2ab 74bd
000000e0: 8d36 2abe c739 773d 6e4d 05be de39 25be
000000f0: 8a89 3bbd ab2d a43d 426e 023e f45d 1abd
00000100: 8295 38bc 7fc4 e2bc d27c d03d 540f 173e
00000110: eef4 65bd 52a8 e2bd b3f4 b93a 5a5b e5bd
00000120: b68e 133e 0a3c 1d3d f5f2 083e 256c 0dbd
00000130: 71da 6fbd 3101 a3bc 431d f13d e1b8 173e
00000140: 7f28 58bd 3fbc 37bd 073a d0bd 3dbc 013e
00000150: 0836 c6bd c1c9 033e 45be 7dbb 4dde 2ebd
00000160: 27f4 353d 7040 5abd 937f b3bd 67c8 a9bd
00000170: 8596 0e3e 2e7a c33d 4ca2 a7bd 5b0e 41bd
00000180: 511a 4f3e 408b ee3d 9a72 303e c68c cebd
00000190: 02e2 19be bdb5 b63c 7b93 353c 9c4d ca39
000001a0: da57 3abe a1f2 2c3b 8c17 9abd 02f8 ed3c
000001b0: 2a6d b53d 06b2 d2bd 6c69 f43d f921 afbd
000001c0: b35c 81bd 8f72 97bd a6d6 cdbd ce11 a03c
000001d0: 80ce 48bd 6b61 a0bd 3c1b b6bc 4c3d 11bd
000001e0: 5c7f 323e 7d94 203e d359 0bbe 21cd 96bd
000001f0: f22f 9bbd e251 eabc b438 e73d b287 0ebe
00000200: e3cf 14be 334c 9d3d 5d71 15be 1d62 c6bd
00000210: 730a 613e 0910 6ebc 9934 34bd bbf1 40bc
00000220: 96dd cf3d 8cb9 653d 4a31 fbbd 9b8f 19be
00000230: 7f7c df3c f8e7 eebc 979e cf3d 9a67 b93d
00000240: 5071 d9bd daea 253e e2e6 a1bd 1720 82bd
00000250: cc8a 583c dd34 debd 915f 803d 9bb2 9e3c
00000260: 1a65 2dbe 09bd 7f3c 868b 8bbd 13c6 99bc
00000270: 5312 58bd a829 b03d eda4 f5bb 58bc 5c3d

model.rnn.bias_hh_l1 f4 [160]
0.113717586 -0.021182332 0.041211005 0.12368506 0.11156515 -0.12393812 -0.13112296 0.09900295
0.06374194 0.051047843 -0.039722092 -0.10311263 0.17488788 -0.108256675 0.17691253 0.017138429
0.009171011 -0.04488257 0.11582786 -0.010878747 0.010446912 0.03233755 0.024310954 0.085269295
0.09574029 -0.07252595 0.06915694 0.07713075 -0.008320893 0.017634949 0.06529466 0.1663924
0.098387465 0.08348853 0.12820825 0.005529049 -0.10781707 -0.019367987 0.07447117 0.02608606
0.1300845 -0.100108 0.033228084 -0.07007424 0.13267566 -0.12697421 -0.097497225 -0.04186986
-0.13939047 0.114861205 0.017621797 0.106399365 0.09946262 0.020820828 -0.0645244 0.14108315
-0.009720124 -0.15618229 0.078443445 -0.17119683 -0.039702192 0.07869028 -0.010743854 0.027031306
0.11985862 -0.13423881 -0.030164633 -0.057604097 0.15947637 0.09095181 -0.14009756 0.1495494
-0.11834298 -0.13719913 0.03731209 -0.046787035 -0.13384372 -0.17117715 0.038916778 0.13746862
-0.12257284 0.07025964 -0.06747075 0.0017428923 0.0074802414 -0.019286577 -0.06190953 -0.0892012
-0.15379731 -0.10599475 -0.08048811 -0.0921764 0.0007478694 -0.095162846 -0.07487278 0.13490123
0.041037276 -0.112249345 0.14714749 -0.04851478 0.00013781032 0.12422063 -0.14901401 -0.07740755
-0.102442615 0.08594267 -0.11378578 -0.09641711 -0.03211422 0.064320944 0.036457453 0.17593066
-0.034955066 0.078021064 0.042042863 -0.1603863 -0.06419672 0.050309606 0.1947806 -0.15312758
-0.10594774 -0.14719598 0.06272509 -0.032427125 0.023946758 -0.11296203 -0.055388667 -0.032081522
-0.034693222 -0.060325194 0.09104008 -0.09626142 0.21200511 0.1585337 0.065208144 0.07655433
-0.07867342 0.010625018 0.07240672 -0.040515494 0.03296273 -0.030149259 0.02031385 0.09933068
0.076994665 0.01924753 0.07929443 0.11782677 0.069047466 0.017089212 -0.026091725 0.111687005
0.13422126 0.19633687 -0.13500072 0.0733187 0.13406327 -0.12715599 0.047012307 0.11089316
00000000: c4e4 e83d 9286 adbc dfcc 283d 984e fd3d
00000010: 457c e43d 45d3 fdbd 1945 06be 0fc2 ca3d
00000020: 228b 823d 8b17 513d a2b3 22bd b72c d3bd
00000030: cf15 333e adb5 ddbd 8f28 353e e465 8c3c
00000040: 0242 163c c9d6 37bd 2837 ed3d c63c 32bc
00000050: 8629 2b3c 6174 043d c427 c73c aba1 ae3d
00000060: 7c13 c43d 7c88 94bd 27a2 8d3d baf6 9d3d
00000070: 5b54 08bc 2b77 903c 35b9 853d c562 2a3e
00000080: 5e7f c93d 09fc aa3d 0649 033e 062d b53b
00000090: 32cf dcbd 9da9 9ebc 5784 983d 6fb2 d53c
000000a0: df34 053e 6c05 cdbd 2c1a 083d 1583 8fbd
000000b0: 21dc 073e 8705 02be a0ac c7bd bb7f 2bbd
000000c0: 60bc 0ebe 5a3c eb3d 965b 903c e9e7 d93d
000000d0: 0fb3 cb3d 7190 aa3c 5e25 84bd 1a78 103e
000000e0: 2841 1fbc 40ee 1fbe f5a6 a03d 394e 2fbe
000000f0: c49e 22bd 5f28 a13d fd06 30bc c270 dd3c
00000100: 7078 f53d e675 09be d21b f7bc 46f2 6bbd
00000110: c64d 233e f144 ba3d bc75 0fbe 7a23 193e
00000120: ce5d f2bd ee7d 0cbe 90d4 183d c3a3 3fbd
00000130: 540e 09be 1049 2fbe 3367 1f3d 93c4 0c3e
00000140: 7807 fbbd 49e4 8f3d 1b2e 8abd c371 e43a
00000150: d01c f53b e2fe 9dbc d994 7dbd 1eaf b6bd
00000160: 0b7d 1dbe c713 d9bd f3d6 a4bd fbc6 bcbd
00000170: aa0c 443a bde4 c2bd e656 99bd 8c23 0a3e
00000180: b416 283d fce2 e5bd d5ad 163e 6fb7 46bd
00000190: 2d81 1039 6367 fe3d 2197 18be d987 9ebd
000001a0: 6fcd d1bd b602 b03d 8508 e9bd 5576 c5bd
000001b0: 338a 03bd b3ba 833d 6954 153d 2b27 343e
000001c0: 0b2d 0fbd 82c9 9f3d 2335 2c3d 4e3c 24be
000001d0: 9279 83bd 7211 4e3d 9174 473e 7acd 1cbe
000001e0: 21fb d8bd 8bba 16be 0376 803d 4ed2 04bd
000001f0: fe2b c43c a358 e7bd 3adf 62bd ea67 03bd
00000200: 7b1a 0ebd 8d17 77bd 3973 ba3d b524 c5bd
00000210: de17 593e a956 223e d98b 853d 84c8 9c3d
00000220: 881f a1bd 8e14 2e3c f949 943d 93f3 25bd
00000230: ed03 073d 94fb f6bc 3b69 a63c e26d cb3d
00000240: 61af 9d3d ffac 9d3c 1e65 a23d 294f f13d
00000250: c268 8d3d adfe 8b3c 50be d5bc 28bc e43d
00000260: 4c71 093e 880c 493e a13d 0abe 1d28 963d
00000270: e247 093e 2e35 02be fa8f 403d f41b e33d

exp_avg f4 [1, 40]
0.0031228466 0.003103889 5.490758e-06 1.911885e-05 0.0030729831 -3.430726e-05 9.483231e-05 -0.00050667475
0.00027576875 -0.0026995868 9.987733e-05 -0.0018377381 -0.0030212586 0.003440377 -0.0023827548 0.0027474961
-0.0002750595 -6.6799676e-06 0.0002623974 -5.7652005e-07 0.00035504368 -0.0011651069 0.000109957786 -2.0123629e-05
0.00322909 -0.0031892443 0.0030987754 -0.0014913178 0.0054141246 -0.00020577235 -2.054492e-05 -0.0031878084
5.7929206e-05 0.0004921921 -3.220885e-05 0.0031885137 -0.0022723873 0.0030000962 -0.0031626807 -0.0005821546
00000000: aca8 4c3b 9e6a 4b3b 413d b836 6b61 a037
00000010: 1a64 493b 24e5 0fb8 b5e0 c638 5ed2 04ba
00000020: 0e95 9039 8deb 30bb 3c75 d138 42e0 f0ba
00000030: 4f00 46bb f377 613b fe27 1cbb 560f 343b
00000040: dc35 90b9 7c24 e0b6 6292 8939 28c2 1ab5
00000050: 2825 ba39 80b6 98ba 2399 e638 2acf a8b7
00000060: 249f 533b a402 51bb d314 4b3b 5278 c3ba
00000070: f868 b13b 98c4 57b9 e157 acb7 8dea 50bb
00000080: 03f9 7238 7406 013a fd17 07b8 62f6 503b
00000090: 55ec 14bb 439d 443b fa44 4fbb bc9b 18ba

exp_avg_sq f4 [1, 40]
1.3556394e-05 1.0875712e-05 3.7684413e-07 3.473638e-07 8.155074e-06 1.9295453e-06 2.2314204e-08 2.4912285e-07
2.61544e-07 1.2690443e-05 1.259229e-07 3.8726516e-06 6.08592e-06 9.452698e-06 6.172895e-06 4.3168284e-06
1.1593105e-06 6.021917e-08 1.8806115e-07 3.4167652e-08 1.5519132e-07 9.439605e-06 3.3878737e-07 7.8721506e-08
1.3376008e-05 1.6595435e-05 1.3310289e-05 4.2390693e-06 1.57606e-05 8.11589e-07 1.3676463e-07 1.5106941e-05
2.1414776e-06 6.2916946e-08 1.4212203e-06 9.310516e-06 2.6407129e-06 3.2207479e-06 1.0446944e-05 1.5661583e-06
00000000: 4570 6337 d476 3637 1051 ca34 517d ba34
00000010: c7d1 0837 567d 0136 74ad bf32 2fbf 8534
00000020: 556a 8c34 0ae9 5437 6c35 0734 d3f1 8136
00000030: a835 cc36 0797 1e37 c420 cf36 46d9 9036
00000040: 9b99 9b35 d751 8133 dbed 4934 bbbf 1233
00000050: aaa2 2634 cb5e 1e37 95e2 b534 9b0d a933
00000060: 8469 6037 6d36 8b37 424f 5f37 543d 8e36
00000070: a135 8437 f9db 5935 93d9 1234 d173 7d37
00000080: 4eb6 0f36 f51c 8733 c2c0 be35 5d34 1c37
00000090: 1a37 3136 0724 5836 4845 2f37 ca34 d235

exp_avg f4 [1, 40]
0.1950739 0.13780089 -0.00011476732 -0.008805791 0.19183439 -0.0012955157 0.009460591 -0.0038786423
0.030233737 -0.17966768 -0.0019806405 -0.18180019 -0.2014387 0.14977425 -0.104071654 0.15138659
-0.100927964 0.00020108292 -0.014540255 -0.0014450786 -0.039006446 -0.12868196 0.0067433547 -0.00043272955
0.1663606 -0.2036317 0.19790414 -0.08476271 0.20812468 0.004251351 0.011484427 -0.19984215
-0.00021608011 0.0029414399 -0.0012045047 0.18905476 -0.10694941 0.12707515 -0.19632992 0.014493685
00000000: 74c1 473e ad1b 0d3e 3caf f0b8 2a46 10bc
00000010: 3c70 443e 4bce a9ba 9800 1b3c d230 7ebb
00000020: beac f73c cefa 37be a2cd 01bb d429 3abe
00000030: f245 4ebe 6c5e 193e 8523 d5bd 1605 1b3e
00000040: 52b3 cebd c9d9 5239 403a 6ebc cb68 bdba
00000050: 39c5 1fbd 34c5 03be 5cf7 dc3b fadf e2b9
00000060: 6f5a 2a3e d484 50be 62a7 4a3e 1298 adbd
00000070: a31e 553e eb4e 8b3b 2e29 3c3c 6ca3 4cbe
00000080: 9093 62b9 2cc5 403b 79e0 9dba 9297 413e
00000090: 4b08 dbbd fd1f 023e b60a 49be ec76 6d3c

exp_avg_sq f4 [1, 40]
0.5689871 0.5668036 0.00052411837 0.0030940278 0.5715885 0.0008155109 2.638785e-05 0.00063558784
0.01467976 0.48620805 0.001191908 0.34421444 0.55378103 0.4911921 0.39856157 0.18857221
0.073807955 8.77518e-05 0.0024540161 3.222735e-05 0.0017919387 0.33959225 0.00014541388 7.181298e-05
0.55314744 0.6063349 0.5973653 0.23791029 0.52604145 0.007850983 0.00021862819 0.6027092
0.0011839864 0.0009630077 0.0011083012 0.58741015 0.31726325 0.4527743 0.59745425 0.034032546
00000000: 23a9 113f 0a1a 113f fd64 093a 2cc5 4a3b
00000010: a053 123f 03c8 553a 7a5b dd37 949d 263a
00000020: 6083 703c 43f0 f83e cc39 9c3a e03c b03e
00000030: 98c4 0d3f 887d fb3e 4310 cc3e 1319 413e
00000040: a028 973d 6407 b838 8fd3 203b db2b 0738
00000050: 7cdf ea3a 09df ad3e 3e7a 1839 4d9a 9638
00000060: 129b 0d3f c438 1b3f efec 183f c19e 733e
00000070: a7aa 063f 69a1 003c 8f3f 6539 264b 1a3f
00000080: fe2f 9b3a 5a72 7c3a 6b44 913a 8360 163f
00000090: 5470 a23e 08d2 e73e c3f2 183f b665 0b3d

exp_avg f4 [1, 40]
-0.029031549 -0.03347379 -0.00017115154 -0.00025697568 -0.029351145 -0.00014509735 0.00015280301 0.0069160364
-0.0042927177 0.025703954 -0.00093140104 0.01927103 0.02852664 -0.035380512 0.022541873 -0.025947392
-0.00062420464 0.00017809626 -0.003221246 0.00010069197 -0.007042769 0.00046951836 -0.0016367116 0.00031504402
-0.0332176 0.029233892 -0.028243944 0.022371525 -0.058820046 0.0024811276 -0.0010585039 0.028997784
-0.0009826847 -0.01041215 0.00020066625 -0.030062731 0.019878373 -0.031125939 0.028831292 0.007655738
00000000: 92d3 edbc d01b 09bd 2477 33b9 b1ba 86b9
00000010: d071 f0bc 4625 18b9 bf39 2039 eb9f e23b
00000020: eda9 8cbb 1991 d23c 4429 74ba 47de 9d3c
00000030: b3b0 e93c 28eb 10bd bca9 b83c a08f d4bc
00000040: aaa1 23ba 5abf 3a39 8a1b 53bb 972a d338
00000050: 07c7 e6bb b029 f639 ee86 d6ba 7e2c a539
00000060: 2e0f 08bd ea7b ef3c d85f e7bc 7d44 b73c
00000070: 4aed 70bd 6a9a 223b 7fbd 8aba c38c ed3c
00000080: 6dcd 80ba b997 2abc f069 5239 1e46 f6bc
00000090: f8d7 a23c d3fb febc 9a2f ec3c fcdc fa3b

exp_avg_sq f4 [1, 40]
0.0070574204 0.004747261 0.00015158275 7.235259e-05 0.002462561 0.0018872806 1.551355e-05 2.9793177e-05
3.660241e-05 0.0066129756 1.6107004e-05 0.00083208847 0.0015262633 0.0035026625 0.002525949 0.0007602555
0.00022172043 1.75291e-05 4.1290084e-05 3.2471085e-05 3.852735e-05 0.004349204 0.00031740128 4.8706013e-05
0.0066481954 0.008927384 0.0066432604 0.0021446855 0.0067358087 0.0002956006 7.977296e-05 0.008173245
0.0018578788 1.6244687e-05 0.0010004397 0.0031402756 0.0005363239 0.0006568476 0.0040359925 0.00021377222
00000000: ef41 e73b e98e 9b3b 2ff2 1e39 00bc 9738
00000010: eb62 213b a15e f73a 1823 8237 5cec f937
00000020: 8a85 1938 a9b1 d83b 871d 8737 8320 5a3a
00000030: e60c c83a ed8c 653b 648a 253b e24b 473a
00000040: a07d 6839 750b 9337 e42e 2d38 9031 0838
00000050: 6d98 2138 c483 8e3b e168 a639 af49 4c38
00000060: 1bd9 d93b 2a44 123c b5af d93b da8d 0c3b
00000070: 0fb8 dc3b d7fa 9a39 c84b a738 13e9 053c
00000080: 1184 f33a 3345 8837 3021 833a 15cd 4d3b
00000090: 1698 0c3a 4c30 2c3a 5c40 843b 0b28 6039
