lightning_logs/version_4/checkpoints/epoch=0-step=50.ckpt (torch, 331167 bytes, 33 tensors)

model.param_proj.proj.0.weight f4 [1, 40]
-0.1176387 0.10252509 -0.020148212 0.06847964 0.12677602 -0.10070505 0.090403646 0.055142146
-0.14342703 0.17024465 -0.022574823 -0.09070208 0.13200459 0.07117273 -0.034543734 -0.05603558
0.08470413 -0.119326875 0.033800025 -0.11160052 0.04173483 -0.13309348 0.04724142 0.04084565
0.14679849 0.07703822 0.11161979 -0.19125575 -0.1676717 -0.07093763 0.08814239 -0.15970567
-0.032771885 -0.18555923 -0.009344853 -0.16974013 -0.0068983305 -0.1902618 -0.109627835 0.07393737
00000000: 8fec f0bd adf8 d13d dd0d a5bc 0e3f 8c3d
00000010: 93d1 013e 733e cebd 8c25 b93d bbdc 613d
00000020: 89de 12be 9d54 2e3e d6ee b8bc 03c2 b9bd
00000030: 362c 073e 02c3 913d bb7d 0dbd 9085 65bd
00000040: 5c79 ad3d a661 f4bd e571 0a3d d08e e4bd
00000050: 24f2 2a3d a849 08be 3880 413d c54d 273d
00000060: 5852 163e 37c6 9d3d eb98 e43d 8cd8 43be
00000070: 21b2 2bbe c047 91bd ff83 b43d e289 23be
00000080: d03b 06bd 3d03 3ebe 281b 19bc 5bd0 2dbe
00000090: 640b e2bb fdd3 42be 8f84 e0bd 7a6c 973d

model.param_proj.proj.1.weight f4 [1, 40]
-0.120367296 -0.14456846 0.15067175 0.06864252 0.013874101 -0.100765295 -0.05015336 0.102162026
0.009373534 0.010717324 -0.14572972 -0.025392137 -0.0019328641 0.08462955 -0.13864863 0.11325846
0.124275856 -0.01984729 -0.0032113842 0.038672388 0.109235905 -0.13010433 -0.1362326 0.017248875
0.016361598 -0.031104084 0.117613226 -0.07902051 -0.025826747 0.12807558 0.05529723 -0.120784745
0.15323417 -0.14237602 0.045309503 -0.012910123 0.0074541452 -0.14958404 -0.10589425 0.0052559813
00000000: 2183 f6bd c109 14be b249 1a3e 7394 8c3d
00000010: 3350 633c 095e cebd 9c6d 4dbd 533a d13d
00000020: 7393 193c b797 2f3c 2c3a 15be 2c03 d0bc
00000030: 2858 fdba 4252 ad3d e8f9 0dbe 0df4 e73d
00000040: 5784 fe3d c996 a2bc 1676 52bb f066 1e3d
00000050: 13b7 df3d 123a 05be 8f80 0bbe 834d 8d3c
00000060: c208 863c fecd febc 34df f03d 81d5 a1bd
00000070: 9d92 d3bc 3f26 033e 597f 623d fe5d f7bd
00000080: 6be9 1c3e 05cb 11be 7596 393d fb84 53bc
00000090: e741 f43b 8f2c 19be 16df d8bd 5e3a ac3b

model.param_proj.proj.2.weight f4 [1, 40]
0.15877898 0.15829943 -0.036355253 0.07318519 0.10801133 -0.10873984 0.13460228 0.09537903
0.06908325 -0.0048285173 0.1038082 0.12278411 -0.116685785 -0.008579063 0.064587645 0.14066198
0.12336646 0.12837261 0.04720455 0.10979875 -0.15383287 0.044373743 0.013360514 -0.05216411
-0.018656723 0.18728124 -0.13054523 0.11712079 -0.014510406 0.060497757 0.036776338 0.0051772445
-0.17584233 0.19135001 -0.04344775 0.009791342 0.11232102 0.012523859 0.1416419 -0.052678477
00000000: f596 223e 3f19 223e 3fe9 14bd 1ee2 953d
00000010: 0b35 dd3d feb2 debd 2ed5 093e 1556 c33d
00000020: 857b 8d3d 8a38 9ebb 6599 d43d 3c76 fb3d
00000030: f5f8 eebd 338f 0cbc 8746 843d b209 103e
00000040: 8ea7 fc3d 1c74 033e 8f59 413d 2bde e03d
00000050: 5d86 1dbe 3ec1 353d 0fe6 5a3c 09aa 55bd
00000060: fcd5 98bc a7c6 3f3e a6ad 05be 06dd ef3d
00000070: 0ebd 6dbc 7fcc 773d c9a2 163d e0a5 a93b
00000080: 0310 34be 42f1 433e 45f6 31bd dd6b 203c
00000090: 9008 e63d df30 4d3c 930a 113e 63c5 57bd

model.rnn.weight_ih_l0 f4 [160, 37]
-0.09753338 0.12347795 0.18746868 0.109721206 -0.036549646 -0.08852568 0.056137767 0.03364628
0.17362845 -0.11061372 0.10731484 0.029045036 0.068674356 -0.085127786 -0.038227044 0.17378622
-0.0039740875 0.064448886 0.08604143 -0.08565419 -0.008954579 0.061968017 0.056498032 0.1575774
-0.088023886 0.060614277 -0.13220493 0.01835023 -0.037668306 0.010786669 0.07987744 0.11127568
-0.100774705 -0.13254382 0.008087384 -0.13702281 0.13201326 0.071085624 0.037351873 0.036415447
-0.0717919 0.043895435 0.0016972627 -0.120045185 -0.03221269 0.05073132 -0.16347562 -0.020208487
-0.07518527 -0.057666026 0.044784818 0.09301683 0.029474067 0.09934555 -0.056926183 -0.0475809
0.11966178 -0.111726895 -0.12871379 -0.08828444 -0.015711946 0.10280104 0.14127257 -0.036984947
-0.091237046 0.11635707 -0.116510876 -0.010859706 -0.067115635 -0.03066223 -0.13760042 -0.10321557
-0.10268471 -0.17025737 0.13931464 -0.05256268 -0.05572123 -0.10944311 0.0056251367 0.12058931
0.16084196 0.122527316 0.00581513 -0.10040873 -0.09700169 0.06683402 0.001868149 -0.00063595007
0.012960225 0.07474047 -0.058374222 0.064641304 -0.0006417618 0.12868239 -0.049342267 0.010302198
0.18411404 0.060770646 0.005343322 -0.05864922 0.122788295 -0.09394259 -0.091764346 -0.08553059
0.0645977 0.0049521504 0.054700922 -0.02339517 0.022483535 -0.14908974 0.162653 -0.12748197
-0.094430044 -0.020696504 0.11152704 0.09777355 -0.022243446 0.059260037 0.11376844 0.076275066
0.012517457 -0.09003497 -0.109160915 0.082654625 0.067844056 -0.10328616 0.10226223 -0.12042433
-0.039323695 -0.130793 -0.061202083 0.1593143 -0.06126862 0.14258605 -0.043242503 -0.14399284
0.002990526 -0.106021 -0.048064046 -0.028091038 -0.074375674 0.06678947 0.09419537 -0.1239999
0.065966815 0.06127824 -0.010113142 0.13602936 0.002010721 0.04070777 -0.013461039 -0.04169067
0.12844461 0.023208745 -0.12249392 -0.097613454 -0.13432477 0.030870637 0.091076516 0.0019264889
0.15683107 -0.096740946 -0.050995175 -0.07351531 -0.0514151 0.04979353 0.1575486 0.09586917
0.057294898 -0.038001508 -0.017396603 0.063220106 0.045261394 0.12543167 0.13975194 0.08296867
0.05427161 -0.12753958 0.12438612 -0.08457233 0.12830666 -0.07247354 -0.1190376 0.12601896
-0.09828372 0.03591492 -0.06819406 0.04516327 -0.120281376 0.06501191 -0.044568267 0.17946087
-0.011147627 0.09914041 0.111339726 0.10578322 -0.05310416 0.15022229 -0.06031445 -0.06631848
-0.1110896 0.03717365 -0.053336896 0.15895078 -0.11270063 0.10510343 0.13881703 -0.08543119
-0.114098325 -0.088964045 -0.14437735 0.14134008 -0.04603919 -0.05781646 -0.06316106 0.040989127
0.048491478 -0.06825443 -0.025796285 -0.024788035 0.12426917 0.037512936 -0.046941217 -0.011312279
-0.070746996 0.12625541 -0.12275258 0.0010255105 0.090207845 0.1659538 0.026215605 0.15285484
0.11841068 0.06608778 0.02920294 -0.01400514 0.056973927 0.052994534 0.07694021 -0.017982729
-0.028283447 -0.10090728 0.05832538 -0.046369046 -0.03136121 0.0040207217 -0.08401501 0.12739763
0.088330165 0.016490653 -0.11407054 0.11728091 0.04765661 -0.04437599 0.10498926 -0.03933091
00000000: 95bf c7bd 02e2 fc3d caf7 3f3e 83b5 e03d
00000010: 15b5 15bd f44c b5bd b7f0 653d afd0 093d
00000020: a8cb 313e 7289 e2bd e2c7 db3d dbef ed3c
00000030: 24a5 8c3d 7a57 aebd f693 1cbd 04f5 313e
00000040: 1039 82bb c7fd 833d 7d36 b03d 776b afbd
00000050: 3ab6 12bc 2dd2 7d3d 7b6a 673d f85b 213e
00000060: de45 b4bd ad46 783d bb60 07be 3953 963c
00000070: 154a 1abd 92ba 303c c996 a33d 81e4 e33d
00000080: f862 cebd 91b9 07be f280 043c b54f 0cbe
00000090: 7c2e 073e 5795 913d 47fe 183d 5d28 153d
000000a0: a207 93bd b3cb 333d b076 de3a 40da f5bd
000000b0: 74f1 03bd a5cb 4f3d 2766 27be 458c a5bc
000000c0: bcfa 99bd 3633 6cbd 4970 373d 9c7f be3d
000000d0: 9973 f13c ae75 cb3d 6e2b 69bd 31e4 42bd
000000e0: 3c11 f53d 12d1 e4bd 8ccd 03be 79ce b4bd
000000f0: 57b6 80bc 5a89 d23d c2a9 103e 877d 17bd
00000100: 7dda babd 9e4c ee3d 419d eebd e9ec 31bc
00000110: ec73 89bd 5b2f fbbc 20e7 0cbe af62 d3bd
00000120: 5c4c d2bd f357 2ebe 7fa8 0e3e f74b 57bd
00000130: f23b 64bd b623 e0bd 1153 b83b 87f7 f63d
00000140: c1b3 243e 9aef fa3d d98c be3b 18a3 cdbd
00000150: d2a8 c6bd 46e0 883d aedc f43a e3b5 26ba
00000160: 2057 543c 8811 993d cf19 6fbd a962 843d
00000170: e83b 28ba 51c5 033e 1e1b 4abd 8dca 283c
00000180: 6488 3c3e a4ea 783d 0917 af3b 2a3a 70bd
00000190: 6e78 fb3d f964 c0bd f2ee bbbd a92a afbd
000001a0: cd4b 843d a645 a23b 130e 603d 3aa7 bfbc
000001b0: 642f b83c fbaa 18be 828e 263e a28a 02be
000001c0: 8a64 c1bd b78b a9bc 4a68 e43d 803d c83d
000001d0: e337 b6bc a7ba 723d 6eff e83d 1a36 9c3d
000001e0: 0516 4d3c 4164 b8bd c28f dfbd d446 a93d
000001f0: d3f1 8a3d b287 d3bd dc6e d13d 08a1 f6bd
00000200: e211 21bd 9aee 05be 09af 7abd 4a23 233e
00000210: cef4 7abd 1402 123e 0d1f 31bd dc72 13be
00000220: b3fc 433b 8a21 d9bd cede 44bd 2d1f e6bc
00000230: 4652 98bd ebc8 883d 81e9 c03d a9f3 fdbd
00000240: 9c19 873d e4fe 7a3d 98b1 25bc 484b 0b3e
00000250: 4dc6 033b 31bd 263d b18b 5cbc d6c3 2abd
00000260: fc86 033e 4420 be3c 18de fabd 90e9 c7bd
00000270: 6f8c 09be 6be4 fc3c 5386 ba3d 3e82 fc3a
00000280: 5398 203e 1e20 c6bd 51e0 50bd 328f 96bd
00000290: a498 52bd 4df4 4b3d 6c54 213e 0e57 c43d
000002a0: 0eae 6a3d 78a7 1bbd 5283 8ebc 8b79 813d
000002b0: 0364 393d 2971 003e 221b 0f3e 7aeb a93d
000002c0: e84b 5e3d bc99 02be 26be fe3d 4234 adbd
000002d0: d262 033e 026d 94bd fcc9 f3bd 1d0b 013e
000002e0: fa48 c9bd 861b 133d 54a9 8bbd 1ffd 383d
000002f0: 1556 f6bd f724 853d 378d 36bd 97c4 373e
00000300: 89a4 36bc 210a cb3d 1506 e43d dfa4 d83d
00000310: bf83 59bd dfd3 193e 490c 77bd fcd1 87bd
00000320: f282 e3bd 6643 183d ca77 5abd fec3 223e
00000330: 97cf e6bd 7840 d73d 0d26 0e3e 8cf6 aebd
00000340: 62ac e9bd c832 b6bd a8d7 13be 74bb 103e
00000350: 9793 3cbd f4d0 6cbd 965a 81bd 37e4 273d
00000360: 009f 463d fbc8 8bbd bb52 d3bc 4710 cbbc
00000370: d680 fe3d 2aa7 193d 6f45 40bd 2357 39bc
00000380: cde3 90bd 1949 013e b465 fbbd 6c6a 863a
00000390: e4be b83d cbef 293e 1cc2 d63c fb85 1c3e
000003a0: 4c81 f23d 0859 873d 013b ef3c d175 65bc
000003b0: 7e5d 693d cc10 593d d492 9d3d 8450 93bc
000003c0: b0b2 e7bc 7aa8 cebd 98e6 6e3d 78ed 3dbd
000003d0: 9d74 00bd 42c0 833b 1010 acbd 8674 023e
000003e0: 72e6 b43d 6817 873c d19d e9bd f930 f03d
000003f0: 9433 433d 99c3 35bd 9c04 d73d 7319 21bd

model.rnn.weight_hh_l0 f4 [160, 40]
-0.008803883 0.07998079 0.11175599 0.048328023 -0.012606311 -0.016333614 0.103708744 0.08391724
0.10398416 0.14873253 -0.13504712 -0.14306372 -0.14393127 0.083285056 -0.012633074 0.061431564
-0.10920796 -0.14628243 -0.048738215 0.00070428656 0.0010974001 0.06694999 -0.14091818 0.062705785
-0.04867691 -0.14757374 -0.14661977 -0.03898826 -0.11804429 -0.07263529 0.022115711 -0.12849247
-0.040081356 0.05771532 0.12623832 0.12034423 0.042131312 0.054966167 0.11933013 -0.09902427
0.029534515 0.035503816 0.007737733 0.046658292 -0.10967475 -0.042391848 -0.027528232 -0.063564576
-0.01595069 0.058007386 0.09223478 0.0013677365 -0.023708213 -0.10059382 0.028142074 -0.14016764
-0.14224459 -0.008292618 0.023071392 -0.029204236 -0.03410625 -0.11675344 0.11509762 -0.15039554
-0.12535872 0.08316741 0.03778397 0.107188575 -0.053024348 -0.0809688 0.11413164 -0.055723477
0.10969994 -0.10210839 0.06348248 -0.07895253 0.12298649 -0.013674714 0.11240239 -0.00060238567
0.09766671 -0.006272779 0.09955837 0.056096163 -0.13216853 0.029415414 -0.035359066 -0.06083396
-0.15039131 -0.07351158 -0.07031412 -0.09802909 0.11375316 -0.008295437 -0.10356091 0.092782676
-0.06806232 -0.035968628 -0.14593731 -0.012272006 -0.14242408 0.013926716 -0.083116196 -0.030634621
-0.09846565 0.0123432195 -0.11552606 -0.13839586 -0.008303304 -0.002876713 0.0175789 -0.10531898
-0.08462775 0.007005648 0.080537096 0.09064492 0.11916954 -0.07060023 -0.115374655 -0.12151471
0.051634118 -0.13541403 -0.08399629 -0.09834927 -0.014789798 -0.034188595 -0.03217867 -0.08472304
0.021242313 0.0834219 -0.042642 0.12731388 0.13869019 0.10672731 0.030447897 -0.07713716
0.0013814315 -0.12681635 -0.041381016 0.07861296 -0.081305504 -0.027457848 0.027508458 -0.12933621
-0.14048718 -0.10813008 -0.0009569199 0.12003629 -0.12863374 -0.13359585 -0.068251856 0.09713312
0.10362957 0.034003988 0.13696107 0.06215464 0.024018835 0.058588784 0.07786745 -0.035868686
-0.13858904 0.06851483 0.118689656 0.10123114 -0.0860414 -0.031316835 0.09420967 0.093162045
0.035710506 0.03464116 0.116174586 -0.12979226 0.12026005 0.034514047 0.019256884 0.012425973
0.016738469 0.087195314 0.10930463 -0.050045516 -0.07828926 0.12334656 0.11503443 -0.10193095
0.028542815 -0.106794454 -0.10400155 0.023976602 -0.12302516 -0.14044034 0.058528557 0.14617403
0.05077967 -0.05000419 -0.005542867 -0.12996148 -0.12732312 0.034860015 0.020668708 0.094798826
-0.13338806 0.09849025 -0.11648903 0.07190646 -0.057421427 0.11525286 0.1329893 0.09632631
0.049982093 -0.14706707 0.02850012 0.10512993 -0.020134306 -0.0031290636 -0.08477544 0.08441551
0.07950361 0.061072957 -0.1123135 -0.05007792 0.0590751 0.0024554508 0.068248205 -0.012317699
-0.017440213 -0.05476972 0.1359786 0.007499146 0.08186493 0.14647451 0.05585397 0.028463216
-0.06869452 0.13193765 -0.14693256 -0.017721778 -0.03112396 -0.071725726 -0.10253202 -0.048197273
0.085630395 -0.077204704 -0.06201074 0.13318741 0.01326259 -0.120560735 0.11152375 0.14700866
-0.10981703 0.12968734 -0.06918317 -0.095964395 0.043308057 0.11014366 -0.120465904 -0.14808497
00000000: 293e 10bc f8cc a33d 53e0 e43d 9bf3 453d
00000010: b38a 4ebc 12ce 85bc 4065 d43d cddc ab3d
00000020: a6f5 d43d 574d 183e cb49 0abe 4c7f 12be
00000030: b862 13be 5b91 aa3d f4fa 4ebc aa9f 7b3d
00000040: 6ca8 dfbd 10cb 15be b9a1 47bd df9f 383a
00000050: a3d6 8f3a 141d 893d db4c 10be e46b 803d
00000060: 7161 47bd 921d 17be 7e23 16be 27b2 1fbd
00000070: 34c1 f1bd d0c1 94bd 022c b53c 8893 03be
00000080: 592c 24bd e666 6c3d 9e44 013e 0977 f63d
00000090: e291 2c3d 3424 613d 5b63 f43d 3dcd cabd
000000a0: 5ef2 f13c 736c 113d cf8c fd3b c41c 3f3d
000000b0: 289d e0bd 13a3 2dbd e382 e1bc 252e 82bd
000000c0: 05ab 82bc 2799 6d3d 97e5 bc3d 9f45 b33a
000000d0: ba37 c2bc 2204 cebd 358a e63c 1b88 0fbe
000000e0: 91a8 11be c3dd 07bc 3700 bd3c b93d efbc
000000f0: ffb2 0bbd 6d1c efbd 4db8 eb3d 4a01 1abe
00000100: 095e 00be ad53 aa3d 5dc3 1a3d af85 db3d
00000110: 0f30 59bd f8d2 a5bd d9bd e93d 4d3e 64bd
00000120: 5daa e03d 341e d1bd 1a03 823d ddb1 a1bd
00000130: 57e0 fb3d e80b 60bc 3933 e63d 6be9 1dba
00000140: 7c05 c83d e28b cdbb 42e5 cb3d 17c5 653d
00000150: 3057 07be 98f8 f03c abd4 10bd 082d 79bd
00000160: 2e00 1abe 3d8d 96bd d900 90bd 7ac3 c8bd
00000170: 6bf7 e83d 96e9 07bc be17 d4bd d804 be3d
00000180: 4264 8bbd d753 13bd 9770 15be 8610 49bc
00000190: 9ed7 11be e12c 643c d338 aabd 75f5 fabc
000001a0: 5ca8 c9bd 373b 4a3c ed98 ecbd a5b7 0dbe
000001b0: 950a 08bc 3c87 3cbb a001 903c 7ab1 d7bd
000001c0: 5051 adbd a38f e53b a2f0 a43d 0ba4 b93d
000001d0: 290f f43d da96 90bd 8c49 ecbd b4dc f8bd
000001e0: 4c7e 533d faa9 0abe 3f06 acbd 586b c9bd
000001f0: e950 72bc 5709 0cbd c8cd 03bd 4683 adbd
00000200: 5c04 ae3c 1ad9 aa3d 61a9 2ebd 925e 023e
00000210: cd04 0e3e d993 da3d de6d f93c 16fa 9dbd
00000220: 2611 b53a 25dc 01be 247f 29bd d5ff a03d
00000230: 8083 a6bd 48ef e0bc 6b59 e13c b670 04be
00000240: dfdb 0fbe 4e73 ddbd cfd9 7aba 96d5 f53d
00000250: 90b8 03be 5acd 08be a1c7 8bbd bbed c63d
00000260: bd3b d43d c447 0b3d 863f 0c3e dd95 7e3d
00000270: 26c3 c43c cbfa 6f3d f878 9f3d 0beb 12bd
00000280: 49ea 0dbe 8151 8c3d 9013 f33d 4652 cf3d
00000290: 7936 b0bd 1546 00bd 00f1 c03d becb be3d
000002a0: 2e45 123d e4e3 0d3d f1ec ed3d 43e8 04be
000002b0: e74a f63d 9a5e 0d3d 9dc0 9d3c 4f96 4b3c
000002c0: 1d1f 893c 7593 b23d 1bdb df3d 87fc 4cbd
000002d0: 1f56 a0bd 1f9d fc3d 2c97 eb3d 2dc1 d0bd
000002e0: 9fd2 e93c 0db7 dabd c4fe d4bd 946a c43c
000002f0: 9df4 fbbd 98cf 0fbe a4bb 6f3d a5ae 153e
00000300: 58fe 4f3d 32d1 4cbd f0a0 b5bb 9f14 05be
00000310: fe60 02be 60c9 0e3d 6c51 a93c e325 c23d
00000320: e196 08be 42b5 c93d cd91 eebd b243 933d
00000330: bb32 6bbd b109 ec3d 592e 083e ba46 c53d
00000340: 06ba 4c3d c098 16be 1579 e93c 5c4e d73d
00000350: b3f0 a4bc fa10 4dbb bf9e adbd 0ae2 ac3d
00000360: cad2 a23d a327 7a3d 9f04 e6bd 811e 4dbd
00000370: bbf8 713d a1eb 203b b7c5 8b3d 2dd0 49bc
00000380: c7de 8ebc 3756 60bd f93d 0b3e 65bb f53b
00000390: cda8 a73d 6afd 153e 22c7 643d b12b e93c
000003a0: b6af 8cbd aa1a 073e 7d75 16be 432d 91bc
000003b0: adf7 febc f0e4 92bd 4ffc d1bd 816a 45bd
000003c0: fd5e af3d 801d 9ebd f9fe 7dbd 4862 083e
000003d0: 564b 593c 8ce8 f6bd 9066 e43d 7089 163e
000003e0: c0e7 e0bd c2cc 043e e8af 8dbd fb88 c4bd
000003f0: ca63 313d 0093 e13d d4b6 f6bd 96a3 17be

model.rnn.bias_ih_l0 f4 [160]
0.0556842 0.07504816 -0.034800764 -0.06468351 -0.032224685 0.13673754 0.1457161 0.0049892757
-0.13675527 -0.104802035 -0.07610387 0.09685962 0.06859805 0.08464626 0.1599809 -0.15500073
-0.016558666 0.021409996 0.16350861 0.10063911 0.08614909 0.008339532 -0.021979934 0.07350921
0.02634212 -0.027377117 -0.031087095 0.10437043 -0.12079365 -0.111320294 0.14281423 -0.032442857
0.011292523 0.076990455 -0.044008546 0.061744 -0.006254911 0.11243659 0.025931163 -0.016144972
-0.086849816 0.06026336 0.14468415 -0.10001306 -0.14972587 0.13185683 -0.13418321 0.09988303
-0.03059618 0.039398495 -0.089657 0.08375304 -0.053367145 0.03853301 0.04461882 0.14819412
0.08844532 0.00044035018 -0.14687952 0.027318304 0.010572504 -0.08557838 -0.094033025 -0.09373997
0.073387906 0.03895816 0.027706064 -0.12090529 0.12104818 -0.0077889985 0.12294132 -0.024857415
0.14214286 0.082557775 -0.121860854 -0.017702332 -0.00045002907 -0.12899126 0.0895596 0.1240202
0.0686125 -0.04149689 -0.16261147 -0.07408167 -0.01730352 -0.0930408 -0.14621328 -0.06300623
-0.13112551 0.16499615 0.07070944 -0.0028490738 -0.08562543 0.13610257 0.042908493 0.03469065
-0.048875913 0.0090304585 -0.038122382 -0.06948925 0.042492174 -0.07084856 -0.15133986 0.028184194
-0.0049419636 0.042356905 -0.16554825 -0.06366722 -0.12305397 0.03131406 0.112173595 0.014596203
-0.077653505 0.01167067 0.05298924 -0.17959395 -0.05968385 -0.08733771 0.07406073 0.05725475
0.18953623 0.13139838 0.1563273 0.08539883 0.022758182 -0.09254694 0.09944479 -0.0939189
0.03951572 0.07693923 0.13413978 -0.0818649 -0.050507016 0.11200955 -0.10224852 0.011560653
0.15528832 0.044302978 0.052346222 0.10471591 -0.1284871 0.097984515 -0.06939822 0.0017296802
-0.15962563 0.06654663 -0.07028485 0.09145731 -0.1506199 0.0039905463 0.123811916 0.019717092
0.0071005244 0.092838146 0.020060021 0.02634768 0.101260066 -0.089462005 0.08431843 0.09811555
00000000: 1e15 643d dab2 993d 3f8b 0ebd ca78 84bd
00000010: 08fe 03bd ed04 0c3e 9a36 153e 147d a33b
00000020: 9309 0cbe 73a2 d6bd 59dc 9bbd 565e c63d
00000030: 227d 8c3d 055b ad3d 08d2 233e 83b8 1ebe
00000040: 0aa6 87bc 0464 af3c cd6e 273e e11b ce3d
00000050: ef6e b03d 88a2 083c 430f b4bc ff8b 963d
00000060: 6ecb d73c fa45 e0bc 5daa febc 2ac0 d53d
00000070: a962 f7bd e5fb e3bd e53d 123e cde2 04bd
00000080: 4604 393c 2cad 9d3d 4e42 34bd 47e7 7c3d
00000090: fff5 ccbb 2845 e63d 976d d43c 7642 84bc
000000a0: 51de b1bd b7d6 763d 1528 143e a6d3 ccbd
000000b0: bd51 19be 7a05 073e 5367 09be 798f cc3d
000000c0: d7a4 fabc 5160 213d 179e b7bd b786 ab3d
000000d0: 8297 5abd cad4 1d3d 39c2 363d 33c0 173e
000000e0: d222 b53d cdde e639 9667 16be a3ca df3c
000000f0: 4c38 2d3c b843 afbd 6394 c0bd befa bfbd
00000100: 664c 963d 9792 1f3d d4f7 e23c 319d f7bd
00000110: 1ce8 f73d db3a ffbb a9c8 fb3d c7a1 cbbc
00000120: e68d 113e 0d14 a93d 2f92 f9bd 7b04 91bc
00000130: e1f1 ebb9 4916 04be 066b b73d 4dfe fd3d
00000140: b684 8c3d a5f8 29bd 9f83 26be 21b8 97bd
00000150: 1dc0 8dbc 2d8c bebd efb8 15be 6909 81bd
00000160: c445 06be c0f4 283e 1cd0 903d 87b7 3abb
00000170: 635c afbd 795e 0b3e d1c0 2f3d c817 0e3d
00000180: 1c32 48bd 7df4 133c 3726 1cbd 6150 8ebd
00000190: 460c 2e3d 0d19 91bd d6f8 1abe 8ae2 e63c
000001a0: 32f0 a1bb 6f7e 2d3d 7b85 29be f663 82bd
000001b0: b803 fcbd 2c43 003d 45bb e53d ea24 6f3c
000001c0: cd08 9fbd 5636 3f3c 3f0b 593d 7ae7 37be
000001d0: 0d77 74bd 1dde b2bd 27ad 973d f583 6a3d
000001e0: c915 423e 4c8d 063e 4414 203e 95e5 ae3d
000001f0: 5e6f ba3c 4089 bdbd b6a9 cb3d 8d58 c0bd
00000200: 3cdb 213d 5192 9d3d f05b 093e c9a8 a7bd
00000210: 72e0 4ebd 4365 e53d ac67 d1bd e568 3d3c
00000220: e703 1f3e 0a77 353d fe68 563d 4c75 d63d
00000230: 1f92 03be 1bac c83d a720 8ebd 70b6 e23a
00000240: e774 23be 9949 883d 81f1 8fbd f84d bb3d
00000250: 1a3c 1abe 21c3 823b 1a91 fd3d bd85 a13c
00000260: 84ab e83b ed21 be3d ea54 a43c 17d7 d73c
00000270: 7061 cf3d db37 b7bd 24af ac3d cef0 c83d

model.rnn.bias_hh_l0 f4 [160]
0.1715188 0.10219606 0.13658623 0.16262566 -0.12501742 -0.117236994 0.116502345 -0.07886467
-0.12723953 0.0889143 0.07707028 0.058783278 0.06971862 0.12305093 -0.0699598 0.10541862
0.04913915 -0.04155839 0.16164777 -0.0065149567 0.09621238 0.11005679 0.13524216 0.11143576
-0.05011074 -0.11499324 0.012685963 0.016864846 -0.09967106 0.0726747 -0.0032330903 0.037896447
-0.13787785 0.1345562 -0.10425567 0.16102032 0.119646564 -0.1754363 -0.09160907 -0.020331642
0.112715274 0.14357169 0.030214764 -0.118274316 -0.14923364 -0.14758575 -0.020336637 0.11644952
-0.050641038 -0.09771841 0.08286992 -0.012577492 0.09924377 -0.034515094 -0.054281082 -0.072928324
0.07919707 -0.013046842 0.12567227 -0.11696911 -0.016613541 -0.10770945 -0.07690452 -0.10297684
-0.04328244 -0.10423344 0.07508981 -0.03988612 0.12303548 0.088798404 0.07804171 0.052934784
0.045847863 -0.038713306 -0.1446616 -0.14639103 -0.019547548 0.10554219 0.06860129 -0.05173348
0.008490996 0.061998077 -0.101165585 0.04599758 0.16464224 -0.17734812 -0.13878034 0.038953755
-0.15227541 0.08171778 -0.012789079 -0.024761744 -0.078971095 -0.12159677 0.10589582 0.12851383
-0.18541221 -0.0054403716 0.018566234 0.046701804 -0.1324839 0.1225744 -0.11759054 0.0055903317
-0.07265601 0.14970608 -0.08550891 -0.036818147 -0.14355044 0.03803854 -0.028045392 0.024505604
-0.08260399 0.05160049 0.08653086 -0.17824507 0.10481313 -0.08013736 0.01941668 0.036076397
-0.0043111583 -0.16425778 0.17642945 0.15101878 0.075248264 -0.045275554 -0.11535225 0.06439829
0.02596414 -0.052109625 0.17821296 0.11198579 -0.00016820058 0.17248 -0.08465537 0.10842441
-0.07991973 -0.08576984 -0.051053222 -0.014829769 0.048052743 0.09247987 0.10212595 -0.06968326
-0.052508123 -0.08300715 0.15663633 0.04670101 -0.046651546 0.0035163139 -0.05680598 0.16361022
0.06205836 0.12005534 -0.000789672 0.02986518 0.11800564 0.023812827 -0.06693213 0.036322225
00000000: a0a2 2f3e 2b4c d13d 43dd 0b3e 5787 263e
00000010: 9104 00be f319 f0bd c898 ee3d cd83 a1bd
00000020: 144b 02be b318 b63d 06d7 9d3d bcc6 703d
00000030: a3c8 8e3d 2002 fc3d 1547 8fbd b8e5 d73d
00000040: 2246 493d 2139 2abd fe86 253e 6b7b d5bb
00000050: ff0a c53d 7465 e13d ec7c 0a3e 6f38 e43d
00000060: eb40 4dbd 9381 ebbd c9d8 4f3c 2528 8a3c
00000070: 5720 ccbd 79d6 943d 41e2 53bb 4e39 1b3d
00000080: da2f 0dbe 1ac9 093e ff83 d5bd 83e2 243e
00000090: 4209 f53d 93a5 33be 899d bbbd 8b8e a6bc
000000a0: 44d7 e63d 7504 133e f484 f73c ce39 f2bd
000000b0: b4d0 18be b820 17be 0599 a6bc 167d ee3d
000000c0: fa6c 4fbd 9720 c8bd b4b7 a93d d311 4ebc
000000d0: 5140 cb3d b35f 0dbd d755 5ebd 725b 95bd
000000e0: 1332 a23d 6cc2 55bc 3bb0 003e 808d efbd
000000f0: 1f19 88bc c696 dcbd 1e80 9dbd 86e5 d2bd
00000100: ee48 31bd 5778 d5bd b0c8 993d a15f 23bd
00000110: 07fa fb3d f0db b53d 55d4 9f3d 25d2 583d
00000120: f8ca 3b3d d891 1ebd 2c22 14be 88e7 15be
00000130: 2e22 a0bc 8126 d83d d57e 8c3d 7ce6 53bd
00000140: d21d 0b3c b2f1 7d3d e72f cfbd f567 3c3d
00000150: fa97 283e bf9a 35be 6f1c 0ebe f98d 1f3d
00000160: 16ee 1bbe a75b a73d 4989 51bc 24d9 cabc
00000170: 99bb a1bd ba07 f9bd e8df d83d 2199 033e
00000180: b3dc 3dbe 2545 b2bb 3718 983c 644a 3f3d
00000190: dca9 07be 4908 fb3d 4fd3 f0bd 1a2f b73b
000001a0: adcc 94bd 8d4c 193e 4c1f afbd a0ce 16bd
000001b0: e3fe 12be 4dce 1b3d 73bf e5bc fabf c83c
000001c0: 482c a9bd 095b 533d 1737 b13d e085 36be
000001d0: 44a8 d63d 0e1f a4bd bb0f 9f3c d8c4 133d
000001e0: 9e44 8dbb 3133 28be eca9 343e aba4 1a3e
000001f0: c31b 9a3d dc72 39bd cd3d ecbd 40e3 833d
00000200: c0b2 d43c e770 55bd 757d 363e ce58 e53d
00000210: 005f 30b9 999e 303e cb5f adbd 9e0d de3d
00000220: f5ac a3bd 19a8 afbd 2f1d 51bd 8ff8 72bc
00000230: f4d2 443d 1666 bd3d 6927 d13d 19b6 8ebd
00000240: c212 57bd a7ff a9bd 4665 203e 8f49 3f3d
00000250: b115 3fbd f571 663b 63ad 68bd 7089 273e
00000260: e830 7e3d 93df f53d fe01 4fba d2a7 f43c
00000270: f1ac f13d 1e13 c33c b613 89bd 9dc6 143d

model.rnn.weight_ih_l1 f4 [160, 40]
-0.1675432 -0.14480771 -0.107468404 0.12565063 -0.057674583 -0.0601993 -0.11619712 -0.06488205
0.073405586 -0.0001100472 -0.04381997 0.13193014 -0.050342746 -0.060382422 -0.094590664 -0.14756721
0.11388359 -0.061312914 -0.1877994 -0.09575341 0.15925111 -0.036622398 0.037180167 0.15993993
0.15108848 -0.11770932 -0.16330907 -0.17281958 0.0364195 0.06776776 -0.027630154 -0.12662691
-0.038801286 0.09206255 0.14089535 -0.17196098 0.017078994 0.026354969 0.100242384 -0.07598281
-0.077351324 -0.03328099 -0.062024172 -0.0022516581 0.020046836 0.078402996 0.084474444 0.079827696
0.04627075 0.06419402 -0.12362365 0.03086639 0.010077974 0.09402105 -0.026152322 -0.14281435
-0.08653283 0.13584147 -0.07548824 -0.08445743 -0.01755549 0.10804015 -0.004509743 -0.063768655
-0.055065893 0.13428122 0.05470387 0.10489996 -0.048733965 0.097443305 0.003752931 0.102332
0.056628678 -0.14053969 -0.10221869 0.025202291 0.15550208 -0.06487263 0.091301724 -0.10621022
0.095146686 0.0527717 -0.051621784 0.14371118 -0.068196155 0.055939943 -0.056109548 -0.00019125386
0.07117954 0.059324447 0.010671633 0.037740316 -0.072633535 -0.027100615 0.08258746 0.03440084
-0.07217875 -0.025391316 0.14850122 -0.0486031 -0.09038673 -0.11714247 -0.06779659 -0.11485882
0.0028841468 0.1512221 0.025730452 -0.06637825 -0.017756004 0.010084886 0.07286027 -0.104418926
-0.030271614 -0.015364315 0.11485204 0.08875336 -0.13916582 -0.07886252 0.07664892 0.11196043
0.14665723 0.030560331 0.13188992 -0.1327741 0.048003674 -0.12241162 -0.10086179 -0.11194978
-0.12182411 0.0915629 -0.12955828 -0.16940545 0.151994 0.053659946 0.11636686 -0.105335705
0.15000719 0.094027735 0.069340825 0.05315832 0.047304314 -0.12537356 0.10169817 -0.028329177
-0.038163256 0.044340596 -0.11878201 -0.18058872 0.1486078 -0.07899039 -0.06673247 0.107506536
0.08885088 -0.08937409 -0.17054139 0.11151956 -0.07750131 -0.010252861 0.07925702 -0.046564233
-0.04422448 0.0068896576 0.019075036 0.12121074 0.026650403 0.031629402 0.1332532 -0.11707441
0.1520018 0.06965385 0.099102095 0.0021090533 0.1158484 0.12015783 0.118771926 0.044216506
0.08721897 0.09941771 -0.03800569 0.06516394 -0.10793887 -0.04746355 0.10707468 0.028215066
0.1322814 0.11427399 0.13408461 -0.08585556 -0.05560942 -0.008383877 -0.0016017192 -0.15273853
-0.053165354 -0.14870374 0.03413278 -0.06506228 -0.03539008 0.1586108 0.15527241 -0.03985835
0.06698988 0.018591264 -0.029742403 -0.12603186 -0.11890056 -0.021809742 -0.064660646 0.03210413
-0.018750845 -0.15444176 -0.039098453 0.12433844 0.13385329 0.13687785 0.09030892 0.16402315
0.13331093 -0.16072488 -0.048462518 -0.12249321 -0.082800776 -0.06834628 -0.012850347 0.0141919
0.008875236 0.043209236 0.091731496 0.07005313 0.021719625 -0.02227603 -0.12179775 0.0031017787
-0.09228338 -0.15488186 0.12586576 0.105708554 0.004696806 0.1429483 0.030090513 -0.07871958
-0.03965938 0.06640234 0.00029041164 0.13604839 -0.057648834 -0.14893314 -0.12937815 0.06412823
-0.17401063 0.025602387 0.017045349 -0.06498438 -0.08994759 0.0622442 0.058151525 0.044679716
00000000: 7290 2bbe 7948 14be 6518 dcbd 8faa 003e
00000010: 2f3c 6cbd 8b93 76bd c1f8 edbd e1e0 84bd
00000020: ab55 963d 24c9 e6b8 927c 33bd b218 073e
00000030: 3234 4ebd 8f53 77bd c0b8 c1bd dc1b 17be
00000040: cd3b e93d 4023 7bbd 7c4e 40be 5d1a c4bd
00000050: b912 233e 5e01 16bd 3b4a 183d 4bc7 233e
00000060: f0b6 1a3e 9511 f1bd 7e3a 27be 9ef7 30be
00000070: 9d2c 153d d3c9 8a3d a258 e2bc 7caa 01be
00000080: 19ee 1ebd 4a8b bc3d df46 103e 8a16 30be
00000090: 3fe9 8b3c 60e6 d73c e14b cd3d e09c 9bbd
000000a0: 5f6a 9ebd a651 08bd 0f0d 7ebd 8e90 13bb
000000b0: 4339 a43c c091 a03d f000 ad3d b47c a33d
000000c0: 6686 3d3d 2878 833d 652e fdbd 83db fc3c
000000d0: 161e 253c 1c8e c03d 653d d6bc ed3d 12be
000000e0: 2038 b1bd 071a 0b3e 9499 9abd 04f8 acbd
000000f0: 88d0 8fbc 2744 dd3d 77c6 93bb 2499 82bd
00000100: c68c 61bd 0481 093e 2a11 603d cad5 d63d
00000110: 449d 47bd 5b90 c73d bcf3 753b 7193 d13d
00000120: 79f3 673d a3e9 0fbe 0858 d1bd 0975 ce3c
00000130: f03b 1f3e f1db 84bd 66fc ba3d be84 d9bd
00000140: 44dc c23d 2327 583d 5d71 53bd 0629 133e
00000150: 6daa 8bbd 4821 653d 20d3 65bd 518b 48b9
00000160: 94c6 913d 31fe 723d 13d8 2e3c 9795 1a3d
00000170: e4c0 94bd 1c02 debc 9d23 a93d e5e7 0c3d
00000180: 74d2 93bd 7301 d0bc b410 183e 0b14 47bd
00000190: ae1c b9bd 64e8 efbd f0d8 8abd 1a3b ebbd
000001a0: f403 3d3b f7d9 1a3e abc8 d23c 52f1 87bd
000001b0: 0a75 91bc 143b 253c c437 953d 97d9 d5bd
000001c0: 2dfc f7bc 9cba 7bbc 8c37 eb3d 52c4 b53d
000001d0: 7c81 0ebe ac82 a1bd 1cfa 9c3d 834b e53d
000001e0: 502d 163e a959 fa3c 270e 073e eff5 07be
000001f0: 809f 443d f2b2 fabd a090 cebd ed45 e5bd
00000200: eb7e f9bd 5485 bb3d edaa 04be 9f78 2dbe
00000210: 51a4 1b3e 88ca 5b3d c051 ee3d 3fba d7bd
00000220: 7c9b 193e 9d91 c03d 9002 8e3d 8abc 593d
00000230: 2bc2 413d ed61 00be 2147 d03d 9712 e8bc
00000240: 1351 1cbd 7c9e 353d fc43 f3bd 40ec 38be
00000250: a52c 183e b7c5 a1bd 09ab 88bd 632c dc3d
00000260: 73f7 b53d c309 b7bd 67a2 2ebe 5e64 e43d
00000270: 02b9 9ebd 9efb 27bc 8151 a23d 23ba 3ebd
00000280: ba24 35bd a3c2 e13b 4043 9c3c 563d f83d
00000290: f251 da3c d58d 013d 8773 083e b5c4 efbd
000002a0: 5ca6 1b3e ada6 8e3d 0af6 ca3d 0b38 0a3b
000002b0: ed41 ed3d 4f15 f63d b23e f33d 5e1c 353d
000002c0: dc9f b23d 839b cb3d dbab 1bbd ac74 853d
000002d0: 0e0f ddbd 2469 42bd f849 db3d 4823 e73c
000002e0: c674 073e 7b08 ea3d 7a4d 093e 0ad5 afbd
000002f0: b4c6 63bd 875c 09bc c7f0 d1ba 7d67 1cbe
00000300: eac3 59bd cb45 18be d0ce 0b3d 5f3f 85bd
00000310: 30f5 10bd df6a 223e bbff 1e3e 8242 23bd
00000320: fd31 893d b54c 983c 57a6 f3bc 7f0e 01be
00000330: 2382 f3bd 58aa b2bc cd6c 84bd 9f7f 033d
00000340: 5f9b 99bc fb25 1ebe b325 20bd 27a5 fe3d
00000350: d610 093e b529 0c3e e2f3 b83d aff5 273e
00000360: a982 083e 1095 24be a280 46bd b8dd fabd
00000370: 7493 a9bd 22f9 8bbd 438a 52bc 2585 683c
00000380: 7069 113c 2bfc 303d b9dd bb3d 0478 8f3d
00000390: 5bed b13c 397c b6bc 1971 f9bd 3647 4b3b
000003a0: 12ff bcbd 5a99 1ebe f4e2 003e ba7d d83d
000003b0: aae7 993b 0a61 123e 6180 f63c bb37 a1bd
000003c0: e071 22bd f3fd 873d 6442 9839 4550 0b3e
000003d0: 2f21 6cbd ee81 18be b57b 04be a955 833d
000003e0: d82f 32be 19bc d13c b0a2 8b3c 8816 85bd
000003f0: 7136 b8bd c6f3 7e3d 4b30 6e3d 1402 373d

model.rnn.weight_hh_l1 f4 [160, 40]
-0.064510636 0.14100206 0.05746946 -0.0155231785 0.08062134 0.123509064 -0.0072001177 0.0034624087
-0.07420962 0.036031675 -0.085712634 0.051224068 0.1442714 0.14625147 0.021586938 -0.042418744
-0.08474719 0.12063465 0.057048716 0.059261262 0.018079473 -0.0013989635 -0.0014924657 -0.083847746
0.14088577 -0.12350415 -0.10338995 0.043818098 0.11602692 -0.13514856 0.020740965 0.018205142
-0.14290985 -0.12782587 -0.014003217 0.058416978 -0.104637146 0.038207173 -0.11555529 -0.02961767
-0.045524303 -0.08235331 -0.127295 -0.070822224 -0.032191228 -0.06837044 0.041095395 -0.018087475
-0.05943328 0.041581172 -0.12835902 -0.04083039 -0.07692915 0.019281132 -0.045750074 0.07896573
-0.10844372 -0.044706862 0.050298735 0.13184635 0.034245137 -0.003082771 0.07722308 0.100699656
-0.11048056 0.013538397 -0.009290976 0.053823818 0.066531725 -0.070724435 -0.14214471 0.14177845
0.020038163 0.03967118 -0.084127836 -0.053404823 0.1086815 -0.022542046 0.14281872 0.1436272
-0.093970574 0.11566443 -0.011193925 0.038786903 0.12570114 0.09195049 -0.14283845 0.04719032
0.1406189 0.053660024 0.11193393 0.027706597 -0.13995029 0.09727204 -0.11846994 -0.051513024
0.052536514 -0.090586826 -0.11298548 0.030769015 0.124385506 0.035325333 0.03178873 0.09559184
-0.13238391 -0.120982975 0.1053201 -0.002049643 -0.09203593 0.04730331 0.019331343 0.0010345723
-0.014570586 -0.010518981 0.063011564 0.031465366 -0.12145898 -0.06291155 0.045547165 0.08573233
0.098720916 -0.05689869 0.13703093 0.028638799 -0.04396446 0.070519194 0.06315602 0.13428584
0.021893585 0.08216611 -0.13014694 0.12873167 0.043825556 -0.08936667 -0.092363074 0.04236812
0.09938218 0.07321859 -0.10602311 -0.09069739 0.11324139 -0.1314353 0.037887055 -0.06791121
0.09172554 0.10116037 0.027982587 -0.050748304 -0.14744928 -0.05364111 -0.12710218 -0.029331593
-0.04785773 -0.010884107 -0.09520453 -0.0011120269 0.11237637 -0.13583738 0.1158319 0.13513815
-0.122325756 0.086148545 -0.0122220665 -0.03357007 0.13649674 0.08662879 0.13468848 0.0419084
0.121096164 0.1356961 0.00896459 -0.072616845 0.15079145 -0.041668005 0.139904 -0.08139262
0.13600771 -0.104848675 0.14177847 -0.05720519 0.0029612118 0.14893042 0.12509638 -0.006295735
0.017609263 0.05757408 0.01613414 0.13420959 0.11723015 0.14846757 0.079938985 -0.019151974
-0.0015848571 0.037374627 -0.15097259 0.032351606 0.13011746 -0.100115776 -0.12188282 -0.052585308
-0.03445679 -0.13108876 -0.061834883 0.10979776 0.14414111 -0.05578245 -0.08723625 -0.009774759
0.05081331 -0.12560119 0.03305906 -0.04450936 -0.12221933 -0.033380505 0.032259 0.109195374
0.11793151 0.15063784 -0.14939453 -0.04663976 -0.02940587 0.022451252 -0.02950967 -0.11933721
-0.011404213 -0.013021732 -0.057284907 0.08661541 0.12535481 -0.071804 -0.044618893 -0.1181567
-0.10948484 0.093742944 -0.1310542 -0.070959665 -0.11164081 -0.03165886 -0.09067122 -0.13586238
0.06410548 -0.045171484 0.05654365 0.114306286 -0.027453046 -0.045587093 -0.08721312 -0.049692422
-0.10558209 -0.12378017 -0.06614668 -0.060893122 0.030869814 -0.10644749 -0.05355927 0.064583555
00000000: 271e 84bd d862 103e 1965 6b3d ee54 7ebc
00000010: cd1c a53d 52f2 fc3d f7ee ebbb 94e9 623b
00000020: 37fb 97bd f395 133d 1b8a afbd 54d0 513d
00000030: e2bb 133e f2c2 153e 17d7 b03c 47bf 2dbd
00000040: ef8f adbd 4d0f f73d eaab 693d f0bb 723d
00000050: 671b 943c 6d5d b7ba d79e c3ba 5eb8 abbd
00000060: 5c44 103e beef fcbd 1cbe d3bd 9b7a 333d
00000070: 869f ed3d 6264 0abe f5e8 a93c f322 953c
00000080: f656 12be c9e4 02be c06d 65bc a446 6f3d
00000090: 004c d6bd 207f 1c3d 40a8 ecbd c2a0 f2bc
000000a0: b177 3abd daa8 a8bd 9f59 02be 3e0b 91bd
000000b0: f3da 03bd cd05 8cbd a553 283d 2f2c 94bc
000000c0: 5070 73bd 0551 2a3d 8c70 03be c43d 27bd
000000d0: 088d 9dbd 77f3 9d3c 6e64 3bbd c9b8 a13d
000000e0: be17 debd 8b1e 37bd 0c06 4e3d bb02 073e
000000f0: a144 0c3d 5108 4abb 2227 9e3d 9f3b ce3d
00000100: a243 e2bd 27d0 5d3c 2e39 18bc 5d76 5c3d
00000110: c941 883d f9d7 90bd 628e 11be 5f2e 113e
00000120: 1327 a43c 3f7e 223d 374b acbd 04bf 5abd
00000130: 6894 de3d 19aa b8bc 123f 123e 0213 133e
00000140: a573 c0bd 79e1 ec3d b966 37bc 04df 1e3d
00000150: cdb7 003e 8a50 bc3d 3e44 12be a34a 413d
00000160: 67fe 0f3e 9dca 5b3d 9e3d e53d f2f8 e23c
00000170: 214f 0fbe 9036 c73d 5ea0 f2bd 52ff 52bd
00000180: 8730 573d 9685 b9bd ee64 e7bd 4d0f fc3c
00000190: d4bd fe3d 4cb1 103d e634 023d a8c5 c33d
000001a0: a68f 07be ecc5 f7bd 11b2 d73d 4e53 06bb
000001b0: 557d bcbd 1ec1 413d c45c 9e3c 7c9a 873a
000001c0: 78b9 6ebc ce57 2cbc 350c 813d d4e1 003d
000001d0: 7cbf f8bd c5d7 80bd aa8f 3a3d 6f94 af3d
000001e0: 312e ca3d 9a0e 69bd d651 0c3e ea9b ea3c
000001f0: 1414 34bd 5e6c 903d f257 813d 3a82 093e
00000200: 2d5a b33c b546 a83d 3d45 05be 3cd2 033e
00000210: 6d82 333d df05 b7bd da28 bdbd 328a 2d3d
00000220: e288 cb3d a1f3 953d a522 d9bd 8ebf b9bd
00000230: 1aeb e73d fa96 06be 752f 1b3d 0815 8bbd
00000240: 9ada bb3d 2b2d cf3d bd3b e53c 74dd 4fbd
00000250: f2fc 16be c8b6 5bbd 1327 02be cf48 f0bc
00000260: 7806 44bd 4153 32bc 98fa c2bd 6ec1 91ba
00000270: 9525 e63d f418 0bbe 4639 ed3d a861 0a3e
00000280: ed85 fabd a66e b03d 103f 48bc c580 09bd
00000290: cdc5 0b3e 6f6a b13d c7eb 093e 24a8 2b3d
000002a0: 4401 f83d ebf3 0a3e 37e0 123c 24b8 94bd
000002b0: 1369 1a3e 12ac 2abd ff42 0f3e 2db1 a6bd
000002c0: 9b45 0b3e e7ba d6bd 602e 113e fd4f 6abd
000002d0: e410 423b 3781 183e 4419 003e 744c cebb
000002e0: 4d41 903c ccd2 6b3d be2b 843c 3d6e 093e
000002f0: 5c16 f03d e207 183e 0db7 a33d 9ae4 9cbc
00000300: fbba cfba 2316 193d 8f98 1abe 1e83 043d
00000310: 833d 053e 8009 cdbd b39d f9bd b163 57bd
00000320: 9022 0dbd 223c 06be 9346 7dbd a6dd e03d
00000330: ba99 133e 237c 64bd eba8 b2bd 5026 20bc
00000340: 9e21 503d 999d 00be f068 073d 724f 36bd
00000350: 214e fabd ffb9 08bd 0322 043d d3a1 df3d
00000360: 1386 f13d ce40 1a3e e1fa 18be 5509 3fbd
00000370: 94e4 f0bc b0eb b73c 43be f1bc 1167 f4bd
00000380: bcd8 3abc 1a59 55bc 94a3 6abd 6c63 b13d
00000390: 035d 003e fa0d 93bd 4dc2 36bd 24fc f1bd
000003a0: 9639 e0bd 4dfc bf3d 1233 06be 4d53 91bd
000003b0: f0a3 e4bd b9ac 01bd d5b1 b9bd 821f 0bbe
000003c0: bc49 833d bc05 39bd 509a 673d 6a19 ea3d
000003d0: 36e5 e0bc 88b9 3abd cb9c b2bd 488a 4bbd
000003e0: 6c3b d8bd 7580 fdbd e977 87bd 116b 79bd
000003f0: b1e2 fc3c 2401 dabd f760 5bbd 6244 843d

model.rnn.bias_ih_l1 f4 [160]
0.013166237 -0.073968716 0.098268844 0.12661508 -0.14457491 0.09673149 0.040337145 0.012504256
-0.036861844 -0.12464131 -0.06355008 0.0015626571 -0.15339698 -0.06986539 0.02696415 -0.13881017
0.1011704 0.071134955 0.047689557 -0.0168531 0.060880903 0.059796657 -0.090751566 0.15298085
-0.027746908 0.00949573 0.069989234 0.09639514 -0.019042693 -0.0824728 0.062009998 -0.123990156
-0.049066197 0.052817237 -0.1305178 0.095150776 -0.103721336 -0.05002553 -0.065231554 -0.0027166135
0.08796442 0.06048491 -0.06686218 -0.004293834 -0.11948641 -0.028427642 0.01356254 -0.03254052
-0.05749197 -0.08074322 0.00196829 0.1144355 -0.04229098 0.00092166127 0.022756988 -0.022787478
-0.116880834 -0.064081274 -0.05381597 0.13280247 -0.08079255 -0.118115805 0.11630402 0.07051659
0.07970761 0.07371514 0.10193578 0.019339135 -0.041192174 -0.07998202 0.025669478 0.030870806
-0.1177168 -0.14923541 -0.12537311 0.04975309 0.03514628 -0.058544166 0.034832075 0.09711281
-0.17694606 -0.08305837 0.12939091 -0.049753312 -0.071844935 -0.12927173 -0.00046721872 -0.059259538
-0.1605823 0.11334797 -0.12471566 -0.0680519 -0.08290976 0.14666055 -0.0533701 -0.07373174
0.12805235 0.11833785 0.11558409 -0.14582315 0.18286934 0.06400317 0.02327576 -0.05043698
0.012052424 0.10864039 0.089009345 -0.17423129 -0.14313702 -0.01673184 0.14717914 -0.016034344
0.052843522 -0.118162565 0.049022112 -0.12012689 0.076899275 -0.011786686 0.06280425 0.08564274
0.096293345 0.08315352 0.08060899 0.030154943 -0.0626564 -0.08060086 -0.11169846 -0.16537297
-0.085224405 -0.14992504 -0.025401017 0.19532266 0.13980316 0.033309016 -0.10854811 0.091487594
-0.006239251 -0.09664721 -0.011575908 -0.14883173 -0.12304748 0.017985668 -0.08310057 0.15145518
0.09730498 -0.103247985 -0.07427661 -0.05270645 0.0007055904 0.097430326 0.038903452 0.10256577
-0.09968822 -0.09645487 0.0592486 0.12941222 0.014788322 -0.031827353 -0.020970456 0.09215796
00000000: 33b7 573c e97c 97bd 2d41 c93d 62a7 013e
00000010: 720b 14be 291b c63d 9038 253d a7de 4c3c
00000020: 72fc 16bd f143 ffbd 8b26 82bd 12d2 cc3a
00000030: 1914 1dbe 9615 8fbd ece3 dc3c 4124 0ebe
00000040: 6d32 cf3d 34af 913d 2056 433d 830f 8abc
00000050: 415e 793d 57ed 743d f5db b9bd 03a7 1c3e
00000060: 7c4d e3bc fa93 1b3c 8456 8f3d d16a c53d
00000070: 6cff 9bbc 80e7 a8bd 32fe 7d3d 8dee fdbd
00000080: a3f9 48bd e356 583d 75a6 05be 69de c23d
00000090: da6b d4bd 92e7 4cbd 1f98 85bd 3609 32bb
000000a0: b126 b43d 06bf 773d 0aef 88bd 4ab3 8cbb
000000b0: 4ab5 f4bd 16e1 e8bc 6a35 5e3c 3549 05bd
000000c0: b37c 6bbd b45c a5bd 6dfe 003b 295d ea3d
000000d0: 4f39 2dbd a49b 713a dd6c ba3c ceac babc
000000e0: 385f efbd 0b3d 83bd 226e 5cbd 5ffd 073e
000000f0: 9176 a5bd b3e6 f1bd cd30 ee3d 006b 903d
00000100: be3d a33d f7f7 963d b5c3 d03d 1b6d 9e3c
00000110: 20b9 28bd 9dcd a3bd cc48 d23c c6e4 fc3c
00000120: 8115 f1bd 2bd1 18be cf61 00be e5c9 4b3d
00000130: 8cf5 0f3d 02cc 6fbd 14ac 0e3d 15e3 c63d
00000140: 5931 35be 821a aabd 0d7f 043e 21ca 4bbd
00000150: 7023 93bd cf5f 04be 09f5 f4b9 21ba 72bd
00000160: b06f 24be fb22 e83d ed6a ffbd cb5e 8bbd
00000170: 98cc a9bd 2f2e 163e 9b9a 5abd ab00 97bd
00000180: 2820 033e 1d5b f23d 5ab7 ec3d aa52 15be
00000190: 1a42 3b3e 1814 833d ceac be3c 0297 4ebd
000001a0: 8877 453c da7e de3d 884a b63d b069 32be
000001b0: 8392 12be 3611 89bc 21b6 163e 755a 83bc
000001c0: 7372 583d 37ff f1bd 69cb 483d 1605 f6bd
000001d0: 5e7d 9d3d f21c 41bc 849f 803d 7665 af3d
000001e0: 7235 c53d 654c aa3d 5316 a53d 8007 f73c
000001f0: 0052 80bd 1012 a5bd 2ac2 e4bd 8857 29be
00000200: 228a aebd f385 19be cb15 d0bc aa02 483e
00000210: 8f28 0f3e 096f 083d 794e debd d95d bb3d
00000220: a172 ccbb f9ee c5bd e1a8 3dbc 5867 18be
00000230: 5100 fcbd ae56 933c a230 aabd 1117 1b3e
00000240: d547 c73d ae73 d3bd 561e 98bd b8e2 57bd
00000250: 5ff7 383a 8d89 c73d 3a59 1f3d 010e d23d
00000260: 5629 ccbd 228a c5bd a9ae 723d a384 043e
00000270: b84a 723c 665d 02bd 3cca abbc 50bd bc3d

model.rnn.bias_hh_l1 f4 [160]
0.1090563 -0.026647415 0.14272922 -0.07262292 0.13631341 0.10383351 0.11600055 -0.13982394
0.009169626 -0.015536441 0.020921566 0.13134016 -0.029289434 -0.004670406 -0.11422674 0.057310313
0.053814642 0.022110278 -0.048110228 -0.13255809 0.04713459 -0.043779016 0.035030358 0.024830304
-0.066706374 -0.06942101 0.12066459 -0.08157226 0.11245824 -0.07363387 0.048158035 -0.057383463
-0.07725644 -0.12485089 0.107273124 -0.037771463 -0.09441832 0.044643134 -0.076189645 -0.117397495
0.14206095 0.0125736715 0.1508802 0.006716573 0.09035001 0.094860114 -0.0208194 0.09226128
0.00019846686 -0.089356236 -0.01871428 -0.037198342 0.06274738 -0.07050262 0.11628978 0.07347534
0.090508185 -0.10121964 -0.07102868 0.050040025 0.13244565 -0.0046094647 -0.10569739 -0.042648956
-0.05285533 -0.117020056 -0.0024122803 -0.10839391 -0.038497183 -0.09478008 0.12699679 0.041329443
-0.062400997 -0.105894536 -0.14574282 0.1345667 -0.07214268 0.01595459 0.091222405 -0.12283345
0.055757582 0.07953771 -0.037809633 -0.09550004 -0.06548215 0.009880967 -0.0004551376 -0.041714888
0.108699895 -0.1495746 -0.052107994 -0.005132529 -0.107716836 0.007937399 -0.05082595 -0.07500974
-0.13188338 0.102810495 -0.17141297 0.06988664 -0.08914879 0.12559856 0.12153864 -0.07940715
-0.03491528 0.03034098 0.07664425 0.081893824 0.03153291 0.076444335 -0.07903899 0.0119036045
0.061921235 0.009861287 0.18198954 -0.12575006 -0.017059902 -0.12691757 -0.11257627 0.15224537
0.19351988 0.062082544 0.06455564 0.03588987 -0.08670059 0.0026375619 0.07353516 0.04325413
-0.062106315 0.014630826 -0.026285319 -0.043886248 0.088286325 0.12681723 0.12334959 -0.0067546032
-0.14602332 0.06717828 0.049117576 -0.026946504 -0.0070161754 -0.041862693 -0.12156559 -0.0039026923
-0.12392322 -0.02946669 -0.10551824 0.035258304 -0.0060651656 -0.0212797 0.05296124 -0.032085
0.15197128 -0.0014663461 0.0073485216 0.041694295 -0.0019261385 -0.094319195 0.067202784 -0.11649379
00000000: e958 df3d ae4b dabc 9c27 123e 53bb 94bd
00000010: be95 0b3e aaa6 d43d b291 ed3d 022e 0fbe
00000020: 333c 163c 8e8c 7ebc b463 ab3c 097e 063e
00000030: 65f0 efbc 350a 99bb b6ef e9bd 38be 6a3d
00000040: be6c 5c3d 9d20 b53c 3b0f 45bd 4fbd 07be
00000050: 3310 413d a051 33bd fe7b 0f3d ec68 cb3c
00000060: 5a9d 88bd 9a2c 8ebd ff1e f73d 5b0f a7bd
00000070: 8150 e63d 5bcd 96bd 5c41 453d ec0a 6bbd
00000080: a038 9ebd d3b1 ffbd 03b2 db3d 40b6 1abd
00000090: 645e c1bd b8db 363d 5109 9cbd 196e f0bd
000000a0: 6d78 113e cd01 4e3c 5780 1a3e b316 dc3b
000000b0: 6d09 b93d 0546 c23d 728d aabc 7bf3 bc3d
000000c0: 8b1b 5039 6700 b7bd b14e 99bc 4a5d 18bd
000000d0: b381 803d ad63 90bd 5629 ee3d 3d7a 963d
000000e0: 5b5c b93d 3e4c cfbd 7c77 91bd c5f6 4c3d
000000f0: d59f 073e fe0a 97bb e077 d8bd acb0 2ebd
00000100: d57e 58bd 36a8 efbd 5917 1ebb a0fd ddbd
00000110: 39af 1dbd 0f1c c2bd 720b 023e 1049 293d
00000120: 3098 7fbd 3cdf d8bd 9b3d 15be dacb 093e
00000130: 8bbf 93bd 33b3 823c d0d2 ba3d 1b90 fbbd
00000140: 1062 643d abe4 a23d 46de 1abd 8695 c3bd
00000150: 811b 86bd c8e3 213c 899f eeb9 3bdd 2abd
00000160: 0d9e de3d 152a 19be 316f 55bd c62e a8bb
00000170: a59a dcbd dd0b 023c df2e 50bd b59e 99bd
00000180: 700c 07be 4f8e d23d e286 2fbe ba20 8f3d
00000190: a493 b6bd e99c 003e 40e9 f83d 37a0 a2bd
000001a0: 5303 0fbd a68d f83c a9f7 9c3d f3b7 a73d
000001b0: a728 013d d98e 9c3d 32df a1bd 5607 433c
000001c0: 1fa1 7d3d 3c91 213c 775b 3a3e a0c4 00be
000001d0: 35c1 8bbc aef6 01be 638e e6bd 36e6 1b3e
000001e0: 132a 463e 444a 7e3d bf35 843d 4201 133d
000001f0: 1490 b1bd f2da 2c3b 9a99 963d 3e2b 313d
00000200: 3163 7ebd 22b6 6f3c 4f54 d7bc 11c2 33bd
00000210: 76cf b43d 60dc 013e b69e fc3d b855 ddbb
00000220: 2387 15be c494 893d 832f 493d eabe dcbc
00000230: f2e7 e5bb 3778 2bbd 61f7 f8bd 50c4 7fbb
00000240: 75cb fdbd 2164 f1bc f219 d8bd 036b 103d
00000250: 4cbe c6bb c452 aebc e3ed 583d 906b 03bd
00000260: 5c9e 1b3e 6932 c0ba decb f03b a3c7 2a3d
00000270: 7c76 fcba 6c2a c1bd 9da1 893d 4c94 eebd

exp_avg f4 [1, 40]
0.011302253 0.0032354803 -0.006929203 -0.0010077979 0.0021845317 -0.00092498603 0.009835358 0.0036225358
0.0042311763 -0.0023310422 0.008767598 0.0111593865 -0.003421996 -0.0066621783 0.001616813 1.1750142e-05
2.4005644e-06 0.009594299 0.00020384422 -0.00029581296 -0.00779683 0.010991864 0.000116566895 -0.002658204
-0.00545472 0.009732204 -0.00020307986 0.010872125 0.00022018919 -0.0077023953 0.00282114 0.0002306148
-0.011306749 0.012504255 -0.0056320843 0.0003310003 0.010821443 0.0062153265 0.009866112 -0.007909002
00000000: 162d 393c 5a0a 543b 5e0e e3bb 1618 84ba
00000010: 5c2a 0f3b c37a 72ba 7b24 213c 1168 6d3b
00000020: aea5 8a3b 66c4 18bb f9a5 0f3c dcd5 363c
00000030: 9143 60bb 674e dabb 3eeb d33a 7a22 4537
00000040: 6219 2136 6831 1d3c 04bf 5539 5817 9bb9
00000050: 8d7c ffbb 3817 343c 6075 f438 4335 2ebb
00000060: 82bd b2bb d273 1f3c d6f1 54b9 ff20 323c
00000070: 96e2 6639 6064 fcbb e0e2 383b 30d1 7139
00000080: f13f 39bc a6de 4c3c 598d b8bb 1c8a ad39
00000090: 6c4c 313c f0a9 cb3b 79a5 213c c294 01bc

exp_avg_sq f4 [1, 40]
4.8756915e-06 2.7624037e-07 3.5969072e-06 4.827358e-07 1.5779425e-07 7.3559086e-08 2.853951e-06 5.526515e-07
4.64544e-07 1.6195605e-06 3.007618e-06 3.8132998e-06 1.0865058e-06 3.9723814e-06 2.1238293e-07 3.7333308e-08
2.4725166e-09 2.2055115e-06 4.9970417e-08 1.9351938e-07 1.6740541e-06 6.656789e-06 1.502393e-08 2.9642882e-07
2.05399e-06 2.3212192e-06 1.3403891e-08 3.9329725e-06 5.254832e-08 4.00307e-06 4.2712588e-07 2.9028726e-07
4.8208985e-06 6.542568e-06 2.0820937e-06 2.0728955e-08 3.0588044e-06 2.7262338e-06 3.2771989e-06 1.8842502e-06
00000000: df99 a336 304e 9434 6562 7136 5a95 0135
00000010: 276e 2934 89f7 9d33 8186 3f36 ec59 1435
00000020: 7166 f934 ad5f d935 7cd6 4936 fee7 7f36
00000030: 0ed4 9135 7f4a 8536 600b 6434 6858 2033
00000040: f9e8 2931 6602 1436 0e9f 5633 34ca 4f34
00000050: 10b0 e035 625d df36 f90d 8132 de24 9f34
00000060: 48d7 0936 3ec6 1b36 f046 6632 faf7 8336
00000070: 7db1 6133 1c52 8636 bc4f e534 c7d8 9b34
00000080: 34c3 a136 3b88 db36 19ba 0b36 740f b232
00000090: dc45 4d36 57f4 3636 d9ed 5b36 58e6 fc35

exp_avg f4 [1, 40]
-0.12733704 -0.054488897 0.09750293 0.0072042714 -0.02819489 0.023055103 -0.14297213 -0.073574886
-0.052735455 0.029350348 -0.10102098 -0.1362008 0.058018357 0.10150649 -0.014826978 0.001750701
-0.0007390566 -0.10916619 0.0036455272 -0.002552983 0.12726031 -0.12847511 0.000107989385 0.018255904
0.07811508 -0.13414697 0.0031646541 -0.13678098 -0.0040639713 0.111416675 -0.034935687 -0.004595138
0.13894507 -0.1297152 0.05642285 -0.0025070945 -0.12216348 -0.082637504 -0.12431379 0.12997745
00000000: a464 02be c02f 5fbd 9eaf c73d cf11 ec3b
00000010: f8f8 e6bc 0ede bc3c 4967 12be 6eae 96bd
00000020: 2201 58bd 2470 f03c 16e4 cebd 3978 0bbe
00000030: a8a4 6d3d a2e2 cf3d daec 72bc c777 e53a
00000040: 40bd 41ba 8692 dfbd cce9 6e3b f24f 27bb
00000050: 8750 023e fb8e 03be 5c78 e238 688d 953c
00000060: cdfa 9f3d d35d 09be 1666 4f3b 5010 0cbe
00000070: 102b 85bb 6d2e e43d b918 0fbd d092 96bb
00000080: 9e47 0e3e 10d4 04be a51b 673d 114e 24bb
00000090: d930 fabd da3d a9bd 3a98 febd cf18 053e

exp_avg_sq f4 [1, 40]
0.0049552512 0.00028479373 0.0047160108 0.00064742204 0.0001582153 0.0001682351 0.00294209 0.00093531766
0.0005402331 0.0022205703 0.0030895774 0.003706384 0.0020773201 0.0055308933 0.00025944837 0.000119292235
6.15628e-06 0.0017341716 0.0001270583 0.00031099402 0.0016673348 0.008115339 4.5740522e-05 0.0005153903
0.002470531 0.0019517263 3.9686693e-05 0.0037814989 7.289705e-05 0.004845248 0.0004882679 0.0003588997
0.0049738293 0.0066759987 0.0025706685 2.807613e-05 0.0025464108 0.0034888033 0.0032549521 0.002207942
00000000: a95f a23b 5e50 9539 c488 9a3b c2b7 293a
00000010: 99e6 2539 4468 3039 14d0 403b 1b30 753a
00000020: 6e9e 0d3a fd86 113b 827a 4a3b cee6 723b
00000030: a623 083b 7f3c b53b 9206 8839 882c fa38
00000040: 0b92 ce36 254d e33a f43a 0539 e90c a339
00000050: 798a da3a 33f6 043c 83d9 3f38 421b 073a
00000060: a2e8 213b 11d1 ff3a 4375 2638 06d3 773b
00000070: 4ee0 9838 e3c4 9e3b 35fe ff39 b42a bc39
00000080: 81fb a23b 56c2 da3b a978 283b 0885 eb37
00000090: afe1 263b 68a4 643b 0951 553b 1fb3 103b

exp_avg f4 [1, 40]
-0.50050485 -0.1459519 0.2967332 0.037817564 -0.1042145 0.04396917 -0.4468812 -0.17310834
-0.19840339 0.09481057 -0.3873024 -0.4990954 0.16728416 0.28509346 -0.07005517 0.00019712088
-0.00012901174 -0.43527687 -0.00923592 0.009154477 0.3501309 -0.48164126 -0.00486163 0.12138757
0.23551317 -0.4428297 0.009385966 -0.48615456 -0.008062477 0.32927167 -0.14357343 -0.0045936266
0.50334966 -0.5505433 0.24528721 -0.013163266 -0.48941556 -0.27106178 -0.43996587 0.35696182
00000000: 1621 00bf 6a74 15be 6aed 973e 97e6 1a3d
00000010: 696e d5bd 0419 343d 9dcd e4be 5043 31be
00000020: 422a 4bbe 0b2c c23d 804c c6be 6f89 ffbe
00000030: 8a4c 2b3e c5f7 913e 1679 8fbd 3cb2 4e39
00000040: 5347 07b9 9cdc debe 4252 17bc a9fc 153c
00000050: 5b44 b33e af99 f6be 4f4e 9fbb 0c9a f83d
00000060: 5d2a 713e 93ba e2be 98c7 193c 40e9 f8be
00000070: 7b18 04bc 4c96 a83e ea04 13be 2286 96bb
00000080: 86db 003f 68f0 0cbf 922c 7b3e bdaa 57bc
00000090: ad94 fabe 9cc8 8abe 3543 e1be b3c3 b63e

exp_avg_sq f4 [1, 40]
0.0070028803 0.00046181885 0.0037394355 0.00038403264 0.00023509307 4.2861404e-05 0.004731304 0.00061365275
0.0007585214 0.0013686585 0.0042923396 0.0062015033 0.0006956543 0.0037974068 0.0002365342 3.4277566e-06
2.4563897e-07 0.004088083 6.8077916e-06 8.3608014e-05 0.0027869346 0.00752406 3.0477654e-06 0.00031132126
0.0023712881 0.0042721415 3.5496673e-06 0.0061973473 4.508873e-05 0.0047127525 0.0005590318 0.0002749731
0.007007298 0.009036269 0.0023696227 1.905174e-05 0.005486493 0.0030288794 0.004976948 0.0027946213
00000000: 6b78 e53b 4720 f239 5111 753b fd57 c939
00000010: 5183 7639 15c6 3338 0e09 9b3b 8add 203a
00000020: 82d7 463a 8f64 b33a c1a6 8c3b fb35 cb3b
00000030: 925c 363a eadd 783b 2a06 7839 6908 6636
00000040: 5de0 8334 53f5 853b 7c6e e436 b656 af38
00000050: 01a5 363b 648c f63b 3688 4c36 d538 a339
00000060: 9d67 1b3b 52fd 8b3b d236 6e36 1e13 cb3b
00000070: a81d 3d38 6f6d 9a3b fd8b 123a 442a 9039
00000080: 7a9d e53b dc0c 143c ac4b 1b3b 4dd1 9f37
00000090: 0ac8 b33b 2a80 463b aa15 a33b f725 373b
