deep-learning/rv_only/lightning_logs/version_45/checkpoints/epoch=4-step=250.ckpt (torch, 331231 bytes, 33 tensors)

model.param_proj.proj.0.weight f4 [1, 40]
000000 21 a2 92 bd f9 96 cd 3d 4a 7b fd 3c 0e 57 ce 3d
       -0.0715983 0.100385614 0.030942578 0.10075198
000010 68 7c 28 3d 7c 2e 41 3e d8 8d f1 3d d2 87 a1 3a
       0.041134268 0.18865389 0.11794633 0.0012323803
000020 88 10 ec 3c 12 48 1f 3d 51 8e 19 be e2 cc ad bd
       0.028816476 0.03888709 -0.14995696 -0.08486344
000030 86 ef af bd 57 5a 67 be bb 46 77 be 7a 2b b2 3c
       -0.08590607 -0.22593056 -0.24148075 0.021749247
000040 c8 61 61 bd 3a 04 36 3e 5a e1 4c 3d 17 01 ec bd
       -0.055024892 0.1777505 0.0500196 -0.11523645
000050 02 e9 80 bd 16 b3 82 bc 78 b6 8f 3d 6a d1 08 3e
       -0.06294443 -0.015954535 0.07017225 0.13361135
000060 01 15 e9 3d e9 44 58 3e 55 84 1b 3e 3c 1a 87 bb
       0.11380959 0.21120037 0.151872 -0.0041230004
000070 a0 4e c4 37 6c ac 00 be cb f5 11 3d b0 4b 9f bb
       2.3401633e-05 -0.12565774 0.035634797 -0.0048613176
000080 32 07 f7 bd 49 9b b1 be 85 66 40 be 66 3e 95 3c
       -0.12061919 -0.34688786 -0.18789108 0.01821823
000090 fe d9 4b 3e 59 0f 48 3d a8 3a 09 bd 3b ed 20 be
       0.19907376 0.04884276 -0.033503205 -0.15715496

model.param_proj.proj.1.weight f4 [1, 40]
000000 b1 4d c2 bc 55 15 e1 3b 61 88 f5 3d 6d 24 8d bd
       -0.023718687 0.006868998 0.11988903 -0.06891713
000010 ee ba a8 bc 6d e7 2b 3d 70 03 68 3d c8 9d 00 be
       -0.020596948 0.04196875 0.056643903 -0.12560189
000020 73 49 c5 bd 9b 96 9c 3a 7c 1f f7 bd 21 bb 9a 3d
       -0.0963315 0.0011946739 -0.12066552 0.07555223
000030 07 27 21 be d7 0a fb bd 79 ed d2 bc 7d 4a 72 3d
       -0.15737544 -0.12257927 -0.025748001 0.05915307
000040 a4 6c a2 3b bd 67 f7 bd a9 d8 08 3d c5 19 62 bd
       0.0049567986 -0.120803334 0.03340975 -0.055200357
000050 1a c6 c1 3d c1 80 e5 bd 38 01 a8 bc df 81 65 3b
       0.09461613 -0.112061985 -0.020508394 0.0035020036
000060 be 2f 14 3e 42 82 f8 3d 55 ee ae bd 94 ad a6 3d
       0.14471337 0.1213422 -0.08541552 0.08138576
000070 af 7f 2b 3e bf 59 79 bc e5 2c 2b 3d 1c 43 61 bd
       0.16747926 -0.015219151 0.04179086 -0.05499564
000080 d0 a8 00 be 8e 78 f8 3d e6 65 7d 3d 4d 4f 66 bd
       -0.12564397 0.12132369 0.061864756 -0.05622797
000090 c6 5f ab bd 65 28 eb 3d ea 06 15 3e 28 0a db bc
       -0.08367877 0.11482314 0.14553419 -0.026738241

model.param_proj.proj.2.weight f4 [1, 40]
000000 1a 6e e3 bd a8 26 3a be 62 06 6d 3b 56 16 bf 3c
       -0.111049846 -0.18178809 0.0036167135 0.02332608
000010 ca c9 4c bd 98 81 7e bd 9f ab a4 bd fe 6e e7 3d
       -0.04999713 -0.06213531 -0.080405466 0.11300467
000020 ec b5 32 3e 78 25 f9 3d 7c 6c 13 3e f6 d6 d4 3d
       0.1745221 0.1216535 0.14396852 0.10392563
000030 86 0b 32 3e 89 ad a3 3d 6d 79 d1 3d 61 3c 94 bd
       0.17387208 0.079920836 0.10228238 -0.07238079
000040 cf 2e c5 3d 38 33 bb bd 61 05 16 3d 93 ec 2e 3e
       0.09628069 -0.091406286 0.036626223 0.17082433
000050 7e 4f 9c 3d 90 b5 6a bd e7 3f 13 be 9b 33 00 be
       0.076323494 -0.057302058 -0.14379846 -0.12519686
000060 19 72 9e bd 19 23 01 be 10 c4 9a bd 87 cc cc bd
       -0.07736606 -0.12611045 -0.07556927 -0.09999948
000070 8a 85 79 be 48 e7 14 3e 2a af 06 be b0 4d 14 be
       -0.24367347 0.14541352 -0.13152757 -0.1448276
000080 bb 70 12 3e 20 a7 54 3e 90 dc 1d 3e bc 14 f9 bd
       0.14300816 0.20766878 0.15416169 -0.12162158
000090 cc 55 fe bd 91 49 20 bd 68 e9 d4 3d 88 0d b9 bc
       -0.12418708 -0.03913266 0.10396081 -0.02258946

model.rnn.weight_ih_l0 f4 [160, 37]
000000 8b 91 2e 3e 8c 2d b7 3d 29 02 9e bd ec 23 f2 3d
       0.17047708 0.08944234 -0.07715256 0.11823258
000010 2e b5 c6 bd 6a 0c b0 3d 29 c4 0a 3e 12 e3 0d 3d
       -0.09702526 0.08596118 0.13551392 0.03464038
000020 22 68 2b 3e eb 4d db 3d 6b f7 22 3d 37 28 d4 bc
       0.16738942 0.10708221 0.039786737 -0.025898082
000030 19 d9 f1 3a 77 1c a5 3d f2 00 44 3d 9f 42 bb bd
       0.0018451541 0.0806207 0.047852464 -0.09143566
000040 91 c8 35 3e bd b6 05 3e 30 63 74 bd f5 9a 13 3e
       0.17752291 0.1305799 -0.059664905 0.1441458
000050 17 89 18 3e 59 fe 02 be 6f 4b 9e 3d 0a fb f9 3d
       0.14896046 -0.12792338 0.077292316 0.12206085
000060 7f 17 d2 3d 0c b8 b1 bd 0d 88 0b bd 4d f3 c9 bd
       0.10258388 -0.08677682 -0.034065295 -0.09860859
000070 93 bd b2 3d 72 e1 d9 3c 21 ef 42 3e 98 a1 55 3d
       0.08727565 0.026596759 0.19036533 0.05215606
000080 34 10 61 bb 58 2b ac 3c 3b c5 75 bc ee 17 1d be
       -0.0034341933 0.021016762 -0.015000637 -0.1534116
000090 cd 77 19 3e ff 9c 65 3d 7c bd ba 3d ba 02 90 bd
       0.14987107 0.056057926 0.091181725 -0.0703177
0000a0 35 78 2a 3e f1 5c 82 bc c1 69 42 3c a9 e4 ff 3d
       0.16647418 -0.015913459 0.011866034 0.12494785
0000b0 52 25 09 be d7 99 db bd 7c 2e a8 bd b0 52 25 3c
       -0.13393143 -0.10722702 -0.08211991 0.010090515
0000c0 d9 b5 39 3e c1 d9 ea bd 47 9d d3 bd ce e5 8f bd
       0.18135776 -0.114673145 -0.10332733 -0.07026254
0000d0 8e 4a 12 3c cf 00 91 bd 5a d8 34 3e 6d b2 bc 3d
       0.008928908 -0.07080232 0.17660657 0.092137195
0000e0 dc 89 ac 3d 36 11 28 bb 5a 4a a8 3d 64 27 da bc
       0.08424732 -0.0025645024 0.082173064 -0.026630111
0000f0 5b ba 2e 3e c6 10 62 3d 4f 73 af bc 6b c4 9a 3c
       0.17063276 0.055191778 -0.021417288 0.018892488
000100 65 d5 15 3e e3 75 17 be a8 01 0d be f7 2a d9 bd
       0.14632185 -0.14791064 -0.13770163 -0.10603898
000110 81 4d 9e 3d 97 cd 21 be 6e 9b 1f bd 3b bc 22 3d
       0.077296264 -0.15801083 -0.03896659 0.03973029
000120 38 7f 43 bd 63 84 26 3e 7f 62 d5 3d 1e 21 fe bd
       -0.047728747 0.16261439 0.10419177 -0.1240866
000130 e2 f9 fd 3c 75 77 c8 3c 22 ed b1 bd 1e 5b 99 bd
       0.031002942 0.024471024 -0.086878076 -0.07488082
000140 7a 59 3d 3e 86 76 c7 3d 84 9e 87 3d 49 d4 b4 3c
       0.18491164 0.097394034 0.06622031 0.022073882
000150 ce 3b 38 3e 9a 8a d6 3d 50 3a 40 3c 1e fa 41 bd
       0.17991564 0.10475655 0.011732653 -0.04735767
000160 8b 0e 92 3c cc 40 92 bd 6f 61 03 be e0 92 b9 bd
       0.0178292 -0.07141265 -0.12830137 -0.09061217
000170 e9 5f 07 be 84 42 2c bd eb e8 a7 3d 0e 82 0b 3e
       -0.1322018 -0.04205562 0.081987225 0.1362383
000180 93 3d 21 3d 8e dd 00 be 4f 5d 0f 3e dd 2c 2a be
       0.039365362 -0.12584516 0.14000438 -0.16618676
000190 90 d1 60 3d 84 3e 0e be 0f 2e d6 3d a0 86 41 3d
       0.054887354 -0.13891035 0.10458004 0.04724753
0001a0 bb 1c b4 3d 20 2e df bc 68 a1 4d be 9a 78 f3 3d
       0.087945424 -0.027243674 -0.20081103 0.11888237
0001b0 9d 86 65 bd 38 7f e6 bd ce 91 d3 3d a0 5e ac 3d
       -0.05603658 -0.11254734 0.103305444 0.08416486
0001c0 24 04 51 bc ea ce 2a 3d 00 1a 1e bc ea 18 42 3e
       -0.012757335 0.041701235 -0.009649754 0.18954816
0001d0 08 18 89 bd fa ca 15 3e 27 e4 d5 bd 7d 6b ad 3c
       -0.06694037 0.1462821 -0.10443907 0.021169418
0001e0 50 d5 e6 3b 20 44 f4 bb e1 d5 82 bd 2e da c0 3d
       0.007044472 -0.00745441 -0.063884504 0.094166145
0001f0 50 d4 2c 3e e3 1c 2f 3e 30 8f 44 3e cf e8 c4 3d
       0.16877866 0.17100863 0.19195247 0.09614717
000200 ac 12 0b 3e 33 dd c0 bd c8 b3 df bd a9 47 18 3e
       0.13581342 -0.094171904 -0.109229624 0.14871086
000210 31 3a 8f 3d 9f e7 8f bd 38 23 83 bc c0 a5 62 bd
       0.06993521 -0.070266 -0.016008005 -0.055333853
000220 17 d3 3e 3e 17 46 d5 bd fe 99 f3 3d 00 77 cd 3d
       0.18635212 -0.10413759 0.11894606 0.10032463
000230 0a 07 e0 3d 60 a9 0a 3a 57 dc 33 3d 1e 0b dc 3d
       0.109388426 0.0005289521 0.043911304 0.10744308
000240 17 fa 33 bd dd 7c de bd a5 e4 e0 bd a5 38 25 3e
       -0.043939676 -0.108636595 -0.109811105 0.1613489
000250 bd cc 15 be 3f bc 99 3b 8f 9f 96 3d d9 bc ba bd
       -0.14628883 0.00469163 0.07354652 -0.09118051
000260 b9 a2 db bb 04 37 eb 3d 37 66 6e 3d 02 35 da 3d
       -0.0067027477 0.11485103 0.05820295 0.10654642
000270 9e 61 14 be fb f0 19 3b fb 6c 03 3e fa 6f b0 bd
       -0.14490363 0.0023489583 0.12834541 -0.08615108
000280 86 7d 12 be 00 47 0e bd 31 32 e9 3d d7 24 39 be
       -0.14305696 -0.03473568 0.113865264 -0.1808046
000290 4f 1b 7f bc b0 41 c4 bd 5e d6 0f bd b5 e1 ac bd
       -0.015570476 -0.095828414 -0.035116546 -0.08441488
0002a0 a3 46 01 3e 75 c1 b5 bc ca 80 be 3d 3d 12 59 3d
       0.12624602 -0.022186974 0.09301908 0.05299591
0002b0 61 67 e9 3d 76 47 e9 bd b6 70 b8 bd df 4c 18 bd
       0.11396671 -0.11390583 -0.09005873 -0.037182685
0002c0 7f 01 d3 3d a8 c1 05 be 73 13 0e 3d a8 07 b1 3d
       0.1030302 -0.13062155 0.034686517 0.086440384
0002d0 12 72 fd 3d 10 90 ed bc 28 f7 88 3d 6a 91 11 be
       0.12375273 -0.028999358 0.06687766 -0.14215627
0002e0 eb 2d 8f 3c 75 d5 63 bd 3d 9d 1c be f8 d5 ad bc
       0.01747795 -0.05562349 -0.15294357 -0.021220192
0002f0 22 4a 7c 3d d3 c9 ee 3d f8 eb 9c 3d 0b b5 02 bc
       0.061594136 0.11659589 0.07662195 -0.007977734
000300 d6 97 1a be d9 3e 1a be 0e 72 a8 3d a1 73 54 bd
       -0.15096983 -0.15063037 0.08224879 -0.051868085
000310 6a 0b 76 3d 00 5d 15 3b 9a a2 f4 3c 67 94 3c 3c
       0.06006948 0.0022791028 0.02986269 0.011509991
000320 d8 b6 05 3e b6 f3 c5 bd 30 8c ea 3d b3 e5 a2 bd
       0.1305803 -0.09665625 0.1145252 -0.07953968
000330 06 a4 1d bd 28 76 fd bb 6c 84 2d 3e e5 25 1c 3e
       -0.038486503 -0.0077350326 0.16945046 0.1524883
000340 5a 6d b8 bd bd 4a f4 bc b8 34 40 bd 60 15 24 be
       -0.09005232 -0.029820794 -0.046925277 -0.16023779
000350 f1 51 47 be 9f 20 08 bd d2 55 91 3b 2d e1 f5 3d
       -0.19464852 -0.033234235 0.0044352794 0.120058395
000360 32 cb 25 bd dc 65 1b 3d b6 f6 19 3b 75 cd 90 bb
       -0.040476985 0.037938938 0.0023492998 -0.0044190236
000370 91 39 00 3e 67 e3 36 3d 3c 5c b1 3d c3 08 20 3e
       0.1252196 0.04465046 0.086601704 0.15628342
000380 85 a9 b3 bc 94 66 14 bc e9 66 8d bd 5f e1 20 3e
       -0.02193142 -0.00905766 -0.06904394 0.15710972
000390 6a 9e eb 3d c1 2e a9 3d 01 34 b3 3c 1f 14 35 bd
       0.115048245 0.08260871 0.021875383 -0.044208642
0003a0 e5 48 ef 3d d8 d4 27 3e 8e a4 8a bd cb 5c 13 bc
       0.116838254 0.16389787 -0.067696676 -0.008994292
0003b0 0b 96 ae 3d b8 25 91 3d d2 77 21 3e 18 8e 36 bd
       0.08524712 0.070872724 0.15768364 -0.044569105
0003c0 d0 53 23 3d 32 ce f3 bd b0 be 0b 3e 68 a6 c0 bd
       0.03987485 -0.11904563 0.1364696 -0.094067395
0003d0 b8 5f 11 bd d5 00 85 bd e3 08 ba bd 0d 76 61 3d
       -0.035491675 -0.06494299 -0.09083726 0.055044223
0003e0 c0 6c 72 3d 28 57 cf bd e1 66 07 3e 29 41 b7 bd
       0.059185743 -0.101240456 0.13222839 -0.08947975
0003f0 ba 54 e2 3d 4e af 75 3d a2 be fd bd aa 50 08 be
       0.110513166 0.059981637 -0.12389876 -0.13312021

model.rnn.weight_hh_l0 f4 [160, 40]
000000 97 fa e8 3d a8 0c be 3d ae a5 fe bc c3 e3 2a be
       0.11375921 0.09279758 -0.031084862 -0.16688447
000010 7e 77 9a bb 38 dd b1 bd bd 49 b0 bc b5 7c 01 be
       -0.0047139516 -0.08684772 -0.021519536 -0.12645228
000020 27 c2 c4 3d 0a d0 f5 3b 4f 7e b9 3d 55 c3 d2 bc
       0.09607344 0.007501607 0.090572946 -0.025727907
000030 b8 f5 e2 3d a6 fa c4 bc 33 cb 0e bd b7 67 03 bc
       0.110820234 -0.0240453 -0.034861755 -0.008020333
000040 0e b4 a9 3d a0 00 f4 bd d4 94 84 3c 73 23 0e be
       0.08286296 -0.11914182 0.016184248 -0.1388071
000050 ba 03 90 3c b6 07 aa bc 3d a5 02 bd c9 ce 02 be
       0.017579902 -0.02075563 -0.031895865 -0.12774195
000060 93 9c c7 3d fc 93 26 bc 6e d1 db 3c 94 44 5a 3d
       0.09746661 -0.010167118 0.026833262 0.053288057
000070 57 23 b7 bd 81 cf fb 3d 97 4c e7 3d c1 20 ac bd
       -0.089422874 0.122954376 0.11293905 -0.08404685
000080 82 63 23 3e 6c b1 d9 3d b7 2a 1a 3e c7 0e e8 bc
       0.15955928 0.10629544 0.15055357 -0.028327359
000090 09 04 c7 3d 5d d2 2e be ed f7 0b 3e 93 2c f4 3d
       0.097175665 -0.17072435 0.13668795 0.11922564
0000a0 90 5b 05 be a4 27 05 bd 2d fb 43 3c 67 99 ca 3c
       -0.1302321 -0.032508507 0.01196174 0.024731351
0000b0 8b b3 2e bd 12 45 e6 3c 6a 29 83 bc 58 f3 e7 bd
       -0.042651694 0.028109107 -0.016010959 -0.11325711
0000c0 40 5e 38 3e 64 31 1e 3e b4 09 f1 3d 2b d5 9f 3d
       0.18004704 0.15448529 0.11769429 0.078043304
0000d0 b2 00 bc 3d 98 96 35 3d a2 ca 04 3e b1 4e f3 3c
       0.0917982 0.04433307 0.12967923 0.029700609
0000e0 e9 43 9e 3d c5 04 cb 3d ac bd 23 3e ac a1 9e 3c
       0.077277966 0.09913019 0.15990323 0.0193642
0000f0 81 99 f2 3d fd 9b e5 3c f0 d4 b2 bb 48 6d df bd
       0.11845685 0.028028483 -0.005457513 -0.109095156
000100 c8 55 bb 3d 37 14 15 bd a9 19 80 3b 45 71 14 3e
       0.09147221 -0.03639623 0.003909309 0.14496334
000110 3b c3 d4 bb 81 d7 be 3d 73 2d 10 3e 3e 03 e0 3c
       -0.006493 0.09318448 0.14079838 0.027345296
000120 38 4e 98 bd 59 b8 51 bd 4c bb 63 bc 90 f4 e9 3d
       -0.07436794 -0.0512012 -0.0138996355 0.114236
000130 3c b4 56 3d c0 4d a5 bd 0b 3d b9 bd da 0c 88 bc
       0.05241798 -0.0807147 -0.09044846 -0.01660769
000140 8e a7 80 bd b2 07 09 be ac 44 ab bd 79 22 45 bd
       -0.062819585 -0.13381842 -0.083627075 -0.04812858
000150 35 12 4c bd 82 71 93 bd a9 2b 79 3c 40 08 31 3d
       -0.04982205 -0.07199384 0.015208163 0.04322076
000160 48 70 21 3d 79 0a 7a 3d 00 1b e8 bd 67 db 41 be
       0.03941372 0.061045144 -0.11333275 -0.18931352
000170 eb 24 b1 3d 08 74 58 3d 3f 92 02 3e 76 2d f3 bd
       0.0864962 0.05284503 0.12751101 -0.11873905
000180 0a 04 9f 3d 66 7d f0 bd d0 47 b3 3c 3e 34 d1 bd
       0.07764442 -0.11742668 0.021884829 -0.102150425
000190 fb da 9d 3c 71 57 33 3d 66 59 f8 bd f5 6e 00 be
       0.019269457 0.043784562 -0.121264264 -0.12542327
0001a0 98 ef a2 bc 36 41 38 3c e9 be 92 3d 1a 84 9a bd
       -0.019889638 0.011246016 0.071653195 -0.075447276
0001b0 a0 4f 32 3b 93 41 73 bd 99 50 e4 bd 3b 28 a4 3d
       0.0027208105 -0.05938871 -0.11148185 0.08015486
0001c0 7f bc dc bc 04 d6 74 3d a0 c7 ce 3d 0d 85 b4 ba
       -0.02694535 0.059774414 0.10096669 -0.0013772562
0001d0 9b 60 d4 bd 02 c5 72 bb 76 c9 20 3e 10 f7 a7 3d
       -0.103699885 -0.0037043695 0.15701851 0.0820142
0001e0 38 0b aa bd 63 4a d0 3d 3e af de 3d 62 4f 7f bd
       -0.08302921 0.10170438 0.108732685 -0.062331565
0001f0 e3 28 c5 bd 8a 82 27 be bf ad bf bd 60 9f c9 bd
       -0.09626939 -0.1635839 -0.09359311 -0.098448515
000200 0b b9 d9 3c f6 4b 5a bc 58 2e a8 3d 2f 3d d7 3d
       0.026577493 -0.013323775 0.08211964 0.10509717
000210 c1 b6 e2 bc 32 83 91 3d 7d 69 a9 bd 60 84 c2 3d
       -0.027675034 0.07105102 -0.082720734 0.09497905
000220 05 b5 fc bd bf a3 cf bd e1 82 86 bd 50 61 ef 3c
       -0.12339214 -0.10138654 -0.06567932 0.029221207
000230 a2 07 af 3c 69 22 07 bd d9 c1 05 3d aa 28 de 3d
       0.021365944 -0.0329918 0.03265557 0.108476
000240 59 96 bd bd 26 61 a5 bc d7 3a fa bd 2f 40 43 be
       -0.09257192 -0.020187926 -0.12218254 -0.19067453
000250 83 72 bf bd 92 6c 07 be a6 4f e8 3b 03 04 e3 bd
       -0.09348013 -0.1322501 0.007089573 -0.110847495
000260 7d 7b 8f bc 68 db a6 bd 6e 2b 8c bd 1e 97 d0 bd
       -0.017514938 -0.08147317 -0.06844221 -0.10185073
000270 60 11 0a be 22 a1 a5 3c fc 34 96 3d 04 b9 89 3d
       -0.1348319 0.020218436 0.07334325 0.06724742
000280 e0 66 19 3e 01 c1 92 3d f6 79 4b 3d be 62 fd 3d
       0.1498065 0.07165719 0.049676858 0.12372349
000290 59 42 a6 bd 8d 64 dc 3d 03 40 09 bd 45 fa 76 bd
       -0.081181236 0.10761366 -0.033508312 -0.06029727
0002a0 b7 93 d2 3d a5 c9 b1 3d aa 46 0b be 51 3f 93 bd
       0.102820806 0.08681039 -0.13601175 -0.07189811
0002b0 b4 b9 85 bd 3a 85 12 3e ee 33 a3 bd 77 e4 14 3e
       -0.06529561 0.14308634 -0.07968889 0.14540277
0002c0 f3 48 ae bd de 30 fa 3d 8a 1f a1 3d 9c 75 41 be
       -0.08510008 0.12216352 0.07867344 -0.1889252
0002d0 42 58 bc bd bf 0c a4 bd d0 fd c8 3d 84 10 c9 bd
       -0.09196521 -0.080102436 0.09814036 -0.09817603
0002e0 a3 33 a7 3d de ab a0 ba 05 45 c5 bd b7 1e c7 3d
       0.08164146 -0.0012258252 -0.09632305 0.09722655
0002f0 a7 76 2e 3d b8 cf 49 3d 79 23 cd 3c 42 2a 91 bd
       0.042593624 0.04927036 0.025041329 -0.07088138
000300 83 6b 9b bd 43 4b c7 3c d2 40 34 be 9b 46 0a 3c
       -0.075888656 0.02432788 -0.17602852 0.008439685
000310 71 9b b6 3d 6e 34 a3 3c d2 f4 ef bd 76 27 10 3d
       0.08916367 0.019922461 -0.11716618 0.035193883
000320 f7 9c ed 3d 55 3d 65 3d bb ea dc 3c ce e0 17 bd
       0.11602204 0.055966694 0.026967397 -0.037079625
000330 27 93 f7 3d 64 19 07 be 76 74 bb bd 6b 5a cf bd
       0.12088614 -0.1319328 -0.091530725 -0.10124668
000340 72 44 24 be 18 f1 c4 3d da b3 bb bc c3 95 18 be
       -0.16041735 0.096162975 -0.022912908 -0.1490088
000350 0f 1d c8 3d df 17 dd bd 56 c5 22 3e d8 15 13 bd
       0.097711675 -0.10795569 0.1589559 -0.035909504
000360 29 79 06 3e 0f 1e 6c 3d 31 6b 04 ba 81 b2 c2 bd
       0.13132156 0.057645854 -0.0005051373 -0.09506703
000370 cc ca 11 be dd 81 ae 3c 7c 95 28 bd ae a1 d7 3c
       -0.14237517 0.021302158 -0.041158184 0.026322212
000380 f2 7e af 3d 36 f8 ef bd ff 9a 13 3e c6 49 b6 ba
       0.08569135 -0.11717264 0.14414595 -0.0013907484
000390 e1 b8 a8 bc 21 17 9b bd 54 e2 33 3d 08 3c 18 3e
       -0.02059597 -0.07572771 0.043917015 0.1486665
0003a0 89 09 26 3e 53 7e d3 3d 3f 67 cc bd ea 72 dc bd
       0.16214575 0.10326829 -0.0998063 -0.107641056
0003b0 01 60 7f 3d 24 d3 94 3c 3d 2c 68 3e a0 a1 ca 3d
       0.062347416 0.018167086 0.22673126 0.09894109
0003c0 fd 74 fb bd 37 ae fc bc 62 f0 b6 3d 92 27 96 3a
       -0.12278173 -0.03084479 0.08932568 0.0011455885
0003d0 33 3c 5e 3c c8 9b b6 3d 3b 69 64 bd 6d a7 16 3e
       0.013564157 0.08916432 -0.055764418 0.14712305
0003e0 dc 1a 6e 3d e7 6e b3 3c 95 67 06 3d 10 18 fe bc
       0.058131084 0.021903468 0.032813627 -0.031017333
0003f0 a4 86 1a 3e a8 59 7d bd 82 f4 f6 3d 97 a3 31 3b
       0.15090424 -0.06185308 0.12058355 0.0027105564

model.rnn.bias_ih_l0 f4 [160]
000000 d4 d8 33 3e 2e ea 99 3d fb d0 de 3d f1 c6 8e bd
       0.17563182 0.07515369 0.108797036 -0.06971539
000010 98 ce 19 be ee e8 c7 bc 8c b1 e7 3d 0f 29 0b 3e
       -0.15020216 -0.024403062 0.11313161 0.13589881
000020 f3 4d 21 3d c0 19 f7 bd 31 a8 17 3e 7e af 2e 3c
       0.03938098 -0.12065458 0.14810254 0.010661958
000030 78 49 38 3e bd df 71 3d 80 84 2d 3e 52 b4 08 3e
       0.17996776 0.059051264 0.16945076 0.13350037
000040 fa 1e 1c 3c 7a 80 08 bd 6b 52 c0 3b ee 2a 72 3d
       0.00952887 -0.03332565 0.0058692 0.059122972
000050 35 39 56 3c 09 0a 12 3b a9 a2 e6 3d d0 53 14 3e
       0.013075163 0.0022283813 0.11261494 0.14485097
000060 8d 9f 2c 3d 61 f3 c2 3c ee ae cc bd a2 56 97 bd
       0.042144347 0.023797693 -0.09994303 -0.07389571
000070 19 23 a2 3d 4c e8 f2 3d 25 af d5 bd 58 b6 e0 bd
       0.079168506 0.11860713 -0.10433797 -0.10972279
000080 f9 64 a4 3c 30 04 cf bd f8 6d 79 3c 9d 6a 89 3c
       0.020067679 -0.101082206 0.0152239725 0.01677447
000090 bc 98 38 3e cd a7 05 3e 12 90 fa 3d 83 b3 f0 3d
       0.18027014 0.13052292 0.122345105 0.11752989
0000a0 4c 4a c5 bd d2 3a 32 3d fa e9 f7 bd 28 54 40 3d
       -0.09633312 0.043513127 -0.12105174 0.046955258
0000b0 fa 03 24 3b 45 71 1e 3e 70 fc e3 bd 1a 7a 13 bd
       0.0025026784 0.15472896 -0.11132133 -0.036005117
0000c0 f4 2a cc bc 5f 02 36 3e 73 02 12 3e a4 be 1d 3e
       -0.024922825 0.17774342 0.14258747 0.15404755
0000d0 0c 56 28 3e 09 3a f6 3d ce 8b ee 3d 55 ba 4a bd
       0.16439074 0.12022788 0.116477594 -0.049494106
0000e0 0d 00 09 be 07 52 82 3d 74 e0 d8 3c cd 1a 90 3a
       -0.13378926 0.06363302 0.026474215 0.0010994315
0000f0 11 ff 12 be 62 34 b1 bd 44 d2 ec 3c 3e e4 aa 3d
       -0.14355113 -0.08652569 0.028908856 0.08344315
000100 34 aa 98 bd af a1 1b be 54 47 07 3e bd d2 81 3d
       -0.07454339 -0.15198396 0.13210803 0.06339023
000110 5c d4 0d 3e 1a b9 16 3e 1c 64 1c 3e e8 e3 11 3e
       0.1385054 0.14719048 0.15272564 0.14247096
000120 20 33 0c 3e bd eb 9c bd f0 7a d6 bd 80 17 10 3e
       0.13691378 -0.07662151 -0.10472667 0.14071465
000130 59 a4 4a 3d d4 04 93 bd 8a b8 cf bc 31 4d 2a bd
       0.04947314 -0.07178655 -0.02535655 -0.04157752
000140 9e 8b bb 3d a0 2d 12 be 7a da 4a 3c 50 4b 9f 3d
       0.09157489 -0.14275217 0.01238119 0.077780366
000150 e1 a2 77 3d 7e d4 1c 3d e3 27 24 3e 78 bc 28 be
       0.060458068 0.038288586 0.1603084 -0.16478145
000160 24 b3 14 be 5c 75 d0 bd 5d 4b 03 3e 17 60 92 bd
       -0.14521462 -0.101786345 0.12821718 -0.07147234
000170 c0 4e e3 3d 1e e6 65 bd 46 83 60 bd 8b 6b 20 3e
       0.11099005 -0.05612766 -0.054812692 0.15666024
000180 51 5b 73 3d 19 16 c7 bd 05 f1 c6 3c 01 50 fd bc
       0.059413258 -0.09721012 0.024284849 -0.030921938
000190 22 ea 0f 3c 0b 6a f8 3c 06 29 20 bc fb bb 78 3d
       0.008783849 0.030324003 -0.009775406 0.060726147
0001a0 8a 9f e5 bd d2 d9 9d bd 6c 8c 8e bd ca 53 98 3d
       -0.1121207 -0.077075616 -0.06960377 0.074378565
0001b0 4c e2 ed 3d d1 22 37 be 23 66 d7 bd 03 6d da ba
       0.11615428 -0.17884375 -0.10517528 -0.0016664568
0001c0 52 08 1b 3e aa e3 87 3d 08 46 e2 bd cd 09 0e bd
       0.15139893 0.0663522 -0.11048514 -0.034677316
0001d0 79 ca 91 3d ea 96 9f bb 97 ae 97 3d 1c e2 47 3d
       0.07118697 -0.0048702853 0.07406347 0.04879962
0001e0 09 19 62 3d b2 c5 ac bd fc bd e6 3d 89 fa 11 3e
       0.055199657 -0.08436145 0.112667054 0.14255728
0001f0 60 3d 06 be f0 d5 5d bc 2f 0b 45 3e 04 80 85 3d
       -0.1310935 -0.013539776 0.19242547 0.06518558
000200 95 d0 76 bd a1 41 bb 3d 0d 9f 30 3e a0 89 32 3d
       -0.060257513 0.09143377 0.17248173 0.04358828
000210 50 7c ab 3d 8f b3 b9 bd 8f 1d 32 3e 57 23 c2 bc
       0.0837332 -0.09067451 0.17394088 -0.023698492
000220 3d cd 58 bd c1 70 24 3e 40 9c 73 3b e7 04 3a 3e
       -0.052930105 0.16058637 0.003717199 0.18165933
000230 48 f4 ee 3d cd 9a 30 3e e3 08 86 bd d5 22 74 3d
       0.11667687 0.17246552 -0.06544664 0.05960353
000240 ca e3 ee bc 87 63 16 3e 1f 75 27 bc d6 56 19 3e
       -0.029161353 0.14686404 -0.010220795 0.14974532
000250 f7 51 7d bb 61 ce 2b 3e d6 61 05 3d b6 49 d8 bd
       -0.0038653591 0.16777946 0.032564007 -0.10560934
000260 8a 29 f1 bc 42 65 13 bd 7f ac 17 3e ba ab b0 3d
       -0.029438753 -0.03598524 0.14811896 0.08626504
000270 1a 0b 08 3e 43 0c 6e 3b ca f1 ed bd 77 de fb 3b
       0.13285485 0.0036323227 -0.11618383 0.007686432

model.rnn.bias_hh_l0 f4 [160]
000000 8c 6f bc bd 80 ac c7 bd 14 c6 37 3e bc 7f d4 3d
       -0.092009634 -0.09749699 0.17946655 0.10375926
000010 33 12 85 3c a7 bb 52 3d fd db 68 bd 19 7a 85 bc
       0.01624403 0.05144849 -0.056850422 -0.016293572
000020 ed 57 47 3c 2d 5f fc 3d 76 ab a0 bd a8 8c 8a 3c
       0.012166959 0.12322841 -0.078452036 0.016912773
000030 d1 5a 5f 3e 60 78 ef bd fb 80 3b 3e 89 a3 e6 bc
       0.21811987 -0.116928816 0.18310921 -0.028154152
000040 8e 67 7c bd 6a b9 92 3d cb e3 a2 bd 9d 1b 17 3e
       -0.061622195 0.07164271 -0.07953604 0.14756627
000050 c0 dc 7b 3d de 2c 9c bd 59 65 23 3d 6e bf 44 3e
       0.06148982 -0.07625745 0.039891575 0.1921365
000060 6b 21 8f bd e6 9f 8b 3d d4 33 03 be 2d 16 04 be
       -0.06988796 0.068176076 -0.1281274 -0.12899084
000070 73 2f 82 bd 9d 21 05 3e 1f 59 e1 bd 22 db 7d bd
       -0.063567065 0.13001104 -0.110033266 -0.06197656
000080 7c d8 41 3c a1 3a d3 3c e4 85 2f 3e 38 69 c6 bd
       0.011831399 0.025784792 0.17140919 -0.09688038
000090 a0 4b 10 3e 70 0f e6 3c b3 21 e1 3c 1b 21 16 3d
       0.14091349 0.028083533 0.02748189 0.036652666
0000a0 72 6b 35 bc 09 7b d8 bd 55 00 ce 3b df e3 01 3e
       -0.01107298 -0.10570342 0.0062866607 0.12684582
0000b0 e3 4d 0a 3e 80 cb 3a bc bd 51 f8 bd 78 7a a1 3b
       0.13506274 -0.011401057 -0.12124965 0.0049279295
0000c0 2f 95 df 3d fd 76 52 bd bd e9 02 be 2a c6 e1 bd
       0.109171264 -0.051383007 -0.12784477 -0.11024125
0000d0 af e7 64 3d 91 01 a0 bd 50 c7 16 3e 8e 3f 10 be
       0.055885013 -0.07812799 0.14724469 -0.14086744
0000e0 60 0b ab bb dd 63 0b 3e 5d 79 8a 3d 1d 4d 64 bd
       -0.005219862 0.13612314 0.067614295 -0.055737603
0000f0 74 19 d4 bd 57 56 4b bd 5a 76 26 be 58 a3 a2 bd
       -0.10356417 -0.049642887 -0.16256085 -0.079413116
000100 72 c3 6b 3d 5c 8e bb bc 49 c7 c3 3d 3e 89 04 3e
       0.057559438 -0.02289503 0.09559495 0.12942979
000110 ab 38 a2 bd fd dd c9 3d 2f 4d 2b 3e a0 61 0a be
       -0.07920965 0.09856794 0.16728662 -0.13513803
000120 93 2a 92 3c 8b 87 0a 3e 96 29 c7 bd d0 6b 22 3e
       0.017842567 0.13528268 -0.09724729 0.1586144
000130 85 d5 02 bd b2 bb 0a be 67 99 62 3d d1 71 20 3e
       -0.03194191 -0.13548163 0.055322077 0.15668418
000140 95 c8 e1 bd 1b 02 0e 3e 01 65 c9 3d 1d 9f eb bd
       -0.11024586 0.1386799 0.09833718 -0.11504958
000150 25 84 c6 bd ba 54 f3 3d 55 f5 29 3e f5 fc 86 3d
       -0.09693173 0.11881395 0.16597493 0.065912165
000160 1e 75 41 3d 29 47 48 3d d3 88 05 3d 1c e5 22 bd
       0.047230832 0.04889599 0.03260119 -0.039769277
000170 a5 ea 3f 3e ee 2b 66 bc 4a 7f 0d be 04 c9 20 3e
       0.18741854 -0.01404856 -0.13818088 0.15701681
000180 f7 d8 ed bb c0 b5 88 bd 5f bb 08 bd 61 9e 02 bc
       -0.0072585302 -0.06675291 -0.033381816 -0.007972331
000190 a4 1b 11 bd bd 79 11 be 4b 8c cb 3d fb db 33 bd
       -0.03542675 -0.14206596 0.09938868 -0.04391096
0001a0 7d 15 8b 3d 66 bd 2f be 7d 17 13 3e 20 2d 0f be
       0.06791208 -0.17162094 0.14364429 -0.13982058
0001b0 ce e7 f3 3c 62 68 04 be cf 56 05 3e 69 e1 a1 bd
       0.029773619 -0.12930444 0.13021396 -0.07904322
0001c0 39 82 cb 3d ce cf b3 3d 00 95 c8 3c 2e 9f 57 3d
       0.099369474 0.0877987 0.024485111 0.05264204
0001d0 b2 b1 d2 3d a3 4f b7 3d 24 0a 3f bd 2a 22 20 3e
       0.10287799 0.089507364 -0.04664053 0.15638033
0001e0 31 55 7d bd f1 60 2b 3d 78 8e 41 3e 04 91 17 3d
       -0.061848823 0.041840497 0.18902004 0.037003532
0001f0 be cc a7 ba 02 08 e5 bd 87 03 d8 bd 25 0d b8 3d
       -0.0012802107 -0.11183168 -0.10547548 0.08986882
000200 0a 88 2a bd b7 15 8b bd 4a 74 0b be e9 5f 32 3e
       -0.041633643 -0.06791251 -0.1361858 0.174194
000210 ac 47 16 3e c3 a2 2d 3d 88 51 f2 3d bb 5b db bd
       0.14675778 0.04239155 0.11831957 -0.107108556
000220 4d 13 9d bd 6f 39 05 3e ce 39 d3 bd 4f 71 bf bb
       -0.07669697 0.1301019 -0.1031376 -0.005842365
000230 29 30 58 3e 32 cc 49 bd 69 cb 0c bd 53 18 14 ba
       0.21112122 -0.049267 -0.034373675 -0.00056493765
000240 e4 84 92 ba 97 c3 39 bd 16 0c dd 3d 18 8b 16 3e
       -0.001117852 -0.045352545 0.10793321 0.14701498
000250 f9 04 5b 3e 31 5a 3c bd dd 20 80 3d ec 25 fe 3c
       0.21388616 -0.04598445 0.06256268 0.031023942
000260 30 eb 18 3c 8b ed 77 3d dd b9 7a 3e 06 51 ce 3d
       0.009333417 0.060529273 0.24484964 0.10074048
000270 5a 65 30 3e f1 b5 64 3d 82 4f a6 bd a4 27 8c bc
       0.17226163 0.055837575 -0.08120634 -0.017108746

model.rnn.weight_ih_l1 f4 [160, 40]
000000 7a e7 01 3e c1 25 bb bd 8e b6 0a be 8f 5a ce 3c
       0.12685958 -0.0913806 -0.13546202 0.025189666
000010 5f 0c f2 bd dc 6f 5e bd 9f 53 a0 3c 5e 5f 0b be
       -0.11818766 -0.054305896 0.019571124 -0.13610598
000020 47 f5 a4 bd 92 98 60 bd a6 f4 a7 3c a3 e3 29 3d
       -0.080545954 -0.054833002 0.0205024 0.041476857
000030 51 c5 b1 3d 04 15 c6 3d d3 e7 01 3e 14 78 e5 bd
       0.08680213 0.09671977 0.1268609 -0.11204544
000040 f9 45 53 bd 3b 46 d1 3b 64 99 81 3c 1e 81 33 be
       -0.051580403 0.006386546 0.015820213 -0.17529723
000050 a6 32 21 3e 5c 3e b0 bd 5b 2c 31 3e 1e b6 30 3e
       0.15741977 -0.08605644 0.17302077 0.17256972
000060 a1 e7 4c 3d 9a b4 f7 bc ec 17 a6 3d f9 dd a0 bc
       0.050025586 -0.030237485 0.081100315 -0.019637095
000070 88 7e b8 3d 2e df af 3d 98 85 01 bd d1 9f 9a bc
       0.09008509 0.0858749 -0.031621546 -0.018875035
000080 f6 bd a2 3d ca 59 0a bc ad 97 7a 3b 64 9b 67 3b
       0.079463884 -0.008444259 0.0038237378 0.0035340423
000090 2e 77 83 bd 50 3c 09 3e 3f 31 82 3d 52 3e f3 3c
       -0.06419216 0.13401914 0.06357049 0.029692803
0000a0 f0 c3 ac 3c d5 27 17 be c2 be 28 3e f1 09 e2 bd
       0.021089524 -0.14761288 0.16479018 -0.110370524
0000b0 df cd 62 3d 4e 1e 33 3d d4 7b ea 3d 1f 5e 32 3e
       0.055372115 0.043730073 0.114493996 0.17418717
0000c0 33 4a db 3d 97 fa 02 be dc 67 15 3e 70 a9 b8 3d
       0.10707512 -0.12790905 0.145904 0.09016693
0000d0 68 4b 12 3e 5f 08 a7 bd c4 eb 04 be ac 0e 1d be
       0.14286578 -0.081558935 -0.12980562 -0.15337628
0000e0 56 55 28 be 19 ea 00 3e 44 e0 62 bd db 53 06 3e
       -0.16438803 0.12589301 -0.055389658 0.13117926
0000f0 45 2e cb bd 2b d9 b1 bd 8c 5f 23 be 67 30 8e bb
       -0.099209346 -0.08684 -0.15954417 -0.004339266
000100 ac 85 11 3d 67 24 88 bd 42 1a c9 bd 19 e9 b4 bd
       0.03552787 -0.06647568 -0.098194614 -0.08833522
000110 5c 98 27 bd d3 bc 0e be db c7 30 3e ad a4 09 be
       -0.040916786 -0.13939218 0.17263739 -0.13441725
000120 ca ae 5b 3d 47 d8 74 be 9c ef 4a 3d 0c 00 37 be
       0.05363349 -0.23910628 0.049544916 -0.17871112
000130 a4 61 b7 bd b3 c4 b0 3d 44 ae 29 3e a2 35 97 bd
       -0.0895417 0.086312674 0.16570383 -0.073832765
000140 a4 5c 23 be a4 39 76 bd 1b 91 c3 3d 28 73 6d bd
       -0.15953308 -0.060113564 0.09549161 -0.05797115
000150 0b 96 c3 3d 25 a9 07 3e 70 6b 39 bd af 87 a6 bd
       0.09550103 0.13248117 -0.045268476 -0.08131348
000160 29 10 ff 3d 64 d6 87 bd de 15 a9 3c b3 4f 6d 3d
       0.12454254 -0.06632689 0.02064031 0.057937335
000170 d0 58 2c bd 02 65 21 be c5 db 08 3d 34 84 be 3d
       -0.042076886 -0.15761188 0.033412714 0.093025595
000180 bb 30 1f be de 40 0f 3d 13 7b 8a bc 54 48 28 3e
       -0.15545933 0.03497397 -0.01690439 0.16433841
000190 7c 45 8d 3d ba 3b 2b 3c 96 a2 a4 bd 1e dd 0d bb
       0.06898019 0.010451252 -0.08038823 -0.0021646689
0001a0 7e 47 a5 bd d9 42 0b 3d aa af 64 3d 9a ea c8 bd
       -0.08070277 0.033999298 0.05583159 -0.09810372
0001b0 b5 9b 5d 3d a2 04 bc bd 35 42 a1 bd 5f a0 ed 3c
       0.054103572 -0.09180571 -0.07873956 0.029007135
0001c0 2a 0f 8a bc 53 c4 3c 3e 44 8b 74 bd 64 12 1e 3e
       -0.016852934 0.18434267 -0.059703127 0.15436703
0001d0 d3 53 f0 3d 3f 76 91 bc 79 6a 65 3e a5 d7 10 be
       0.11734738 -0.01775658 0.22403897 -0.14144762
0001e0 d3 9c 49 bd 69 6d 29 be 96 65 01 3e 15 b6 d0 bd
       -0.049221825 -0.16545643 0.12636408 -0.101909794
0001f0 29 9b 0b 3e 19 da f1 3d 80 3f 1f 3c 65 4b a4 bd
       0.13633408 0.11809177 0.009719729 -0.08022193
000200 dd ec b3 bb c7 2d ef 3d 47 4f 1b 3e 92 b0 87 3d
       -0.005490883 0.11678653 0.1516696 0.06625475
000210 57 05 8c bd 88 18 2f 3e 46 04 25 be 07 fa 14 3c
       -0.06836956 0.17099202 -0.16114911 0.009092814
000220 e5 1b b7 bd 5c 8e 0c be 67 c4 af 3d 25 39 ee bd
       -0.08940867 -0.13726181 0.08582383 -0.11631993
000230 a4 38 20 3e 9c 93 e6 3c de 2b 4e bd d1 3e 8a bd
       0.15646607 0.028146558 -0.050334804 -0.067502625
000240 b5 4a 1e be a5 30 44 bb f4 e8 b6 3d 02 a5 75 3d
       -0.15458186 -0.002993622 0.08931151 0.059971817
000250 e6 98 1e 3e 18 0d f5 3c 7e ac b0 3d 50 6c 86 bd
       0.15488014 0.02991347 0.0862665 -0.06563628
000260 28 be 7f bd 2d 67 a0 bd 77 a2 35 3e 17 f6 46 bd
       -0.062437207 -0.07832179 0.17737757 -0.048574533
000270 40 47 ff 3d c9 76 fc 3c 37 0a 8a 3d c8 c6 4f 3d
       0.12464762 0.03081836 0.067402296 0.050726682
000280 25 a6 8c 3c db b1 a6 3d b3 ea f0 bd 15 c8 02 bd
       0.017169068 0.08139392 -0.11763515 -0.031929094
000290 33 62 5b bd a2 61 5e bd 77 3b e4 3d 41 a3 fd bc
       -0.053560447 -0.05429233 0.111441545 -0.030961635
0002a0 e7 7a 51 3b 84 a7 9f 3d e8 45 dd 3d 31 b5 09 be
       0.0031964125 0.07795623 0.10804349 -0.13448025
0002b0 87 bd 60 3d 35 20 a2 bc bc c6 cc 3d 11 98 9d bd
       0.054868247 -0.019790748 0.09998843 -0.0769502
0002c0 d2 12 55 bd a2 c4 24 3e 61 68 f7 bd 5f 5a 01 be
       -0.0520199 0.16090634 -0.120804556 -0.1263213
0002d0 b0 28 dc 3d 73 f6 32 bd 4c bd d1 3d d0 51 0c 3e
       0.10749948 -0.043692064 0.10241184 0.13703084
0002e0 a5 44 10 3b cf 3e 90 3c 91 15 11 be 0e 4c 1e bc
       0.0022013572 0.017608074 -0.14168383 -0.009661688
0002f0 e4 4c 06 3e 60 45 22 3d b9 98 88 3d ad 2f 28 be
       0.13115269 0.039616942 0.066697545 -0.16424437
000300 46 2d 43 3d bf e3 0d 3d 74 02 61 3e f1 a6 4f 3d
       0.047650598 0.034641024 0.21973592 0.050696317
000310 22 7a ec bd 47 ef 1e bc 0d da 15 3e 86 ad 00 3e
       -0.115467325 -0.009700603 0.14633961 0.12566194
000320 3f 7d ab bc 99 a6 3c 3d d7 3e 55 3d d8 13 41 bd
       -0.020933745 0.046057317 0.052061882 -0.047138065
000330 cb c8 83 bd 2f 9f d7 bd 19 90 fc 3d 11 cb a9 bd
       -0.064347826 -0.10528409 0.12332172 -0.08290685
000340 06 2a 08 3e b2 24 8a 3d 0f 4d 39 bd 16 8a e7 bd
       0.1329728 0.0674528 -0.045239504 -0.11305635
000350 b0 1a 0d be bd 69 ba 3d 17 66 78 be 5e d6 2b 3c
       -0.13779712 0.09102199 -0.24257694 0.010488121
000360 7d 77 05 3d 6b 72 09 3d 0e ea b9 3d 6e ad 81 3d
       0.032584656 0.033556383 0.090778455 0.06331907
000370 20 20 57 bd 8b 46 12 3e 1a a4 ca bc bb 6c 96 3d
       -0.05252087 0.14284723 -0.024736453 0.073449574
000380 d8 0b 82 3d 83 a1 e7 3c c4 c7 82 bc c3 41 88 bd
       0.06349915 0.028275257 -0.015964396 -0.06653168
000390 ce 75 13 3d f6 f7 f7 3d 92 7c 97 bd ea 38 c7 3c
       0.03600102 0.12107842 -0.07396807 0.02431913
0003a0 52 60 1a 3e 32 21 2a 3d 6c a3 0e 3e f4 de 89 bd
       0.15075806 0.041535564 0.13929528 -0.06731978
0003b0 28 7f 8c bd 2a 53 fb ba 4e c5 ce bd 80 9c a6 bd
       -0.06860191 -0.0019174565 -0.10096227 -0.08135319
0003c0 25 14 f6 3d a7 ae 6f 3d 37 d7 dc bc 96 84 80 3d
       0.12015561 0.05851617 -0.026958091 0.06275289
0003d0 05 8d 98 3d 24 86 8b 3c fa 4f 9a 3d 6c da bc bc
       0.07448772 0.017031737 0.075347856 -0.02305337
0003e0 30 65 c7 3c e5 40 05 3e 19 2d bb bd 13 22 3b bd
       0.024340242 0.13013037 -0.09139461 -0.045686793
0003f0 8f 44 e1 3c 9c a2 e4 3d 20 df 8b bd 67 01 28 be
       0.027498512 0.11163828 -0.06829667 -0.16406785

model.rnn.weight_hh_l1 f4 [160, 40]
000000 ca c4 12 be ad e1 a5 3d 79 99 e9 3d 51 ce 73 bd
       -0.14332882 0.08099685 0.11406226 -0.05952293
000010 94 a8 d3 3b 9a 83 53 3d 0f 1d 20 be bc ef dc 3d
       0.006459305 0.051639177 -0.15636085 0.10787913
000020 01 8b 19 bc 2c 6c 9e 3d 65 b3 ce 3c 53 41 8b bc
       -0.00937152 0.07735476 0.025232026 -0.016998922
000030 bc 0b 2a 3e ba 3a 24 bc 95 67 9b 3c 2c b0 e8 bc
       0.16606039 -0.010023767 0.01897029 -0.028404318
000040 65 f6 d5 3c 8d 04 ae bd 45 44 ff 3d 21 81 35 3e
       0.026118467 -0.08496962 0.12464193 0.1772504
000050 fa 62 43 3c 88 e9 2a 3e d8 11 d0 3d 7a bd e4 bd
       0.011925453 0.16690648 0.101596534 -0.11168952
000060 e4 84 c1 bc bb 09 44 bc 7b 32 a1 3b fd d9 4f bd
       -0.023622938 -0.011965211 0.004919348 -0.050745
000070 fd e6 c0 3c 91 63 24 bc ed b5 0b 3c cb 4f cb 3d
       0.023547644 -0.010033504 0.008527261 0.09927329
000080 d7 2f 22 3d ed d0 0d bd 97 2b 1c 3d 92 ba 82 3d
       0.039596405 -0.034623075 0.038127508 0.06383242
000090 65 8a ef bd 45 d6 9f 3d 44 c9 17 be c1 cf 71 bd
       -0.116963185 0.078045405 -0.1482287 -0.05903602
0000a0 c5 3b 5d 3c a1 f1 be ba 0f b5 75 3d aa 26 89 bd
       0.01350302 -0.0014567861 0.059987124 -0.06696828
0000b0 95 c0 87 bd 1d ba 67 bd 88 21 21 be 32 97 03 be
       -0.06628529 -0.056573976 -0.15735447 -0.12850645
0000c0 39 1e ea 3d d7 d9 81 bd 48 42 12 be d7 f8 f2 bb
       0.11431546 -0.06340378 -0.14283097 -0.007414918
0000d0 91 2c 8b 3d 08 a2 0b bd 58 95 07 bd 75 59 96 bd
       0.0679561 -0.034090072 -0.03310141 -0.07341281
0000e0 39 d2 0a be 2e 5d d5 3d 0e bb fb bd 7e 41 b1 3a
       -0.13556756 0.10418163 -0.12291537 0.0013523547
0000f0 d6 ef f2 bd f1 43 29 3c 68 b5 8e 3d 38 ab c8 3d
       -0.11862151 0.01033114 0.06968194 0.097982824
000100 ce ca 28 bd a7 c7 20 bd ea e3 00 3e 40 82 04 bd
       -0.041209035 -0.039252903 0.12586942 -0.03235078
000110 70 f6 d2 bd 93 db 3f bc 3a 8c 3e 3b fa bd a7 3d
       -0.103009105 -0.011710065 0.002907528 0.08190532
000120 84 67 91 bd 0e c5 d8 bd 2b 81 22 bc bc 31 33 bd
       -0.07099822 -0.1058446 -0.009918491 -0.043748602
000130 2a a4 28 be a4 ac 28 3e bb 92 04 be 11 05 9d bc
       -0.16468874 0.16472107 -0.12946598 -0.019167455
000140 5b 92 0f be 83 c8 ae bd 11 c6 ea bd 4a 4e 21 3e
       -0.14020674 -0.08534338 -0.114635594 0.15752521
000150 ea 06 aa 3d 97 30 f5 bd b4 31 a7 bd d4 07 bb 3d
       0.083021 -0.119721584 -0.08163777 0.091323525
000160 5e 53 f8 bc 8c c1 b8 3d 0a 8e 84 3c d3 e4 77 bd
       -0.03031319 0.09021291 0.01618101 -0.06052096
000170 46 0f 0d 3e 11 c4 ac bd 58 05 e9 bd fc 43 fb bd
       0.13775358 -0.08435834 -0.11377972 -0.12268826
000180 a4 77 6d 3d f3 6e bf 3d ca 25 6b 3d 7b 5d a7 bd
       0.057975426 0.09347334 0.057409085 -0.08172127
000190 7a ad 9c 3c af 6a b0 3c 3e 72 78 bd bb 6e bd bd
       0.019125689 0.021535246 -0.060655825 -0.09249636
0001a0 8f 2f a1 bd 08 d2 3f be d7 63 45 bd 48 a3 05 be
       -0.07870399 -0.18732464 -0.048190918 -0.13050568
0001b0 c4 55 5e bd 18 9f ae 3d 61 9c 1f be 4f c7 21 be
       -0.05428101 0.085264385 -0.15586998 -0.15798686
0001c0 05 9f 4e bd 7a f4 d9 3d 8a e6 95 bd 88 51 de bd
       -0.05044462 0.10642333 -0.073193625 -0.108553946
0001d0 0f 31 b9 bd 7d d8 6c 3d 12 a5 ac bc cc 8c 66 bd
       -0.0904256 0.057823647 -0.021074805 -0.056286618
0001e0 b7 9c 69 bd 52 b2 fe 3d 16 b3 16 bc 2f ed 08 be
       -0.05703422 0.12436356 -0.009197971 -0.13371728
0001f0 8a 45 f5 bd 95 98 d5 bd 01 db 16 3e d0 26 07 3d
       -0.11976154 -0.10429493 0.14731981 0.032996
000200 7c fd c7 bd 82 f3 27 bc 51 2e 8c bd fd 23 4b bd
       -0.09765145 -0.010250928 -0.06844772 -0.049594868
000210 6c bd 13 3e b3 3e b3 3d aa ad 1c bd bd bd 08 3e
       0.14427727 0.08752193 -0.038251556 0.1335363
000220 8d 29 c7 3b f8 fc d4 bc 76 2f 9a 3d ad 0c 8f bd
       0.0060779513 -0.025999531 0.07528584 -0.069848396
000230 78 73 13 be 65 81 8b bd 11 36 c7 3a dd 0c b7 3d
       -0.14399517 -0.068117894 0.0015198608 0.08938
000240 58 78 14 be 76 52 f5 3d 17 2a 27 be 48 1a c4 3d
       -0.14499032 0.11978619 -0.1632465 0.09575325
000250 b5 2c d1 bd 70 ab 71 3b 4a 6e 0f 3c c7 31 0a 3b
       -0.10213605 0.0036875866 0.008754322 0.0021086799
000260 0e ca 64 bc c7 40 b7 bc 0e 75 7c bc 4a 1f f8 3d
       -0.013964189 -0.022369755 -0.015408767 0.12115343
000270 a3 c3 a0 bd 72 6f fa bd 59 b6 b4 3d 4e ee dc 3d
       -0.07849815 -0.12228288 0.088238426 0.107876405
000280 5b 6e b5 bd be f5 37 3e 3e bd f8 3c de 85 00 3e
       -0.08858939 0.17964837 0.030363675 0.12551066
000290 6f b2 d1 bd 1d d2 b5 bd c7 02 47 bd c4 3c 6a bd
       -0.10239112 -0.088779666 -0.048586633 -0.057186857
0002a0 97 b9 b5 bc cb 20 19 be 56 7f 9e bd ec 80 86 bd
       -0.022183223 -0.14953916 -0.07739131 -0.06567559
0002b0 0e e8 29 3d e1 d4 91 3d 63 88 2d 3d f8 6d bc bd
       0.04148107 0.071206816 0.042366397 -0.092006624
0002c0 05 51 06 be b0 2d d3 3d 3c 16 58 3d cd 6c 08 be
       -0.13116844 0.103114486 0.05275558 -0.13322754
0002d0 df 16 b4 3d bc b7 92 bc ed 32 fb bd 67 66 0c 3d
       0.08793425 -0.017909877 -0.12265573 0.034277346
0002e0 08 04 bf bd 32 49 14 bd 79 d6 e2 bd 7f 80 bc 3d
       -0.09326941 -0.036202617 -0.11076064 0.09204196
0002f0 05 05 41 3e 86 ef 53 bd 5e 64 b8 3b be d6 56 bc
       0.18849571 -0.0517421 0.005627199 -0.013112722
000300 93 a9 2f 3d d4 0f 73 bd 4d 4b f1 3d 82 56 2c 3d
       0.042886328 -0.059341267 0.117819406 0.042074688
000310 77 c8 2c 3e 30 e6 9e 3d 40 38 f0 3c b1 0f 84 3d
       0.16873346 0.077587485 0.029323697 0.064483054
000320 b4 0f 30 3d 99 2e b8 3d c4 d5 de bd 4c a4 a7 3d
       0.042983726 0.08993263 -0.10880616 0.08185634
000330 14 85 15 3e ec ff 0a 3e 40 20 e0 bd d2 49 10 3e
       0.14601547 0.13574189 -0.10943651 0.1409066
000340 81 75 9c 3d 96 32 0f be d2 ed 23 bd 2e 6c 1d be
       0.076395996 -0.13984141 -0.040021725 -0.15373299
000350 bc ec 31 3d 51 6b c7 3d d3 dd 53 3d a3 e1 65 bd
       0.043438658 0.09737266 0.05172522 -0.056123387
000360 b2 8f b9 3d cc 02 7b 3d c1 77 19 be 40 f1 d4 3d
       0.09060611 0.061281964 -0.14987089 0.10397577
000370 1e eb 86 3d 24 ab 0c be 97 a9 8f bd ee 73 71 bd
       0.06587814 -0.1373716 -0.070147686 -0.05894845
000380 2e a9 8c bd 77 5c ae bd 95 9a b4 bd f7 3e dd bd
       -0.06868206 -0.0851373 -0.08818547 -0.10803025
000390 22 81 b8 bc 29 51 1f 3e 2a 7a 43 3d fd 78 a8 3c
       -0.022522513 0.15558304 0.047723927 0.020565504
0003a0 53 b1 90 3d 4e e4 89 3d 82 1e ce 3c a0 b2 69 bd
       0.07065072 0.06732999 0.025161032 -0.057055116
0003b0 5b 58 c8 bd 2c 6c 20 bd 84 6d ae bc 1f 69 c6 bd
       -0.097824775 -0.03916566 -0.021292455 -0.09688019
0003c0 13 51 c4 3d 28 11 55 bd 68 bb 0d be e8 a0 87 bd
       0.09585776 -0.052018315 -0.13841021 -0.06622487
0003d0 96 e0 64 bd a9 97 75 3d e3 ea 79 3c 10 c3 fa 3d
       -0.055878244 0.059959088 0.015253755 0.122442365
0003e0 c1 8b 15 3c c8 f2 c3 3c 94 c4 bf bd cc f3 91 3d
       0.009127558 0.023919478 -0.09363666 0.07126579
0003f0 66 13 1c 3e 00 1e 5b bc e0 58 34 3d 13 8e 64 bc
       0.15241775 -0.013373852 0.04403007 -0.013949889

model.rnn.bias_ih_l1 f4 [160]
000000 e0 8e 14 be da 59 40 bd 42 0b fd bd 43 44 68 bc
       -0.14507627 -0.04696069 -0.12355663 -0.014176431
000010 be f6 62 3c 82 04 2a 3d 9f da ac 3d af 0f c8 3d
       0.013852773 0.041508205 0.08440136 0.097686164
000020 c2 d6 81 3b 51 5f 05 3e 35 b2 ac bc a1 aa de bd
       0.0039623687 0.13024642 -0.02108107 -0.10872389
000030 8b 0c d4 bb 0e e9 80 3d ce 54 ca 3d b9 13 67 3e
       -0.006471222 0.06294452 0.098794565 0.22566117
000040 ed 79 2c bd 9b 83 88 3c 0a 3d 75 bc 6e e6 33 3e
       -0.042108465 0.016664317 -0.014968166 0.1756837
000050 03 fd 78 bd 32 a5 4a bd d5 27 42 3e 54 0c 24 bc
       -0.060788166 -0.04947395 0.18960507 -0.010012705
000060 3c 2f ac bb 69 2f 07 3e 7e cb af bd 61 96 e5 bd
       -0.005254654 0.1320168 -0.08583735 -0.11210323
000070 2f c5 c1 3d 61 3c 55 3d 0d c3 30 3e 92 b7 e6 bd
       0.09461438 0.052059535 0.17261906 -0.11265482
000080 53 f7 b1 3d 3e 10 bb 3c 45 4c b9 bd 7e 05 7f 3d
       0.086897515 0.022834893 -0.090477504 0.062261097
000090 c5 4a 09 3e 7b 4a da 3c ed 8d 2d 3d df c4 a2 3c
       0.13407429 0.026646843 0.04237168 0.019869266
0000a0 7b e9 3e bd 90 eb f1 bd a3 02 b5 bd ec 30 a8 bd
       -0.046609383 -0.11812508 -0.088383935 -0.08212456
0000b0 cf bc 0f 3e 31 9a 18 be 55 e1 19 3d 13 7b 1c bd
       0.14036869 -0.1490257 0.03756841 -0.03820331
0000c0 e4 03 32 3e 96 f2 1d bd 98 c9 15 3e 12 c6 95 3d
       0.17384297 -0.038561426 0.14627683 0.073131695
0000d0 24 7d 11 3e 0f 9e e6 3c 76 b7 be bd 8d 51 d1 3d
       0.14207894 0.02815154 -0.09312336 0.10220633
0000e0 e5 03 2c be 51 80 db bb 66 c1 c4 3d af a2 cd 3d
       -0.1679836 -0.006698646 0.096072 0.10040795
0000f0 24 3d e5 3d d5 45 b7 bd df b0 b4 bd 73 bf dc bd
       0.11193302 -0.08948866 -0.08822798 -0.107787035
000100 96 77 db bd 05 32 03 3e c6 37 ff 3d 0d de d3 bd
       -0.107161686 0.1281205 0.1246181 -0.10345087
000110 fb 3c 68 bd 3b e4 f0 bc 30 1a 07 3e 59 ae 31 3e
       -0.05669878 -0.029405704 0.13193583 0.17351665
000120 0d ec ce bd 7b 16 2f be 3f 45 a4 3c 6e b9 ee 3d
       -0.10103617 -0.1709842 0.02005255 0.11656462
000130 87 f6 02 3d a6 9d e0 bc 3e a5 61 3c c4 ac 60 bd
       0.031973388 -0.027418923 0.013772307 -0.054852262
000140 89 c6 e5 3d 6b 2e ea bd ec 4c 63 3d a3 74 65 bc
       0.11219508 -0.11434635 0.05549328 -0.014004859
000150 fa ed 58 bd e6 48 b4 bd d1 33 88 bd 6c b4 cf bd
       -0.052961327 -0.08802967 -0.06650508 -0.101418346
000160 64 e8 84 bd 98 e2 cd bd f4 6a d6 bd e6 6d 97 3d
       -0.064896375 -0.10052985 -0.104696184 0.07394008
000170 1c 21 ca bd a6 a9 48 bd d6 08 c3 bd d9 46 9b bd
       -0.09869596 -0.048989914 -0.0952317 -0.075818725
000180 7c eb 14 be 20 80 0d 3e f1 8a 3a 3c 74 72 77 3d
       -0.14542955 0.13818407 0.011385665 0.060411885
000190 bc 03 9e bd 04 04 0b 3e 7d 6e ef 3b 1b 7d 66 bc
       -0.07715556 0.1357575 0.0073068724 -0.014067913
0001a0 95 7d 4d 3d d3 53 00 be f8 99 08 3e d4 da 5f bd
       0.050168592 -0.12531976 0.13339984 -0.05465205
0001b0 d0 50 a8 3d 93 c4 03 be c6 96 fa 3d f3 a2 29 3d
       0.08218539 -0.12867956 0.12235789 0.041415166
0001c0 be a3 10 3d 25 1d b3 3c 6a e5 0d 3e 26 fa b6 3d
       0.035312407 0.021864483 0.13857046 0.08934431
0001d0 9a 61 1c 3e a6 34 3f bd 43 bf 48 3d 22 06 ec 3d
       0.15271607 -0.04668107 0.049010526 0.11524607
0001e0 61 18 2e be d7 44 f1 3d 0a 40 00 be 2a f6 c3 3d
       -0.17001487 0.11780708 -0.12524429 0.095684364
0001f0 d2 ef 1f 3d fe b2 08 3e ec bc b6 bd 76 ba 92 3d
       0.03904707 0.1334953 -0.08922753 0.07164471
000200 d5 9a 28 3e bd 8a 4a bd de ee 46 3d 9c 6e 2e 3e
       0.16465314 -0.049448717 0.048567645 0.17034382
000210 f4 7a 01 3e 56 51 9e bd 0e 21 db bd bb ca c8 3d
       0.12644559 -0.07730357 -0.10699664 0.09804293
000220 f2 5a 09 bd de 50 3f bb d7 12 da 3d b2 9c 8f bc
       -0.033533998 -0.0029192488 0.10648125 -0.017530773
000230 1b bb c1 3c a7 92 dc 3d c4 b1 93 bd 43 44 80 3d
       0.02364879 0.10770159 -0.072116405 0.0626302
000240 2a 9e d1 3d 8f 4b 3b bd 05 8e 2b 3e 39 70 8a 3d
       0.102352455 -0.045726355 0.16753395 0.06759686
000250 84 e4 c7 3d ee d2 f0 bd 53 7d 7c bd 5e 55 1a 3d
       0.09760383 -0.11758982 -0.061642956 0.03767907
000260 b4 52 51 bd 66 2f 09 be b9 4d ff 3d 01 e4 8a 3d
       -0.051104262 -0.13396987 0.12465996 0.067817695
000270 00 55 85 3d f2 88 9d bc 71 2c e3 bd ac 49 1e bd
       0.06510353 -0.01923034 -0.11092461 -0.038644478

model.rnn.bias_hh_l1 f4 [160]
000000 ab 0e a5 3d db 9a 58 bd f6 fc c7 3d d0 2f 9b 3d
       0.08059438 -0.052882057 0.09765045 0.07577479
000010 78 d4 a6 3d 7d b8 f5 bd 2e 9c 29 bd 5b 25 f5 3d
       0.08145994 -0.11998079 -0.04140871 0.119700156
000020 7f fb 48 bd 8e bb b6 3d 47 30 b0 3d cb 75 f6 bd
       -0.04906797 0.08922492 0.08602958 -0.12034186
000030 ee 97 cd bd 59 66 b4 3d 56 51 24 3d eb 63 e8 3d
       -0.10038744 0.08808584 0.04011663 0.11347183
000040 9b 92 30 3d f2 64 db bd 6c 41 9a bd 42 30 1b 3e
       0.043108564 -0.10712613 -0.075320095 0.15155128
000050 f1 88 89 3d dc 3e 26 be 22 b1 c0 bd 97 96 13 3e
       0.067155726 -0.16234916 -0.094087854 0.14412914
000060 3d a6 07 be 4e ab 49 bd f2 ef d4 bd b0 3a 2c bd
       -0.13247009 -0.049235635 -0.103973284 -0.042048156
000070 4f 6f c6 bc 73 93 93 bd 49 d8 ca 3d 94 05 c5 3d
       -0.024222998 -0.07205858 0.09904534 0.096202046
000080 cf d2 c2 3d f0 97 04 3e fc f1 3c 3e a4 e3 a4 3c
       0.09512865 0.12948585 0.18451685 0.020128079
000090 29 b7 05 be 9e 67 11 bd c5 3f 91 bc b3 f1 d1 bc
       -0.13058151 -0.035499208 -0.017730603 -0.025627946
0000a0 07 eb 1f be dc 7c 9d 3d fc 6b e8 bc bf 46 c7 3d
       -0.15617 0.07689831 -0.028371803 0.097302906
0000b0 e6 67 98 bd 30 fe ce 3d a0 f1 8a 3d 23 e7 1d be
       -0.07441692 0.10107076 0.067843676 -0.15420203
0000c0 4e 58 c5 3d 0b e9 60 bd d1 a0 61 3d 66 63 b5 bc
       0.096359834 -0.054909747 0.055085007 -0.022142123
0000d0 fc 46 ba bd 0e 4d 95 bd 37 fe 20 3d 4c 96 e5 bc
       -0.090955704 -0.07290088 0.03930494 -0.028025769
0000e0 e2 38 d3 3d c8 59 fc bc 59 ed c8 bd bb fd 0a bd
       0.10313584 -0.03080453 -0.098108955 -0.033933382
0000f0 ff 2f 7a bd fb 1f 7a 3b 7f a5 27 3d 68 a1 ca bd
       -0.06108093 0.0038166035 0.040929314 -0.09894067
000100 28 76 ff 3d 4b 36 ab bd a5 63 e7 bd 00 be 21 bd
       0.124737084 -0.08359965 -0.112983026 -0.03948784
000110 de 8a b9 3d 83 9b d6 3d e7 e1 32 3d 64 4e ad bd
       0.0905969 0.1047888 0.04367247 -0.084622175
000120 be 4b 92 3d 07 b6 3a bd 8b a5 24 bd 36 bd d3 bd
       0.07143353 -0.04558375 -0.040196937 -0.103388235
000130 e3 5b 28 3c c7 81 28 be 7a 88 34 bd a4 df fd 3d
       0.010275814 -0.16455756 -0.044075467 0.12396172
000140 f6 ef 0f be e1 39 36 3e e9 39 af 3c 51 ff 21 be
       -0.14056382 0.17795517 0.021389918 -0.15820052
000150 36 95 f5 3d 4c 2f fe 3b ab 1d d6 bd 98 9b ff 3c
       0.1199135 0.007757103 -0.104548775 0.031202123
000160 e6 7c a5 bb 96 91 88 3d 5d 44 0c 3d c8 3d 0a 3e
       -0.0050502894 0.06668393 0.034244884 0.1350013
000170 f7 ed 03 be f5 ca 47 3c cc cf df 3d 64 2d 11 bc
       -0.12883745 0.012194385 0.10928306 -0.00886092
000180 e4 40 07 be 2a 09 1f 3e 3c 1a a7 3c 78 d6 0f bd
       -0.13208348 0.1553084 0.020398252 -0.035116643
000190 c5 02 c5 3c 6b 58 26 3c ff cb bd bd 45 ab 24 3e
       0.024049172 0.010152916 -0.09267425 0.16080959
0001a0 9f f3 f9 3d d9 fc b3 3d 79 72 e7 bd 11 c1 85 3d
       0.1220467 0.08788461 -0.11301131 0.06530965
0001b0 93 e2 2a bb 0b 91 0d bd dc 51 7a bd a3 56 ea 3d
       -0.002607499 -0.034562152 -0.061113223 0.11442306
0001c0 25 9d cd bd 71 e6 0a be ef 7f a8 3d bc 22 12 3e
       -0.100397386 -0.13564469 0.082275264 0.14271063
0001d0 43 b7 dc 3d ce 8a ab bd 64 09 e3 bc a5 0d 25 3d
       0.10777142 -0.08376084 -0.027714439 0.040296216
0001e0 8f 16 30 be 46 3e 09 bd e3 b8 9c bd 93 03 88 bd
       -0.17196105 -0.033506654 -0.07652452 -0.06641307
0001f0 0a 38 7a ba fc 3c 1d be 95 a7 5d 3d 3b fd 86 3b
       -0.00095450936 -0.15355295 0.054114897 0.004119543
000200 30 57 76 3d c6 01 92 bd c2 76 38 bd e4 c3 61 bd
       0.060141742 -0.071292445 -0.04503513 -0.055118456
000210 3c 34 3b 3e 1e 62 f9 bd da ed c9 3d b4 0e d8 3d
       0.18281645 -0.121769175 0.0985982 0.105496794
000220 d4 73 1a bd bb 1d af bd e8 c0 bb 3d d5 49 a2 bd
       -0.03770812 -0.085505925 0.09167653 -0.079242386
000230 6e 06 1c be 4c 03 45 3d 1e 6f bc bc b0 fa b5 3c
       -0.15236828 0.048098847 -0.023002204 0.022214264
000240 75 fc 0e 3d d6 38 f6 3d 76 30 39 3e 2c 87 80 bd
       0.03490873 0.12022559 0.18084893 -0.06275782
000250 fd c3 a2 3c c5 1a 11 3e 17 91 c5 bd aa 28 43 bc
       0.019868845 0.14170368 -0.09646814 -0.011911551
000260 c1 85 0f bd 1e fd 16 bd 4c e1 fe 3d d6 78 e1 3d
       -0.035039667 -0.036862485 0.12445316 0.11009376
000270 33 a3 01 be 32 6b 0e 3e b9 37 13 bd 85 a9 26 3d
       -0.12659912 0.1390808 -0.035941813 0.04068901

exp_avg f4 [1, 40]
000000 7e ea 5e 35 eb 6c cb b9 6c 47 c5 39 ac b8 0b ba
       8.3042676e-07 -0.00038800327 0.00037627982 -0.00053299475
000010 ce bd 9f b9 17 80 6c b9 cc 71 f4 38 f7 48 9b b9
       -0.0003046826 -0.00022554431 0.00011656023 -0.00029618267
000020 b9 d6 de 39 a3 92 ac 39 83 84 ce 39 b1 c9 6b 3a
       0.0004250312 0.0003291565 0.0003939011 0.0008994593
000030 21 53 ee 39 c8 53 7d b8 90 41 d7 38 8f a1 ee b9
       0.00045456833 -6.0397928e-05 0.00010264211 -0.00045515268
000040 ff 5c b6 3a 2a b4 e9 b9 78 cb f4 37 cd 13 c1 39
       0.0013913213 -0.00044575456 2.9181814e-05 0.0003682658
000050 7a 0e 37 3a 0f 3b f0 b9 36 09 3e ba b5 60 ee b9
       0.0006983053 -0.0004582037 -0.00072492973 -0.0004546695
000060 68 64 82 b8 43 4e 9c b9 a8 fd 9e ba 9e 81 a1 39
       -6.217585e-05 -0.00029812948 -0.0012130039 0.00030804885
000070 d1 ce 9e b8 74 a7 e3 b8 67 8e ba b9 5a 87 4b b9
       -7.57255e-05 -0.00010855394 -0.00035582783 -0.00019410011
000080 79 e1 ba 39 11 61 3d 3a 3e 1d c7 39 8a 6f b0 b9
       0.00035644675 0.0007224242 0.00037978025 -0.0003365244
000090 e7 22 d0 b8 92 31 26 39 b6 26 50 38 ee 94 95 ba
       -9.924714e-05 0.0001584946 4.9627117e-05 -0.0011412182
