deep-learning/rv_only/lightning_logs/version_12/checkpoints/epoch=4-step=250.ckpt (torch, 331231 bytes, 33 tensors)

model.param_proj.proj.0.weight f4 [1, 40]
00000000: 1cae 97bd 0e82 803e c1b1 c2bd b803 153e
00000010: c22a 73be 5fe3 163e 95f8 d93c e8fe 0e3e
00000020: d5cd 5d3d 1e07 94bc 33be bbbb 14db b03d
00000030: 2688 683b 119f 5f3e 50a0 8dbd 72f7 6bbd
00000040: 4599 62be 2bf1 863e 683a 713d 6894 a93d
00000050: 4ee0 50ba 5767 a4bd f764 a13d 6a81 f83c
00000060: b112 22bd 401f 48b7 8866 bc3d 5d01 e93c
00000070: b05e 7f3d 11d6 90bc c1bc e1bd bc20 fb39
00000080: 4b3f 22be e553 a73c 6769 19be 25be eabd
00000090: a415 be3d 3fdf 173d c423 973d 388c 74be
-0.074062556 0.25099224 -0.0950656 0.145522 -0.2374678 0.14735173 0.026607791 0.13964427
0.054151375 -0.0180698 -0.0057294606 0.08635536 0.0035481541 0.21838023 -0.06915343 -0.05760903
-0.2212878 0.26355872 0.05889359 0.08280259 -0.00079679943 -0.08027523 0.07880586 0.030335147
-0.039568607 -1.1928205e-05 0.09199244 0.028443033 0.06234616 -0.0176802 -0.1102233 0.0004789884
-0.15844457 0.020425746 -0.14981614 -0.114620484 0.09281471 0.03707814 0.073798686 -0.23881614

model.param_proj.proj.1.weight f4 [1, 40]
00000000: cdbb 693d ea74 223d cbda 123e cad7 4b3b
00000010: 7e67 fbbd 29b3 f83d 22c9 1e3e 72c6 afbd
00000020: 5cd3 0d3e edaa ac3c bee6 da3d e4b3 7abc
00000030: 4bc3 dbbc 8748 583d b35a 04bd f1ae 0f3e
00000040: a498 48bd 1b90 c53d 8143 9abd b7c7 d4bd
00000050: e4f9 f1ba 5079 b43d e781 a53d 8dfa 3eba
00000060: d5db 96bd 693e 5dbd 84ce 50bc 5715 6f3b
00000070: e893 173e 3cfc 06be 1d20 753d 9cad e6bd
00000080: b77a 0d3e 7f35 163d 5630 bdbc be5e e4bd
00000090: 3270 713c daef e23d 1182 233e c9fc c7bc
0.057063866 0.03966228 0.14341275 0.0031103962 -0.12275599 0.12143547 0.15506414 -0.08582772
0.13850158 0.021077598 0.10688542 -0.015301678 -0.026826521 0.052803542 -0.03231306 0.14031579
-0.048973694 0.096466266 -0.075324066 -0.10389655 -0.0018461314 0.08812201 0.080814175 -0.000728526
-0.073661484 -0.054014597 -0.01274455 0.0036481225 0.14802516 -0.13182157 0.05984508 -0.11263582
0.13816343 0.03667211 -0.023094337 -0.11150883 0.014736222 0.11080904 0.15967585 -0.02441253

model.param_proj.proj.2.weight f4 [1, 40]
00000000: 6abb 0b3e 7514 31bd 42c4 a63d 5117 d0bd
00000010: f4c8 323e 2041 343d e3d3 353d 8732 c7bd
00000020: 9aea 09bc 672c 253d 7c50 13be 3918 f6bd
00000030: e1d5 2a3e b6b5 1cbd 23e2 38bd a250 1b3d
00000040: 371a 193e 2319 11be 1065 203e 4116 22be
00000050: 1473 d13d 55fd e9bd f38a 27be 020c 0abe
00000060: c16f 893d 14b2 5abe 328e 3dbe aa5e d0bd
00000070: 4f11 bbbd 8e53 373e 2924 193d 1e1f 12bd
00000080: eda4 243e 384f 383e 2ab8 10be fba1 9a3d
00000090: ac96 45be bc24 033e f315 50be d589 fe3d
0.13645712 -0.0432324 0.08142902 -0.10160697 0.1745947 0.04400742 0.044391524 -0.09726434
-0.00841775 0.04032555 -0.14386171 -0.12016339 0.16683151 -0.03825923 -0.045137536 0.037918694
0.14951406 -0.14169745 0.15663552 -0.15828802 0.102270275 -0.114252724 -0.16361599 -0.13481143
0.067107685 -0.21356994 -0.18511274 -0.10174306 -0.09134161 0.17902967 0.037388 -0.035674207
0.16078539 0.1799897 -0.14132753 0.075504266 -0.19295758 0.12806982 -0.20320873 0.12428633

model.rnn.weight_ih_l0 f4 [160, 37]
00000000: 6c99 c8bd 2d53 34be 8794 16be 20ea 6abd
00000010: aa0a bebd ca98 93bc 6833 bf3d 850f c13d
00000020: c7b4 06bd d51e 13be 34fd ccbc 1223 8c3d
00000030: be2b adbd bd3c e63d d7a0 8d3d 8376 36bd
00000040: 27af e03d b0e9 d3bd c8f4 2abe d987 0c3c
00000050: f02c dabd 964b 003e c1e3 72bd 7050 04bd
00000060: 0832 143c fba2 95bd 930d 113e aa64 7abd
00000070: 86d0 06bd f576 bc3d b5e9 dbbd 8038 9fbd
00000080: bbf2 0cbe 17ed 4cbe 2041 f638 7c8a 85bd
00000090: cd24 ec3d 0882 4abd 3efa 2a3d 6820 453d
000000a0: 5b0d 0f3e f105 c53d 809e 943d fa9c 97bc
000000b0: 9374 07ba b883 863c 18f5 873d 3ee8 bfbd
000000c0: 4b9a 8e3d ff86 83bd bb29 903d 7d5c f33b
000000d0: 5e3b 8cbd 0499 b63d c2d7 483d cb12 44bb
000000e0: 0b54 cabd a6cf c33d 4e65 86bd 518c ffbd
000000f0: 7b90 a73d 9369 b73d 642d 253e b16a a13c
00000100: 9542 ac3d 29d0 cd3a 62c7 193d e404 9cbd
00000110: bd6f 88bd 30b1 fd3d 2c2b 5abb 0a5d 403d
00000120: e040 193e 413a e43c 5a09 803c 8c42 fe3d
00000130: 3c9b 413e 20a1 5c3e b6cf 153e ca53 1a3e
00000140: 98b2 be3d 8cf7 01bd 078e 6bbd 8591 bc3c
00000150: d779 23bd 5656 3bbd 339d 8b3c 3352 183d
00000160: b6ce e53d 031b 053b 2d64 1d3e 8d4b b63d
00000170: 460b f23c 7587 633d 4607 b1bd ba9d 103e
00000180: a694 f6bd 2c31 2cbd 95a5 2e3e cff3 8c3d
00000190: 70b2 c53d f915 62bd 97ce d43d 7c4a e83c
000001a0: f02d 2a3d b3cd 34bd ecab dabd 9fd0 993d
000001b0: 09ff 5c3d e371 c7bd ceae 333e 337b b93d
000001c0: b0e8 473e 9cc0 163d 7569 013e 9592 afbc
000001d0: 2213 4d3e a1ab 3d3d 64e8 9c3c c4f1 cc3c
000001e0: b976 9cbd a38f d2bd 7098 6ebd 300f 66bc
000001f0: b29e 7fbd 29a0 3dbd d9db 04be e5a7 143c
00000200: e0d5 babd 62ac 08be 8270 133d f5f7 1b3e
00000210: ac5a 5c3c e2e6 e63d 7dc6 91bd 8e8a dfbd
00000220: ed72 8cbd 1451 e9bb db33 9b3b 3a1b f5bd
00000230: 7908 6f3d 1098 033e 162f 0a3d ecc8 243d
00000240: db9c b7bd cf63 af3d 0025 c6ba 6ea7 f0bd
00000250: 6564 8b3c 4ee7 5cbd f3da 97bd 0d69 003d
00000260: c274 4ebd 6916 2b3d 3df1 ee3d 7203 543e
00000270: 1af3 243d 711e 253e bd7e 9a3d c49a c3bd
00000280: c44a da3d 8c0f 113e b9ab 0b3d 7a38 8f3d
00000290: 70fa 5a3d 82d9 b03d 9248 1a3e df0e 9abd
000002a0: 3cde d03d 1f9e a8bd 119e 143e 47a6 d6bd
000002b0: 94cd c9bc f05b 293e ee2f 1d3d bd1e 2fbe
000002c0: 1fa8 dfbd 1211 f8bd d295 4c3e ef87 9dbd
000002d0: 9ac2 a53b d7f5 8c3d b7c3 1d3e 944d 353d
000002e0: bd6e 793d 6363 933d 5436 f63d 9c37 213d
000002f0: 4766 973d d679 81bd 23e6 acbd cf71 a5bd
00000300: 0107 a23d ead5 ce3d 92ab 81bc cedf aabc
00000310: 6df4 9cbc 835e f63d 0183 1d3e 59e5 51bb
00000320: 849f 05be f519 993d ef90 af3d 20b0 343e
00000330: 617c d43c afcd cf3c 5d3d a33d b739 0ebe
00000340: 1370 04be b66b 2bbe bffc 733d 7f33 7bbc
00000350: 7c56 033d f9e2 eebc 683e 13be 0994 88bc
00000360: fc0d d3bd 6be2 1dbc 9177 803d 4bdb fdbc
00000370: 43a0 fa3d 7e9a 213e 31f5 d6bd 2ed8 42be
00000380: 2dd3 22be 241b cabd 33f9 cabd dd2f 273d
00000390: f14d 67bc 47ad 8c3c 432f f93d 6f07 f6bd
000003a0: dac3 2c3e 52e7 1ebd eedf 153b 13ca 2f3d
000003b0: 8f5d 2d3e 0ee6 82bd aab9 dd3d 3f46 fabc
000003c0: 6d7c 04be a793 bcbd 362d 143d 37f4 bcbd
000003d0: 3dd4 78bd 21d9 d73d 3f0f 443d f595 693b
000003e0: 7fd2 debd 5f2e 5e3e bfec 493d f073 96bc
000003f0: b125 d73d dd0e 2f3d 30a1 d6bd 25a2 bfbd
-0.09794888 -0.17609854 -0.14705096 -0.057352185 -0.09279378 -0.018017191 0.09335977 0.09426788
-0.032887246 -0.1436723 -0.02502308 0.06842627 -0.08455609 0.11242054 0.069154434 -0.044546615
0.10970908 -0.10347307 -0.16694939 0.0085773105 -0.106531024 0.12528834 -0.059299234 -0.032303274
0.0090451315 -0.07306477 0.14165334 -0.061131157 -0.032913707 0.09202377 -0.107379355 -0.077744484
-0.1376447 -0.20012318 0.000117423246 -0.065205544 0.11530457 -0.049440414 0.041742556 0.048126608
0.13969938 0.09620274 0.07256794 -0.01850747 -0.0005167212 0.01642023 0.06638545 -0.093704686
0.06963023 -0.06422233 0.070392095 0.007426797 -0.06847261 0.08915904 0.049033888 -0.0029918428
-0.09879311 0.0956109 -0.06562291 -0.12477935 0.08181854 0.089556836 0.16130596 0.019704195
0.08411137 0.0015702295 0.037543662 -0.0761812 -0.066619374 0.123873115 -0.0033289893 0.04696373
0.14966154 0.027859809 0.01562946 0.124150366 0.18906873 0.2154584 0.14630017 0.15071025
0.09311408 -0.03173022 -0.057508495 0.023018608 -0.039911117 -0.045736633 0.017042732 0.037187766
0.112210676 0.002031029 0.15370245 0.08901129 0.029546391 0.055549104 -0.086439654 0.14122668
-0.12040071 -0.04203908 0.17055352 0.0688244 0.09653175 -0.055196736 0.103909664 0.02835583
0.041547716 -0.044141483 -0.10677323 0.075104944 0.053954158 -0.09738519 0.17547151 0.090567015
0.19522357 0.03680478 0.12637885 -0.0214322 0.2002683 0.046306256 0.019153781 0.025017627
-0.07639832 -0.10281303 -0.058250844 -0.014041707 -0.062407203 -0.04629532 -0.1297449 0.009073232
-0.09122825 -0.13347009 0.035995968 0.15231307 0.013449352 0.11274506 -0.07117937 -0.10915099
-0.06857858 -0.007120261 0.0047364063 -0.11968084 0.05835769 0.12850976 0.03373631 0.040230677
-0.08965465 0.08563959 -0.0015117228 -0.11750685 0.017015645 -0.053931527 -0.07414808 0.031350184
-0.050404318 0.04176942 0.11667106 0.2070444 0.040270902 0.16124894 0.07543705 -0.095510036
0.10658792 0.14166087 0.034099314 0.06993194 0.053461492 0.08635236 0.15066746 -0.07522368
0.10198638 -0.08233284 0.14513423 -0.10480934 -0.02463416 0.16538978 0.038375787 -0.1710157
-0.109207384 -0.12112631 0.19979027 -0.07691943 0.0050585987 0.06882828 0.1540669 0.044263437
0.060896624 0.07196691 0.12022081 0.039359674 0.07392555 -0.063220665 -0.084423326 -0.08078348
0.07911492 0.100993946 -0.015828881 -0.020858672 -0.01915952 0.120297454 0.15382005 -0.003202757
-0.13049132 0.07475654 0.08572566 0.17645311 0.025938215 0.025366632 0.079706885 -0.13889204
-0.12933378 -0.16740307 0.05956721 -0.015332102 0.0320649 -0.029160963 -0.14379275 -0.016672151
-0.10305402 -0.009636502 0.062728055 -0.030988356 0.12237599 0.1578159 -0.10495985 -0.19027779
-0.1590087 -0.09868458 -0.09910812 0.04081713 -0.014117704 0.017172469 0.121672176 -0.120131366
0.16871586 -0.038794823 0.0022869068 0.042917322 0.16930221 -0.06391536 0.10826428 -0.030551074
-0.1293809 -0.0920785 0.03617593 -0.09226268 -0.06074928 0.10539461 0.047866102 0.003564236
-0.10879993 0.21697377 0.049298044 -0.01836583 0.10505236 0.042738784 -0.10479963 -0.093570985

model.rnn.weight_hh_l0 f4 [160, 40]
00000000: 82fc a83d f841 c53b 544d 133d aff8 9ebd
00000010: 686f 2bbe 0003 4abc 7ee2 0fbd 7c95 1abe
00000020: 34bf 023c 4edb a2bd 8b99 153e 4409 b03d
00000030: c93f f73d 86e2 033d a25d 9c3c 0f17 113e
00000040: 5362 3cbd 9638 ce3d 08fd ac3d 991b 113e
00000050: 2b14 02be 5a23 00be c25e 713c 7240 f73c
00000060: 7493 2e3d c0a3 fcbd 367c 03be d67e 29be
00000070: ddea 2ebc f212 f73d 4217 0a3d 8a2c 11bd
00000080: 21f3 183e 97fa 413d f1f6 0abe bf64 afbd
00000090: c323 203d 958d ba3c fca1 96bc 7842 16bc
000000a0: 43fe fbbd 8173 09be 98c6 57bd 3dda d3bd
000000b0: 0132 1bbe 91ff 34bd 56f3 1cbe ce69 26bd
000000c0: 2776 f1bd a899 133c 3c01 bf3c 6f21 11bd
000000d0: e09a 803c a82a 28bd 3cfe 0dbe e0e3 f23d
000000e0: f217 bcbd ae62 91bd 9540 04bd 4e7c 0abe
000000f0: 5f95 183d 812f 463e ce86 9dbb 4895 96bd
00000100: c95c d23d a869 86bd 1ff4 1c3c 3f92 3dbe
00000110: 966c 37be 20a9 ecbd b6c4 29bb 7388 fc3d
00000120: e614 6abd e8ee bf3d 86c2 3a3d 1318 033e
00000130: 972c 44bd bd4a 2cbd 08a3 3abc 6a7b 01be
00000140: 09a4 a9bc 1adc 66be 30ca b23d ddcf 4bbe
00000150: de65 75be 70f2 903c 2f9a 3fbe f257 15bd
00000160: 01e1 333e f5aa 1e3d e33a c23d 9af6 80bd
00000170: 75d4 9c3d 1053 8fbd 5878 ff3d 3e60 ea3d
00000180: 12d5 56be c927 e53d 1248 68bd b989 b0bd
00000190: 30f8 033d 4cd7 a13c dd82 6dbd 1b5c f7bc
000001a0: ae9e 76bc a9e0 823e f587 a9bb 1878 1bbe
000001b0: 394e aa3c 9df7 b5bd dcc6 613e 52d7 3c3e
000001c0: 5276 a6bc 2eba a9bc 389b 383e 9cac 82bd
000001d0: 89fb d33d 050a 633d a676 c43d d469 46be
000001e0: 864c 2bbe 1e16 6dbd 60f9 5cbe 5816 bbbc
000001f0: 701c f9bc cbae 053e 72a6 f8bd e3bf f03d
00000200: 5468 18bd be0c fa3d 7240 85bd 01bf d63d
00000210: 034a 4a3d cb7f a43d ce99 a33d ffbf 1a3e
00000220: 2568 683d 6001 ecbd 22a8 bf3d 2b1c 493c
00000230: 66d0 b33d a992 d83d cdc5 5fbd 8ae8 6cbd
00000240: 5117 debd f98c 7e3d 5cf2 2e3e ae85 54bd
00000250: e967 4c3c d398 c3bd 0a49 a23d 57ee df3b
00000260: a4cb 15be f2b3 1cbe c296 5f3d 4ada 173e
00000270: b1a2 0cbe 21d5 c2bd d5e0 97bd 529b 40bc
00000280: f110 fa3d ff1d c9bd 5bf4 cdba b5ed bfbd
00000290: 016c e4bc 9749 f23d 9495 08bd 66c4 423e
000002a0: 1dd4 abbc 2b48 eabd 9be7 dabd 0fc9 18be
000002b0: c4f6 2dbc 8766 713d a438 773d 53d0 e73d
000002c0: 5875 edbc 1758 95bd 7b7f a03d 60ed fbbd
000002d0: 5e7d 3bbe bccd d1bc a02e 4dbe b69f 9e3c
000002e0: cb6c 2c3e 5af8 1b3e 12b0 e23d f7f5 743d
000002f0: 3b4b 48be 8e5b 16bd 8c95 8bbd 308f e7ba
00000300: efd8 3c3d 1711 ac3d 600f 923d 4309 2c3d
00000310: 784d ed3d 185f 8cbd e4f4 3a3e b74d 38be
00000320: 3653 10be 69bb 0fbe 6f17 183e 367e 1ebe
00000330: f27b 0b3d ae7f 2a3e 8594 d23b 9fce 283e
00000340: df69 e6bd 7f84 803c bcab 063e e41e 533d
00000350: d469 373d 10c1 1c3e 36ef 20be d8a7 803d
00000360: 239b d43d 4c7e 7c3d 2a95 1e3d ff01 febd
00000370: 89cf 7cbd 1253 ffbd f02c c2bd 121c 11be
00000380: 3ca6 8bbd e6ec f73d 3799 08be 1537 4ebd
00000390: 083d dcbc 714b 233d 5a57 43bd 3c72 2dbd
000003a0: 12f4 033e bb8a ea3d bf60 e7bd 78f0 923c
000003b0: db78 c23c 67eb a1bd 687d 13be 46b5 84bd
000003c0: 064a f83d 8ff5 0bbe f04c 9b3d 9ff9 853d
000003d0: a732 743d d706 853d cd0c c83d dced e8bd
000003e0: c57b cc3d 8f7a 0fbe 7f5a c33c 917d 9f3d
000003f0: ca38 873d ef0a 00bd 7e2e 75bd 5325 883d
0.08251287 0.006019827 0.035962418 -0.077622764 -0.16741717 -0.012329817 -0.03512811 -0.15096086
0.007980157 -0.07951985 0.14609353 0.08595517 0.12072713 0.03219845 0.019087616 0.14168952
-0.045992207 0.10069387 0.084466994 0.14170684 -0.12703006 -0.12513486 0.014732065 0.030182097
0.04262109 -0.1233592 -0.12840351 -0.1655229 -0.010676113 0.120641604 0.033713587 -0.035442866
0.14936496 0.04735812 -0.13570763 -0.08564138 0.039096605 0.02277259 -0.018387787 -0.009171121
-0.12304356 -0.13422967 -0.052679628 -0.1034436 -0.15155794 -0.04418904 -0.153272 -0.040628247
-0.11790114 0.0090088025 0.023316018 -0.035432275 0.01569885 -0.041056305 -0.13866514 0.1185987
-0.09184255 -0.070989 -0.032288153 -0.13523981 0.037251826 0.19354059 -0.0048073297 -0.07352692
0.102716036 -0.06563121 0.009579687 -0.1851282 -0.17912516 -0.115556955 -0.0025904602 0.12330713
-0.057148837 0.093717396 0.04559567 0.12802152 -0.047894087 -0.042063463 -0.011391409 -0.12644735
-0.0207081 -0.225449 0.087299705 -0.19903512 -0.2396464 0.017693728 -0.1871116 -0.036460824
0.17566301 0.038737256 0.09483888 -0.062970355 0.076577105 -0.06998265 0.124741256 0.11444138
-0.20979717 0.11189229 -0.056709357 -0.086200185 0.032219112 0.019755982 -0.05798613 -0.030195286
-0.015052481 0.25562027 -0.005173678 -0.15182531 0.020789253 -0.08885119 0.22048515 0.18441513
-0.020320091 -0.02071866 0.18027961 -0.06380579 0.10350711 0.055429477 0.09592943 -0.19376308
-0.1672841 -0.05788242 -0.21579504 -0.022837803 -0.030409068 0.1305496 -0.12141122 0.117553495
-0.03720887 0.12209462 -0.065064326 0.1048565 0.04938699 0.08032187 0.0798832 0.15112303
0.056739945 -0.115237 0.09358241 0.012274782 0.08779983 0.10574848 -0.054631997 -0.057838954
-0.10844291 0.06214616 0.1708464 -0.0518853 0.012475946 -0.09550633 0.07924087 0.0068338322
-0.14628464 -0.15303019 0.054587133 0.14829364 -0.13733937 -0.09513307 -0.0741593 -0.011755781
0.122102626 -0.098201744 -0.0015713082 -0.09371511 -0.027883532 0.118304424 -0.033345774 0.19020233
-0.020975167 -0.11439546 -0.106887065 -0.14920448 -0.010617916 0.05893567 0.06035675 0.113190316
-0.028986618 -0.072921924 0.07836815 -0.12301135 -0.18309543 -0.025610797 -0.20037317 0.019363265
0.16838376 0.15231457 0.11068739 0.059804883 -0.19559948 -0.036708407 -0.06815633 -0.0017666575
0.04610532 0.08401697 0.07131839 0.04200102 0.115870416 -0.06854075 0.18257481 -0.17998396
-0.14094242 -0.14036335 0.14852689 -0.15477833 0.03405375 0.16650268 0.0064263963 0.1648507
-0.11250662 0.015688179 0.13151449 0.05154313 0.04477866 0.15308022 -0.15716252 0.06282014
0.103811525 0.061643884 0.038716473 -0.124027245 -0.06172136 -0.12467016 -0.094812274 -0.14170864
-0.06818816 0.12105732 -0.13339697 -0.0503455 -0.02688457 0.03986687 -0.047690727 -0.04234527
0.12886074 0.11452242 -0.1129775 0.01793693 0.023739269 -0.079062276 -0.14403307 -0.06479888
0.12123494 -0.13667892 0.07583034 0.06541752 0.05961862 0.06495445 0.097680666 -0.11373493
0.09984545 -0.14011596 0.023846863 0.07787622 0.066026285 -0.031260427 -0.05985879 0.06647744

model.rnn.bias_ih_l0 f4 [160]
00000000: bcae a73d c670 7abd 92ba d3bd 67c9 e6bb
00000010: b9b0 293e 608f b9bd e253 bfbd 62a6 07bd
00000020: 2f0f 4f3d 2d81 9cbd 2188 0c3e ed27 a53d
00000030: 0ba9 e23a 6e43 c5bd 0f41 90bd df33 c73d
00000040: 072b 663d 6404 ec3d aadb e63d 9abe db3d
00000050: 4874 b13d 78aa 39bd 594b 083e db52 903d
00000060: 41ed 383d ff6c 013e c87c 303e d690 fd3c
00000070: 9724 263e 96a1 323e 2c27 383d b8c4 bb3d
00000080: 6b8f 19be 3c39 213e 4849 97bc 2217 9d3b
00000090: aa17 363e a4c0 293e b386 2b3e 9ef4 40bd
000000a0: 31a1 d23d e793 9a3d 4717 edbd bc68 05bd
000000b0: b8e0 843d 6c29 313d 946e 88bd f751 153e
000000c0: 95b2 cb3d 56b1 b03d aba1 82bd c906 1d3e
000000d0: 6d9b b3bd fd77 8d3d e98a 7dbd a296 0e3e
000000e0: fc25 cebc dea9 ec3c b968 e63d ed88 42bc
000000f0: 0198 db3d ba57 1b3e 73e6 aebd be44 553b
00000100: 7ac6 0f3e 2d88 16ba 85e0 dcbd 7f74 1f3e
00000110: 20c4 ee3d 8a52 e0bd 9c36 e8bd d075 e8bd
00000120: dbfa 97bd d8be e23d 117c e3bc 29ee 543c
00000130: 4330 5b3d 3f6c 803d 835a cf3d 22f8 673d
00000140: 9083 2d3d 2e26 e43d 3580 60bc 2bb5 d2bc
00000150: a1e2 803d aa5c 773d 12ed cb3d f0bc 453d
00000160: 2df7 b33d 8b39 933d 9c14 123c b3ed 39be
00000170: 96da d1bd 6161 873d 8804 17be 8185 b63d
00000180: 148f ac3d c804 c73d 1281 c63c 1efc 993d
00000190: 47b4 f63d 7fe9 bb3d 4057 e0bd 1211 2dbe
000001a0: 97da 163e a91f 783b f74b 063e 8fde fdbd
000001b0: 9b6b 783c cd2f b73d e50b 0c3e 1efa 9c3b
000001c0: 2680 a83d 5079 10be ad92 06be 567a cb3d
000001d0: d1d3 ccbc c4b6 5dbd b67c e63d d58f e13d
000001e0: ab8e f83d 8bb3 1d3e 23ad 8cbd ba70 553d
000001f0: 1500 093e 04ab 93bd 94b4 1a3e 6d9a 3c3e
00000200: 4341 0dbe 8299 8d3d 3eab 44bd 4e66 bd3d
00000210: 5a09 c0bd d21c 92bd 13f1 313a 2f6d 603c
00000220: e133 82bd c5e0 e0bd 22a3 66bd f214 01be
00000230: e0c6 efbc f731 383e fb26 243e 1949 d53d
00000240: 9573 e5bd 40b7 2bbd d8eb 583d 6232 13be
00000250: 9245 06bd e131 3fbd df95 09be c064 c0bd
00000260: c9a3 2bbd 0d31 9a3d c619 113e 5f1e 5bbd
00000270: 6ffe b5bd 5be2 65bd cd06 b7bd f9e4 8fbd
0.08187625 -0.061142705 -0.1033832 -0.007043052 0.1657132 -0.0906055 -0.09342171 -0.03311766
0.05055159 -0.07641826 0.13723804 0.08064256 0.001729281 -0.09632002 -0.07043659 0.097266905
0.056193378 0.11524275 0.11272366 0.10729714 0.08664757 -0.045328587 0.13309993 0.070470534
0.045148138 0.12639235 0.172351 0.030952852 0.16224895 0.17444453 0.044959232 0.091683805
-0.14996116 0.1574449 -0.01846756 0.0047940174 0.17782465 0.16577393 0.16750602 -0.047108285
0.10284651 0.075477414 -0.115767054 -0.032570586 0.06488174 0.043252394 -0.06661716 0.14582048
0.09946171 0.08627574 -0.06378492 0.1533462 -0.087698795 0.069076516 -0.061900053 0.1392465
-0.025164597 0.028889593 0.11250443 -0.011873466 0.10722352 0.15170184 -0.085400485 0.0032542194
0.14040557 -0.00057423377 -0.10785011 0.15571783 0.116585016 -0.10953243 -0.11338541 -0.11350596
-0.07420894 0.11071557 -0.02776912 0.012996235 0.053512823 0.06270646 0.101246856 0.056633122
0.042361796 0.11140095 -0.013702442 -0.025721153 0.06293226 0.060391106 0.09957327 0.048275888
0.087873794 0.0718871 0.0089160465 -0.18157081 -0.1024677 0.066103704 -0.14747822 0.089121826
0.084257275 0.09717709 0.024231467 0.07518791 0.12046104 0.09175395 -0.109541416 -0.16901043
0.14731823 0.0037860668 0.13114916 -0.12395965 0.015162374 0.08944664 0.13676412 0.0047905585
0.082275674 -0.14108777 -0.1314189 0.09935443 -0.025003346 -0.054129377 0.112542555 0.11013762
0.12136587 0.15400521 -0.06868961 0.052109458 0.13378938 -0.07210353 0.15107948 0.18418284
-0.13794427 0.06914045 -0.04801487 0.09248029 -0.09376784 -0.07134403 0.0006787937 0.013697906
-0.06357551 -0.109803714 -0.05630792 -0.12605646 -0.029269636 0.1798781 0.16030495 0.10414333
-0.11203686 -0.041922808 0.052959293 -0.14374688 -0.03278119 -0.046678428 -0.13436078 -0.093942165
-0.041904245 0.07528887 0.14169988 -0.05349576 -0.0888642 -0.056124073 -0.08936844 -0.07026095

model.rnn.bias_hh_l0 f4 [160]
00000000: 8dd6 273d a971 b2bd 11d5 6a3d f9d9 353e
00000010: f679 14bd a211 85bd 8200 4cbd 27f2 043d
00000020: 5c0c a1bc 58e8 1c3e e1fd a63d d333 f13d
00000030: b37c c73d b489 1a3e db75 673c 8c0f ff3d
00000040: 3e9f ecbd cd60 0fbe 9a4c 3abd d5b1 db3d
00000050: 63af bebd d8b2 58bc b6c8 3e3e 66d4 413d
00000060: e901 113e 87c6 1bbd c96a 17bd fc01 4e3d
00000070: 4b7b 4f3e b4a4 2e3e 87b7 84bd 0b08 3f3e
00000080: 335b e03c 921d cd3d e366 0f3e 82a7 89bd
00000090: d068 bc3d bda7 303e 0827 98bc 2aa8 e13d
000000a0: deac 033e afc6 dc3c 727c 89bd 0e77 b63b
000000b0: c48e b03d 9194 733d e643 43bb bf4c 87bc
000000c0: 852b dbbd 86a3 11be 0c0a 193d b781 f9bd
000000d0: 88ac 03be 4232 fb3d 7e5d 273d 6e97 bbbd
000000e0: 7392 75bd 1138 02bd 78c8 2b3e 647b 0f3d
000000f0: c867 133e cdba e63d e303 05bd fe74 0ebb
00000100: acd6 e63d b66a 41bc 2473 dabd 3f00 273e
00000110: aecc cabd 1002 0abd 502b 933d 6f97 12be
00000120: 7213 d93c 68dc 363e d502 a13d df0f e73d
00000130: de01 9f3c a83a 783d c6ac 163e 51bd a4bd
00000140: dfad 86bc f9c5 113d 6798 3a3d a70e c7bd
00000150: 43ff e63d 8e8a 9d3d 2200 d3bd 3ed0 fb3d
00000160: bbaa f8bc bbd4 e13b 876f 933d 8fca bbbd
00000170: 54f9 99bd b07c dd3d bf3b a0bd 679e dfbd
00000180: affe b2bc fcf2 f1bb f17e 07bd 9ac4 b5bd
00000190: 382e 51bd d8f2 01be 5900 02be 3828 d03b
000001a0: 79f0 2dbd 27ae d2bd fc69 173e 5238 a4bc
000001b0: 4e95 233e 573c 9ebb d54b 193e 55f7 1ebe
000001c0: 9a9c c93d af4a 1dbe 7e60 03be 719f eebc
000001d0: 164b 4a3e 86ea 58bd 9565 98bd 6d65 623d
000001e0: b746 853c 16cd 253e f440 243e 95f8 32bc
000001f0: b4df 1d3e b50e 023e bd23 243e 04fc ee3d
00000200: f152 18bd 3bd4 12bd a55f b03d 2647 f33d
00000210: e1fc d93c 1310 483d b74c ea3d a1d3 cd3d
00000220: 31b9 71bd 04ae da3d 082e 173d 788c 9d3d
00000230: 7f2a 163e e838 923d c1fc 8cbc 9e10 2c3e
00000240: 30d2 1c3e 80fb 563d 06e9 763d 35b8 6a3c
00000250: 862f 93bc ac51 51bd b88e d43d e3c5 f13d
00000260: 8eeb f13d ba1d 1f3e 88d6 1cbc 6971 cd3d
00000270: c350 903d 72e4 cfbc b685 e2ba 5096 a0bd
0.040976096 -0.08713085 0.057332102 0.17758931 -0.036249124 -0.06497504 -0.04980517 0.032457497
-0.019659214 0.15323007 0.08153892 0.11777463 0.09740581 0.15091592 0.01412722 0.12454137
-0.115538105 -0.1400177 -0.04548321 0.10727278 -0.09310796 -0.013226233 0.18631253 0.0473217
0.14160885 -0.038031127 -0.036967073 0.05029486 0.20261876 0.17055017 -0.064803176 0.18655412
0.027387237 0.10015406 0.14004092 -0.06721403 0.09199679 0.17251487 -0.018573299 0.11018403
0.12858912 0.026950208 -0.06713189 0.0055683916 0.086209804 0.059467856 -0.002979511 -0.016516088
-0.1070166 -0.14222535 0.037363097 -0.12182944 -0.12858784 0.12265445 0.040860645 -0.09159742
-0.059954118 -0.03179175 0.16775692 0.035029784 0.14395058 0.11266098 -0.03247441 -0.0021737213
0.11271414 -0.011805227 -0.106664926 0.16308688 -0.09902321 -0.033693373 0.071859956 -0.1431558
0.02649853 0.17857516 0.07861868 0.11282324 0.01941007 0.060602814 0.14714345 -0.08043922
-0.01644033 0.035589192 0.0455555 -0.097195916 0.11279156 0.07692443 -0.1030276 0.122955784
-0.030354848 0.0068918145 0.071990065 -0.09169494 -0.07518259 0.10814798 -0.07823896 -0.10918885
-0.021849958 -0.0073837023 -0.033080045 -0.088753894 -0.05106947 -0.12690294 -0.12695445 0.0063524507
-0.04246566 -0.10287123 0.14786524 -0.020046387 0.15974924 -0.0048289704 0.14970334 -0.15524037
0.098443225 -0.15360521 -0.12829778 -0.029128762 0.19755206 -0.052958034 -0.0744125 0.05527251
0.016269071 0.16191515 0.16040403 -0.010923524 0.15417367 0.12700923 0.16029258 0.11669162
-0.037188474 -0.03584693 0.08611993 0.11878805 0.02660984 0.048843455 0.114404134 0.10050131
-0.059014503 0.10677722 0.036909133 0.07692808 0.14664648 0.0713976 -0.017210366 0.16803214
0.15314555 0.052485943 0.060280822 0.014326145 -0.017966997 -0.05110328 0.10378784 0.11805322
0.118125066 0.15538684 -0.009572633 0.10031397 0.07046654 -0.025377486 -0.0017282281 -0.0784117

model.rnn.weight_ih_l1 f4 [160, 40]
00000000: a9d2 23bd dcb9 e9bd cf71 3d3d e8fd e5bd
00000010: 77b9 dc3d 14fe 5fbd 0032 5c3c 0ca5 f93d
00000020: 8805 ccbd 9244 413b bd9f 9d3d 0328 0abe
00000030: 57b5 933d 1c14 3a3d e470 e3bd 0a22 b1bd
00000040: 18bc 883c 4a15 9cbd 37cc bb3d 76ee f43d
00000050: 756f 27be f9cd 17be ae97 733d 39f0 35ba
00000060: d67b d93d 0536 343e e5fc 433d 5bc1 683c
00000070: bc6b 96bc e86e 00bc 32c4 00bd 7933 ecbd
00000080: 219e b83d 4c74 2b3e bcc8 3cbe e1cc 983c
00000090: aac4 1c3e 6380 963d 1829 2f3d 6d9a 223c
000000a0: b361 1e3e f17c 75bd 77c6 c7bd 9607 0b3c
000000b0: d431 00bc ed3b d9bd 0f66 63bc 07b4 b23d
000000c0: 1f81 a13d 1ece bcbd a2a0 8cbd 8542 0dbe
000000d0: 59dd 493e b998 383c 839c e3bd ae6d 7fbd
000000e0: 6e39 02be 7ddb fc3d bd6e d63c f3fe 96bd
000000f0: 11bb d6bd 3ca2 413e 5a90 edbd 6ac1 2abd
00000100: ecd0 4abd 14a8 773d 7ed3 36bd 8986 c23d
00000110: 2301 38be 2873 b53c 84b8 76bc ddc7 bfbd
00000120: 942b 913d 96d9 bebc 8e1a 1bbb f036 af3c
00000130: e066 b13d 1ae5 49bd da8f f93c 6691 b2bc
00000140: 5652 9abc e9f1 18bd 1614 9f3c 4b43 2fbd
00000150: 5be9 563e 0226 cbbd c91c 0a3e 8d5b f3bd
00000160: 9524 0e3e 63a1 2fbe d34f 0cbc 6049 b4bd
00000170: 3a98 45be e941 17be da72 cb3c df30 513d
00000180: 706f a13d fa24 95bc 3067 da3d 6df7 893d
00000190: 4867 01be 2ea1 ae3d 66c5 1d3d 6cee d93d
000001a0: 49c6 c53d a690 c53d ec3c 323d fc95 6e3d
000001b0: fe98 3b3e 7551 0a3d 72be d43d 7265 a33d
000001c0: 982c 80ba 365c 6c3d 7418 ddbd 4740 9bbd
000001d0: 4f26 643d e74b 01be 1ff3 a43d c473 523b
000001e0: c98e 09be 3eda 5a3b c12a b1bd 048b 6bbe
000001f0: 8d94 6bbd 976f 033d e103 86bc a4b1 ed3d
00000200: 9c58 1bbe 84ab 033e 70a9 74bd 4a45 14bd
00000210: 325b 8d3d 98f2 e73d ba2b bb3d 5728 a63d
00000220: 38ed 67be 9011 9abd ca6c 43be 638b 1abe
00000230: 6de8 783a d168 d53d e7a8 5cbe 1c5f a3bc
00000240: 6f39 15bd 5afb 453e 2bd7 5b3e 3a26 20be
00000250: 34bf 9c3d 295e 903d 7aa6 433e 8090 763c
00000260: b948 ae3d cbf8 67be 3284 17bd 941c ddbd
00000270: fae9 fc3d 8a69 283e fa27 e03d 5085 19be
00000280: 2f94 da3d d79d c1bd a8d5 46be 443f 0dbd
00000290: e604 54be 0ea0 853d a407 b8bd 407a ecbd
000002a0: aaa8 313e 4142 083e 88d3 d6bd f5e0 d33d
000002b0: c98b 573e e600 8fbc 9034 a2bd 8249 023e
000002c0: f712 43bd b288 2bbe 49c2 95bd eab0 09bd
000002d0: a67a 173e 8f88 4f39 b946 2a3c da1b dbbd
000002e0: 9ca1 e0bd 4607 03bd 6dd9 4ebd 8756 01bd
000002f0: 4224 6abe f684 77bd 04ad a63d cc1a c43d
00000300: affc 003e 4d00 86bd 03a6 ad3d c566 993b
00000310: 665b a7ba e17c 9b3d 3760 3dbe 1607 1cbc
00000320: 970f c5bd 6464 18be 1333 743d 0c8a 56be
00000330: 2e3e 5ebd 1c69 4fbd 2765 033d 8248 533e
00000340: 604b 823d abd9 febc 41e8 9fbd a216 d83c
00000350: 7c2f c53d 68c4 c13d b41a 593d 4de4 99bd
00000360: d548 5bbe 9164 883d ed67 563d ce04 0fbe
00000370: 1db9 ce3d 56de 083e 0e10 c6bd 7494 35be
00000380: b4eb d53d 648a 453c bdf5 203e 57dc f6bd
00000390: 132f 0c3d 422b 70bd ecb4 d4bd fd0d b63d
000003a0: cdbd 553c ef39 04bd 6f56 1b3d 6e3f cfbd
000003b0: 7d20 273e 19df a3bc eeb0 0b3e 76f9 673d
000003c0: 148b e23c 6079 233e d751 303d 1f09 b5bc
000003d0: b561 493d 0205 53bc 4acd cabd 1a24 253c
000003e0: d831 42bb 1ff2 43bd 6438 e5bd 260f f5bc
000003f0: 9f9d 6abd d298 833c ac19 ec3d 2a90 8d3d
-0.039995823 -0.11412403 0.046251114 -0.112300694 0.10777562 -0.054685667 0.013439655 0.12189683
-0.099619925 0.0029490334 0.07696483 -0.13491826 0.07212322 0.045429334 -0.111055166 -0.086490706
0.016691253 -0.07621248 0.0916981 0.11959545 -0.16351111 -0.14824666 0.059470825 -0.0006940398
0.10619323 0.17598732 0.0478486 0.014206256 -0.018361919 -0.007838942 -0.031437106 -0.11533255
0.09014536 0.16743582 -0.18435949 0.018652381 0.15309396 0.073487066 0.0427638 0.009924513
0.15466957 -0.059933607 -0.09754651 0.008485695 -0.00782438 -0.10607133 -0.013879313 0.08725744
0.07885956 -0.09219001 -0.06866576 -0.13794906 0.19713344 0.011266881 -0.111138366 -0.062360458
-0.1271722 0.123465516 0.026175851 -0.073728465 -0.10484899 0.18909544 -0.115997985 -0.04168836
-0.04951565 0.060463026 -0.04463529 0.09498317 -0.17969184 0.022149637 -0.01505864 -0.09364293
0.0708839 -0.023297112 -0.002366695 0.0213885 0.086622 -0.049290754 0.030464102 -0.021797847
-0.018838089 -0.03734008 0.019418757 -0.042788785 0.20987456 -0.09919359 0.13487543 -0.11882696
0.13881142 -0.17151408 -0.008563953 -0.08803058 -0.19296351 -0.14771236 0.024835039 0.051071998
0.07882583 -0.018206108 0.10664213 0.06736646 -0.12637055 0.08526836 0.038518332 0.106411785
0.096569605 0.0964673 0.04351513 0.058248505 0.1832008 0.03376909 0.10387887 0.079783335
-0.0009778915 0.057705127 -0.1079568 -0.07580619 0.055700596 -0.1262661 0.08054184 0.0032112459
-0.13433374 0.0033394243 -0.08650733 -0.23002249 -0.057514716 0.032088842 -0.016359271 0.11606148
-0.1517052 0.12858397 -0.0597319 -0.03619889 0.0690216 0.11325568 0.091391996 0.08113163
-0.22649086 -0.07522881 -0.19084468 -0.15092234 0.00094950834 0.10420383 -0.21548806 -0.019942813
-0.036431726 0.19334164 0.21468799 -0.15639582 0.076536566 0.070492096 0.19106475 0.0150491
0.085099645 -0.226535 -0.036991306 -0.107964665 0.12349315 0.1644651 0.10945125 -0.14992261
0.10672795 -0.09453934 -0.19417441 -0.034484163 -0.20704994 0.06524669 -0.08985832 -0.11546755
0.17349496 0.13306524 -0.10489565 0.103456415 0.21049418 -0.017456483 -0.07920182 0.12723354
-0.04762551 -0.16751364 -0.073124476 -0.033615984 0.1479288 0.0001979193 0.010392838 -0.10698672
-0.109683245 -0.03198936 -0.050500322 -0.03157666 -0.22865394 -0.060429536 0.08138469 0.095754236
0.12596391 -0.06543026 0.0847893 0.0046814405 -0.0012768328 0.07592178 -0.18493734 -0.009523174
-0.09622114 -0.14882046 0.05961902 -0.20951098 -0.054258518 -0.05063735 0.03207889 0.20633128
0.06362033 -0.031109652 -0.07807971 0.02637798 0.096281976 0.0946129 0.05300398 -0.07514248
-0.21414502 0.066598065 0.052345205 -0.13966677 0.10093901 0.13366064 -0.09671031 -0.17732412
0.104453474 0.012056921 0.15718742 -0.12053745 0.03422458 -0.058635004 -0.103860706 0.08889387
0.01304574 -0.032281812 0.037924226 -0.1011952 0.16320987 -0.020003842 0.13641712 0.05663439
0.027654208 0.1596427 0.0430468 -0.022099076 0.049165446 -0.012879612 -0.09902437 0.010079408
-0.002963176 -0.047838327 -0.11192396 -0.02991445 -0.057279225 0.016064081 0.11528334 0.06912263

model.rnn.weight_hh_l1 f4 [160, 40]
00000000: e240 c3bd 082f 203e f5cd bcbc 570e 923d
00000010: c6d3 ecbd 13af 363d c989 163e e31d 9e3d
00000020: 2434 d93c eca6 b23d 1ec5 9abd a689 00bd
00000030: ec09 5fbd 1787 ab3d ff44 87bd 86da 063e
00000040: bb94 b8bc 42d4 c7bd 09c6 3dbe 0a1c f9bd
00000050: 4a49 423d ef53 5abb 1d1c d53c c1fe b3bd
00000060: 21fd d33d efe4 00bd 7394 a8bd f02f 163d
00000070: a86d 6abd fff3 90bd 5172 64bd e889 df3c
00000080: 0b03 2cbd dabd eebc e30e 44bd 2e0d b83d
00000090: 17e5 cabd 44e5 7e3d 4f27 1e3e e834 c6bd
000000a0: 7498 5ebd 4fb7 953d 3568 f53d ae1b 0bbe
000000b0: 741b 093c 997b dcbd d58e d0bd 7978 8f3d
000000c0: 9f4a 8d3d 786b 103e 6c49 a73b 6b5c 8abc
000000d0: bd32 063e 5437 123e 91aa ec3d 72d7 9e3c
000000e0: b7e9 113c 707f 08be 4172 58bc 5046 a6bd
000000f0: a05c 0f3b 01ed 973d 913f e23c 416f f63d
00000100: d92b 313d 1243 c7bc 3a3c 3b3b 789f 103d
00000110: 5123 d83c 230e 1ebe 63b0 20bd cb58 2dbe
00000120: abcf 9d3d 78f5 9bbd 7052 a63d 8214 d1bd
00000130: c33b 2b3e e1a6 193e cd2d ca3d 4374 893d
00000140: 136c 563c dfed b1bd cf93 4dbc d73b 773d
00000150: 5a1a 5d3d 64a7 65bd 7223 c9bd e378 043d
00000160: 73e9 c5bc cdf3 c53c b0ba 0fbe 7fb9 bf3c
00000170: f3e1 bb3d a6ab db3d d97e a13d c4a9 99bd
00000180: 035c cc3d 5565 203d 7b84 d73d a278 f8bd
00000190: fe76 bc3d a9d6 293d df7b db3d c2c6 313e
000001a0: 78c8 673d 27f8 0ebe 69e0 63bd 86b2 85bd
000001b0: b2ed 09bc a055 ef3d a891 2e3e 262f 173e
000001c0: 510a ae3d 08a3 8bbb 0668 3fbd baeb 983d
000001d0: 777c c63d de84 fcbd 1ddf e8bc 4f6c fabd
000001e0: 8551 19be 06b4 383d 47a0 893d 3cfa 80bd
000001f0: 320e 87bd 79c9 f1bd 1e25 febc 090f a83c
00000200: b416 5bbd 6623 e3bd cf98 e8bd 3c76 30ba
00000210: 257b 5f3d c926 0c3e d7d7 3e3d 7a65 75bd
00000220: 13dc 98bd aedd b5bd 0fa4 9b3c ed50 8ebd
00000230: 649a 11be 5754 0abe 35ab 443e 67a7 1ebe
00000240: 619e 923d 9fe8 fc3d fdb0 083e 8def f53d
00000250: fbd6 163e a807 a7bc 25d4 9e3c 7463 00be
00000260: 2338 ec3d 17fe 06bd da7e f6bd a9e2 9d3c
00000270: 26bb c5bc d13b efbd bebd b43d 9ede 09be
00000280: 4a49 193e bf3a 2abe 47f2 893d 1d4e 5abe
00000290: 024e a53d 95f3 f8bd 8ed4 30be 564f 223b
000002a0: 6795 b33b 90d7 953d 028b 0a3d 7864 17bd
000002b0: 0420 af37 c7e3 bbbd b2c7 29bd ae2d b9bc
000002c0: 60a5 c53c cfdc 653d 8f64 f5bb d7f2 723d
000002d0: 597a 373e b084 02be 6a3a a53d 808a 3e3c
000002e0: a38e 71bd 06f6 2d3c 43be adbb d71e 023e
000002f0: 4014 e33d 3419 31bd 6712 0a3d a3d7 9abc
00000300: 891c adbd e94b ea3d 50bb 3b3e 5406 8a3c
00000310: 907c 0dbe 2121 7f3d 917c 46be 5b9d 13bd
00000320: bcb7 ed3d 080e b53d 6984 2bbd a64c 14be
00000330: 94ee b7bd 38d7 f5bd fd40 e8bd 0fd1 fa3d
00000340: b13d 04bd 39c2 08be bddb b7bc 43ae 073e
00000350: ce22 20bd 230a 6f3d d977 a5bd 5399 d4bc
00000360: aefd 02be 7119 5f3d 7be0 54bb b5b0 05be
00000370: c39b 0e3e 16c8 f2bd 2788 16be 4d8b 73bd
00000380: 0976 d3bd 33d7 223e e9a3 c6bc 1892 043d
00000390: 259d 56bd 71f4 f93d 79e3 fb3d 6c7c 013d
000003a0: ccce 0f3e 344d c2bb 2733 aabd bfc8 df3d
000003b0: c7bd 81bc b4f9 bebb 6456 4e3d 46ce c43d
000003c0: 8e59 bbbd 16e7 8abc c227 15ba 52e3 b9bd
000003d0: 1e10 9dbd 3f92 1bbe 3970 f5bc 54db 23be
000003e0: 52fb b83d 5457 0dbd 25a5 f43d 553c 983c
000003f0: 7df1 04bd 0b96 ef3d 4932 333d a663 ebbd
-0.0953386 0.15642941 -0.023047427 0.07131641 -0.1156383 0.044600558 0.14700998 0.07720544
0.02651412 0.08723244 -0.07557128 -0.03138127 -0.05445282 0.08375376 -0.06604957 0.13169298
-0.022531858 -0.09757282 -0.18532576 -0.12163551 0.047433175 -0.0033314188 0.026014382 -0.08788825
0.10351015 -0.031468328 -0.082314394 0.03666681 -0.057233483 -0.070777886 -0.055773083 0.027287439
-0.04199509 -0.029143263 -0.04786576 0.08986889 -0.09906977 0.062230363 0.15444683 -0.0967806
-0.05434461 0.07310354 0.119827665 -0.13584778 0.008368362 -0.10765762 -0.10183493 0.070054
0.068989985 0.14103496 0.005105188 -0.016889771 0.13105293 0.14278919 0.115559705 0.019389842
0.00890582 -0.13329864 -0.013210834 -0.0811888 0.0021875277 0.07418252 0.027618201 0.12032939
0.043254707 -0.024323974 0.0028569833 0.03530833 0.026384028 -0.1543508 -0.039230715 -0.16928403
0.07705625 -0.07615179 0.081211925 -0.1020899 0.16722016 0.15005066 0.09872017 0.06711628
0.01308729 -0.086879484 -0.012547447 0.060359802 0.05398021 -0.05606784 -0.09821214 0.03234185
-0.024159169 0.024164105 -0.1403606 0.023403881 0.09173956 0.10726099 0.078855224 -0.07503083
0.09978487 0.039159138 0.105233155 -0.12132384 0.092023835 0.04146448 0.10716986 0.17360976
0.056587666 -0.1396185 -0.055633936 -0.06528191 -0.008418487 0.116862535 0.17047751 0.1476408
0.084980614 -0.004261378 -0.046730064 0.07466836 0.096917085 -0.1233003 -0.028426701 -0.122276895
-0.14972503 0.04509356 0.067200236 -0.062977284 -0.065945044 -0.11806006 -0.031023558 0.020514982
-0.05348845 -0.11090736 -0.11357271 -0.00067314855 0.0545608 0.1368667 0.04659256 -0.05991123
-0.07463851 -0.08880173 0.018999128 -0.06949029 -0.14219052 -0.13508736 0.19205935 -0.15493546
0.07159115 0.123490565 0.13348766 0.12008581 0.14730446 -0.020389393 0.019388268 -0.12537938
0.11534145 -0.032957163 -0.12035914 0.019273119 -0.02413709 -0.11681331 0.08825253 -0.13463828
0.14969364 -0.16623972 0.06735664 -0.2131886 0.080715194 -0.121558346 -0.17268583 0.0024766526
0.0054804566 0.07316506 0.033823974 -0.03696105 2.0876534e-05 -0.091743045 -0.04145021 -0.02260479
0.024126709 0.056118783 -0.007488794 0.05931362 0.17917766 -0.12745929 0.08067782 0.011629701
-0.05897392 0.010617739 -0.005302222 0.12707077 0.11087847 -0.043236926 0.033708956 -0.018901652
-0.08452708 0.1144026 0.18333173 0.01684872 -0.13817048 0.062287454 -0.19383456 -0.036038738
0.1160731 0.08840567 -0.041874323 -0.14482364 -0.08981052 -0.1200394 -0.113405205 0.12246906
-0.032285396 -0.1335534 -0.022443647 0.1325007 -0.039095692 0.058359277 -0.080795 -0.025952017
-0.12792084 0.054467622 -0.0032482434 -0.1305569 0.13926606 -0.118545696 -0.14700375 -0.05945902
-0.10325248 0.15902404 -0.02424808 0.03236589 -0.05239596 0.122048266 0.12299246 0.0316128
0.1404373 -0.0059296135 -0.08310538 0.10926961 -0.015837563 -0.005828107 0.050375357 0.09609656
-0.091479406 -0.016955893 -0.00056898233 -0.09076561 -0.0766909 -0.15192507 -0.029960738 -0.16001636
0.090323105 -0.03450711 0.11945561 0.018583456 -0.032456864 0.1169854 0.043749128 -0.11493616

model.rnn.bias_ih_l1 f4 [160]
00000000: 99cc d63d 38a7 823d e286 5fbd 8eae 363c
00000010: 5759 bebd 2517 9fbd 6ab9 38bb b491 b7bd
00000020: 4e23 fdbd 4bcd 5abd 2ec8 cebd e43a 2a3d
00000030: 94d5 84bd 2363 76bd 3b40 473d 9bc1 95bd
00000040: 6cd8 273d 9eb7 823d 11f7 0d3e cdf1 d0bc
00000050: 8f56 f8bd c333 70bb 71eb 213e dc82 5f3b
00000060: e69f 22be cabd 563d cfe2 8fbd 7451 64bc
00000070: 2f41 0c3e 6446 4f3e 479e d83d c35f bf3d
00000080: 0e4a da3d a2db 1c3e 33f1 e9bd e560 3fbb
00000090: 5bb5 2b3e 8c89 043d ace2 fe3d 8fe8 3c3d
000000a0: 6dce bebd 104c e7bd 2889 163e a75b a83d
000000b0: ece8 083d 15e4 16be 1e36 553d 2e18 d43b
000000c0: 2d33 653d dba6 1cbe 07a3 253e b608 053d
000000d0: f43a f23d dff7 9abd 9e99 89bd c1d1 c4bd
000000e0: 67ea 243e 1519 c23c a6cd 213e dab1 0bbd
000000f0: 6dc0 143e fc01 4dbb 396f eabd 8654 c83d
00000100: 4efe 2dbd 969f 903c 6974 84bd 6c5d 4c3c
00000110: ecf7 fbbd c8fa 36bd 8369 0c3e f5bf 4f3c
00000120: 0178 49bd 83ae fabd 8b58 eebd 0d77 abbd
00000130: 8372 0f3e 28d6 273e 1a5b 123d 0434 1bbd
00000140: 71f3 0bbe 34c9 1e3e 44b0 c3bd 5452 1c3e
00000150: a76e 9bbd 0dea c0bd 806f 383e 2413 3d3d
00000160: b5e6 943d d79d 0b3e 00b7 b53d 31d3 b23d
00000170: 1899 44bc 8c52 ac3d bd94 66bd 718d ff3d
00000180: ec0c 863d 4b57 c6bd 7876 0ebd 089b e43c
00000190: 9e3b 2fbe 4649 d0bd 8267 74bd 94e4 3b3e
000001a0: 907b 5abc a4fa e4ba 77fa a8bd ca3d 12bd
000001b0: c474 3d3d fd3a 91bd 7085 b5bd 5412 b83d
000001c0: 030b 043e b7b5 bdbd fa93 89bc 1886 21bd
000001d0: 170d a0bd bdb1 913d 2a22 1e3e f083 1dbe
000001e0: 8a66 313d 715a 1d3e 9051 88bd c47d 243e
000001f0: f3ee 103e 6889 973d 5b1a 833d e5c3 09bd
00000200: 58e1 0bbe 0fd2 883d 191f d8bd dd17 3cbd
00000210: fde2 213e ace6 47bd 0afe 19be d3a0 93bc
00000220: db3f e8bd 0bb9 303e 0f98 3b3e c0ff 243c
00000230: 172a db3d 8587 c8bd dd5c 0e3e 821c 69bc
00000240: f6f5 4dbc 9541 2c3d 5aa7 db3c 1aa9 c1bd
00000250: 1c92 e23b 18ea 1c3d 10e8 39bd 0da1 073e
00000260: 2c8e c5bd bd13 003e 1eea 25be 227d 09bd
00000270: c4f9 83bd 3c0d 85bc 8aeb 383e 3e8b 0c3e
0.10488243 0.06379551 -0.054571994 0.0111500155 -0.09294384 -0.07768086 -0.0028186687 -0.089633375
-0.123602495 -0.05341844 -0.10096775 0.04156007 -0.06486049 -0.060153138 0.04864524 -0.07312318
0.04097788 0.063826784 0.1386378 -0.025505925 -0.12125885 -0.0036651946 0.1581247 0.0034105098
-0.15881309 0.05242709 -0.07025682 -0.013935436 0.1369674 0.20241696 0.10577064 0.09344437
0.10658656 0.15318158 -0.11422958 -0.002920204 0.167684 0.032357737 0.12445578 0.046120223
-0.09316716 -0.11293805 0.14700758 0.08220606 0.033425257 -0.14735444 0.052053563 0.006472609
0.05595701 -0.15298025 0.16175471 0.03247901 0.11827651 -0.07566809 -0.06718753 -0.0961032
0.16105042 0.0236936 0.15801105 -0.03410516 0.1452653 -0.00312817 -0.11446995 0.097817466
-0.042478852 0.017654222 -0.06467516 0.012473445 -0.12303147 -0.044672757 0.13712125 0.0126800435
-0.04918671 -0.12240317 -0.11637982 -0.083723165 0.14008527 0.16390288 0.035731412 -0.037891403
-0.13667084 0.1550644 -0.095551044 0.1526578 -0.07589465 -0.09419642 0.18011284 0.046160832
0.072705664 0.1363443 0.08872795 0.08731688 -0.011999391 0.08414182 -0.05629419 0.1247815
0.065454334 -0.096846186 -0.03478095 0.027905956 -0.17112586 -0.10170226 -0.059669025 0.18348914
-0.013335124 -0.0017469716 -0.082508974 -0.035703458 0.046253935 -0.07091329 -0.08863342 0.08987871
0.12894826 -0.09263175 -0.016794194 -0.039434522 -0.07814997 0.07113979 0.1544272 -0.15382361
0.04331068 0.15366532 -0.06656182 0.16063601 0.14153652 0.07399255 0.06401511 -0.033634085
-0.1366018 0.066806905 -0.105528064 -0.045921195 0.15809245 -0.04880397 -0.15038314 -0.018021023
-0.113403045 0.17258088 0.18319725 0.010070741 0.107013874 -0.09791473 0.13902612 -0.014227988
-0.012570849 0.04205473 0.026813198 -0.09456082 0.0069143903 0.038309187 -0.045387328 0.1324503
-0.09646258 0.1250753 -0.1620259 -0.0335666 -0.064441234 -0.016241662 0.18058601 0.13724992

model.rnn.bias_hh_l1 f4 [160]
00000000: 8797 073e 5d8e 173e 0b94 e23d 3b81 5d3d
00000010: 1e7a 2f3d 3b85 0b3d 8c9e 313c ba8f 11be
00000020: c968 1d3e 2d7e be3d e319 503d 83e6 31bd
00000030: 4797 7c3d 3dec 003e 5cbd 3bbc 1e69 933d
00000040: ec67 2a3e 97a6 cabd fd6d b43d 459a b0bd
00000050: 731b 3c3e 776f 7cbc e164 f43a d98e 9b3b
00000060: 72f9 363c 4d78 393e 8015 283e d10a 213c
00000070: 7109 12be 91ec fb3d 3dec f0bd 3e8f 5d3d
00000080: 0a76 b1bd e435 813c 3689 a8bd 3db8 f23d
00000090: d320 eebd 4e87 be3d 6195 fd3d 0170 7f3b
000000a0: 1f4b fe3d ffea e8bd 2aed a2bd 1efa b93d
000000b0: 8f5e 38be 1be8 9c3d 0684 cabd 7960 68bd
000000c0: 602d 973d d4f5 033e 9a39 0cbe 9c2d 87bd
000000d0: 483a 8dbd 27da f73d 96a0 cb3c 5628 b43d
000000e0: 0db8 0b3a 00e3 313c d039 f03d 44e4 c3bd
000000f0: 1566 b3bd 84d3 cebd ffa6 04be 3a5a 24be
00000100: 74df 9bba 972d 1c3e 8b22 cb3d 8bf9 453d
00000110: b851 1bbd 50c6 013e aa91 193e 0a91 c33c
00000120: 2747 e83d 2701 e9bd c8fc 15be db5b 14bd
00000130: ef04 58bd 2a2b 863d c6d8 013c d214 f63d
00000140: d6fc 5fbd 6010 a93d cc63 003e dee8 313e
00000150: ea64 933d 8260 e0bd f950 bdbd 554e fe3d
00000160: 82a4 f53c 37f7 b23d a95e ad3d 2a9a e0bd
00000170: 97df 37be 80d6 8fbd 7a12 9ebd 3cff 363d
00000180: 642f f3bd 51e9 40bd abbb 8c3c d399 c33d
00000190: 665b 8b3b 93e2 acbd 4332 6d3d 9f08 4fbd
000001a0: c793 20be 0fd1 8f3d bfd9 823d fc12 d63d
000001b0: bbdb 97bd 7d04 19be 934e 83bd f2d9 913d
000001c0: 3dc1 2cbd db96 8fbd 2753 ee3d af22 9ebd
000001d0: d956 343e 8c85 f53d eebb fb3d 6115 b73d
000001e0: e6e6 33bd 9ca0 7bbd 1459 8bbd de4f a93d
000001f0: 2e30 0e3e ef05 d53d 7536 f33d 5e26 04be
00000200: 5445 9f3a 638d b43d 0eb5 073e c84a 9d3b
00000210: 51ac fbbc c032 cdbd 23c4 063d fe0c 91bd
00000220: 4bd6 babd 533c f93d ab64 c63d 86b1 90bc
00000230: 887f 2d3e 67f4 0abe 8499 08be d409 89bc
00000240: 3d67 03bd b248 023e 47fd dc3d 326b 453c
00000250: 22f6 0fbe 7261 dabd e5e2 0bbd 0b70 8dbd
00000260: ccda 423d 97e0 c2bc d6ad 14bc 04e9 d0bd
00000270: 682f 123d 4dfd f1bd 4ce0 70bd ad70 833d
0.13241397 0.14800401 0.11063393 0.054078322 0.04284107 0.034062605 0.010841023 -0.14214984
0.15372004 0.0930141 0.050805937 -0.043432724 0.061667707 0.12590118 -0.011458721 0.07197784
0.16641206 -0.09895056 0.08810041 -0.086231746 0.18369846 -0.015407435 0.0018645787 0.0047472534
0.011167871 0.18112297 0.16414452 0.009829239 -0.14261414 0.12300981 -0.11763809 0.054091685
-0.08665092 0.015772767 -0.08229296 0.11851547 -0.116273545 0.09303151 0.123820074 0.0038976672
0.12416672 -0.11372947 -0.07955392 0.09080909 -0.18004821 0.07661458 -0.09888463 -0.05673263
0.073817015 0.12886745 -0.13693848 -0.06600496 -0.06895882 0.12102156 0.024856847 0.08796756
0.0005329855 0.010857344 0.11729777 -0.095650226 -0.08759705 -0.10098937 -0.12954329 -0.16050044
-0.0011892156 0.15251766 0.09918698 0.048333686 -0.03791973 0.12673306 0.14996973 0.023872871
0.11341696 -0.11377173 -0.1464721 -0.036220413 -0.05273908 0.06551202 0.007925218 0.1201569
-0.054684483 0.082550764 0.1253807 0.17373988 0.07196982 -0.109559074 -0.0924396 0.124172844
0.02998567 0.08738559 0.084653206 -0.109669045 -0.17956387 -0.070233345 -0.07718368 0.044677004
-0.118742734 -0.047097508 0.01717933 0.09550824 0.004252839 -0.08441653 0.05790926 -0.05054533
-0.15681373 0.07022297 0.06389188 0.1045284 -0.07414957 -0.14943118 -0.06411471 0.07121648
-0.042176474 -0.07011195 0.11636954 -0.07721459 0.17611255 0.11988363 0.12291704 0.089396246
-0.043921374 -0.061432466 -0.068041 0.082671866 0.13885567 0.10401522 0.11875621 -0.12905261
0.0012151399 0.0881603 0.1325266 0.0048001744 -0.030721815 -0.100194454 0.032901894 -0.07082556
-0.091229044 0.12169709 0.0968717 -0.017662775 0.1694318 -0.13569795 -0.13339812 -0.01672832
-0.032080878 0.12723044 0.10790496 0.012049483 -0.14058736 -0.106631175 -0.03415193 -0.06906136
0.047571942 -0.023788733 -0.009074649 -0.10200694 0.03568974 -0.118158914 -0.058807656 0.064179756

exp_avg f4 [1, 40]
00000000: da32 e43a a434 0fbb 8343 c238 edd9 0fbb
00000010: c9b7 3f3a 725d 0ebb 4688 ecba ac47 a6b8
00000020: 8051 cab9 a1c6 8cb9 7ed9 0ebb 93f1 11bb
00000030: af7a 0e3b 2b7f 07bb 048d 14b9 a0de 9238
00000040: 7a59 0e3b f9cc 12bb 4d32 103b 09ee 09bb
00000050: 9b9a 013b e093 ab38 b2b6 a1ba c7ab 21b9
00000060: b7de 0e39 053c bfba 5718 2dbb 6fe3 0cbb
00000070: 0e19 bb38 71b9 0f3b a3eb d338 acdb ddb8
00000080: ea70 063b 18aa 0e3b 2f0d 1cb9 fc1b 0a3b
00000090: f869 a4ba daa1 103a 4d86 13bb eadd 133b
0.0017410174 -0.0021851445 9.263216e-05 -0.0021949962 0.0007313458 -0.0021723178 -0.0018045984 -7.928847e-05
-0.00038589165 -0.0002685087 -0.0021797116 -0.0022269234 0.0021740606 -0.0020675163 -0.00014166912 7.00329e-05
0.0021720813 -0.0022400005 0.0022002638 -0.002104642 0.001977599 8.181459e-05 -0.0012337773 -0.00015418149
0.00013625143 -0.0014590031 -0.0026412213 -0.0021497866 8.921522e-05 0.00219306 0.00010105155 -0.00010579018
0.002051408 0.0021768864 -0.0001488223 0.002107381 -0.0012543788 0.0005517282 -0.002251047 0.002256269

exp_avg_sq f4 [1, 40]
00000000: d8ee 5336 8fc9 0737 3ceb 7a33 fdd0 0037
00000010: d492 8534 492f 5037 4201 d436 4eec 1d35
00000020: 92b4 4936 7707 cd35 b975 1237 342b 0c37
00000030: a240 c636 da11 9436 4a81 9235 138a 6535
00000040: 442f 1d37 9252 2537 fe7b 1137 1f0d e136
00000050: e7cf 1f37 a696 9b34 fded ea35 5709 8534
00000060: 6c22 0636 7a34 be36 5bfd 0737 928b a136
00000070: d972 3f34 c3ca 0b37 13d1 5f35 0e40 df33
00000080: f444 2f37 a3d8 1f37 2ddb c533 be6f 2837
00000090: e05c 2436 bfdf 5836 b2a5 2737 73ab 5737
3.1580475e-06 8.093556e-06 5.8421605e-08 7.678053e-06 2.4880012e-07 1.2408776e-05 6.318239e-06 5.8830926e-07
3.005644e-06 1.5275863e-06 8.729688e-06 8.354709e-06 5.908384e-06 4.412822e-06 1.0915476e-06 8.551007e-07
9.368934e-06 9.853991e-06 8.671543e-06 6.70705e-06 9.525545e-06 2.898061e-07 1.7503622e-06 2.4779976e-07
1.9987592e-06 5.6685503e-06 8.105616e-06 4.814422e-06 1.7830043e-07 8.332255e-06 8.3378217e-07 1.0395898e-07
1.0446867e-05 9.527578e-06 9.213395e-08 1.0039597e-05 2.4491965e-06 3.2316746e-06 9.992555e-06 1.2854917e-05

exp_avg f4 [1, 40]
00000000: a8a0 683d b0f1 203d fcee 563c 4835 263d
00000010: f941 cdbd 5045 2d3d 901b fe3c 133c 55bc
00000020: 35fb 193e 2a56 3e3d 2895 613d 44d3 023d
00000030: 22f4 d3bd 3892 433d 7dae 083d cd49 893c
00000040: ac9b 26bd e031 283d 288d 18bd 44fe 213d
00000050: 00e8 17b9 af21 293c 44d3 013e 00d9 7a38
00000060: cd99 4bbd 8080 7e3b 72e3 c0bd acc4 2f3d
00000070: 888c 8a3b 683c 1abd 367d 183d 0a3d b6bb
00000080: 0064 62b9 b817 28bd 3744 60bc 2839 28bd
00000090: 7cf6 683d 7fbb a73b 8860 2d3d f84b 1bbd
0.05679384 0.03929299 0.013118502 0.040578157 -0.10022349 0.04230243 0.031019002 -0.013014811
0.15037234 0.04646889 0.055073887 0.03193976 -0.10349299 0.047746867 0.03336953 0.016758824
-0.040675804 0.04106319 -0.037243992 0.039549127 -0.00014486909 0.010322972 0.12678248 5.980674e-05
-0.049707223 0.0038833916 -0.09418382 0.04291217 0.0042281784 -0.037655264 0.037228785 -0.0055614756
-0.00021590292 -0.041038245 -0.013688139 -0.041070133 0.05687569 0.005118787 0.042328387 -0.037914246

exp_avg_sq f4 [1, 40]
00000000: 0dea 473e 9779 ef3e 685f 953a 1fce eb3e
00000010: 6270 123d b921 f63e 78d3 903e e4a7 323b
00000020: 2a96 623d 7774 e73c c777 e13e 1de6 f33e
00000030: d1dd d03e f895 b23e baf6 a63b 31f7 603c
00000040: 90e7 ef3e bb6e f53e bbe6 f53e e233 f13e
00000050: 8a0f ce3e 7f72 6e3a a692 293e 41aa 6e3a
00000060: f8b9 053d e123 4b3e 2ce8 d93e c0ab db3e
00000070: 529f b63b fc46 f43e d717 e03c 2c0a 3e3a
00000080: 802d e73e 14a4 f73e b8fc 903a 6a19 e43e
00000090: 426f 233e 2c72 a93b 1323 f73e 867f fc3e
0.19522877 0.46772453 0.0011396231 0.46055695 0.035751708 0.48072603 0.28286338 0.0027260715
0.05531899 0.028253777 0.44036695 0.476365 0.40794232 0.34880042 0.00509533 0.01373081
0.46856356 0.47936043 0.48027596 0.47109896 0.4024623 0.0009096041 0.16559848 0.00091043493
0.032648057 0.19837905 0.42559946 0.42904472 0.0055731917 0.47710407 0.027355118 0.00072494405
0.451519 0.4836737 0.0011061644 0.4455064 0.1596041 0.005171081 0.48268947 0.49316043

exp_avg f4 [1, 40]
00000000: d457 70bc bed9 933c a9fa 88ba d02c 963c
00000010: 2d1f c9bb 3dac 963c 6947 863c b0a9 9438
00000020: ef5f a83b f352 a13a 3331 943c ef9f 943c
00000030: c3c8 99bc b172 8b3c 72e6 343a 2b3f 8bba
00000040: 3cc5 92bc 0c3f 9b3c 06e2 95bc 40fe 803c
00000050: cdcd 6fbc 3b41 c6b9 ddb6 283c 83e4 e03a
00000060: 4cc0 d9ba dd77 1c3c 56c0 a43c 2b53 903c
00000070: 1b38 00ba 0eb9 96bc 023a 89b8 3038 c03a
00000080: 4f80 8fbc 79e2 8ebc 3f38 c93a 61c6 8dbc
00000090: 14d7 cb3b 8a36 0fbc 0791 9b3c 5e6d 9ebc
-0.014669377 0.018048164 -0.0010450679 0.018331915 -0.0061377496 0.018392676 0.016391473 7.088797e-05
0.0051383893 0.0012308046 0.018089866 0.018142669 -0.018772488 0.017022463 0.0006900794 -0.0010623684
-0.017916314 0.018950962 -0.018296253 0.015746236 -0.014636469 -0.00037814103 0.010297504 0.0017157946
-0.0016613095 0.009550062 0.020111244 0.017617783 -0.0004891173 -0.018398788 -6.543474e-05 0.0014665183
-0.017517237 -0.017441975 0.0015351846 -0.017306508 0.0062207077 -0.0087410305 0.018990053 -0.01933926

exp_avg_sq f4 [1, 40]
00000000: b652 2b3a c156 263b 7aee 8e37 a9e6 143b
00000010: e5bd 4a38 920d 9c3b 1651 193b 387a a439
00000020: 4578 883a 7deb f539 00a1 273b e22f 103b
00000030: 8cc4 923a 74b9 a63a e951 0b3a c96c bf39
00000040: ef21 413b f8cd 513b 5845 1d3b 4fce de3a
00000050: 2235 623b 39a1 ca38 4755 b339 2199 0439
00000060: c363 dd39 bb37 c43a c0ad 103b 2d22 7b3a
00000070: a174 7f37 0b9b 1b3b 1f37 5739 fb8b 8738
00000080: 2ffc 713b 909b 4b3b 12b1 9237 c2de 783b
00000090: 48b9 373a 84ee 093b 8279 5c3b 06d4 a33b
0.0006535457 0.00253813 1.7038768e-05 0.0022720492 4.8337406e-05 0.00476236 0.0023394278 0.00031371578
0.001041182 0.00046905494 0.0025578141 0.0022001197 0.0011197492 0.0012720064 0.0005314635 0.0003651141
0.002946969 0.0032013636 0.002399763 0.0016998741 0.0034516533 9.662141e-05 0.00034205077 0.00012645546
0.00042226733 0.0014970222 0.002207622 0.0009579983 1.5226339e-05 0.0023743536 0.00020524532 6.463375e-05
0.0036923995 0.0031068064 1.7487011e-05 0.003797457 0.0007008505 0.0021046707 0.003364176 0.0049996404
