deep-learning/rv_only/lightning_logs/version_73/checkpoints/epoch=4-step=250.ckpt (torch, 331231 bytes, 33 tensors)

model.param_proj.proj.0.weight f4 [1, 40]
000000 14 2b ce 3d b1 1a 7b 3e 7b d2 07 3e 98 7d 22 3e
       0.1006681 0.245219 0.13263886 0.15868223
000010 bf 3a f3 bd 9a 50 0a 3e 05 fe 0b 3e 69 7d cf bd
       -0.11876439 0.1350731 0.1367112 -0.10131342
000020 15 88 e0 bd 6a 6f 74 3d 30 e7 74 be 72 e0 7f 3b
       -0.109634556 0.059676565 -0.23916316 0.0039043692
000030 be 5a 4a 3c b3 28 7d 3d ba 26 0d 3e e4 7f 44 3b
       0.012350736 0.061806392 0.13784304 0.0029983455
000040 9a 64 55 be f2 2e 29 be 8e 11 f2 bd 6d 37 e0 3d
       -0.20839158 -0.16521814 -0.118197545 0.10948072
000050 11 f1 63 bd 63 ac dc bd 64 11 25 be 4a cc 87 3c
       -0.05564982 -0.10775068 -0.16119915 0.016576905
000060 07 9a 1c 3e 9d 28 72 3e e9 1b 5e bb 3a 40 c4 3d
       0.15293132 0.23648305 -0.0033891147 0.09582563
000070 93 4d 5c bd 79 2a 8a 3c 2a dd 1f 3d 1b 14 41 bd
       -0.053784918 0.016865956 0.039029278 -0.047138315
000080 dd c6 90 3d d2 81 ab bd 7f 9d aa be 90 e7 8f bc
       0.0706918 -0.08374371 -0.33323285 -0.017566472
000090 99 34 73 3e 6f 0e 0a 3e 81 4e 25 3d 4c 82 64 be
       0.23750533 0.13482068 0.04035807 -0.2231533

model.param_proj.proj.1.weight f4 [1, 40]
000000 2d 6f b4 3d 0d 1d 6b bc dc 14 f5 3d af 1c ab bd
       0.088102676 -0.014350188 0.11966869 -0.0835508
000010 79 7d 53 3d 01 16 fa ba 58 be bd bd c0 26 5b 3d
       0.051633332 -0.0019080044 -0.09264821 0.05350375
000020 4e d0 26 bb 29 e4 a0 3c 2a bc 61 3b 54 26 e5 3b
       -0.002545375 0.019640045 0.003444443 0.0069930945
000030 08 25 06 3e 15 56 ed 3c ea f6 6a bd c7 90 4e 3d
       0.13100064 0.028971711 -0.05736438 0.05043104
000040 76 6d 9f bd 4c ef 18 be e6 ba c4 ba 4e 56 16 be
       -0.0778455 -0.14935035 -0.0015009313 -0.1468136
000050 df fb c9 3d 40 6a b2 bc 3d 84 7f bc 05 f3 82 3d
       0.09862494 -0.02177918 -0.015595493 0.063940085
000060 e6 12 f2 3d f7 c4 24 3e a2 ea 55 bd 0a b2 df 3d
       0.11820011 0.16090761 -0.052225716 0.1092263
000070 9c e7 cb 3d 24 6b 10 3e 16 26 3c bd 35 71 e2 3c
       0.09956285 0.14103371 -0.04593476 0.027641872
000080 8d d2 0a bd 45 fa a4 3c 38 e0 d7 3d 91 f1 30 3e
       -0.033892203 0.020138869 0.10540813 0.1727965
000090 e2 bd b6 3d 87 a1 ba 3d 37 09 aa 3d 3e d7 17 be
       0.08922936 0.0911284 0.08302539 -0.14828202

model.param_proj.proj.2.weight f4 [1, 40]
000000 a7 eb 22 be 85 17 28 be c1 95 ed bd ae 1d 0d be
       -0.15910207 -0.16415222 -0.11600829 -0.13780853
000010 aa 45 00 3d e9 20 3a be 37 ad 9e 3d 6a 45 26 be
       0.031316437 -0.18176617 0.07747882 -0.16237417
000020 1c ca 02 3e a3 9b 14 3e a3 d2 2d 3e a6 f9 a8 3d
       0.12772411 0.14512496 0.16974883 0.08250742
000030 75 23 5d 3d 2a 89 f8 3c b5 91 50 bd 49 d7 a9 bd
       0.053988893 0.030338842 -0.050920207 -0.082930155
000040 7f bd a6 3d 38 14 3d 3e a7 2a a0 3d a9 05 c5 bd
       0.08141612 0.18464744 0.07820635 -0.0962022
000050 c3 91 0a bd 63 af f3 bc 7b f8 61 3e 33 dc 05 be
       -0.033830415 -0.029746717 0.22067444 -0.1307228
000060 f8 a5 d3 bd fd 6b 43 be f7 1d 46 be f3 30 9b 3d
       -0.103343904 -0.19084163 -0.19347368 0.07577696
000070 51 c4 e0 bd 52 94 0d 3d d6 59 aa 3d 4d 89 f4 3c
       -0.109749444 0.034565277 0.08317916 0.029850626
000080 03 e6 75 be 1f 03 f6 3d ab 4b 71 3e 60 63 02 3e
       -0.24013524 0.12012314 0.23564021 0.12733221
000090 87 4b 52 be 6f 37 13 bd 5a e3 9f bc a4 04 48 3d
       -0.20536624 -0.035941537 -0.01951759 0.04883255

model.rnn.weight_ih_l0 f4 [160, 37]
000000 dc da 4d 3e d0 15 3b 3e d3 47 38 3e c6 52 0c 3d
       0.2010302 0.1827004 0.17996149 0.034258626
000010 ee d9 06 3e 04 1c f8 3d 24 41 d4 bc f8 0d 0c 3d
       0.13169071 0.121147186 -0.025909968 0.03419301
000020 21 ec 53 3e 03 d7 e4 bc 66 74 26 3e 4c 0b 25 bd
       0.20695545 -0.027934557 0.1625534 -0.040293977
000030 2a 5f e0 bb 40 b5 0f 3e fe 94 f2 3c 72 a6 19 3e
       -0.006847282 0.14033985 0.02961206 0.150049
000040 97 de 80 bd dd db 17 3e 88 3b 57 bd 09 2d 52 3e
       -0.06292456 0.14829965 -0.052547008 0.20524992
000050 4c 81 10 bd 34 7d 51 3d 51 9b de bc 3e c1 80 bd
       -0.035279557 0.051144794 -0.02717367 -0.06286858
000060 d5 aa 4e 3c b4 6d 95 bd 3c 11 8f bd 14 07 69 bd
       0.012613972 -0.07296315 -0.06985709 -0.056891516
000070 4d 85 c1 3d 11 87 0e be 40 4f 12 3d a1 c8 c1 bc
       0.09449253 -0.13918711 0.03572011 -0.023655238
000080 b0 d5 c2 3d 80 c0 5e bd 70 41 5b be 4e f7 26 bd
       0.09513414 -0.0543828 -0.21411681 -0.040763192
000090 5e 21 1c 3e a8 fc 39 3d 89 e0 3c bc 9a 95 1f 3c
       0.15247104 0.045406967 -0.011528143 0.009740258
0000a0 f4 cf c4 3d 58 05 32 bc 95 54 0f bd ab 38 9b 3d
       0.096099764 -0.010865532 -0.034992773 0.07579168
0000b0 1b 2e ca bd 4d de 81 3d d0 58 25 be ed 11 b8 3b
       -0.09872075 0.06341229 -0.1614716 0.0056173713
0000c0 c3 b9 3a bd 15 3b 8d bd b3 ae cb bd 49 9a d8 bc
       -0.045587312 -0.06896035 -0.099454306 -0.026440756
0000d0 1a 54 00 3d 5a c9 3a be b3 98 b2 3d fd 2a b5 3d
       0.031330206 -0.18240872 0.08720531 0.0884609
0000e0 8b 4e 64 bd bc bd 23 3d 64 9f d2 3d 73 17 24 be
       -0.055738967 0.039975867 0.102843076 -0.1602457
0000f0 0b 9b cc bc 58 cd c2 3b 51 94 5f bd 28 0a 2e 3e
       -0.024976274 0.005944889 -0.054584805 0.16996062
000100 4e ff c8 bd a6 86 88 3d 8b b5 f2 3c 02 ac cd bd
       -0.098143205 0.06666307 0.029627582 -0.100425735
000110 11 13 e8 bd 09 3d ef bd b1 a5 4d 3d ca 5b af 3d
       -0.11331762 -0.116815634 0.050206844 0.08562429
000120 28 8b 79 3d ab 44 a8 bd bd 9c 69 bd ee fa 32 bd
       0.060923725 -0.082162224 -0.057034243 -0.043696336
000130 4a 92 ae 3d c5 82 aa 3d 66 fb fa 3d 02 1c fa 3c
       0.08523996 0.083257236 0.12254982 0.030530933
000140 ee 73 5b bd 22 13 b9 3d 65 af 5a bd 8c a3 05 3d
       -0.053577356 0.090368524 -0.053389926 0.032626674
000150 70 2b 3d 3e 33 6b ce 3d b5 43 e4 3d a9 bb d3 3d
       0.18473601 0.100790404 0.111457266 0.10338528
000160 6e d0 26 bd c1 46 81 bd 37 d8 6d bc 74 a1 d0 3d
       -0.040726118 -0.06312323 -0.014516882 0.10187045
000170 56 87 12 3e e0 b4 30 3e 4d 51 31 3e 75 90 37 3e
       0.14309439 0.17256498 0.1731617 0.179262
000180 f3 e6 87 bc b6 22 01 3e 61 9b 91 3d 64 b9 82 3d
       -0.016589617 0.12610897 0.07109714 0.06383017
000190 9e e9 fb 3d 08 c1 0f be dd ed a9 3d d8 b9 39 3d
       0.12300418 -0.1403848 0.08297322 0.04534325
0001a0 85 af a2 3d 64 61 ec 3a 14 20 0c be 00 6b d3 bd
       0.07943634 0.0018034396 -0.13684112 -0.10323143
0001b0 0d aa 1f be 3c 75 3d 3d aa 97 46 3d 07 7c 2c be
       -0.15592213 0.04625438 0.048484482 -0.16844188
0001c0 28 64 91 3d 23 5f 05 bb f0 02 18 3d b3 dd 4c 3d
       0.070991814 -0.0020350895 0.037112176 0.050016116
0001d0 68 fe c6 bd 33 c6 d6 bd ae 19 04 3e 6c 17 0d 3e
       -0.09716493 -0.10487022 0.12900421 0.13778466
0001e0 2f 93 d8 bd 79 e1 8c bd 50 27 6a bd 5b c0 b3 3d
       -0.10574948 -0.06878943 -0.057166398 0.08776923
0001f0 24 eb 3a bd 0b 6f f9 3d 05 86 19 be 13 2a 36 bc
       -0.045634404 0.12179383 -0.1499253 -0.01111843
000200 66 96 e8 3d 1e 2f 6d 3d bc 57 8d 3c fb 0d 02 be
       0.11356811 0.057906263 0.01725375 -0.12700646
000210 f4 eb f7 3c aa 43 72 bd d9 44 cc 3c ad a6 aa bd
       0.030263878 -0.05914656 0.024935173 -0.08332572
000220 70 49 dc bc ff eb 40 bd c1 ba 94 bd 04 57 10 be
       -0.026890486 -0.047100063 -0.07262183 -0.14095694
000230 de 62 b3 3d 9a 3e 70 bc 8a cc 8c bc df 4c 31 3d
       0.08759092 -0.014663363 -0.017187376 0.0432862
000240 26 f7 b5 3d 95 b4 a9 bd 30 9c 0c 3e f5 6b 8f bc
       0.088850304 -0.082863964 0.13731456 -0.017507533
000250 c9 43 24 bd d1 2c 00 3e 4a e5 b1 3d 8f 80 3c 3e
       -0.040103707 0.12517096 0.086863115 0.18408416
000260 36 34 27 3e ec 44 16 bd f3 00 fb 3c 9a 60 1f 3e
       0.1632851 -0.036686823 0.030640101 0.15564194
000270 dc 44 d2 3d 53 3c fd bb b5 f8 65 bd f1 59 17 bd
       0.1026704 -0.0077281385 -0.05614539 -0.03695101
000280 9f 43 e5 3d 31 88 03 3e fc e5 2d 3e e7 0c 1d bb
       0.11194538 0.12844922 0.16982263 -0.002396399
000290 9f 45 86 3c 21 97 e2 3c 26 06 d5 bd 15 0a 12 bd
       0.01639062 0.027659955 -0.10401563 -0.035654146
0002a0 b0 2e 5e bd a9 b5 f9 3d 23 92 aa bd 75 3e 3b 3e
       -0.054243743 0.12192852 -0.083286546 0.18285544
0002b0 8f 9f 94 3d f9 82 00 3e 3a 81 86 3c 63 c4 a1 3c
       0.07256996 0.12549962 0.016419042 0.019746965
0002c0 b5 da be bd 38 db 07 3e 0f fb fb bd 33 f9 86 bc
       -0.09319059 0.13267219 -0.12303745 -0.01647625
0002d0 24 7e a1 3d 8d 5c ff bd 1a ad c3 bc 52 f2 e2 3d
       0.078853875 -0.124688245 -0.023886252 0.11081375
0002e0 1b e3 45 3e fb 24 d6 3d 56 f3 44 bd 06 c0 08 3e
       0.19324915 0.10456272 -0.048083626 0.13354501
0002f0 14 86 66 bd 5d 69 b7 bd a7 2d c2 bc b8 b4 e9 3d
       -0.05628021 -0.08955643 -0.02370341 0.114114225
000300 54 db a2 3c 1f f9 11 bd 67 a5 e4 3d aa 36 c2 3d
       0.019879974 -0.03563797 0.111643605 0.094830826
000310 3e f2 0b 3e a4 70 49 3d 42 15 e0 bc 0c 37 ef bd
       0.13666627 0.049179688 -0.027353887 -0.11680421
000320 9e db af bd 3c 61 3e bb 73 6f 82 bd f7 47 d7 3c
       -0.085868105 -0.0029049655 -0.063689135 0.026279433
000330 62 8f 9b bc cc 0c cd 3d 60 0d 8b 3d 80 0b e5 3d
       -0.018989269 0.100122064 0.067896605 0.11183834
000340 23 22 60 3d 11 24 16 3e 3f 3f bf 3d cd f3 1c bd
       0.054720055 0.14662196 0.09338235 -0.038318444
000350 bb 35 7e 3d d3 83 a3 bd 53 aa f2 bc 49 2c 79 bd
       0.06206296 -0.07984128 -0.029622233 -0.06083325
000360 8e 23 ed bc f4 e3 42 bd f5 c3 ab 3d 34 bd 79 3c
       -0.028947618 -0.047580674 0.08386985 0.015242863
000370 1f e1 c9 3d 4f 42 11 3e f1 d3 de 3b 62 a6 44 bd
       0.098573916 0.14185451 0.0068001677 -0.048010238
000380 19 b1 e4 bd c7 0e c2 bd 9b 50 b0 3d 0a e9 bc 3d
       -0.11166591 -0.09475475 0.08609124 0.09224136
000390 b8 51 bd bd 6d 35 9e 3d c3 80 80 3d 0d aa 8f bd
       -0.09244102 0.07725034 0.06274559 -0.070148565
0003a0 e5 ca f4 bd 6b 81 d7 bd f0 1b 81 bd 58 41 a2 bd
       -0.119527616 -0.105227314 -0.06304157 -0.079226196
0003b0 ce ac 0e be a7 e1 e4 3d 43 93 df 3d c3 ec d7 3d
       -0.13933107 0.11175852 0.1091676 0.105432056
0003c0 dd fe a5 3d e7 f0 54 bd af d4 91 3d e8 15 97 3d
       0.08105252 -0.051987555 0.07120644 0.07377225
0003d0 00 6b 01 3e 38 5f 75 3c 87 45 b9 bd bc 8d 72 3b
       0.12638474 0.014976315 -0.090464644 0.003701075
0003e0 b8 98 e5 3d 14 23 9d bd 8b cd 1c be 35 d2 e9 ba
       0.112107694 -0.07672706 -0.15312783 -0.0017839136
0003f0 f0 95 00 3e 3a 43 e7 bc df fc 5f 3d 56 a9 35 bd
       0.12557197 -0.028230298 0.054684516 -0.044350944

model.rnn.weight_hh_l0 f4 [160, 40]
000000 11 e5 16 3e 64 0d a0 3d 4c 9e 85 3c 58 24 df bd
       0.1473582 0.07815054 0.016310833 -0.10895604
000010 25 2e 1a bd 9c 57 33 bd 3d 48 8c bd 2f e0 12 bd
       -0.037641663 -0.043784723 -0.06849716 -0.03585833
000020 27 19 99 bd db 75 fe 3c a7 5b 4a bc 14 cb 41 be
       -0.074755006 0.031062057 -0.012350953 -0.18925124
000030 41 ce 0e be 36 53 49 3e fc ed c0 bc 7c 52 7a 3d
       -0.13945867 0.19660649 -0.02355098 0.06111382
000040 d4 47 20 bc 51 8c 7f 3d 9a 83 17 bd ce e4 68 be
       -0.00978275 0.062389676 -0.03699074 -0.22743532
000050 8e d3 4b 3b 36 32 85 bd 07 fa d7 bd 17 60 31 3e
       0.0031101438 -0.065037176 -0.10545736 0.17321812
000060 33 8e 95 3c c4 92 1a 3d 41 43 0c 3d 43 6b 36 bd
       0.018256282 0.037737623 0.034243826 -0.044535886
000070 e7 83 69 3d 4d 31 da bd 81 c8 70 bd 1f a6 35 bd
       0.057010558 -0.10653935 -0.058784965 -0.04434788
000080 bb 8f fa bc 66 ae 5a bd 07 41 c4 bd 63 de 2f bc
       -0.030586114 -0.053388976 -0.095827155 -0.0107341735
000090 41 60 07 be ae f2 57 bd c3 fe f6 bc b4 dc 96 bc
       -0.13220312 -0.05272167 -0.030150777 -0.018415786
0000a0 15 a7 20 3d 4d 2d 18 3e 2e 1c 04 3e 0b 52 ee bd
       0.03922184 0.14861031 0.12901375 -0.11636742
0000b0 9f 1b 2b 3e 04 11 32 bc 19 93 3f 3d 9a ba 0a 3d
       0.16709755 -0.010868315 0.046771143 0.033869363
0000c0 14 55 d5 3d 02 11 23 3d 03 44 0e 3e 9e 91 72 3d
       0.10416618 0.03981114 0.13893132 0.059220903
0000d0 3c 1b 5b bd ee 7a 94 bc 93 83 00 be 03 6a 30 bc
       -0.05349277 -0.018125024 -0.12550192 -0.010767463
0000e0 02 56 1b be c0 f2 29 be d7 20 8c bd 5e 35 de bd
       -0.15169528 -0.16596508 -0.06842201 -0.10850023
0000f0 23 03 9e 3d 1a 43 ed bc b1 02 23 3e 41 e9 08 bd
       0.07715442 -0.02896266 0.15918995 -0.033425573
000100 e9 5e e5 bc 34 f0 8d 3d 7f a0 66 3d f7 42 07 3e
       -0.027999358 0.06930581 0.056305405 0.13209139
000110 fa fd 02 be 8e a5 0c be 01 a7 75 bd b5 14 0a be
       -0.12792197 -0.13735029 -0.05997372 -0.13484462
000120 33 87 d1 3d c4 b1 55 bd 87 dd e3 bd 74 f7 2d 3e
       0.10230865 -0.052171484 -0.11126237 0.16988927
000130 64 3c 07 bd aa f9 46 bd 6f d4 03 be 74 1f b0 3d
       -0.033016577 -0.048577942 -0.12874006 0.08599749
000140 2b b7 0a 3d 07 1a eb 3d 88 a8 1b bd 51 cb 48 3e
       0.03386609 0.11479574 -0.03800252 0.19608809
000150 3f 1a 6b bd 6f 3a 76 3d 8b d4 28 3e 88 fc 26 3e
       -0.057398077 0.06011432 0.16487329 0.1630727
000160 2b 4b 0d bd d6 0b 15 bc 69 0b af bd e1 17 e0 bd
       -0.034495514 -0.00909706 -0.08547098 -0.109420545
000170 c0 a7 59 be fb 5a a8 3d 15 61 72 be 20 95 1c be
       -0.21255398 0.08220478 -0.23669846 -0.15291262
000180 a7 38 74 3e 29 34 a8 bc 9e e2 ad bc c4 7c 85 bd
       0.23849736 -0.020532684 -0.021226224 -0.06517938
000190 60 d4 f9 3d f2 dd d6 bd df ba ea bd 2e ea ae 3c
       0.121987104 -0.104915515 -0.11461424 0.0213519
0001a0 cb ef 05 be 8f 0f 49 ba 99 4e 09 3e 08 fe 8c bd
       -0.13079755 -0.000766986 0.13408889 -0.0688439
0001b0 2c 6e d5 3d 29 ea ff 3b 73 c4 27 bd ee fa 83 bc
       0.10421404 0.0078098965 -0.040958833 -0.016110864
0001c0 07 d8 05 3e b6 cd fc bc 12 46 a8 3d b1 0e 3f bd
       0.13070689 -0.03085981 0.0821649 -0.04664487
0001d0 90 f1 28 3b 8b c3 63 3e 85 31 f3 3d 95 05 21 be
       0.0025778748 0.22242562 0.118746795 -0.15724786
0001e0 10 fe a4 3c 56 70 a7 bd ab 18 28 3c 57 3e c8 bb
       0.020140678 -0.08175723 0.010259788 -0.006110947
0001f0 4e c5 88 3c 54 89 19 3e 18 36 54 3d 27 37 7c bd
       0.016695645 0.14993793 0.0518094 -0.061576035
000200 cd 43 b8 bd a3 25 d7 3d 5f 3d 9e bd 3b 7c 18 bd
       -0.08997307 0.105052255 -0.07726549 -0.03722785
000210 af c3 89 3d ae 4f 03 be 9b 90 9b bd 3c de 04 3e
       0.06726777 -0.12823364 -0.07595941 0.129754
000220 6b ef d6 3d 64 17 ac bc f4 e7 46 bd b1 07 0e bd
       0.10494884 -0.021007247 -0.04856105 -0.034675304
000230 53 66 05 3d c2 ac 56 3d c1 1f b7 3c 8a ee b3 3b
       0.032568287 0.05241085 0.022354009 0.0054910826
000240 28 e9 9e 3d d0 7f e0 3c 1f 56 f7 3d d8 d7 58 3a
       0.07759315 0.027404696 0.12076973 0.00082719093
000250 6f fb 1b 3e 63 2e 62 bd 77 8a 1c bc 14 47 7c bd
       0.15232633 -0.05522002 -0.009554497 -0.061591223
000260 b1 5d a0 3d a8 0d ed bc 65 01 02 3e a4 4d 26 3b
       0.0783037 -0.028937176 0.12695844 0.0025375867
000270 01 f1 41 3d 5a 0a ad bd 24 59 77 3d a2 7f 02 be
       0.04734898 -0.0844924 0.060387745 -0.12744
000280 0b d6 32 3e 43 4f 69 bd e9 bc 86 bd eb 75 a6 3d
       0.17464463 -0.056960355 -0.065790005 0.0812796
000290 0f 72 10 be d3 70 6e 3d b2 64 63 3d 26 cd dc 3d
       -0.1410601 0.058213066 0.055515952 0.107813165
0002a0 38 63 17 3e 5d 01 cc bd be f5 ee bb 29 7e 3a be
       0.14783943 -0.099611975 -0.0072924783 -0.18212189
0002b0 d1 e1 27 be 02 b5 b1 3d 6b 85 26 bd 7b 6d 60 3d
       -0.16394736 0.086771026 -0.04065458 0.05479191
0002c0 ee 74 93 3d 1f d3 e1 bc 3c e3 39 bc 58 a1 aa bc
       0.07200037 -0.02756649 -0.011345681 -0.020828888
0002d0 ac c3 90 bd bd d7 22 3d 67 97 23 be a8 68 81 bd
       -0.070685714 0.039756525 -0.15975724 -0.0631879
0002e0 4b 33 10 be 2d 60 2c be ab c1 22 3d c3 f2 6e bb
       -0.14082067 -0.16833563 0.039735477 -0.0036460615
0002f0 c9 59 b8 3d 3e 56 9b bd 03 08 5d 3d 9b af 24 be
       0.090015 -0.07584809 0.05396272 -0.16082613
000300 7d 41 19 3e 3a b1 df bd 15 51 15 bd 1b 41 87 bd
       0.14966388 -0.10922475 -0.03645428 -0.06604215
000310 2c 5a 31 bc c7 2c 0c 3e 94 d2 f3 3d 0e 88 a7 3d
       -0.010824721 0.13688956 0.11905399 0.08180247
000320 db fc 0a bd a7 5c 6d 3d 69 ad 30 3e 1a 2c 79 bd
       -0.033932548 0.05794969 0.1725365 -0.060833074
000330 2a 31 26 be 39 a6 ca 3c 12 46 5e bc 3f 9b 10 bd
       -0.16229692 0.024737464 -0.013566511 -0.035304304
000340 ff b3 bf bd 93 e7 e5 bc aa fe 59 bd 21 71 37 be
       -0.093605034 -0.028064525 -0.053221382 -0.17914249
000350 91 f0 db bd 1e 16 83 bd 2b e0 ef 3c 38 36 a4 bc
       -0.10739244 -0.06400703 0.029281696 -0.020045385
000360 59 c7 25 3e 95 65 c9 3c ad da c6 3d 6c d3 e8 bd
       0.16189326 0.02458457 0.09709678 -0.113684505
000370 1e 96 17 3e 10 60 23 be c7 7a 52 bd 2c e4 21 be
       0.14803359 -0.15954614 -0.05138662 -0.15809697
000380 95 8a 23 be 37 09 47 be ed 14 3d 3e 2f 86 1e bd
       -0.15970834 -0.19437109 0.18465014 -0.038702186
000390 71 15 64 3c b7 b7 e6 bc eb 2d 25 bd 6e 7e c6 bd
       0.013921128 -0.028163774 -0.040326994 -0.09692083
0003a0 82 4b 50 bd c0 c8 a5 b9 5e bc bb 3d 00 02 37 bd
       -0.05085326 -0.00031620823 0.091667876 -0.04467964
0003b0 5a 5e ab bd 5a a3 fa bd 54 84 8e bd f4 f4 2c be
       -0.083676055 -0.12238188 -0.06958833 -0.16890317
0003c0 6e 3c 23 bd 7e 58 da 3d 0a d1 52 bd d9 20 ac bc
       -0.039852552 0.1066141 -0.051468886 -0.021011757
0003d0 13 c0 29 be a4 32 1e 3e db 79 21 3d 39 9d e4 bd
       -0.16577177 0.15449005 0.03942285 -0.111628
0003e0 9d db 0a bd 2a 44 28 3d f0 eb 95 bd c3 96 00 3e
       -0.033900846 0.04108063 -0.07320392 0.12557511
0003f0 dd b9 1b bc 81 34 19 be 0b 57 9d 3d 42 5d 9d 3d
       -0.0095047625 -0.14961435 0.07682618 0.07683803

model.rnn.bias_ih_l0 f4 [160]
000000 76 42 c8 bd a2 f1 08 be bf 08 48 3e a4 10 bc bd
       -0.097783014 -0.13373426 0.19534586 -0.091828614
000010 8b d3 d4 bc 17 a8 81 bd ce b5 29 bd 8e 00 13 be
       -0.025979778 -0.06330889 -0.041433148 -0.1435568
000020 46 64 01 be 7d d7 c9 bd 70 48 1e 3d 4d 0e ed 3d
       -0.12635908 -0.09855554 0.0386433 0.11574993
000030 5c b4 33 3e 55 b3 93 bd e5 5a 85 bd d9 46 14 3e
       0.1754927 -0.07211939 -0.065114774 0.14480151
000040 dd 9c 10 3e d7 11 81 bc 0d 83 23 3d 2d 52 1e be
       0.14122339 -0.015755577 0.0399199 -0.15461035
000050 16 db b6 3d eb 9f 0e 3e e6 7c aa 3d b5 c2 89 bd
       0.08928506 0.13928191 0.08324604 -0.067265905
000060 31 2b 33 bc 19 97 74 3d dc 73 6d 3d 0f e2 15 3e
       -0.010935591 0.05971441 0.05797182 0.14637016
000070 1e 94 3d 3e da b1 fb bc be 04 1e 3e 9b d9 96 bd
       0.18513533 -0.030724455 0.15431497 -0.07365724
000080 4e 7e dc bd 1f f1 8e 3d 1f f4 32 3e eb 62 8b 3c
       -0.10766278 0.06979584 0.17475937 0.017014941
000090 df 36 ee 3c c4 7f c1 3c 77 b3 1b bb 7b 88 c4 bd
       0.029078899 0.023620494 -0.0023758092 -0.09596344
0000a0 e2 56 cd bc 30 0f f1 bd f7 18 f4 bd 0b 24 f8 3d
       -0.025065843 -0.11770475 -0.11918824 0.1211625
0000b0 1b 15 11 be 41 d5 5a 3d db c5 e3 bc ee 84 f3 3d
       -0.14168207 0.05342603 -0.027804306 0.11890589
0000c0 80 01 8e bd d4 39 13 bd 02 b8 81 3c 4c 7d 2c 3e
       -0.0693388 -0.03594382 0.015834812 0.16844672
0000d0 54 c3 09 be 9e 7e e3 bd 42 d9 8d bd 58 59 3a 3e
       -0.13453418 -0.11108135 -0.06926204 0.18198144
0000e0 d0 37 a7 3d 84 a2 26 bc 62 88 23 3e 3b b3 84 3d
       0.08164942 -0.010170583 0.15969995 0.06479498
0000f0 d8 d9 0f be 3f 9f bc bd a6 42 e7 3c f6 e5 15 3d
       -0.14047945 -0.09210061 0.028230023 0.03659626
000100 9a 43 1c bd c2 08 e4 bc 0d 4c fe bd e2 91 da 3d
       -0.038150407 -0.027836207 -0.12416849 0.10672356
000110 d5 aa 72 bc 21 b2 b2 3d fe 4a 56 3e 7d e9 bd bc
       -0.014811237 0.08725382 0.20927045 -0.023182625
000120 f8 e4 a5 3c b2 3c 94 bd 07 cc 99 bd ed 3f b5 3c
       0.020250782 -0.07238139 -0.07509618 0.022125209
000130 96 9d de 3d e0 e2 c5 bd ae 5a f1 bc a2 3b 33 3e
       0.10869901 -0.096624136 -0.029462185 0.17503217
000140 a6 04 51 bd bd b4 5f bd 86 db 84 bd 69 49 b6 bd
       -0.051029824 -0.054615725 -0.06487183 -0.089007206
000150 a6 ee 06 be 47 9c 58 3d 49 84 a0 3d 8f 2c e6 bd
       -0.13176975 0.052883413 0.078377314 -0.112389676
000160 26 67 dd bd 1b 8a d1 bb 55 54 19 be 80 4a 80 bd
       -0.1081069 -0.0063946373 -0.14973576 -0.0626421
000170 e7 26 1d bd a1 e7 c1 bb d9 b2 25 be a2 3b c8 bd
       -0.03836718 -0.005917505 -0.16181506 -0.09776999
000180 93 96 06 be a8 7c 4f bd 93 f1 d8 3d e7 56 97 bd
       -0.13143377 -0.05065599 0.105929516 -0.07389622
000190 88 31 8d 3d 56 0b fc 3d d6 65 94 3d d4 61 93 3d
       0.06894213 0.1230685 0.07245986 0.071963936
0001a0 59 8c 61 bd 56 c0 70 be 6f ea 37 3e df 10 b3 bd
       -0.055065487 -0.2351087 0.17960523 -0.08743452
0001b0 56 1f ef bd 7a 58 0e bd 30 f8 1e bd 88 d7 20 3c
       -0.11675899 -0.034752347 -0.03881091 0.009817012
0001c0 9b b5 49 3b e3 d2 ce bc 47 95 1a bd 75 1f f8 3c
       0.0030778411 -0.025247043 -0.03774002 0.030288437
0001d0 33 1d a0 3d 39 70 2b bd 93 36 a6 3c 5c ba f5 3d
       0.07818069 -0.04185507 0.020289695 0.11998436
0001e0 2d 76 1a bd ba 6c f6 3d a3 98 03 3e 38 e8 29 bd
       -0.037710357 0.12032457 0.12851195 -0.041481227
0001f0 07 ad b4 bd 1a e4 e2 3d d8 65 8e bd ae fe d0 bd
       -0.08822065 0.11078663 -0.06953019 -0.10204826
000200 9c 62 20 3e 7d a3 7c 3c 5e c6 bf 3d cc 76 20 3d
       0.15662616 0.015419838 0.093640074 0.039175794
000210 e4 cb c6 bd 4e 5c 9d 3d ab 44 a0 3d b1 46 d3 bc
       -0.09706858 0.07683621 0.078255974 -0.025790544
000220 c9 ac 08 3e 49 c5 54 bd 33 77 9c 3d f5 eb 94 3c
       0.13347162 -0.05194596 0.07639923 0.01817892
000230 fe 7b 43 3d 3f 60 2e 3d f4 fd 13 3e 08 2a a1 bd
       0.04772567 0.042572256 0.14452344 -0.07869345
000240 cb f3 a1 bd a2 4e 1c bd b9 72 e6 3c 26 6d bb bd
       -0.07907828 -0.038160928 0.028130876 -0.09151678
000250 6d 39 c4 3d 38 bc c7 3b c0 8c ca 3d 59 6e 0e 3e
       0.095812656 0.0060954355 0.09890127 0.13909282
000260 11 6a 47 bd cb 28 22 3e e2 95 09 bb 8d d9 d7 bd
       -0.048685137 0.15835874 -0.0020993878 -0.105395414
000270 d3 aa c8 bc bc 2b e6 3d a2 bd 2f 3e 3a dc 5a bd
       -0.024495518 0.112388104 0.17162183 -0.05343268

model.rnn.bias_hh_l0 f4 [160]
000000 79 e6 a8 bc 79 49 fd 3d 36 66 86 3d 18 5c bc bd
       -0.02061771 0.123675294 0.06562464 -0.09197253
000010 e3 58 07 be 99 7a 3d bd f5 7f 94 bc cb 1a 97 3c
       -0.13217501 -0.046259496 -0.01812742 0.018445393
000020 9c d1 ef 3d d4 7f ea 3c f8 57 8c bd 4f a3 1b 3d
       0.11709902 0.028625406 -0.06852716 0.03799754
000030 b0 05 96 3d f1 f5 f9 3b 2a 4e a0 3d f6 5d 96 3c
       0.073253036 0.0076281955 0.078274086 0.018355351
000040 2e a8 c0 3d d5 46 c3 3d fd 17 8a 3d a8 2c d8 bd
       0.09407078 0.095349945 0.06742857 -0.105553925
000050 e4 9a 5d 3e 83 8e c5 bd 78 a1 b1 bd e3 7c 10 3d
       0.21641117 -0.096463226 -0.08673376 0.03527535
000060 d0 26 6b 3d 23 28 c6 bd a3 eb a5 3c 9e 9f cf 3d
       0.05741006 -0.09675624 0.020253962 0.101378664
000070 e0 3b c6 bb a9 90 34 3d 48 ba 9c 3d 9e a1 84 bc
       -0.006049618 0.04408327 0.07652718 -0.016190346
000080 eb 40 86 3d ac a0 e4 bd 3b 48 42 3e 1a 49 58 bc
       0.06555351 -0.11163458 0.18972866 -0.0132010225
000090 ab b3 25 3e 7b 67 8e 3d af 32 b3 3c 1f 04 82 bd
       0.16181819 0.06953331 0.021874754 -0.06348442
0000a0 ea 41 93 3a 12 a8 b8 3d 7d a0 c8 3d 4f f7 e0 bd
       0.0011234854 0.09016432 0.09796236 -0.1098467
0000b0 fa c3 b3 3d 2c 94 27 3e 49 32 11 3e df 84 27 bd
       0.08777614 0.16365117 0.14179339 -0.0408982
0000c0 67 64 ec 3c a3 d0 35 bd 78 db 0a 3d 52 1b f8 3d
       0.02885647 -0.044388425 0.033900708 0.12114586
0000d0 f3 36 f0 3d c7 dd d9 bc fd 99 19 be 49 9d eb 3a
       0.11729231 -0.02659501 -0.15000148 0.0017975952
0000e0 3e 40 3a bd 9d cc a1 bd 19 17 a6 bd 93 53 92 bd
       -0.045471422 -0.07900355 -0.08109874 -0.07144847
0000f0 cf e8 ac 3d eb f9 fa 3d 41 e6 34 bd 1c 81 99 3d
       0.08442842 0.12254699 -0.0441649 0.07495329
000100 fd 96 95 3c 7d b8 a4 bd 3a b7 15 3c 9d 51 01 3e
       0.018260473 -0.08043001 0.009137923 0.12628789
000110 a5 75 ce 3d bc 77 1a be d1 1d ae 3d 5e a7 4a 3c
       0.10081033 -0.15084738 0.08501781 0.012369005
000120 d6 52 3a 3e ac d0 5a bd d1 a4 1a be 7f b5 af 3a
       0.18195662 -0.05342166 -0.15101935 0.001340553
000130 76 fa 1a be f2 75 11 be 23 20 a0 3b 8f a1 b1 bd
       -0.15134606 -0.14205149 0.0048866435 -0.08673393
000140 b0 21 c2 bd ae 23 0b 3d 39 14 17 be 7f c5 50 bd
       -0.09479082 0.033969574 -0.14753808 -0.050969597
000150 82 53 05 be 18 eb 88 3d a2 f1 56 3d 1d a5 60 3c
       -0.13020137 0.066854656 0.052476533 0.013711241
000160 9e e2 09 3d c6 11 69 bd 00 30 86 3d 54 f2 0f 3e
       0.033663385 -0.056901716 0.06552124 0.14057285
000170 a2 12 be bc b4 e4 11 3e 6d 8a 59 3d 4d e3 e7 3b
       -0.023202244 0.142474 0.05311053 0.007076657
000180 df d4 2d bc c6 3e 5a bc 41 17 5e bd fa a7 d8 bd
       -0.010609834 -0.01332063 -0.054221395 -0.10578914
000190 c5 cb 35 3e 45 72 2f be 88 f0 b4 3d a1 10 78 3c
       0.17753513 -0.17133434 0.0883494 0.015140683
0001a0 d8 1e d2 bd cc 14 43 3d 8c 53 c9 3d 34 ae bb 3d
       -0.10259789 0.047627255 0.098303884 0.09164086
0001b0 04 8b 15 3d e7 90 b1 3b 52 0e a3 bd 57 cd 82 3c
       0.03650953 0.005418885 -0.07961716 0.015967054
0001c0 ac ef 08 3d ae 46 c1 3d a3 14 1f be f4 ae fd bc
       0.033431694 0.09437309 -0.15535216 -0.030967213
0001d0 88 e6 e6 3d e5 a0 63 bd 20 04 04 3e 5e 12 cd bd
       0.11274439 -0.055573363 0.12892199 -0.10013269
0001e0 4e d9 50 bc fb 26 07 3d 4d 05 20 3e 02 6a aa 3d
       -0.012747122 0.03299616 0.15627022 0.08321001
0001f0 2d 05 aa 3d a9 f9 36 bd 2d ae da bd 7d 5a ea bc
       0.083017685 -0.04467169 -0.10677753 -0.028607601
000200 90 26 8e bd 49 0b b0 bc 93 03 c5 bd 92 9d 8d 3d
       -0.06940949 -0.021489756 -0.09619822 0.0691482
000210 d7 92 a0 bd bb e7 9a 3c 28 bc ef 3d f1 78 46 3d
       -0.078405075 0.018909326 0.1170581 0.048455182
000220 2b 02 31 3e 03 ab fd 3d 6e d9 9d 3d 4f 2e e6 bc
       0.17285983 0.123861335 0.07707487 -0.028098254
000230 6f f2 70 bd 33 c9 5e 3d 15 60 0b 3e 54 81 a0 bd
       -0.058824953 0.054391097 0.13610871 -0.078371674
000240 6d ff de 3d c0 45 d3 3d 4c 6c 3d 3d 63 b6 9f bd
       0.10888562 0.10316038 0.046245858 -0.077984594
000250 63 f3 ed 3c 71 5b 49 bd 44 3d 11 3e 44 7a d9 bd
       0.02904672 -0.04915947 0.14183527 -0.106190234
000260 29 30 1a 3e 54 ed 19 be b2 30 fe 3c cc 21 5a bd
       0.15057434 -0.1503194 0.03102908 -0.053254887
000270 98 04 77 3d ae de 8d 3c b7 dd 42 3e e0 b4 c8 bd
       0.060307115 0.017318096 0.1902989 -0.09800124

model.rnn.weight_ih_l1 f4 [160, 40]
000000 50 80 a0 3b 32 15 14 be 21 a8 8a bd 0f 65 ce 3d
       0.0048981085 -0.1446121 -0.06770349 0.10077869
000010 d6 e5 37 bd ee bd 14 bd 74 1a 1f 3e 97 0c b3 3b
       -0.044896923 -0.036313944 0.15537435 0.0054641473
000020 68 ca 8d 3d d4 cc 4c 3d 3f 09 04 be 06 0f bc bd
       0.069233716 0.050000027 -0.12894152 -0.09182553
000030 08 7f 03 bd 57 0a cd 3d b4 e1 ab 3d c0 aa 40 be
       -0.03210357 0.10011738 0.08392659 -0.18815136
000040 43 a8 ed 3d ac 6a 26 bb 23 75 13 be 11 c6 02 be
       0.11604359 -0.0025393171 -0.14400153 -0.12770869
000050 88 de 04 3e ac 6b d3 bd 64 7b 01 3e 41 f0 8a 3c
       0.12975514 -0.10323271 0.12644726 0.016960265
000060 0d af 18 3d 48 d2 f0 bd 06 3d 57 bd 04 4b 08 bd
       0.037276316 -0.11758858 -0.05254843 -0.033274665
000070 16 ad 90 bc c8 87 bb bc 78 e6 78 bc f9 0b c5 bc
       -0.017660659 -0.022891894 -0.015191667 -0.02405356
000080 26 41 47 3e 90 ec c0 bd 51 2c e4 3d 5c 74 cc 3d
       0.19458446 -0.09420121 0.11141265 0.09983131
000090 b6 d5 11 bc 7b 1b 1b 3d 30 32 58 3e b3 7d f1 3c
       -0.00890105 0.037868004 0.21112895 0.029478883
0000a0 31 6e c0 3d ff e5 83 bd 74 08 cb 3c 25 bd 8e bd
       0.09396017 -0.06440353 0.024784304 -0.0696967
0000b0 ca ae b4 bb c9 d3 ef bc b9 c4 24 bd db e4 03 bd
       -0.0055140005 -0.029275792 -0.04022667 -0.032200675
0000c0 ad 76 c1 3d f5 d0 8d bd 37 d4 0f be 3e 08 bf 3d
       0.09446464 -0.06924621 -0.14045797 0.09327744
0000d0 cb dd 58 3d 86 ca 49 bd 11 47 e6 3d 26 f2 0a 3e
       0.052945893 -0.049265407 0.112440236 0.13568935
0000e0 ce 68 fb bd 30 30 dc 3d e3 0e 86 bd f1 e6 c1 3d
       -0.12275849 0.107513785 -0.06545808 0.09467877
0000f0 32 18 31 3e 1e 36 17 3e 1b 93 f6 bc ea 19 80 3d
       0.17294386 0.14766738 -0.030099442 0.06254943
000100 2f e4 b4 bc 84 38 21 be 9c f1 3f 3d 9c 6c bb 3d
       -0.022081463 -0.15744215 0.046861276 0.09151575
000110 3d be e0 bd 8c 0e 24 be 2c 70 d0 3d 2f 71 11 be
       -0.10973785 -0.16021174 0.10177645 -0.14203332
000120 ba ce b4 bd 8a c6 88 3d a8 ad 63 be 84 c8 10 3d
       -0.088284925 0.06678493 -0.22234213 0.035347477
000130 5c 28 37 3d 53 e9 ca bd 83 f3 e8 3c 7b 7c 7f bd
       0.044716224 -0.09907784 0.028436428 -0.062374573
000140 3f e3 62 3e 74 5b 04 be 95 35 55 3e e1 94 0e be
       0.22157 -0.12925512 0.20821221 -0.1392398
000150 d7 85 cd 3c 11 92 5b 3d fb fb 84 bd d6 19 88 3b
       0.025088234 0.053606097 -0.06493374 0.0041534705
000160 f3 3b b8 b9 db 7c 21 3c 8e 4b 28 bd e7 e8 76 3d
       -0.0003513988 0.009856428 -0.04108768 0.060280707
000170 4e df 8c bc 28 30 09 3e 2e e4 0a be b4 b2 6c bd
       -0.017196324 0.13397276 -0.13563606 -0.057787612
000180 5e ad b2 3b be dc a0 bd 13 21 7f bd 90 32 ea 3d
       0.005452796 -0.07854603 -0.0622874 0.11435425
000190 f3 c7 4b bc 75 95 ee bd d6 d0 b4 bd c1 6b e2 3d
       -0.012437808 -0.116496004 -0.08828895 0.11055709
0001a0 94 2e ee bd 9a f8 d4 bd ff 8f 81 bd 23 10 42 be
       -0.11629978 -0.103989795 -0.06326293 -0.18951468
0001b0 1f 20 ec bc bc 71 25 3d d6 7e 99 bc 06 cd 34 bc
       -0.02882391 0.04039167 -0.018737238 -0.0110352095
0001c0 45 d6 c6 bd a1 46 88 bd 0b 04 c6 bc da 0e 97 bd
       -0.097088374 -0.066540964 -0.02417185 -0.073758796
0001d0 b6 f3 51 be 64 d8 27 bd 5c 8d 7f bd db 96 97 bd
       -0.20503125 -0.04097785 -0.06239067 -0.0740182
0001e0 5f 02 d9 3d 9f 13 17 3e 7a 52 d8 3d b7 2d a8 bd
       0.105961554 0.14753579 0.10562606 -0.082118444
0001f0 bc 73 be 3c 73 8b db bd 7e a2 86 bd 83 0b 75 3d
       0.023248546 -0.10719957 -0.06573962 0.05982543
000200 5b c2 25 be ce c1 2f bc 87 ed 05 be 09 f8 10 3e
       -0.16187422 -0.010727359 -0.1307889 0.14157118
000210 05 1c 21 3d 7d 63 8d bd fe 34 6b 3d e2 3b 14 3e
       0.039333362 -0.069037415 0.057423584 0.14475968
000220 f9 dd 1c 3d 55 60 bf 3d c0 c9 1b be ce 23 cf 3d
       0.038297627 0.09344546 -0.1521368 0.10114251
000230 ef d3 f3 bd 45 ae 46 bd 7b c4 02 be b5 e4 1e bd
       -0.119056575 -0.04850604 -0.12770264 -0.03879233
000240 25 fe 19 3e ab 94 d2 3a e1 55 91 3d 92 50 58 3d
       0.15038355 0.0016066035 0.07096458 0.052811213
000250 a1 6a c0 bd b1 41 ae bc e7 ba 5c 3c dd c2 55 3d
       -0.09395338 -0.021271558 0.013472295 0.05218779
000260 44 43 13 3e 8d c3 d2 bd f8 92 c6 bd b7 ad 9b 3c
       0.14381129 -0.102912046 -0.09696001 0.019003732
000270 8e c7 8a bc 49 b6 cd 3b 96 ba 7d 3d 61 03 f2 bd
       -0.016940858 0.0062778336 0.06194552 -0.11817051
000280 ac 10 06 3c 4f 00 ea bc a0 9d 72 bd 60 2c b8 3d
       0.008182686 -0.0285646 -0.059232354 0.08992839
000290 c4 56 1f be a8 5b 9f 3d 6f 52 70 bd a0 38 e5 bb
       -0.15560442 0.07781154 -0.058672365 -0.0069952756
0002a0 2c 12 bb bd 04 61 84 bd 37 28 1f bd 4c 3c 04 bd
       -0.091343254 -0.06463817 -0.03885671 -0.032284066
0002b0 37 5b f9 3b 85 64 01 bc c5 04 2d be 23 34 47 3d
       0.0076097506 -0.007897501 -0.1689635 0.048633706
0002c0 94 f7 fb bd 09 cc 10 3e 69 9b 6a bd f1 f8 01 3e
       -0.12303081 0.14140333 -0.057277117 0.1269262
0002d0 33 18 46 3e de ec 1b be 1a 89 25 bd c5 5c 1e 3d
       0.19345169 -0.15227076 -0.040413953 0.03866269
0002e0 71 47 51 be cc 5d 5d 3d 4b 46 2d bc 38 26 4c bd
       -0.20437409 0.05404453 -0.010575841 -0.049841136
0002f0 d2 fb 20 be 26 5c 0e be 1e 38 4c 3e 31 60 c5 3a
       -0.15721062 -0.1390234 0.19943282 0.0015058574
000300 a2 20 35 3e 47 de d5 3d 35 61 fd bc 03 f7 03 be
       0.1768823 0.10442787 -0.030930141 -0.12887196
000310 d3 6d a8 bb 64 c4 72 bd 27 64 29 3e 48 26 f0 bd
       -0.005140045 -0.059269324 0.16542111 -0.117260516
000320 09 0a f8 bd 46 2d 03 be 36 35 65 3d ff 93 9f 3d
       -0.12111289 -0.12810239 0.05595895 0.077919
000330 68 57 63 3c 3e 18 7b bc da 13 ab 3c 7b 2d 27 3e
       0.01387582 -0.015325604 0.02088349 0.16325943
000340 75 a9 c3 3d 0f 87 ff bd 1d 0c a8 bd 36 6c f6 3d
       0.09553806 -0.12476932 -0.082054354 0.12032358
000350 c1 f3 e8 bd a2 ed 04 3d a7 90 6f be 36 a7 49 3d
       -0.11374617 0.032453187 -0.23395024 0.04923173
000360 d8 e9 4f 3d 15 a4 14 3e 8b d0 e3 3d 96 5f fd 3d
       0.05076012 0.14515717 0.11123761 0.12371747
000370 5b 99 02 3e ec 29 20 be 3e bd f5 3d 5c c2 06 3e
       0.12753813 -0.15640992 0.11998986 0.1316008
000380 23 fb 39 be d6 2d cd 3d 5f 58 db 3c 08 d7 b8 3d
       -0.18162207 0.10018508 0.026775537 0.09025389
000390 85 5c 76 bd 91 ab e5 bd 8a 4f 9e bd 94 53 eb bc
       -0.060146827 -0.11214364 -0.077300146 -0.028726377
0003a0 c2 a8 5a bd f6 dc 6d 3d 0f 43 fa 3d 2a 46 69 bd
       -0.053383596 0.058072053 0.12219822 -0.05695168
0003b0 eb d1 03 3d 90 54 a4 bd ee b1 46 3d 16 bc b5 3c
       0.032182615 -0.080239415 0.04850953 0.022184413
0003c0 10 6d e5 bd 6e 48 6e 3d 2f 43 23 bd 96 11 0e 3e
       -0.11202443 0.058174543 -0.039858993 0.13873896
0003d0 89 ff 5e 3d 12 9d 17 bd 42 c2 e1 bc e5 2d f7 3d
       0.054442916 -0.03701503 -0.02755845 0.120693006
0003e0 c6 59 c5 bd f2 9e 8c 3d ef 4d 75 bc 8f 6a fe bd
       -0.096362635 0.06866254 -0.014972194 -0.12422668
0003f0 c4 8c 8a bd 17 86 12 3c f9 68 29 3d dc f0 6e 3d
       -0.0676513 0.008943102 0.041359875 0.05833517

model.rnn.weight_hh_l1 f4 [160, 40]
000000 9c 44 26 3e f1 eb bc bd 08 59 d0 bd dd 30 30 3e
       0.1623711 -0.0922469 -0.10173231 0.1720614
000010 0d a2 90 3d 92 1f eb bd 10 3b ed bd ac 3d 38 be
       0.07062159 -0.11480631 -0.11583531 -0.17992276
000020 e4 91 97 3d 88 c0 1a be 79 b4 84 bd 4b 47 41 bd
       0.07400873 -0.15112507 -0.06479735 -0.04718713
000030 36 d9 25 bb f0 17 60 bc d8 03 99 3c df 03 a3 bd
       -0.002530647 -0.013677582 0.01867859 -0.07959723
000040 08 63 2e 3d fb 57 02 be 9e b4 f2 3b 8f 0a b4 3d
       0.042574912 -0.12728874 0.007406785 0.087910764
000050 3a 44 93 bd 0c 48 0b bd e5 0e ce bd 61 ae 06 be
       -0.071907476 -0.034004256 -0.10061435 -0.13152458
000060 a6 bb 0a be cf 91 05 3b 16 5b 10 be f0 88 1d be
       -0.13548145 0.0020381098 -0.14097247 -0.15384269
000070 d6 9f 1a be f6 25 e9 bd 6b 68 81 3d 38 c7 06 3e
       -0.15100035 -0.113841936 0.06318744 0.13161933
000080 8e 9e 74 3d f6 e6 09 3e 58 f6 1a 3e 70 7f bf 3d
       0.059721522 0.13467011 0.15133035 0.09350479
000090 47 9f 01 3e f2 ca 96 bc ef 7c c5 3d 91 77 cb bd
       0.12658416 -0.018407319 0.0964297 -0.09934915
0000a0 20 7c 2a 3e a4 f7 e2 bd b0 fc fe bd 49 d7 bd 3d
       0.16648912 -0.1108239 -0.1245054 0.09269578
0000b0 40 ce e4 bc fb 8c 0b be ac 7f a8 bd ad b7 d7 bd
       -0.027930379 -0.13627999 -0.082274765 -0.1053308
0000c0 5b 46 f9 3d bc 63 1f be 7f a7 ff bc 17 5e 09 3b
       0.12171622 -0.1556539 -0.031207798 0.0020960623
0000d0 a8 4c e4 3d 9a cf 00 3e 3c 4d 91 bd c6 d4 f1 3d
       0.111474335 0.12579194 -0.070948094 0.118081614
0000e0 0e 20 11 be 9f 99 65 3d 5c ce 0f be 0d 40 ff bc
       -0.14172384 0.056054708 -0.14043564 -0.031158471
0000f0 53 54 0b 3e e7 be 13 3d c6 ba e4 3d 96 e0 3c bd
       0.13606386 0.03607073 0.11168437 -0.04611262
000100 1c 88 ef bd e3 7f 00 3d 11 30 ef bd d3 2a b6 3b
       -0.11695883 0.031371962 -0.1167909 0.0055593043
000110 63 44 ae bd ba 7e 22 be 3d 4c 14 be ca f2 20 3d
       -0.085091375 -0.15868655 -0.14482208 0.03929404
000120 be e8 d3 3d 7f c2 03 3e 3a 89 ad 3d ee 22 70 3d
       0.103471264 0.12867163 0.084734395 0.05862706
000130 9b 31 4e bd d8 53 db bd 2c cb 98 bd 5c 00 02 3e
       -0.050340276 -0.10709351 -0.07460627 0.1269545
000140 ff bc 14 bc 4a 5a b7 bd 60 4d ed 3d 82 11 e5 3c
       -0.009078263 -0.08952768 0.11587024 0.02796245
000150 26 65 e2 3d 7a 8e a4 bc c3 81 0b 3e c9 14 27 be
       0.11054449 -0.02008747 0.13623719 -0.16316523
000160 66 2e 14 3e 72 ed e1 bd f4 29 bf bd a2 13 d4 3d
       0.14470825 -0.11031617 -0.09334174 0.10355307
000170 1a 11 fc 3d f1 0c 01 3d 13 6a f2 bd 5c 09 9b bd
       0.12307949 0.031506483 -0.11836638 -0.075701445
000180 cd cf e3 ba 77 14 88 bd e4 5c f6 bd 45 2d ab bd
       -0.0017380655 -0.06644528 -0.12029436 -0.08358244
000190 1d 53 ce bd 0d 9b 0d 3e ff 51 f4 3d c2 ee b7 3d
       -0.10074446 0.13828678 0.11929702 0.08981086
0001a0 67 18 a7 3d 04 f7 07 be 12 6e 9d 3d 18 d2 4e 3d
       0.08158951 -0.13277823 0.0768701 0.05049333
0001b0 52 2a d4 bd a4 d4 81 bc 48 60 21 bd 92 43 16 3d
       -0.103596345 -0.015848465 -0.03939846 0.036685534
0001c0 03 dc 99 3c ce 67 cb bd 94 9b f6 bd 2d a9 62 3d
       0.018781668 -0.099319085 -0.12041393 0.05533712
0001d0 9c c0 3d 3d 51 b3 32 3d bd 19 d9 3d 8c 93 01 3e
       0.046326265 0.04362804 0.10600612 0.12653941
0001e0 42 52 f0 3d 4d 84 30 3e d9 91 32 be b7 72 06 be
       0.117344394 0.17237969 -0.17438449 -0.13129698
0001f0 01 c4 1e 3c a8 de 9b 3d f1 21 43 bd 67 8b b0 3d
       0.009690286 0.07610828 -0.04763979 0.08620339
000200 28 38 12 3c 62 33 4c bc 4d d1 02 be c7 4c 06 3c
       0.0089245215 -0.0124634225 -0.12775154 0.008197016
000210 d1 8e ec bd 41 b3 7e 3d 9d 66 0c bd 55 cd 17 be
       -0.115506776 0.06218267 -0.034277547 -0.14824422
000220 2a cd d3 3c a6 fb aa 3d d9 f6 96 bc 84 71 47 3d
       0.025854666 0.083487794 -0.018428253 0.04869224
000230 70 ae 25 be f9 87 b1 bc 27 54 8b 3d 82 c5 04 be
       -0.16179824 -0.021671282 0.0680316 -0.12965968
000240 05 98 60 3d 6e ea 3b ba 69 1f ae bd 9c 4b 07 3e
       0.054832477 -0.00071684166 -0.08502085 0.13212436
000250 78 b6 99 3d 48 79 ab bd 96 cf b6 3d cc 9c 93 3d
       0.07505506 -0.08372742 0.089263126 0.07207641
000260 4d 8b 35 bd 03 84 bc 3c 05 4b 05 3e 81 00 03 bd
       -0.0443223 0.023012167 0.13016899 -0.031982902
000270 22 1f f7 3b 29 28 db 3d f8 d7 89 3d d6 4a 6f bd
       0.007541553 0.10701019 0.06730646 -0.05842098
000280 9a ba 64 3d 67 0b bf bd 70 35 3c 3e f3 cc 86 3d
       0.05584202 -0.09328347 0.1837976 0.0658206
000290 29 d9 b8 bc 25 aa e1 bd 60 1e e4 3d 4a bb c7 3c
       -0.022564488 -0.110187806 0.11138606 0.024381299
0002a0 d2 a4 29 3e 33 fe a9 3d 95 73 74 bd 4a f8 d4 bd
       0.1656678 0.08300438 -0.05968054 -0.1039892
0002b0 73 b9 6d bd 6f ed a0 bd 47 d5 31 bd 66 eb d3 3d
       -0.058038186 -0.07857787 -0.043416288 0.10347633
0002c0 44 a0 cc bb e1 ce 04 bc e3 e7 11 be 93 6a 4c 3c
       -0.006244691 -0.008105964 -0.14248614 0.012476581
0002d0 21 b5 20 3c 7f 33 f4 bd 10 57 8b 3d 65 3e 3c 3e
       0.0098088095 -0.119238846 0.06803715 0.18383177
0002e0 ab 2a a0 bd fe 99 9c bd 5e 0d 1e 3e 7c 0d ba 3c
       -0.07820638 -0.07646559 0.15434787 0.022711508
0002f0 e1 b1 87 3d 93 84 2a 3e ff b8 89 bd 80 d2 24 be
       0.066257246 0.16652136 -0.06724738 -0.16095924
000300 a8 13 57 bd 45 8d 19 bd 0d 80 0a be a3 79 29 3e
       -0.05250898 -0.03748824 -0.1352541 0.16550307
000310 3a 09 6d 3d 2e 52 d5 bd 1f 42 34 3e ee 2b c8 bc
       0.057870127 -0.10416065 0.17603348 -0.02443501
000320 6d a6 30 3e 33 9e 51 3d f2 32 bb 3d 2c d9 ca bd
       0.17250986 0.05117626 0.091405764 -0.099047035
000330 5d f0 e2 3d 42 a3 7f 3d f4 ac a8 3d ff 0b f3 3d
       0.11081002 0.062411554 0.08236113 0.118675224
000340 0a 5a 75 bd db a1 de bd 35 86 8c 3d e5 e2 29 3d
       -0.05990032 -0.10870715 0.068615355 0.04147615
000350 73 f9 bb 3d 25 38 32 3d 78 f1 7e bd dc a7 14 3d
       0.09178438 0.043510575 -0.062242 0.036292896
000360 52 a3 c3 3b aa ca f2 3d ab f4 df 3c 43 03 1d bd
       0.005970397 0.11855061 0.027338346 -0.03833319
000370 31 3c 49 bc 76 37 6c bd 94 a4 52 bd 87 4e ab 3d
       -0.012282417 -0.05767008 -0.051426485 0.08364587
000380 af 9b 03 3e bb ee e9 3d 55 cf 0d 3e 37 0f 00 bd
       0.12852357 0.11422487 0.13848622 -0.03126451
000390 c9 f5 c0 3b 1c e0 2e 3e 35 6c 03 bd c1 c4 f9 bd
       0.005888675 0.17077678 -0.032085616 -0.12195731
0003a0 53 89 95 3d 45 12 8e 3d 41 e1 db bc 6f 12 fd 3d
       0.07301583 0.069370784 -0.026840808 0.123570316
0003b0 46 8b c5 bd 40 a9 e1 bd 80 db fa 3d f0 03 c8 3d
       -0.09645705 -0.1101861 0.122488976 0.09766376
0003c0 a0 69 cc bd 47 4b e0 bd 31 73 0c be 31 53 a3 3d
       -0.09981084 -0.10951858 -0.13715817 0.07974852
0003d0 2e 49 7a bd 3a 34 15 be 20 9d 9e 3d e3 0d 15 3e
       -0.061104946 -0.14570704 0.07744813 0.14556079
0003e0 75 ec 4e 3d 7d 95 95 bc 8f 88 78 bb de 48 ad 3d
       0.05051847 -0.018259758 -0.0037923192 0.08461164
0003f0 0f 78 bb bd 9d 54 4c 3d 00 04 a3 bd 87 ea 13 3e
       -0.09153759 0.04988538 -0.07959747 0.14444934

model.rnn.bias_ih_l1 f4 [160]
000000 68 67 8e bd f2 04 82 bc 37 c0 3d 3d 79 95 bd bd
       -0.06953317 -0.015871499 0.04632589 -0.09257025
000010 84 fa 82 3b 3c b9 ff 3b 63 22 88 3d 57 c2 a2 bd
       0.003997149 0.007804064 0.06647184 -0.07947224
000020 d6 c9 e3 bc da 57 55 3d 4c 31 23 3e 90 09 36 be
       -0.027806204 0.052085735 0.15936774 -0.17777085
000030 0e 44 17 3d 63 d9 8d 3d 3a cc 6a bd a0 20 c9 bb
       0.036930136 0.06926229 -0.057323672 -0.0061379224
000040 5f 51 a4 bd 14 ca 86 3d d8 39 b8 bc 49 de c1 bd
       -0.08023333 0.06581512 -0.02248852 -0.09466226
000050 73 65 01 3d 83 ee 82 3d 9b 3d 3e 3e 4e 0b a2 3d
       0.03159089 0.06393149 0.18578188 0.079123124
000060 f6 bf 9b bd f1 0b 77 3d c9 43 a6 3c 2a 74 7e 3d
       -0.07604973 0.060314123 0.020295994 0.0621225
000070 d3 a0 1f 3e d9 8e 08 3e 41 37 b9 3d 5b 16 d7 3c
       0.15588693 0.13335742 0.09043742 0.026255777
000080 76 91 77 3d d6 f3 0f bd 6c c1 ac bd 3a 3f 10 3d
       0.060441457 -0.03514465 -0.0843533 0.035216548
000090 82 9a be bc e3 70 8c bd a8 ea ab bc 04 5b ff 3d
       -0.023267034 -0.06857469 -0.020985916 0.12468532
0000a0 38 89 8b bd 3a 5b 12 3d 77 73 e6 bd db fb b4 bd
       -0.06813282 0.03573153 -0.11252492 -0.088371
0000b0 c5 a7 1e bc da ce fc 3d fc b3 80 3c f8 1a 10 be
       -0.009683554 0.12344141 0.015710823 -0.14072788
0000c0 fe 73 00 3e cf 68 0b 3c dd bb 89 3d 2c 8e 20 3d
       0.12544248 0.008508875 0.06725285 0.039198086
0000d0 f9 b1 f0 bb b8 4e 5e 3d 11 e4 1d be 26 77 09 3e
       -0.0073454347 0.05427429 -0.15419032 0.13424358
0000e0 d3 95 ae bd d9 a4 6f 3d 87 29 32 3d 80 56 f1 bd
       -0.085246705 0.05850682 0.043496635 -0.11784077
0000f0 4b 51 df bd ff 93 01 be 76 ae b1 bd 9f 96 1e be
       -0.10904177 -0.12654112 -0.08675854 -0.15487145
000100 a7 ba 9b 3d ed 73 64 3d 02 db f4 bb dc 23 f0 bd
       0.076039605 0.055774618 -0.007472397 -0.1172559
000110 2f 8a 35 3d 20 72 dd bd b2 78 5b 3d ea da ea 3d
       0.044321235 -0.10812783 0.0535819 0.11467536
000120 68 bc f4 3b 92 10 b7 3d a0 61 07 be e1 8a e0 bc
       0.007468749 0.089387074 -0.13220835 -0.027409973
000130 75 5b bb bd 96 64 43 bd 88 1a 16 bd 0c a4 fb bd
       -0.091483034 -0.047703348 -0.036646396 -0.12287149
000140 9c aa a8 bd e0 48 0a 3e 09 b1 89 bc 68 d0 5e bd
       -0.08235666 0.13504362 -0.01680805 -0.05439797
000150 7c 18 86 bd b5 c4 45 3e 99 66 37 be 97 ef b9 bd
       -0.06547639 0.19313319 -0.17910232 -0.09078901
000160 92 5a 16 be 0b 08 48 be e2 3b 66 3d 7d 88 44 3d
       -0.14682987 -0.19534318 0.056209452 0.047981728
000170 45 5d 29 bd e8 01 a0 3d e0 f2 93 3d 00 52 ba bc
       -0.041348714 0.078128636 0.07224059 -0.022744179
000180 a3 65 03 be 67 92 00 bd 18 43 3c bd 26 78 c0 bd
       -0.1283174 -0.03138962 -0.045962423 -0.093979165
000190 1f 5b b3 bd 18 77 8d 3c fc 5a 1a be 60 65 a8 3c
       -0.08757614 0.017268702 -0.1507377 0.020556152
0001a0 5e 68 ce 3d d2 3e bc 3b 35 ba c3 bd ab af 96 3a
       0.100785 0.0057447935 -0.095570005 0.0011496445
0001b0 04 c7 a9 bd 43 3c a7 bc 10 7c c3 3c 76 f6 b6 3d
       -0.08289912 -0.020414477 0.023862869 0.089337274
0001c0 8e 7f 21 3e 17 82 d7 bd 6c f7 d4 bd 47 38 c8 3d
       0.15771315 -0.105228595 -0.103987545 0.09776359
0001d0 76 74 15 3e 55 9b b0 bd a4 70 01 bd a1 5b 94 3d
       0.14595208 -0.08623377 -0.031601563 0.07244039
0001e0 45 16 aa bd 5e c2 15 3e b7 5a a4 bd 03 5d a3 3d
       -0.08305029 0.14624926 -0.08025115 0.07976725
0001f0 8e c6 b6 ba 2b b8 fc bc 7b f6 37 bd e4 3a 22 be
       -0.0013944672 -0.030849537 -0.044912796 -0.15842777
000200 ab bd 95 3d f5 4b bc bd 5d 44 32 3e 25 50 04 be
       0.07311567 -0.09194175 0.17408891 -0.12921198
000210 27 b9 07 3e 34 fb b5 bd b8 2f d1 3d 65 58 6f bd
       0.13254224 -0.08885804 0.1021418 -0.05843391
000220 e0 80 8d bd ff 8f 57 bc 63 31 04 be d3 98 18 bd
       -0.069093466 -0.01315689 -0.12909465 -0.03725512
000230 2b d3 d2 3d c3 23 1c 3b 2b 69 74 3d cc 52 95 3d
       0.10294183 0.0023825027 0.05967061 0.07291183
000240 c1 27 59 bc 95 55 c3 bd 72 a5 b5 3a b9 9a 17 3d
       -0.013254107 -0.09537808 0.0013858511 0.03701279
000250 bf 10 34 3e 40 0b f6 bc 22 25 cd bd 3c 43 54 3d
       0.17584513 -0.030034661 -0.10016848 0.051821932
000260 27 00 42 bc 89 dd ed 3d 4b 64 24 3e 6a 26 ed bd
       -0.011840857 0.1161452 0.16053884 -0.115795925
000270 8b 84 89 bb 65 fa e9 3d 01 9c b4 3d 91 5c fe bd
       -0.0041967086 0.11424712 0.08818818 -0.124199994

model.rnn.bias_hh_l1 f4 [160]
000000 a4 89 83 3d 5f c5 82 bd 89 d8 d9 bd 66 9f 55 bd
       0.06422737 -0.06385302 -0.10637004 -0.052153967
000010 38 97 de 3c 07 f1 7d 3d dd 4f 78 3d a4 7c f8 bd
       0.027171716 0.06199744 0.06062304 -0.12133148
000020 44 93 df bb 9b 57 c9 3d 2c 25 2f bd b2 90 b3 bc
       -0.0068229754 0.098311625 -0.04276006 -0.021919582
000030 bb 86 fa 3d 1b 61 71 3d c7 76 04 be 79 b2 6d bd
       0.12232729 0.058930498 -0.12935935 -0.058031533
000040 df 90 27 3d 18 ef b8 bd 07 06 b4 3c 9a a3 93 bc
       0.040909644 -0.090299785 0.02197553 -0.018022347
000050 a0 09 e1 3d 90 bd cf bd 19 a7 ef bd 06 4b 8d bd
       0.10988164 -0.10143578 -0.11701793 -0.06899075
000060 be 8b 3a bd ac af 98 bd b1 64 e4 3d d8 ae 0c 3c
       -0.045543425 -0.07455382 0.11152018 0.008586608
000070 ef 6f f5 3d 05 54 21 3e 0a 3f 39 bd ad 13 37 3d
       0.1198424 0.15754707 -0.045226134 0.0446965
000080 e5 5d d3 bc 14 61 40 bd 48 08 55 3d cc 9d 74 bc
       -0.025801608 -0.04696758 0.05200985 -0.0149302
000090 b1 f3 93 3d 57 3b a7 bc c2 ec ac bd d2 8a 12 3b
       0.07224215 -0.020414038 -0.084435955 0.0022360575
0000a0 e3 e3 cb 3c b4 f8 0b bd ce d7 a9 bd f3 96 78 bc
       0.024888938 -0.03417273 -0.082931146 -0.015172708
0000b0 73 04 d1 ba 8f 6e f4 3d dd 6e 70 3d 76 4d c0 3c
       -0.001594676 0.1193515 0.058699477 0.023474436
0000c0 58 f4 31 be 0b c5 a2 bc fd 85 f1 3d 5b 25 30 3c
       -0.17378366 -0.019869348 0.11793134 0.010751094
0000d0 d7 01 24 be b9 7c 8a bd 3e 69 8a 3d 69 b9 03 3e
       -0.16016327 -0.0676207 0.067583546 0.12863697
0000e0 f7 d0 08 3e e1 ba f5 bd 9f 80 ee 3d 0d d4 09 3e
       0.13360964 -0.11998535 0.11645626 0.13459797
0000f0 ed cd 21 be 0e 6a 19 be 21 0e 2e 3e 24 51 a7 3d
       -0.1580121 -0.14981863 0.16997577 0.08169773
000100 80 ef e3 3d 7f 17 0f 3e 7e 93 67 3c ed dd 17 3d
       0.111296654 0.13973807 0.014134286 0.03707688
000110 e3 41 29 be 8e 1a 57 bc 53 a0 1a be 1e 2c 10 bb
       -0.1652904 -0.01312889 -0.15100221 -0.0021998952
000120 01 3e 41 3d de 85 d1 3c ad e7 04 be 3f 9f b0 bd
       0.047178272 0.025576528 -0.12979002 -0.08624124
000130 03 6e fe bd 89 c7 81 3d 87 9a 1e bc bc 41 ba bd
       -0.12423327 0.063368864 -0.009680397 -0.09094569
000140 0e 9d 2a 3d 7b 87 d8 bc c0 a5 b5 3d 26 37 12 3e
       0.041653685 -0.02643179 0.08869505 0.1427885
000150 07 8f b9 bd 3d ea bc bd 12 01 8b 3d bd 37 9c bd
       -0.090604834 -0.09224365 0.067873135 -0.07627819
000160 5e 82 5a 3d 97 62 44 be 82 46 43 bd 7e df b8 bd
       0.053346984 -0.19178234 -0.047674663 -0.09027003
000170 df 94 92 3d 65 a3 be bc d6 c5 ec bd 6d a3 f1 3d
       0.07157301 -0.023271272 -0.11561172 0.11798749
000180 c7 eb 88 bd 8b cf b7 bd 7e 56 81 3c 06 b5 a5 3d
       -0.06685596 -0.089751326 0.015788313 0.08091168
000190 80 c3 40 bd eb e6 d2 bd 67 e3 87 3c 5c 32 08 bc
       -0.047061443 -0.1029795 0.016587926 -0.008312788
0001a0 d8 4a 12 3e 1a db f3 bc d5 2f de 3b b1 3e f6 3d
       0.14286363 -0.029767562 0.0067806044 0.12023676
0001b0 91 60 39 3e db 0e 96 3d 18 56 5f 3d 65 9c 19 3d
       0.18103243 0.07327052 0.054525465 0.037502665
0001c0 f9 36 0b be 80 1c 91 bd 8d 6f c5 bd 03 4c d0 bd
       -0.13595189 -0.07085514 -0.09640417 -0.10170748
0001d0 cb 1a 99 bb 75 ae 4d 3d 52 bc c2 3d ab 39 22 be
       -0.0046723834 0.050215203 0.095085755 -0.15842311
0001e0 ff c2 25 3e 9b ad b3 3c 51 47 8d 3d cd 0c 16 3e
       0.16187666 0.021933367 0.06898368 0.1465332
0001f0 6c 16 1d 3d 5f 2b 97 3d 22 39 8f 3d 64 83 c6 3d
       0.03835146 0.07381319 0.06993319 0.096930295
000200 be d7 ee 3d 21 e0 bf 3d 60 7d 0f 3e c8 d5 25 be
       0.11662243 0.09368921 0.1401267 -0.16194832
000210 0a 8f 78 bc 13 28 12 3e bf 10 a7 bd ac 02 f9 3d
       -0.015170822 0.142731 -0.08157491 0.12158713
000220 ce f5 71 bd f6 8b d8 bc 96 71 36 3d 07 78 10 be
       -0.05907231 -0.026433926 0.044541918 -0.14108287
000230 80 4c fe bd 04 d4 cf 3d bd 2a 0c 3e 84 bd 39 bd
       -0.12416935 0.10147861 0.13688178 -0.04534675
000240 d5 7a ec 3c a1 ec c0 bd 16 ef 76 bd b7 ca 18 bd
       0.028867165 -0.094201334 -0.060286604 -0.0373027
000250 9b aa 96 3d 23 8e 24 be b0 95 1f bb e0 de e4 3d
       0.07356759 -0.16069846 -0.0024350695 0.111753225
000260 ef c6 3b bd ca c9 34 bd da 3c 9c bd 96 10 0d 3d
       -0.045844015 -0.044137754 -0.07628794 0.034439646
000270 20 ed 01 3e c3 16 60 bc 56 02 0f bd 2a d8 dd 3d
       0.12688112 -0.013677302 -0.034914337 0.10832246

exp_avg f4 [1, 40]
000000 fe 70 ab ba 35 e7 cb ba 8c 7d 3c ba ac a2 89 b9
       -0.0013079939 -0.0015556576 -0.0007190339 -0.00026251876
000010 ca ea 7a 38 67 37 c6 ba ca ee 44 b9 41 c0 1b 39
       5.982331e-05 -0.0015122712 -0.00018780972 0.00014853572
000020 f0 38 9d 37 9b 5c 61 3a 7c 2f b5 3a 53 80 6d b6
       1.8742372e-05 0.0008596868 0.0013823356 -3.5390447e-06
000030 1c 87 6d b9 cd 43 a6 b8 2f f7 93 ba 8e 0e 8c ba
       -0.00022652413 -7.928126e-05 -0.0011288876 -0.001068549
000040 fb 00 a6 39 96 8b c7 3a fa 87 de b6 60 42 0e b9
       0.00031662718 0.0015224095 -6.6319453e-06 -0.00013566902
000050 bc b4 c1 38 51 39 11 b6 64 f9 c8 3a 74 d6 b1 ba
       9.2366216e-05 -2.1640046e-06 0.0015333113 -0.001356794
000060 e0 ef 4e ba 9c 70 c3 ba 23 ec b2 ba 65 ed 5f b9
       -0.00078940205 -0.001491088 -0.0013650696 -0.00021355374
000070 54 fe 27 ba 12 5e ab 39 3a e6 14 38 31 d7 58 39
       -0.0006408442 0.0003268575 3.5500365e-05 0.0002067953
000080 26 46 e8 ba bd be ee 3a e5 55 1f 3b 3b 7e bd b8
       -0.0017721101 0.0018214803 0.0024312672 -9.0357345e-05
000090 b0 0a bf ba d8 08 3f ba 42 58 52 b7 bb 11 c4 3a
       -0.0014575329 -0.00072873896 -1.25375245e-05 0.0014958897
