lightning_logs/version_7/checkpoints/epoch=0-step=50.ckpt (torch, 331167 bytes, 33 tensors)

model.param_proj.proj.0.weight f4 [1, 40]
000000 d2 f2 a4 3d 6c 70 d8 3d ef 00 91 bc f4 93 d7 3c
       0.08054127 0.10568318 -0.01770064 0.026315667
000010 3f 3e ff bc a5 f7 b4 bc 2e 26 bb bd 52 e9 30 bd
       -0.031157611 -0.022090742 -0.091381416 -0.04319126
000020 07 42 df 3c 1c 65 2c 3e 65 b6 1b 3e ff c2 49 bb
       0.027253164 0.16835445 0.15206297 -0.0030786393
000030 54 df be bd 28 c8 e9 bd 18 e2 80 3b 8a 26 59 3e
       -0.0931994 -0.1141513 0.0039332025 0.21206108
000040 f2 58 11 3e ba 08 3e bd 0e 52 f3 bd 3e 01 ab bd
       0.14194086 -0.04639504 -0.11880885 -0.08349846
000050 ba 1a d0 bd 94 b2 19 be fe e4 0d 3d 70 51 97 bd
       -0.10161348 -0.15009528 0.034642212 -0.0738858
000060 2b 44 e6 3c 9b 69 94 bd d7 18 da 3c 35 77 62 bd
       0.028108677 -0.07246705 0.026623173 -0.055289466
000070 be e5 ab bd 14 cc cb bd 93 ed da bd 68 19 29 3e
       -0.08393429 -0.09951034 -0.10689845 0.16513598
000080 19 40 9a bd 37 a4 2e 3d e6 b7 b8 bd ac ce 15 be
       -0.07531757 0.042637076 -0.09019451 -0.1462962
000090 fc 3a 23 bd 48 08 bd bd 1a ab 1b be 15 74 db bc
       -0.039851174 -0.09230095 -0.15201989 -0.02678875

model.param_proj.proj.1.weight f4 [1, 40]
000000 ab c8 1c 3e 3b 54 9d 3c 96 5b 5b 3d 5e 41 96 bd
       0.15310924 0.019205203 0.05355414 -0.073366866
000010 5c 1c ce bc 6d 88 3a bb e5 1d 11 be d3 32 1e 3e
       -0.025160007 -0.0028462664 -0.1417156 0.15449075
000020 bd a0 f5 bd e4 52 1f 3e 96 58 ce 3d f0 14 07 3e
       -0.11993549 0.15558964 0.1007549 0.13191581
000030 f4 c0 75 3d 9c ba 34 3d f1 5f 02 3e a2 ca 13 3e
       0.059998468 0.044123277 0.12731911 0.14432767
000040 eb 0d ce bc b6 4b 20 3b b1 cf 0f 3d 36 e7 03 3d
       -0.025153121 0.002445919 0.03511018 0.03220292
000050 4a fd 93 3c e6 8e 36 bd 09 c1 fe bb 7a 82 0e 3d
       0.018065114 -0.044569872 -0.0077744764 0.0347924
000060 4f c2 41 bd f7 98 2c bd df c3 25 be 21 9e ff bd
       -0.047304448 -0.042138066 -0.16188 -0.124813326
000070 76 b3 0f be 81 37 97 bd b2 83 97 bd 84 91 28 3e
       -0.14033303 -0.073836334 -0.07398166 0.1646176
000080 12 e9 df bd 0f cc 11 bd 77 fe fa bd 8a 8f 4f bd
       -0.109331265 -0.035594996 -0.122555666 -0.050674
000090 57 78 0d bd d1 d7 ce 3d 50 c0 d2 3d 9b 31 b6 bd
       -0.034538593 0.100997575 0.10290587 -0.0889618

model.param_proj.proj.2.weight f4 [1, 40]
000000 c3 01 09 be 6f 11 f5 3d 0a 9b 40 be a9 a8 37 3e
       -0.13379578 0.11966216 -0.18809143 0.17935432
000010 e7 36 93 3d 81 ea e1 bb 01 48 10 bd e0 c4 19 bd
       0.07188206 -0.00689441 -0.03522492 -0.03754127
000020 a6 0b 0d 3e 75 40 49 be ed 6f a6 3c 1e 57 ea 3d
       0.13773975 -0.19653495 0.020317042 0.114423975
000030 fe 5d 4b bc ea 41 4a 3e 97 2e 39 be 0b 68 08 be
       -0.012412546 0.19751707 -0.18084179 -0.13320939
000040 89 23 9b bc 82 4a ab 3d 1d cb 29 3e 84 28 e9 3d
       -0.018937843 0.083638206 0.16581388 0.11384681
000050 13 4b 2b 3e ae 06 07 3e ae 7c aa 3c 39 55 fa 3d
       0.16727857 0.13186142 0.020811405 0.12223286
000060 79 13 df bd cc 86 7a 3d 75 86 9a bd c4 18 6e bc
       -0.10892386 0.06116371 -0.07545177 -0.014532272
000070 38 5c 3d 3e 21 22 87 3c a4 3d e9 bd ca e4 86 bd
       0.1849221 0.016495766 -0.1138871 -0.06586607
000080 e5 61 08 bd ed 89 c6 3d 2c 78 bb 3d a7 2e f3 bc
       -0.033296485 0.09694276 0.0915378 -0.029685332
000090 27 bb f9 3d 8b b4 15 3c 47 5a 53 bc ef 56 a4 bc
       0.121938996 0.009137283 -0.012899942 -0.020060984

model.rnn.weight_ih_l0 f4 [160, 37]
000000 7c f0 ab 3b dc dc 1e 3e 7b 94 9e 3d fa ac 01 3e
       0.005247174 0.15513939 0.07743164 0.12663642
000010 71 46 a7 3c ac fa 44 3e 34 04 1e bc 15 5e 27 3d
       0.020419331 0.19236249 -0.009644557 0.040861208
000020 1c 5f e4 bd 49 4d 19 3e 78 5a 93 bd de f8 e1 bd
       -0.11150953 0.14970888 -0.0719499 -0.11033796
000030 ca 74 8d 3d 69 6d 14 3d 3c e6 f4 bc 1c 01 d3 bd
       0.06907041 0.036237154 -0.02989494 -0.10302946
000040 88 89 f1 39 fc 86 34 bd 99 02 c8 3d 05 f6 e6 bd
       0.0004606957 -0.044074044 0.097661205 -0.11277393
000050 03 23 cb 3d b8 30 d1 bd 65 61 44 3d 3b 71 16 bd
       0.09918787 -0.102143705 0.047944445 -0.03672908
000060 09 f0 02 3e a9 7e 00 3e be 67 48 bd 50 a8 be 3d
       0.12786879 0.12548317 -0.04892706 0.09309447
000070 71 02 13 bc cb 52 a8 bd 8e a4 00 3c 5c a7 ff bd
       -0.00897275 -0.082189165 0.007851733 -0.12483093
000080 2f 9b 5f 3d 90 66 9c bd b4 bc c8 bd 7e 33 77 3c
       0.054591354 -0.0763675 -0.09801617 0.01508796
000090 0d 4c ea bc 40 a9 cb 3c 39 00 01 3e 98 8b 2d 3d
       -0.028600717 0.024860978 0.12597741 0.042369455
0000a0 14 05 52 bd 2f f0 0e 3e 09 16 9e bd 6c dd bf bd
       -0.051274374 0.1395881 -0.077190466 -0.09368405
0000b0 ad 26 ba bd c7 e9 11 3d ec 41 01 be 20 de 4b bc
       -0.09089408 0.035623338 -0.12622803 -0.012443095
0000c0 e5 bb 2b 3e 23 a7 b0 3d af aa 9a 3d 73 a0 2e 3e
       0.16770895 0.08625629 0.075520866 0.17053394
0000d0 fe a2 cb bd 69 8d d8 3d 76 91 27 bc f2 75 4c bc
       -0.09943198 0.10573847 -0.010227552 -0.012479292
0000e0 0e 2e 80 bd 62 6e 18 3e aa a9 40 bd 83 41 a7 ba
       -0.06258784 0.14885858 -0.047036804 -0.0012760613
0000f0 79 eb 83 3d dc fa 0b bd 17 36 6e bd c0 ec 65 bd
       0.06441397 -0.034174785 -0.058157053 -0.056133986
000100 36 91 3d 3d 9b dc ab 3d 32 e2 9f bd c1 3c 7b 3b
       0.046281062 0.083916865 -0.07806815 0.0038335773
000110 ed f1 28 3d 95 88 14 3d 33 18 48 3d 23 fb 0f 3e
       0.041246343 0.036263067 0.048851203 0.14060645
000120 9b 0c ce bd 36 9a ff bd 31 0f 46 3e 5c 90 86 bd
       -0.10060998 -0.12480585 0.19341733 -0.06570503
000130 cc 5c 39 3e 29 4d 2d 3e eb e0 36 3e 6c bb aa 3c
       0.18101805 0.16923966 0.17859237 0.020841323
000140 90 c1 48 bd a8 67 0e 3e 3c f5 f1 3c 0d 8e 59 bd
       -0.04901272 0.13906729 0.029535882 -0.053113986
000150 f1 31 8b 3c fe 77 22 3e 0e 03 51 3e 7c 9c 88 3d
       0.016991587 0.15866086 0.20411322 0.06670472
000160 aa 57 d3 3d ec fa bf bc ea 7b 47 3d 69 69 c4 3d
       0.10319455 -0.023435079 0.048702158 0.09590418
000170 13 07 99 3d 48 b9 13 3e 62 6f 0e bd f1 4d e6 bd
       0.074720524 0.14426148 -0.03477419 -0.11245335
000180 59 5a 12 bd e6 da 8c 3d f3 08 a8 bd f5 bf c1 3b
       -0.035730693 0.06877689 -0.08204832 0.0059127756
000190 c1 7c 9f bd 05 7d 54 3d d4 6c 72 3c 8f 96 dd bc
       -0.07787467 0.05187704 0.014796454 -0.027049331
0001a0 b5 0f 40 bd dd 47 72 bd b5 85 46 be d7 54 cd 3d
       -0.04688998 -0.059150565 -0.19386943 0.100259475
0001b0 69 11 85 bd f6 bf 92 bd 32 8f 1f 3e e8 31 68 3d
       -0.06497461 -0.0716552 0.15581968 0.05668822
0001c0 be 32 1f bc 5e 2c 9f 3d d0 76 10 b9 e7 e5 1f bd
       -0.009716688 0.07772134 -0.00013777171 -0.03903761
0001d0 65 17 86 3c e5 f1 8c bd bf c5 26 3e f1 d3 1e 3e
       0.016368577 -0.06882075 0.16286372 0.15510537
0001e0 99 e4 38 3d 11 42 50 3d 50 8e d3 3a cb f5 d0 3d
       0.045139883 0.050844256 0.0016140435 0.10203131
0001f0 0e f7 66 3c 62 55 39 3c a9 83 f9 bd 5a 5f 06 3d
       0.014096988 0.011311861 -0.12183315 0.032805778
000200 d2 a6 1e bb e0 ae e3 bd 66 bd 5f bd 56 ec 3b ba
       -0.002420832 -0.11117339 -0.054623984 -0.00071687007
000210 ab d5 f3 bc 61 8a b6 3d 9f 52 b4 3d 62 c1 a2 3d
       -0.02976497 0.089131124 0.08804821 0.07947041
000220 96 a5 a6 3d b3 a4 7b bd 2d ff 0e 3e 38 05 10 3d
       0.08137052 -0.061436366 0.1396453 0.035161227
000230 71 aa f3 3d 1e 42 2a 3e 12 cd 0b 3e 0b a5 b7 3d
       0.118977435 0.16626784 0.13652447 0.08967026
000240 2a 58 97 bd 25 cb 34 bd 45 6f 58 3d 36 62 53 bd
       -0.07389863 -0.044139046 0.05284049 -0.051607333
000250 19 ef b2 bd 71 f7 11 3d 94 14 39 3d 69 dd 4b 3d
       -0.087370105 0.03563637 0.04518564 0.0497717
000260 71 af f4 3d bb 58 37 3e 7c c2 40 3e 01 8f bd 3d
       0.11947525 0.17904942 0.1882419 0.092557915
000270 2c 3a 1c bd b8 e6 03 3e 77 05 6b bd e1 78 89 3d
       -0.038141415 0.12880981 -0.05737826 0.06712509
000280 bf ac 59 bc 98 5c ab 3d 93 54 c3 3c d8 56 05 3e
       -0.013285815 0.0836727 0.023844039 0.1302141
000290 03 b0 06 3d 79 3c 02 3e 78 22 c9 bd 3c 95 cb bb
       0.0328827 0.12718381 -0.098210275 -0.0062128585
0002a0 95 5c 10 3e 39 23 a0 bc b6 ed c7 3b 76 43 d5 bd
       0.14097817 -0.019548045 0.0061013354 -0.10413258
0002b0 67 5a ca bd 1c 3d 02 3e 57 17 0a 3d 3c 02 20 bd
       -0.09880524 0.12718624 0.033713665 -0.03906463
0002c0 0f 33 9c bd 06 ea a1 3c f0 13 da bd 4c f4 fc 3d
       -0.07626926 0.019764911 -0.10648334 0.123512834
0002d0 ed bb f3 3d f9 c8 ce bd d8 4a 12 be 99 7a 88 bd
       0.119010784 -0.10096926 -0.14286363 -0.06664009
0002e0 f0 9a 83 3d 25 94 85 bd 85 74 d0 bd 05 f9 33 3e
       0.06426036 -0.06522397 -0.10178474 0.17575462
0002f0 88 ed c9 bc db d9 0b 3e 10 6e 1e 3e 80 2d 47 3e
       -0.024649397 0.13657324 0.15471673 0.1945095
000300 17 95 32 3d 86 c7 17 3e 41 b5 b7 bd de 7b 04 3e
       0.043599214 0.14822206 -0.08970118 0.12937877
000310 36 2c f2 3d 3b 0a 14 bd da 8c 95 bc 1f 48 8c 3d
       0.11824839 -0.03614257 -0.01825564 0.068496935
000320 e8 7d 42 3e b4 cb 34 3e 16 af 32 bd ce 4b df 3d
       0.18993342 0.17655832 -0.043624006 0.109031305
000330 4b f9 b3 bd 51 71 8a 3d 37 aa 92 bc 3a 5a 55 3d
       -0.08787783 0.06759895 -0.01790343 0.052088
000340 e8 e8 cc 3d 9d 1f ad bd e9 c2 d9 3d b9 ee 07 be
       0.10005361 -0.084532954 0.10632879 -0.13274659
000350 05 c0 a2 3c d7 20 de 3c 29 95 0c 3d 75 b8 ca 3d
       0.019866953 0.027115269 0.034321938 0.09898464
000360 15 27 be 3d 36 bd 28 3c 6e 46 06 3e 47 f4 bc bd
       0.09284798 0.010299018 0.13112804 -0.0922628
000370 a0 ad cf 3c a5 a9 fa 3d ad 4c 3b bd 1a a9 ea bc
       0.025351346 0.122393884 -0.04572742 -0.028645087
000380 0b 25 df bd 3f fb 45 3d 43 d7 9d 3d b6 6f 31 bd
       -0.10895737 0.04833531 0.077070735 -0.043319426
000390 fc 35 c8 bb 72 bc 9c 3d 89 eb a7 bd e7 f0 bb 3c
       -0.006109951 0.076531306 -0.08199222 0.02294202
0003a0 ca 5e dc bc 7a 4a 29 be 19 1f 1d bd 20 c0 0d bc
       -0.026900668 -0.16532317 -0.038359735 -0.008651763
0003b0 d1 38 0e 3e 1d 19 81 3d ac 41 b8 3d 49 17 ba bc
       0.13888861 0.06303618 0.08996901 -0.022716181
0003c0 8b d0 96 3d c5 6b 15 bd 7c 95 9c bd 0c d1 d0 bd
       0.07363995 -0.03647973 -0.076456994 -0.101961225
0003d0 3f 38 a4 3c 8d 0b 9c bc 67 ea 71 3d 2a cc dd 3d
       0.020046351 -0.019048477 0.059061434 0.10829957
0003e0 06 c7 83 bd 44 4b f7 bd 3e 2a 4a 3d 2a b0 96 bc
       -0.06434445 -0.12074903 0.04935669 -0.018394548
0003f0 a0 4e 73 bc c8 39 03 3e 02 85 90 3d cf 42 b1 3d
       -0.014850289 0.1281501 0.07056619 0.08655321

model.rnn.weight_hh_l0 f4 [160, 40]
000000 74 12 d5 3d 77 1d 4a 3d 9c fb cf bd 2f de cb bd
       0.1040391 0.049344506 -0.101554126 -0.099544875
000010 4a 81 53 3d ab c5 00 be cd c8 01 3e c9 cd e0 3d
       0.05163697 -0.12575404 0.12674256 0.109767504
000020 7c cb 8f bd 36 c0 13 3d d8 03 ff 3d b7 e0 a4 bd
       -0.070212334 0.03607198 0.12451905 -0.080506735
000030 61 f0 6c bd ca 19 c5 3b ef a5 b0 bd 9e d8 24 bd
       -0.05784643 0.006015037 -0.08625399 -0.040245645
000040 4f 49 ca bc 2f cf b6 3c 03 b0 69 bc f9 95 fa bd
       -0.02469316 0.02231559 -0.014263156 -0.12235636
000050 fc ab 3f 3d 19 1d f3 bd d7 0b f5 bd 95 89 7f bd
       0.046794876 -0.11870784 -0.11965149 -0.062387068
000060 99 9d ac bc 82 fb 0d be d1 18 cd bd 0f 5c dc bc
       -0.021071242 -0.13865474 -0.10014499 -0.026899366
000070 c8 53 3b 3c 79 6c f1 3d 16 09 92 3c bc ba 67 3d
       0.011433549 0.11788268 0.017826598 0.05657457
000080 52 bc dd 3d 44 f0 0d 3d ab 67 ee 3d 60 40 70 3c
       0.10826935 0.034652963 0.11640867 0.014663786
000090 54 d9 92 bc 22 f1 75 bd 3e 43 dd bd 17 61 3c 3c
       -0.017925896 -0.060044415 -0.10803841 0.011497757
0000a0 30 b2 17 be 79 b2 08 3e 54 79 be 3c 98 49 6e bc
       -0.14814067 0.13349332 0.023251213 -0.014543913
0000b0 19 e0 11 3e 2d a8 4d 3d ac 6c 04 be 4a 51 6a bc
       0.14245643 0.050209213 -0.1293208 -0.014301607
0000c0 25 5f 8f bc 95 7d 05 be ce 45 54 ba c6 2c b1 3b
       -0.017501423 -0.13036187 -0.000809756 0.0054069487
0000d0 3c 79 96 bd 66 c3 16 3e 8c ca d9 bb 7a ac f7 3c
       -0.07347342 0.14722976 -0.00664646 0.03023361
0000e0 40 34 e5 bd 26 12 af bd 22 aa 61 3d 77 51 bc 3d
       -0.111916065 -0.085483834 0.055093892 0.09195226
0000f0 46 13 b5 3d a1 a3 fb bd 94 50 53 3d c0 a1 95 3c
       0.08841567 -0.12287069 0.051590517 0.018265605
000100 41 6d b1 bd 8c de 27 bd 95 80 c4 bc 98 38 a0 bc
       -0.08663417 -0.04098372 -0.023987094 -0.019558236
000110 b8 4c 23 bd 68 46 9c bc 0a 40 56 bd 57 cf ac bd
       -0.039868087 -0.019076541 -0.052307166 -0.084379844
000120 97 e0 24 3d 10 92 a0 3d 5d 15 c7 3c 8a 00 61 bd
       0.040253248 0.07840359 0.024302179 -0.054932155
000130 2f 49 19 bd 63 3c 28 bd fa a5 3b bc 94 53 a4 3d
       -0.03742331 -0.041073214 -0.011453146 0.08023754
000140 25 72 83 bd 67 dd b3 bd e6 18 be 3d 65 28 ab bd
       -0.06418256 -0.087824635 0.09282093 -0.08357314
000150 43 94 e9 3d 83 2e f0 bd cb e8 00 bd 1c 69 a6 3d
       0.11405232 -0.117276214 -0.03147201 0.08125517
000160 95 d4 0d 3e 87 fd f4 bd a2 99 ee bb 21 4f f7 3c
       0.13850625 -0.11962419 -0.007281498 0.030189099
000170 65 6c 5b bd 66 86 97 bd f4 27 0d be 92 ee 59 3d
       -0.05357017 -0.07398681 -0.13784772 0.053206034
000180 1e 3c ea bb bd 9b 97 bd 91 19 bf 3d 1c b5 06 bd
       -0.00714828 -0.074027516 0.09331048 -0.032887563
000190 09 80 15 be 8e df 95 bd 1c ee dd 3d 50 74 08 bc
       -0.14599623 -0.0731803 0.108364314 -0.008328512
0001a0 6d de 43 bd c5 3f 4f bd dd d4 ac 3d d2 29 d0 3d
       -0.047819544 -0.050597925 0.08439038 0.101642266
0001b0 f6 86 92 3d 08 a0 b6 3d 4a d4 d6 3d 49 9e 91 bb
       0.07154648 0.08917242 0.1048971 -0.004443918
0001c0 68 ff 7e bd 92 c4 0c bd a9 e5 54 bd 0f ec f8 bc
       -0.062255293 -0.03436715 -0.051976833 -0.030385999
0001d0 85 49 b1 3b e0 b1 13 bd 74 68 0d be 6e 87 52 3c
       0.0054103755 -0.036058307 -0.13809377 0.012849672
0001e0 0e ac f5 3c 31 b3 2c bd dd 2f 79 bd 1d 10 3e 3d
       0.029989269 -0.042163078 -0.06083666 0.046402086
0001f0 08 0f ca 3d 41 a3 90 bd 05 96 68 bc e1 6f c2 3c
       0.09866148 -0.07062388 -0.014195924 0.023734989
000200 f9 29 ec bd c7 41 03 be 82 bd 85 ba 3f 7a cd 3c
       -0.11531443 -0.12818061 -0.0010203572 0.025082706
000210 a7 6c 07 3e f9 21 85 bd 46 40 19 be 97 37 9a bb
       0.13225041 -0.065006204 -0.14965925 -0.004706334
000220 fe 80 64 3d e7 ff 13 be ca 6e 06 be 3a bb ff 3d
       0.05578708 -0.14453088 -0.131282 0.124868825
000230 88 59 0e be 0a bb c5 3d 16 ed ba 3d a7 36 df 3d
       -0.13901341 0.096548155 0.09127252 0.10899096
000240 c4 71 7f 3d ad 81 ae bc 75 a0 77 bc 72 0d b0 3b
       0.062364355 -0.021302069 -0.0151139395 0.0053726966
000250 71 cb 77 bc ef d8 a8 bd ec 9d 9c bd 56 c6 a0 bd
       -0.015124188 -0.08244502 -0.07647309 -0.078503296
000260 00 92 02 3e 39 33 ce bd 4a 78 df 3c 1e b2 9c 3d
       0.12751007 -0.10068364 0.027279038 0.07651161
000270 45 a1 80 bb 05 3b df 3d a9 eb cc 3d d4 3c 18 be
       -0.003925475 0.10899929 0.10005886 -0.14866954
000280 59 29 16 3e e8 31 47 3d e8 a6 89 bd 86 40 a7 bd
       0.1466421 0.04863158 -0.06721288 -0.08166604
000290 3b 85 ae 3d d2 fe d7 3d 80 ef df bd a0 f5 31 bb
       0.085215054 0.1054665 -0.10934353 -0.002715446
0002a0 ec f4 91 3d 4b f7 c5 3d 0b 11 f1 bd 18 c9 a9 3c
       0.07126793 0.09666308 -0.11770829 0.020725772
0002b0 6e ef da bc 1b dd a5 bd 56 4d 09 be 60 c6 8a bc
       -0.026725497 -0.08098813 -0.13408408 -0.016940296
0002c0 5e 0b d7 3d 8d 9e 84 bd 55 9a b3 3d 1e f9 d8 bd
       0.10500215 -0.06475554 0.08769671 -0.1059439
0002d0 f4 46 4a 3d 18 80 8e bd 03 3a 12 3e 26 78 5e bd
       0.049384072 -0.06958026 0.14279942 -0.0543138
0002e0 cc 61 aa 3c 01 65 0e 3e 8b 10 a9 bd c3 f6 0f 3e
       0.020798586 0.13905717 -0.082551084 0.14058976
0002f0 e6 9d 99 bd 75 73 a1 3c 8f eb 7e 3d fa 06 96 3c
       -0.0750082 0.019708375 0.062236365 0.018313874
000300 4e 3c 0c 3e ff e7 c9 3b 66 e3 86 3d 5a f7 90 bd
       0.1369488 0.0061616893 0.065863416 -0.070784286
000310 70 aa c8 bc 74 21 43 3d fd 88 ec 3d 29 06 dd 3d
       -0.024495333 0.047639325 0.11549566 0.107921906
000320 8c 18 16 3e 6a 87 b0 bd b1 c2 8b bd 1b a1 ed 3c
       0.14657801 -0.08619578 -0.06824244 0.029007485
000330 ef 27 87 3b 05 c7 b7 3d 88 55 cf bd b3 47 19 3e
       0.0041246335 0.08973507 -0.10123736 0.14968757
000340 7f e0 10 3e a0 a6 09 3e 7b 61 4e 3d c0 42 c5 bd
       0.14148138 0.13442469 0.050385933 -0.09631872
000350 11 7a 52 3d 08 cb 3d 3c a4 d0 0e be 9c 2c 89 bc
       0.051385943 0.011584051 -0.13946778 -0.016744904
000360 fc f1 4e bc 0a 9f e9 bb 95 ab 88 3d 5f d9 fb 3d
       -0.012630936 -0.0071295546 0.06673352 0.122973196
000370 2c c5 cd 3d 46 2e 65 bd e1 93 e1 bc 2b 83 83 3c
       0.10047373 -0.055952333 -0.027536334 0.016053757
000380 17 d5 3e bd d5 e5 9d bd ae 8f 9b 3d 1a 99 c6 bd
       -0.046589937 -0.077098526 0.07595764 -0.096971706
000390 58 01 12 3d dd c6 55 3d e1 32 d9 3c 6a 9b c1 bd
       0.035645813 0.052191604 0.026513519 -0.09453471
0003a0 66 9f c0 3d 2d 12 06 be 7b af 83 3d bb de 16 be
       0.09405403 -0.13092871 0.064299546 -0.14733402
0003b0 7d bf 81 3d f3 03 26 bd cf 34 bf bc 64 8d 8c 3d
       0.063353516 -0.04053111 -0.02334061 0.068629056
0003c0 27 0a d4 bd ed 7e b1 bd 7c 85 e6 3d f9 bd b7 bd
       -0.10353499 -0.08666787 0.11255929 -0.08971781
0003d0 d5 50 cb bd f5 f0 cf bc 8a 5d 06 be dc c4 e4 3d
       -0.09927527 -0.025383452 -0.1312162 0.111703604
0003e0 2e 64 48 bd 26 bc d1 3d 53 fb b7 3d 51 e4 34 bd
       -0.048923664 0.102409646 0.08983483 -0.044163052
0003f0 e3 15 d1 bc 8b da 8c 3c 9a 2a 12 be 78 d7 48 bc
       -0.025523132 0.017194053 -0.14274064 -0.012258403

model.rnn.bias_ih_l0 f4 [160]
000000 e2 09 1d 3c 5b 1f 9a 3d 22 80 35 3d d6 57 9b bd
       0.009584876 0.07525512 0.04431165 -0.07585113
000010 f6 49 61 bd 3b 97 3b 3d b3 bf c9 3d d8 19 e6 bd
       -0.055002175 0.04579852 0.09851017 -0.11235398
000020 45 be 51 bd ac 3f ac 3d ae 5f 07 3e 79 3e 7f 3d
       -0.051206846 0.08410582 0.13220093 0.062315438
000030 04 1a 2d 3e 50 af 15 3e a3 b9 b7 bd f2 d7 bb 3d
       0.16904455 0.14617658 -0.08970954 0.09172048
000040 89 23 5d 3d 8f ca f9 bd cd 35 d1 3d 28 93 1f 3e
       0.053988967 -0.12196838 0.1021534 0.1558348
000050 8d 6b 27 3d 9d 69 ae bd af b6 d0 bc d5 5f c1 bd
       0.040874053 -0.08516238 -0.025477735 -0.09442107
000060 20 44 1a 3b 65 77 63 3d 57 83 22 3d 98 b3 8f 3b
       0.002353914 0.055533785 0.039676037 0.004385423
000070 d5 f0 01 3e 6a e9 d0 3d e8 f0 1b be dd 88 1d 3e
       0.12689526 0.1020077 -0.15228617 0.1538424
000080 c1 18 a9 bd d6 40 92 bd 5b ef 26 be 33 93 0e bc
       -0.082566746 -0.07141273 -0.16302244 -0.008702087
000090 9d 36 96 3d eb 2d 13 be 64 2f fd 3d 9c 09 8a 3d
       0.073346354 -0.14372985 0.12362555 0.06740114
0000a0 4f eb 36 bd e6 d7 af 3b b9 42 fb 3d 6a d3 e1 3d
       -0.044658 0.0053663133 0.12268586 0.11026652
0000b0 dd eb e6 3d c7 e0 ba 3d cd 28 c5 3d f8 fe 96 3d
       0.11275456 0.09124904 0.09626923 0.0737285
0000c0 6b 7a ce bd 5c 87 63 bd 04 a7 06 3e f8 4d aa bd
       -0.10081943 -0.05554901 0.13149649 -0.083156526
0000d0 3e 8e d8 bd 6f 84 fa 3c 99 fd d7 3d 2f 50 52 3d
       -0.105740055 0.030580727 0.10546417 0.051346
0000e0 11 15 3b 3d 3c 7b 0c bd 8c d7 22 3d dd 3e 19 be
       0.045674387 -0.034297213 0.039756343 -0.14965387
0000f0 02 89 b2 3d 31 0d e1 bd 2c 12 02 be f9 1d 19 3e
       0.087175384 -0.10988844 -0.12702245 0.1495284
000100 88 52 11 bb 90 3a db 3d 65 86 a5 3d 9e 02 72 3d
       -0.0022174437 0.10704529 0.08082274 0.059084527
000110 c6 23 94 bc 6f 2e cf 3d 16 0d 09 3e 8c 12 7a bd
       -0.018083464 0.101162784 0.13383898 -0.061052844
000120 0d dc f3 3d 90 2e b6 3d cf 1a b6 3b ab 27 ca bd
       0.11907206 0.088956 0.005557395 -0.09870847
000130 8b cc e2 3d 84 f2 a0 bd 6e 01 b4 bc 1a e5 07 bd
       0.1107417 -0.07858756 -0.021973338 -0.033177473
000140 d2 1a 3b bc b9 be 01 3d 5c 85 1d 3d af ba bf 3c
       -0.011419969 0.031676028 0.03845726 0.023404447
000150 a0 7a 51 bd 52 6e 29 3e 73 96 22 be 2f 07 11 be
       -0.051142335 0.1654599 -0.15877704 -0.14162897
000160 83 7c 2a be f4 be 51 be 88 fe 67 3d a0 2c 85 bd
       -0.1664906 -0.20482999 0.056639224 -0.06502652
000170 f1 c0 34 be 0c 80 fc 3d 00 ae cb 3d 41 ab 95 bd
       -0.17651726 0.123291105 0.09945297 -0.07308055
000180 fb dd 2e be 9a 34 b7 bd 8d 47 df 3d 66 d8 12 be
       -0.17076866 -0.0894558 0.10902319 -0.14340362
000190 6d 6b 4b 39 1d 1a a5 3d 14 49 c3 bd 23 b8 86 bc
       0.00019399608 0.08061621 -0.09535423 -0.016445225
0001a0 ce 65 ea bd c8 73 22 bc 70 b6 44 be 5e 8b d9 bd
       -0.11445199 -0.0099153 -0.1921022 -0.10622285
0001b0 30 45 ff 3c 4e d6 6e bd f0 a4 8b bd 64 d4 9f 3d
       0.03116092 -0.058309846 -0.06818569 0.07804182
0001c0 e8 ac 8e bd db 39 94 bc df 8d 2b be ec e6 17 bd
       -0.06966573 -0.018093994 -0.16753338 -0.03708546
0001d0 95 d5 09 bd c5 f1 04 3e f8 23 84 3d 75 e9 1c 3c
       -0.033650953 0.12982853 0.06452173 0.009577145
0001e0 5c b8 d6 bd fe 44 92 bd 20 6b 91 3d 0c f4 eb bc
       -0.104843825 -0.071420655 0.071005106 -0.028802894
0001f0 9e 45 d1 3d 16 1a ce 3c a1 23 56 bd 3c 36 46 bd
       0.102183565 0.025158923 -0.052280072 -0.048391566
000200 70 ec 38 3e ee bc f1 3d 9f ce a8 bc 76 2e a6 3c
       0.18058944 0.118036136 -0.020606337 0.020285826
000210 4b 68 af 3d 6c 75 da 3d 35 00 a8 bd 65 d5 bc bd
       0.08564814 0.10666928 -0.082031645 -0.09220389
000220 77 fa ab bd f0 81 92 3d 02 da 09 bd 14 a7 ec 3d
       -0.08397382 0.0715369 -0.033655174 0.11555305
000230 7d a7 a8 bc b5 c3 29 3e 7b 3f c1 bd 71 64 03 3d
       -0.020587677 0.16578563 -0.09435936 0.03207821
000240 6c 03 06 3e 66 b6 8c bc 35 dd 0d bd 64 29 10 3e
       0.13087243 -0.017176818 -0.034634788 0.1407829
000250 2b d7 9c bd b5 10 a1 3d 47 ae f9 bd 38 a3 04 3d
       -0.076582275 0.07864515 -0.12191444 0.03238222
000260 1f f1 b3 bd e3 8a 34 bd 84 6c 1c 3d 9e b8 f9 bc
       -0.087862246 -0.044077765 0.038189426 -0.03048354
000270 91 61 25 bd 26 f3 da bd 45 83 ed 3d f1 3b 12 be
       -0.04037625 -0.10690908 0.11597303 -0.14280678

model.rnn.bias_hh_l0 f4 [160]
000000 00 43 a3 3d 87 3c b3 3d 57 7c 62 bd 2e 86 d2 bd
       0.079717636 0.08751779 -0.05529436 -0.10279499
000010 06 d1 0d bd a6 e2 43 3e 87 e2 fb bb 1c 08 86 3c
       -0.03462317 0.19129428 -0.0076869163 0.016361289
000020 96 04 eb 3d 9e 3a 9f 3d 76 b0 28 3e 06 72 37 3e
       0.11475484 0.07774852 0.16473565 0.1791459
000030 0b b4 8c bd 95 8e d4 3d f9 c9 b9 bb 7e 0b 01 3d
       -0.06870278 0.10378758 -0.005669829 0.0315051
000040 0c d6 c3 bd a7 a4 4c bd 71 da 22 3e ff de c6 3c
       -0.095623106 -0.049961712 0.15903641 0.024276255
000050 21 8d 05 be 17 e5 d9 3d d6 5e 1b 3e 78 9c 93 bd
       -0.13042118 0.106393985 0.15172896 -0.072075784
000060 fe a3 08 3d 77 09 44 3d 63 36 ef 3d c4 64 87 bd
       0.03335952 0.04786059 0.11680295 -0.066110164
000070 7a 49 6d bd 67 20 0a be e0 54 c3 3c 24 dc 29 bd
       -0.0579314 -0.13488923 0.023844182 -0.041469708
000080 bd 72 de bd f9 db be bd 48 b3 de 3d 06 60 e8 3d
       -0.10861728 -0.093193 0.10874039 0.1134644
000090 47 6c b8 3b 67 90 9b bd 10 0f 97 bd 85 f6 6f 3d
       0.005628142 -0.07595902 -0.0737592 0.05858471
0000a0 79 7b c6 bd 12 62 de bd 2d ef d1 bc e9 2f 33 3c
       -0.09691519 -0.10858549 -0.025626743 0.010936716
0000b0 2d 3a 6e bd 96 2d fb 3d 5c d8 29 3d 97 1b c1 3d
       -0.05816095 0.12264554 0.041466102 0.094290905
0000c0 0d b5 79 3d b3 bb bd bd cb 70 18 be e5 9a 09 3e
       0.06096368 -0.092643164 -0.14886777 0.13437994
0000d0 05 1c d0 3c 3c 9a bc 3c 13 f6 6e 3d 2e 22 b9 bd
       0.025403986 0.023022763 0.058340143 -0.090397224
0000e0 83 ba 88 bc 24 7a 16 3d b0 d6 13 3d 65 1f b1 bd
       -0.016690498 0.036737576 0.036093414 -0.08648566
0000f0 e6 db 8d bc ff 0d c9 3b 97 53 31 3d 79 a0 94 bd
       -0.01731677 0.0061357017 0.043292608 -0.0725717
000100 a8 e3 f1 3d ad 72 88 3d 14 37 1a 3d b6 30 83 3d
       0.11811 0.06662498 0.037650183 0.06405775
000110 51 c5 9e 3c 31 95 03 be e2 70 b8 bd 91 33 e6 3d
       0.019381197 -0.12849881 -0.09005906 0.11240304
000120 4b 44 84 bd 1d 43 25 3d 59 1c d8 bd 91 81 6f 3d
       -0.06458338 0.040347207 -0.10552282 0.058473174
000130 e2 ea 0e bc 51 d0 11 3e ad 1f 56 3d 9f b5 11 3e
       -0.008722993 0.14239623 0.052276302 0.14229439
000140 08 85 1f be 6b 9f 59 3c 86 81 15 be d5 3e 16 3e
       -0.15578091 0.013282637 -0.1460019 0.14672406
000150 77 e6 b9 3c ef b3 8e 3d e2 d3 dc 3d 90 c9 c7 bd
       0.022692902 0.06967913 0.10782601 -0.09755242
000160 a1 28 bd bd 56 42 46 be 0d ba 26 3e 92 9d 2f 3d
       -0.09236265 -0.19361243 0.1628191 0.04287488
000170 65 08 b3 3d 9f 6d e7 bd bd 75 35 3e 6d 34 5d bc
       0.087418355 -0.113002054 0.17720695 -0.013501269
000180 8a 4d 88 3d 56 0a ee 3d 9d 24 27 3e 22 ea c3 3d
       0.066554144 0.11623065 0.1632256 0.09566142
000190 f4 d5 96 bd 22 d9 75 bb 9f 86 42 be 40 96 a9 3c
       -0.07365027 -0.0037513454 -0.18996666 0.020701528
0001a0 cb d0 ce bd c4 75 f4 bd 85 9f ec 3c 07 7f 11 3d
       -0.10098418 -0.119365245 0.028884659 0.035521533
0001b0 74 eb d6 3b ad e3 ea 3d 56 c6 d6 3d 20 ce d1 3c
       0.00655883 0.11469207 0.10487048 0.025610983
0001c0 fb 80 a9 bd dd 05 fd bc ca 89 f8 3d 35 49 6d 3c
       -0.08276554 -0.030886585 0.12135656 0.014482786
0001d0 ec b9 2f 3e 9f cf ba 3d ca 5b a9 3d bd ce aa bd
       0.17160767 0.09121632 0.082694605 -0.083402134
0001e0 f4 25 3b 3e fb f5 a4 bd 3b 67 54 3e 26 27 0d 3e
       0.18276197 -0.080547296 0.20742504 0.13784465
0001f0 22 91 f8 3b 08 22 ef 3d 4a 82 16 3d f4 27 af 3c
       0.0075856606 0.11676413 0.036745347 0.021381356
000200 f1 4f 12 bd b5 cd d3 bd d8 23 05 3e 9e b7 b3 3c
       -0.03572077 -0.1034197 0.13001955 0.021938141
000210 17 97 a1 3d cd 79 77 bd 48 c4 0e bd 55 5a fb 3d
       0.07890146 -0.060418893 -0.034855157 0.12273089
000220 59 54 db 3d 6b f7 40 3d 92 51 e2 bd c1 9c 38 3d
       0.107094474 0.047110956 -0.110507146 0.045071367
000230 0d 2c 0e be 18 b2 f4 bd 1a 29 09 3e 30 d8 89 bb
       -0.13883992 -0.11948031 0.13394585 -0.0042066798
000240 0c b7 e2 bc ec 72 07 3e ce a3 5c 3d b5 bc 47 3e
       -0.027675174 0.13227433 0.053867154 0.1950558
000250 cf 52 06 be 20 28 34 3e 8b 67 e6 3b c5 56 73 bd
       -0.13117526 0.17593431 0.0070313863 -0.05940892
000260 9c 45 1b be 14 e8 bf bd 52 bb af bd 29 b1 22 3e
       -0.15163273 -0.09370437 -0.085806504 0.15887894
000270 aa 90 03 be b4 4b ed bd 05 9e 1f bd df ab 76 bd
       -0.12848154 -0.11586705 -0.03896906 -0.060222503

model.rnn.weight_ih_l1 f4 [160, 40]
000000 af e5 02 be e2 17 17 3d 92 ef d1 bd b9 5b 95 bc
       -0.1278293 0.03688801 -0.102507725 -0.018232213
000010 a7 d3 17 be 7a 7d 27 3e cf bc 0e 3e c3 30 6f 3d
       -0.14826833 0.1635646 0.13939212 0.058396112
000020 28 73 ce bd d8 c3 48 bd b4 3f 09 3b a4 b4 67 3b
       -0.10080558 -0.049014896 0.002094251 0.0035355473
000030 98 64 8c bd f4 73 4f bd 68 6c 37 3e 6b c8 d6 bd
       -0.06855124 -0.05064769 0.17912447 -0.104874454
000040 92 0b dd bb 8d 29 24 3e 3f e3 b1 bd 13 ce 3d be
       -0.006745764 0.16031475 -0.08685922 -0.18535642
000050 46 93 ed bd 82 c0 c3 bd 79 b4 f0 bd d6 c9 c2 3d
       -0.11600356 -0.09558202 -0.117531724 0.095111534
000060 15 db 8e 3b 68 b5 98 3d 2e 05 4d 3d b4 81 17 be
       0.0043596127 0.074564755 0.050053768 -0.14795572
000070 73 f4 4d 3d 43 c6 c1 bd cb 00 ec bd 66 60 b6 bd
       0.050281953 -0.094616435 -0.11523589 -0.08905105
000080 de 9d 0c 3e fc a6 18 be 2c 90 1d 3e 20 7d 26 3e
       0.13732097 -0.1490745 0.15387028 0.16258669
000090 51 b9 9f bd 0e 7c cd bd b5 d0 b4 bd ea 8e c8 3c
       -0.07799018 -0.10033427 -0.0882887 0.02448221
0000a0 82 7a 39 be 84 80 33 be b6 1f 09 3c b8 46 16 3b
       -0.1811314 -0.17529494 0.008369377 0.0022930335
0000b0 ce 5c f9 bb 54 20 2c bc a9 ee a2 3d fd 48 85 3d
       -0.00760994 -0.0105057545 0.07955677 0.06508062
0000c0 2a 3c 8e bd 41 0c 05 3d 95 2d 4a 3d 93 52 c1 bd
       -0.06945069 0.03248239 0.049359877 -0.09439578
0000d0 b4 5e 2b be 45 ff cf 3d aa 5d a9 bc 61 0c ac 3d
       -0.16735345 0.10156111 -0.020674545 0.084007986
0000e0 c6 51 8a bc b1 6b 9f bb cf 2b cf 3d a7 e0 be 3d
       -0.016884696 -0.0048651327 0.10115778 0.09320193
0000f0 36 82 f5 b9 dd 01 d4 3d 02 1b 5e bd e2 a2 2e 3c
       -0.00046827056 0.10351918 -0.054224975 0.0106589515
000100 ad f0 37 bd 62 36 a4 bd 20 74 67 bc 23 c3 df 3d
       -0.04490726 -0.08018185 -0.014126807 0.10925891
000110 7d 0c 9f bd 7f 1a f8 3d be 2a 68 3d 4c e3 f8 3b
       -0.07766054 0.12114429 0.056681387 0.0075954553
000120 d8 31 81 bd 1e b3 4b bd 48 6d 91 bd c4 79 0a 3d
       -0.06308335 -0.049731366 -0.07100922 0.03380753
000130 ec ec 80 bc 1a 09 30 3c e6 ef 95 bd 04 5f 33 bb
       -0.015737973 0.0107443575 -0.073211476 -0.0027369866
000140 49 ac 0a 3c 36 d1 09 bd 48 2b 1c be b0 64 02 3e
       0.008463928 -0.033646785 -0.15250885 0.12733722
000150 b0 cc 41 3d 62 dd d6 bd d2 fe 96 3d 33 00 64 3d
       0.047314346 -0.10491444 0.07372822 0.055664252
000160 7d a0 12 bd 82 11 63 bd c5 29 e8 3d e4 b4 3b 3e
       -0.035797585 -0.05543662 0.11336092 0.18330723
000170 57 c1 43 be a4 c9 06 be 56 d3 53 bb a5 7a e0 3d
       -0.19116722 -0.13162857 -0.003232201 0.109608926
000180 e6 4c 0f bd 10 fe bd bd 6e 8a 17 3e 2f 12 df 3c
       -0.034985445 -0.09276974 0.147989 0.02723035
000190 08 5d 57 bd e7 6d d4 3c bb 02 7f 3c 54 c5 4a be
       -0.052578956 0.025931312 0.015564616 -0.19801837
0001a0 57 a9 86 bd 37 87 3d 3d db a8 b7 bd 6a 54 35 be
       -0.06575268 0.04627153 -0.089677535 -0.17707983
0001b0 88 28 bd bd 69 9d 7f 3d c6 ec 37 be 41 1c 03 3e
       -0.09236246 0.062405977 -0.17961416 0.12803747
0001c0 5c db 81 bd 99 96 a8 3b 71 89 26 bd 0d a6 00 bd
       -0.063406676 0.0051449058 -0.040658418 -0.03140836
0001d0 2c 00 f2 3d 24 52 53 3d 68 a8 27 be 29 6c 27 3e
       0.11816439 0.051592007 -0.16372836 0.16349854
0001e0 0a e8 04 bd 04 5d 3f be f8 f7 92 3d 69 2e 38 bc
       -0.032447852 -0.18687826 0.071762025 -0.011241534
0001f0 d9 00 1d bd 6c 0c 62 bb 73 6b 95 3d 15 f7 87 bd
       -0.038330887 -0.0034492267 0.07295885 -0.06638924
000200 6e ce 8a bd 72 c8 88 3d 85 d4 8c bd 89 eb 84 3d
       -0.067776546 0.06678857 -0.068764724 0.06490237
000210 a1 fe ab 3c 9c e9 6a 3d 7c 53 49 3d a6 e2 04 be
       0.02099544 0.057351694 0.049151883 -0.12977085
000220 c8 b6 a2 bc 71 85 7a bd fd cc 56 bd 52 72 af 3d
       -0.019862548 -0.061162416 -0.052441586 0.08566727
000230 e1 f6 c1 3d 73 6e a9 bd 84 0f 18 be 69 b2 2a be
       0.094709165 -0.0827302 -0.14849669 -0.1666962
000240 65 cb 91 3d 30 51 61 bd 41 2e e6 bd 70 72 1e 3d
       0.071188726 -0.055009067 -0.11239291 0.038683355
000250 a1 87 e4 3d e1 48 75 bd d8 8f 24 bd 90 0c 14 3e
       0.11158682 -0.059883956 -0.040176243 0.14457917
000260 c8 a1 ec 3d 3f 3d 2d bd 5a cf 4a bd b4 e3 56 bc
       0.11554295 -0.042294737 -0.049514152 -0.013115812
000270 de 02 e9 3d 82 2f f1 bd 5e ae 9b bd 67 cf c0 3d
       0.113775 -0.117766395 -0.07601617 0.09414559
000280 23 d1 94 bd fe 16 eb bd 36 b7 ec bd 9f 12 4b bd
       -0.07266452 -0.11478995 -0.11558382 -0.049578305
000290 af 80 fb 3c b4 9a 25 3e 94 80 af 3c 77 3e b0 3a
       0.03070101 0.16172296 0.021423616 0.001344635
0002a0 86 70 2d be 8d 8f 4a be cc d2 35 3e d3 2c 44 3e
       -0.16937456 -0.19781323 0.17756194 0.19157724
0002b0 35 25 a1 bc c7 69 fd bb 80 f6 b8 3c da 9d eb bd
       -0.019671062 -0.007733557 0.022578478 -0.11504717
0002c0 ae 41 33 bd ff 6a 3e bd 03 30 60 3d 08 36 2b be
       -0.04376381 -0.04648876 0.054733288 -0.1671983
0002d0 cd 91 17 3c 1f fc 0b 3d 69 38 22 bd df e0 5a 3d
       0.00925107 0.03417599 -0.03960458 0.05343711
0002e0 8a ab 0b be f2 ed 3d 3e ec 40 32 bd 98 af 81 bb
       -0.13639656 0.185478 -0.043518946 -0.0039577
0002f0 ef e0 45 3d 65 6e 56 3d ad 5f 83 bc 47 45 35 3e
       0.048310217 0.052351374 -0.016036833 0.17702208
000300 00 ff f0 3d ad f7 75 3d dc 1c fc bc b0 b8 1c bd
       0.117673874 0.060050655 -0.03077548 -0.03826207
000310 e0 3c f7 3d e3 65 d1 3d bd ee 07 3e 95 d2 1a 3e
       0.12072158 0.102245115 0.13274665 0.15119393
000320 4e 7b ea bd 02 b9 5d 3c b2 78 02 3e 52 0b b7 3c
       -0.114493 0.013532879 0.12741354 0.022344265
000330 5c 18 11 3e cf e1 6b 3d d3 a3 32 3d b9 c5 1e 3e
       0.14169449 0.057588395 0.043613266 0.15505113
000340 09 1f a2 bc c3 c3 ea bd 26 b9 74 bc a3 4a 98 bc
       -0.01979019 -0.1146312 -0.014936721 -0.018590277
000350 ac 77 18 3e 39 5a c5 3c 46 f1 33 be 4f 5e a9 3d
       0.14889401 0.024090873 -0.17572507 0.08269941
000360 d1 7c 00 bc c7 93 f0 bc 31 93 bd 3d 94 c3 92 bd
       -0.007842259 -0.02936734 0.0925659 -0.0716621
000370 c5 71 60 3d 6d 91 18 bd 62 e4 a1 3d 78 e2 a4 3c
       0.054796 -0.037248064 0.07904889 0.02012752
000380 78 54 c2 bd ec 2b 3d 3d c9 22 b2 3c 04 51 0c 3e
       -0.094887674 0.046184465 0.021745102 0.1370278
000390 ab 5a b9 3d b2 61 d4 bd 29 e6 70 3d 64 7b 33 be
       0.09050497 -0.103701964 0.058813248 -0.17527539
0003a0 45 b0 54 bc e6 fe 18 3e 98 8e b9 bc 7b bf 0f be
       -0.012981479 0.14940986 -0.022651002 -0.14037888
0003b0 e1 07 f8 bd db f2 26 3e 00 dc 06 3e 7f 6f 8e bd
       -0.12110878 0.1630358 0.13169861 -0.0695486
0003c0 a4 27 cf 3d 43 b4 c9 bc b5 62 3d bd 69 5a 84 bd
       0.10114983 -0.024622088 -0.046236712 -0.06462557
0003d0 ef fd 86 bd bc 01 6d 3a bf e3 fd 3d 75 04 2c bd
       -0.06591403 0.0009041091 0.12396955 -0.041996438
0003e0 85 ba 60 bc bb 50 81 3d 1e 73 18 3d 51 37 f0 3c
       -0.013716345 0.06314226 0.03721916 0.029323252
0003f0 b2 7b 06 be 99 26 bc 3c 64 21 96 3d 52 ca b3 bd
       -0.13133124 0.022967624 0.073305875 -0.08778824

model.rnn.weight_hh_l1 f4 [160, 40]
000000 4e 90 ce bc 60 d8 17 bd ad 52 c6 bd 92 fa 95 bc
       -0.025215294 -0.037071586 -0.09683738 -0.018307958
000010 b4 30 80 bd d3 29 8e 3d 43 86 e1 bd b6 ab ec bd
       -0.062592894 0.06941571 -0.110119365 -0.11556189
000020 6b 1c 9f 3c 8a 39 f2 bc d2 bf d0 bd 0d fc 18 be
       0.01942273 -0.029568452 -0.10192837 -0.149399
000030 6b 04 0e 3e 51 a9 aa bd a7 73 43 3d 82 cc e7 3d
       0.13868873 -0.08333076 0.047717717 0.11318304
000040 6b a2 91 bd 1d e8 85 bd ac 75 46 bd d6 6e c8 3d
       -0.07111057 -0.06538413 -0.048452064 0.09786765
000050 25 c6 ec 3c bd 88 0c 3e 38 bf 25 3d b6 6e f2 3d
       0.028903076 0.13724037 0.040465564 0.11837523
000060 39 a9 2a bd b8 eb 92 bc ba f4 08 be 30 93 81 3d
       -0.04166529 -0.017934665 -0.13374606 0.06326902
000070 a6 c6 93 bb e0 9a 17 3d c3 84 47 bc 24 a2 13 3e
       -0.0045097647 0.037012935 -0.012177649 0.1441732
000080 b1 3e 6f bd 33 fb 01 3e f3 ab a7 3b 39 4b bd bd
       -0.058409397 0.12693481 0.0051169335 -0.09242863
000090 c3 20 08 bd 07 58 fb bd 27 c2 07 bd 6d bc eb 3d
       -0.03323437 -0.12272649 -0.033144142 0.11510549
0000a0 b9 96 d2 bc 78 5e 0a be db d6 92 3d 1a b3 e8 bc
       -0.025706636 -0.135126 0.07169887 -0.028405715
0000b0 4a c1 12 bc 34 f0 9b 3d 27 ae 02 3e ab d3 e8 3d
       -0.0089572165 0.076141745 0.12761746 0.113684975
0000c0 fd 72 0c 3e 61 d6 d9 3d 65 b6 b5 bd e3 47 b3 bd
       0.1371574 0.10636593 -0.088726796 -0.08753946
0000d0 c1 03 a0 bc 53 33 ee 3d 9e fb a0 bd 11 46 ce 3a
       -0.01953304 0.11630883 -0.07860492 0.0015737434
0000e0 21 29 b9 3c df 1a cf 3c 4c 98 08 be 12 95 04 be
       0.02260262 0.025281368 -0.13339347 -0.12947491
0000f0 9f 6f a4 bc d8 d4 a1 bb f9 33 38 bd 2f 71 ae bd
       -0.020072756 -0.004938703 -0.04497144 -0.08517682
000100 57 61 ca bd 27 ea bf 3d 32 e4 07 be 8a da 14 bd
       -0.09881847 0.09370833 -0.13270643 -0.036341228
000110 75 cf 9e bd 85 98 df 3c 00 7f c3 bc 2e e9 06 be
       -0.07754413 0.027294407 -0.02386427 -0.13174888
000120 cd 12 ef 3d 0d 7b 10 3d 2b d4 9b bd ee c5 6e 3d
       0.11673508 0.0352736 -0.07608827 0.05829423
000130 0f d7 c0 3c 9c 04 0b be 40 d0 ee bd 47 9a d7 3b
       0.023540048 -0.13575977 -0.11660814 0.0065796706
000140 93 75 ee 3c c4 af ea 3d 90 87 18 3e 93 76 b3 3d
       0.029108798 0.11459306 0.14895463 0.087628506
000150 23 c8 ed bd ba c9 a6 3d be 86 16 be c8 16 a8 bd
       -0.11610439 0.08143945 -0.14699838 -0.0820747
000160 2c 57 ed bd 31 cc df 3d 25 61 fe bd a2 d9 e1 bd
       -0.11588892 0.10927618 -0.124208726 -0.11027838
000170 5c c7 90 bd 48 ba 99 3c d4 45 ba bd e7 72 bc 3d
       -0.07069275 0.018765584 -0.0909535 0.092016034
000180 8b b4 20 bd 50 db ab 3a d4 d6 c6 3d 46 8f a4 bd
       -0.03923468 0.0013111625 0.09708944 -0.0803514
000190 4e 8b 94 3c 5a 6c d1 3d a3 76 b1 bd 9b c4 8e 3d
       0.018132832 0.102257445 -0.08665206 0.06971093
0001a0 42 a4 18 3e 66 52 aa 3d 0b 38 a6 3d 6d 38 16 3e
       0.1490641 0.083164975 0.08116158 0.14669962
0001b0 0f 6d f2 bd 89 dd 66 bd 44 fc 9b 3d bf 37 c4 3c
       -0.118372075 -0.056363616 0.07616475 0.023952363
0001c0 6f 73 18 3e 0f ae 07 3e ed 5d 05 be a8 90 e5 3d
       0.14887784 0.13249992 -0.13024111 0.112092316
0001d0 fd d2 88 bd fc 41 73 bd 88 b3 c4 ba 3e bc 4f 3d
       -0.06680868 -0.0593891 -0.0015007118 0.05071663
0001e0 a0 44 7d bd aa 43 26 3c 30 88 ab bd 72 76 9b 3c
       -0.061833024 0.010147968 -0.08375585 0.018977378
0001f0 32 d2 15 3e 07 4b a3 3d e6 c2 01 3e 35 ee bd bb
       0.14630964 0.07973295 0.12672004 -0.0057962188
000200 9e 1c ab bc 63 64 a4 3d ca 55 06 bd 35 24 92 3d
       -0.02088767 0.0802696 -0.03279666 0.07135812
000210 4b 9c ef 3d d4 3f 12 3e 44 06 b1 3c 7e 69 85 3c
       0.116997324 0.14282161 0.021609433 0.016285654
000220 1d 0d 8f 3d 18 5b 10 3a 9f 6b 9a 3d 1a 17 b4 3d
       0.06984923 0.0005506738 0.07540058 0.08793469
000230 e9 fa ed bd 58 f1 e9 3b 28 1c 40 bc 04 47 a2 bd
       -0.11620123 0.007139366 -0.011725463 -0.079237014
000240 b7 d0 dc 3d d7 fc f7 bd 85 b8 a9 3d bf 7f 98 bc
       0.10781997 -0.12108772 0.082871474 -0.018615602
000250 e3 1a 1a be f6 c9 13 3e 72 5c 28 bc bc 03 5d 3d
       -0.15049319 0.1443251 -0.010275947 0.05395864
000260 6e 1a ff bd 0c 9e f2 bd c0 e2 ab 3d 5c da 67 ba
       -0.12456213 -0.11846551 0.083928585 -0.0008844489
000270 f6 02 8a 3d 59 47 b0 3c dd f4 b8 3d 50 62 05 be
       0.06738846 0.021518396 0.09031079 -0.13025784
000280 2a 69 07 3e eb a5 17 3e a7 b6 87 bd 44 db e3 bd
       0.1322371 0.14809386 -0.06626635 -0.11125806
000290 de c7 0d 3e 15 25 9e bd c7 db ae bc 1e 33 0b bd
       0.13845775 -0.077219166 -0.021345032 -0.033984296
0002a0 8c 6e 3e 3d 93 23 19 3d 7b ff b3 bd 98 59 8b bd
       0.046492144 0.03738744 -0.087889634 -0.06804198
0002b0 c2 f7 ee 3c 4a dd ff bd 7b b0 dd 3c 3a e1 f9 3d
       0.029170875 -0.124933794 0.027061692 0.12201162
0002c0 69 40 a8 3c 15 ab d0 3b 59 12 04 3d 65 03 12 3e
       0.020538526 0.006368051 0.03224406 0.14259107
0002d0 6d 0a b6 3d e3 74 40 bc 2e 86 e2 bd d0 39 52 bd
       0.08888707 -0.011746618 -0.11060749 -0.051324666
0002e0 98 57 de bd 9b 36 0b be e6 6a 6d bc 21 11 1c 3d
       -0.10856551 -0.13595049 -0.014490819 0.038102273
0002f0 44 c0 da 3c da ea 00 be a9 57 b6 bd a2 a5 b0 bd
       0.026703008 -0.12589589 -0.089034386 -0.08625342
000300 23 51 b4 3d 57 c3 61 3c 0e fd c3 bd 5a 3c c9 3c
       0.08804538 0.013779483 -0.09569751 0.02456491
000310 da 90 96 bd 1e d8 c0 bd 0f 68 fb 3d cc 96 bf 3d
       -0.07351847 -0.09416221 0.12275707 0.09354934
000320 f3 e9 05 3e ce 5e 98 3d 96 4e a4 3d 44 eb a4 bd
       0.13077526 0.074399576 0.080228016 -0.08052686
000330 08 29 35 3d 27 81 6c 3d 38 26 64 3d 7e 45 1a 3e
       0.044228584 0.057740357 0.05570051 0.15065572
000340 69 40 12 3e 2d ff 88 bd 50 05 96 bd df 62 19 be
       0.14282383 -0.06689296 -0.07325232 -0.14979123
000350 dc c1 4d 3d 7f b6 4a bd 65 aa ee 3d 23 b8 69 3d
       0.050233707 -0.049490448 0.11653594 0.057060372
000360 46 0c 35 bd 5b 57 15 3a b5 ed 7f 3c 8f 96 47 bd
       -0.044201158 0.0005696916 0.015620639 -0.04872757
000370 c2 28 2f 3d 0d ae b2 3b 7d 94 60 bd 9a 9d da bd
       0.04276348 0.0054528774 -0.05482911 -0.10674591
000380 c7 5d 31 bd 39 97 8d 3c 18 2a 47 3d 9d cc 24 3d
       -0.043302324 0.017284023 0.048624128 0.040234197
000390 17 53 2b bd 60 f4 df 3d 43 5c 00 3e 8d 74 6c 3c
       -0.041827288 0.10935283 0.12535195 0.014432085
0003a0 30 cf 05 bd ce 14 0f bd 3b b6 56 bd 8a a2 02 3e
       -0.032668293 -0.03493195 -0.052419882 0.12757316
0003b0 9c c9 79 bd aa a5 96 bd 64 cc a1 3d 97 f6 b5 3c
       -0.060983285 -0.07355817 0.079003125 0.02221231
0003c0 38 d9 1c bd 10 f5 0b be cb 4e 82 bd 9f 5a b6 3d
       -0.038293093 -0.13667703 -0.06362685 0.08904003
0003d0 aa 28 04 3e 5e b9 5a bd 64 af 15 be b1 92 01 be
       0.12906137 -0.053399436 -0.14617687 -0.12653615
0003e0 e2 bf 01 3c 4a 48 58 bd e3 34 2f 3c a0 75 14 3e
       0.007919284 -0.052803315 0.0106937615 0.14497995
0003f0 a5 b4 12 3e cd 09 11 be b1 98 19 be 61 4b 34 bd
       0.14326723 -0.14163895 -0.14999653 -0.0440172

model.rnn.bias_ih_l1 f4 [160]
000000 ea e8 09 3e 4e 6e b5 3d 95 83 8e 3d 00 4c f7 b8
       0.13467756 0.088589296 0.06958691 -0.00011792034
000010 a9 9a 48 3e b2 a7 bc 3d ef f9 9d 3b ef be 00 3e
       0.19590248 0.09211673 0.004821054 0.12572835
000020 49 9e 21 3d e8 44 8f bd 00 06 02 be 32 7d 04 be
       0.039457593 -0.06995565 -0.12697601 -0.12938383
000030 0f 25 50 bd a3 55 88 3d e0 6d c5 bd d7 22 aa bc
       -0.05081659 0.06656959 -0.096400976 -0.020768566
000040 31 7a c1 bd 16 4e dd 3d 1d de 1a 3e e4 26 bd 3d
       -0.09447134 0.10805909 0.15123792 0.092359334
000050 70 25 3a 3d 0e 14 65 3d 65 4f 87 3d fb af 02 3e
       0.04544586 0.05592733 0.0660694 0.12762444
000060 ee 5f af 3d 01 dc 3c bc 70 2d 57 bc 8e ea de bd
       0.08563219 -0.011527062 -0.013133392 -0.108845815
000070 c2 22 5d bd 07 ed 0b be ee 50 75 3c 86 7b 15 bd
       -0.053988226 -0.13664638 0.014972908 -0.036494754
000080 32 46 1a 3e fa 12 fb bc 5b b4 99 bd f3 a8 d4 3d
       0.1506584 -0.030648697 -0.07505103 0.10383787
000090 d0 80 91 3d 83 df 44 3b d1 3b f8 3c 85 19 5d bd
       0.07104647 0.003004045 0.03030196 -0.053979415
0000a0 cc 1b 01 3e 9b 2e 94 bd 48 2f 81 bd 40 f2 28 bd
       0.1260826 -0.07235452 -0.06307846 -0.041246653
0000b0 5e 0d 17 3e b8 a3 7d 3d 3d 0d ee 3d 98 50 e3 3d
       0.14751193 0.061923712 0.11623619 0.110993564
0000c0 d8 5e b0 3d eb 89 7e 3d a5 e8 c9 bd 7d e0 7d 3b
       0.0861184 0.062143248 -0.098588265 0.0038738542
0000d0 2d 68 01 3e 82 cb 0e bd 31 a7 cc bd 5f 54 f7 bd
       0.12637396 -0.03486205 -0.09992827 -0.120766394
0000e0 f6 84 a5 bd 33 1d 07 3d 8d 5c dd bd 14 de ac 3c
       -0.08082001 0.03298683 -0.10808668 0.021101989
0000f0 d9 f5 04 bd 23 f4 0c 3e 51 c5 80 3d 15 aa 60 3d
       -0.03246102 0.13765006 0.06287635 0.054849703
000100 8d 7c eb bd 54 10 f2 3b 04 05 db bd 9a 8f e1 bd
       -0.114983656 0.0073872004 -0.10694316 -0.11013718
000110 ab 39 0b bd 33 7f 1a 3e 1f 5b ff bd 92 ed 18 3e
       -0.033990543 0.15087585 -0.12468552 0.14934376
000120 1e e1 5b 3d d8 f7 00 3e 23 6f d6 bc a0 b3 df bd
       0.053681485 0.12594545 -0.026176041 -0.109229326
000130 b8 43 89 3d 55 48 b7 3d 92 4a 82 bd 5e 17 a0 3d
       0.067023695 0.08949343 -0.063618794 0.07816957
000140 bd 74 f1 3d 39 bb 3a bd a9 a3 94 bd a6 3a 09 be
       0.11789844 -0.045588706 -0.07257778 -0.13401279
000150 6e d0 01 bc aa 4b f1 3d 51 24 de bd 40 a2 28 3e
       -0.007923229 0.1178201 -0.108467706 0.16468143
000160 56 8f c0 bd be 7e 44 bd b4 56 9e bc dc 61 09 3e
       -0.09402339 -0.047972433 -0.019328453 0.13416237
000170 f2 c8 e8 bd 2f 2e 99 bd 08 99 77 bd 2d 42 17 3e
       -0.11366452 -0.07479512 -0.060448676 0.14771338
000180 0d ca 2d bd 17 81 88 bc ba 97 67 3d c5 f1 f0 3d
       -0.04242902 -0.016663117 0.056541182 0.11764864
000190 e8 e2 80 3d fe 66 d8 3d 50 80 15 3e 13 3d 9d 3d
       0.06293279 0.10566519 0.14599729 0.076776646
0001a0 70 c8 10 3e 14 07 70 3d 29 9e 04 be 80 14 e7 3d
       0.14138961 0.0586005 -0.12950958 0.11283207
0001b0 88 51 0e be 6f 97 af bd 58 41 14 3e 65 fb 19 3e
       -0.13898289 -0.085738055 0.14478052 0.15037306
0001c0 ec ef dc bd 7c 95 b6 bd d8 9b 65 bc b9 a7 90 3d
       -0.10787949 -0.08915231 -0.014014207 0.070632406
0001d0 99 ef c2 bd 6a 84 df bc 58 0c 9f 3d 2d 33 cc 3d
       -0.09518356 -0.02728482 0.07766026 0.099706985
0001e0 c5 16 62 3d 19 e2 14 3e 25 91 4b 3d bf 65 aa bd
       0.055197496 0.14539374 0.049698967 -0.08320188
0001f0 1f 03 d2 bd 5c dc 29 bd 6c 48 2d 3e 95 15 90 3d
       -0.102545016 -0.041469917 0.16922158 0.070353664
000200 13 f4 5a 3d 90 f9 e7 3d 8f 3f 02 3e d0 7a 18 3e
       0.053455424 0.11326897 0.12719558 0.14890599
000210 f9 38 3e 3d a7 e5 26 bd 12 4e f5 3d 2a 06 a3 bd
       0.046441052 -0.040746357 0.11977781 -0.0796016
000220 a6 a3 8b 3c a7 87 e5 3c 29 5f bd bd 3a 29 9c bd
       0.017045807 0.028018786 -0.09246666 -0.07625051
000230 37 d9 06 3e 1e 5f 56 bd f6 54 1e be 2c a3 ac ba
       0.13168798 -0.052336805 -0.15462098 -0.0013171188
000240 69 5c 89 bd 78 7d ac 3d 4d b7 be bd b5 56 01 be
       -0.06707079 0.08422369 -0.093123056 -0.12630732
000250 02 85 21 3e 48 38 cf bc fe f3 2f be ee 8d e8 bd
       0.15773395 -0.025295392 -0.1718292 -0.11355196
000260 f3 08 13 be 03 7a 33 3d 4d 3c 5f 3d 18 d3 28 3c
       -0.14358883 0.04381753 0.054500867 0.010304235
000270 10 36 72 bd 84 05 dc bc cc 6f df bd 8a 9a 01 3e
       -0.05913359 -0.026858099 -0.109099954 0.12656608

model.rnn.bias_hh_l1 f4 [160]
000000 48 08 23 3e 24 4c 9c bd f1 dc 98 3d bb 3e 34 3d
       0.15921128 -0.0763171 0.07464016 0.044005137
000010 05 83 d1 3d df af 0d 3e aa 38 4b 3d cf 5a cb 3c
       0.10230068 0.13836621 0.049614586 0.024823574
000020 32 52 6a ba e2 e3 40 3e 02 e1 05 bd db 11 1c 3d
       -0.00089386397 0.1883693 -0.032685287 0.038102966
000030 b9 e9 2f bc 2e a5 fd 3c 60 e7 9b 3d 3a cb d5 bd
       -0.010736876 0.030962553 0.07612491 -0.10439153
000040 c9 c5 2a bd 68 5c 2f 3d 5b c0 8a bd 91 c8 47 3c
       -0.04169253 0.042812735 -0.0677497 0.012193815
000050 3e bf 97 3b 90 fb 7c 3d 53 70 a9 bd e8 2a 87 bd
       0.004630952 0.061763346 -0.08273377 -0.065999806
000060 fa 1c b2 3d e2 24 18 3b ec f6 7c 3d 35 28 26 3d
       0.08696933 0.0023215343 0.06175892 0.04056569
000070 e4 02 3d 3e 7d 0f ab bd 6a ea 9d bd 5f 6b a1 bd
       0.18458134 -0.083525635 -0.077107266 -0.078818075
000080 15 1e ae 3d a2 7c a8 3d eb 9f f6 bc 41 dd a2 bd
       0.085018314 0.08226897 -0.030105552 -0.07952357
000090 67 91 96 bb 20 13 87 bd e7 93 f6 3d 49 d0 e3 3d
       -0.00459497 -0.06595445 0.12039929 0.111237116
0000a0 f6 9e a7 3d 8f d4 23 3d 13 60 bf bd c8 2e b3 bd
       0.08184616 0.039997634 -0.093444966 -0.08749157
0000b0 47 6c 8f 3d 0f a3 22 3d e8 df 0c 3e 7b 6c ee bb
       0.07003074 0.039706286 0.13757288 -0.0072761155
0000c0 d6 6a 01 be dd 4f 9c bd d0 9b d8 bd 0c ea 8a bd
       -0.12638411 -0.0763242 -0.10576594 -0.06782922
0000d0 2d be e6 3c da 89 33 3d 6d 39 6a bc eb 6d 01 be
       0.028166855 0.043832637 -0.014295918 -0.12639587
0000e0 53 9e c8 bd e1 5b 2c bd 96 d8 4d 3d 4a e2 06 be
       -0.09795823 -0.04207981 0.05025538 -0.1317226
0000f0 9a 1b a6 bc 83 06 8a 3d 55 2f 05 be 15 1b 6d 3c
       -0.020276833 0.06739523 -0.13006337 0.014471789
000100 d9 05 0c be b0 3e fa 3c 69 6c a8 3c c5 d9 f8 bd
       -0.13674106 0.03054747 0.020559506 -0.12150911
000110 18 d4 6e bd 48 ef 2a bd 19 9d cc 3d 4f 93 3e bd
       -0.058307737 -0.041732103 0.099909015 -0.046527203
000120 f8 17 4f bd c2 01 c7 3d 27 2d fc bd 86 6a 36 3d
       -0.050559968 0.09717132 -0.123132996 0.044535182
000130 39 b7 ed bd aa e9 04 bd f0 d0 35 bd 93 fe 20 bb
       -0.116072126 -0.032449402 -0.04438871 -0.00245658
000140 7d d3 79 3d 95 09 37 bd ed 55 94 3d 37 e9 bb 3d
       0.060992707 -0.044686873 0.072429515 0.091753416
000150 78 6b 44 3d 98 05 09 3e 7a b9 31 be 84 dc 94 3d
       0.047954053 0.1338104 -0.1735591 0.072686225
000160 d9 4d d5 b9 67 d4 ee 3d b3 b3 42 bc 41 ea fa 3c
       -0.00040684527 0.11661606 -0.011883664 0.03062928
000170 e8 47 c5 bd e6 d4 7a 3d 4b bb 95 3d dd 5c 0e 3e
       -0.09632856 0.061238192 0.07311114 0.13902612
000180 91 96 13 3e d4 52 25 be 73 1c 18 be 7a c0 d2 3d
       0.14412905 -0.16144878 -0.14854603 0.10290618
000190 3d 7e e0 bd 08 ab a8 3d a3 1d 60 bd e3 e5 2b 3c
       -0.10961578 0.082357466 -0.054715764 0.010491821
0001a0 72 ff e5 bd 6c eb 5f bd b5 75 32 be e3 09 9b bd
       -0.11230363 -0.054667875 -0.17427714 -0.07570245
0001b0 6e 06 d0 3c f0 d4 a9 bd 3e 35 82 3d 65 7c 2e 3e
       0.02539369 -0.08292568 0.063578114 0.1703964
0001c0 d9 58 12 bd 72 e5 14 be 08 74 c5 bd fd e4 94 bc
       -0.035729263 -0.14540651 -0.09641272 -0.018175596
0001d0 09 f0 c4 bd 5d ba c6 bd 39 13 28 bb 9d ec ac 3c
       -0.096160956 -0.09703515 -0.0025646223 0.02110892
0001e0 fd 4e 69 bc 0b f8 0c 3e a8 f1 4f 3e d1 9c 30 3e
       -0.014240024 0.13766496 0.20307028 0.1724732
0001f0 68 70 25 3e cb db 19 bc 17 81 70 bd b4 d6 4c bc
       0.16156161 -0.009390782 -0.05871686 -0.012502361
000200 65 bb f5 3c a8 00 3f 3e ff 3d bf 3d 1a 8f 74 bd
       0.029996583 0.18652594 0.09337997 -0.059706785
000210 0b 77 b9 bd 3a fa 88 3d 42 7c a7 3c 89 87 31 3e
       -0.09055909 0.06688352 0.020444993 0.17336859
000220 78 80 b4 3c 85 08 ec bd d5 fe 34 3d 3f 32 01 3e
       0.022033915 -0.115250625 0.04418834 0.12616824
000230 f7 94 ed 3c b6 a8 a6 3d a5 4d 9e 3d 1c 4a f5 3d
       0.029001696 0.08137648 0.07729653 0.11977026
000240 df b9 f8 3d a1 eb 18 bc e8 8a 38 bd e0 62 de 3d
       0.12144827 -0.009333522 -0.045054346 0.10858703
000250 22 bb 53 bd f3 bf 20 3c 30 8b 9b bd b6 69 b4 3d
       -0.051692136 0.009811389 -0.07594907 0.08809225
000260 f0 d9 28 3e 21 83 c7 3d 21 dd ca bd 99 e9 d2 3d
       0.16489387 0.09741808 -0.09905458 0.102984615
000270 0e 0f 30 3e 4c 9d 33 bd d5 69 28 3d fe f3 19 be
       0.17193243 -0.043851182 0.041116554 -0.15034482

exp_avg f4 [1, 40]
000000 1c c1 21 bc c3 bb fd 3b 85 ee 3e bc 78 44 14 3c
       -0.009872701 0.00774333 -0.011653547 0.009049527
000010 14 55 47 3c 2b f8 d2 b5 d8 53 20 3c 6f 73 36 bc
       0.01216628 -1.5718446e-06 0.009785615 -0.01113592
000020 8f f9 1c 3c 44 5e 45 bc 23 a2 95 bb a4 29 62 3b
       0.009580984 -0.0120464 -0.0045664473 0.0034509683
000030 99 08 3b ba 2f bd 2f 3c fa 0c 66 ba a3 13 38 bc
       -0.0007134765 0.010726257 -0.00087757374 -0.0112351505
000040 48 7c 51 39 6f 6d b1 38 1c 42 15 3c ef 60 22 ba
       0.00019978092 8.460401e-05 0.00911 -0.0006194254
000050 cb 37 13 3c 68 1c 41 3c 25 42 04 3a 01 08 5f 39
       0.00898547 0.011786558 0.00050452567 0.00021269919
000060 85 53 09 bc 72 cc b7 3b a5 f7 8c 3a 5e ab fe b7
       -0.008381729 0.0056090886 0.0010754956 -3.0358959e-05
000070 b4 69 2c 3c 50 bc 1c 3c 8b 59 01 3a fb 25 1d bc
       0.010523248 0.009566382 0.00049343024 -0.009591575
000080 06 7a b1 39 59 64 2f 3c f0 75 02 3c 47 4b f0 39
       0.00033850985 0.010705077 0.007962689 0.00045832453
000090 0a 41 2f 3c e4 1d 00 ba 62 c9 22 b7 9f 37 64 3a
       0.010696659 -0.00048872666 -9.7028405e-06 0.0008705798
