deep-learning/rv_only/lightning_logs/version_72/checkpoints/epoch=4-step=250.ckpt (torch, 27739 bytes, 21 tensors)

model.nn.0.weight f4 [20, 30]
000000 00 75 08 bd 44 d5 16 3d d9 8c 12 bd 4e 2b f5 3b
       -0.033314705 0.03682448 -0.035778854 0.007481969
000010 18 96 90 3d f2 5b 9a 3d 32 2a 55 3d 1f 09 06 bd
       0.07059878 0.075370684 0.052042194 -0.032723542
000020 36 3d 30 bd f0 fe 3b 3c c4 3b 47 bd 73 4e 35 3d
       -0.043027125 0.011474356 -0.04864098 0.044264268
000030 90 5e 57 bd 05 7b 9c bc ab 77 5a bc b8 a1 93 3d
       -0.052580416 -0.019101629 -0.013334195 0.0720858
000040 98 b7 c3 bb af 9b 9c 3c c7 ec 39 3d 5b 93 b5 3d
       -0.005972814 0.019117204 0.045391824 0.088659965
000050 79 01 ca bc b9 47 ba 3d eb 0b 3e bc 6e 67 bc 3d
       -0.024658905 0.09095711 -0.011599521 0.09199415
000060 6b df aa 3d 99 99 08 3e 49 4f 10 3e e0 df de 3d
       0.08343395 0.13339843 0.14092745 0.108825445
000070 bf 77 2f 3e 0e 9c e2 3d 73 88 f7 3c 4e 78 96 3d
       0.17135523 0.11064921 0.030216431 0.07347165
000080 85 be bb 3d 5c 55 fb 3d ff 67 22 3e 5b 46 28 3e
       0.09167198 0.122721404 0.15859984 0.16433088
000090 7b de 22 3d 1f 75 2c 3e 01 21 e6 3d 6e 28 0d 3e
       0.039762955 0.16841553 0.11236764 0.13784954
0000a0 26 48 1f 3e 05 3f 2d 3d 3b 77 76 3d b6 f5 f2 3d
       0.15554866 0.04229643 0.0601723 0.11863272
0000b0 20 1e 21 3e 1e f8 32 3e 80 4f 16 3e 30 b9 d6 3d
       0.15734148 0.17477462 0.14678764 0.104845405
0000c0 b1 5e 6e 3d 0c 60 32 3e a4 db 82 3d 5a c5 25 3e
       0.058195774 0.17419451 0.063895494 0.16188565
0000d0 c4 dd c5 3d 31 46 3b 3d 65 c2 62 3c bd ea 8d 3d
       0.09661439 0.045721237 0.013840293 0.069295384
0000e0 53 91 df ba 67 c3 a2 bc 41 d8 00 bd 46 4c 0e bc
       -0.001705686 -0.019868566 -0.031456236 -0.008685177
0000f0 8b d3 51 3d 92 a6 36 3d 61 91 5c 3c 74 8b 50 bd
       0.051227134 0.044592448 0.013462395 -0.050914243
000100 61 a6 31 bc 4d e1 d7 bc 30 af aa bc 15 23 94 bc
       -0.0108428905 -0.026352549 -0.020835489 -0.018083135
000110 ca 05 35 3d a7 80 62 3d 51 33 b7 bc 97 a4 ed bc
       0.044194974 0.055298474 -0.022363337 -0.029009147
000120 80 c0 de ba 2d 9a 09 bd 06 a3 f5 bc 8f ad 67 bc
       -0.0016994625 -0.0335943 -0.029984962 -0.014140501
000130 5d 69 55 3d 95 8d 0a 3d 59 dc 91 3c af 75 96 bd
       0.052102435 0.03382643 0.017805265 -0.07346665
000140 d0 45 a7 bd 60 78 c1 bc 21 ea 47 3d 76 9a c6 bc
       -0.081676126 -0.02361697 0.048807267 -0.024243575
000150 d0 eb 8d bc 7f af 0e 3d 1c a6 83 3b ac d8 53 3b
       -0.017324358 0.034835335 0.0040176045 0.0032325191
000160 d9 ae a1 bd 48 34 c2 bb bb c5 80 3d cd 76 7c bd
       -0.07894678 -0.0059266426 0.06287714 -0.061636735
000170 e3 7e 46 3d a3 2c 96 bc fa 08 dc bc 9d 36 98 bd
       0.048460852 -0.018331831 -0.02685975 -0.07432292
000180 5b a9 5c bd d3 9a 1f 3d 29 c5 9d bd 69 6e 01 3c
       -0.053872447 0.03896601 -0.07703621 0.007899859
000190 9a d2 33 bd e8 9c 56 3c 25 2c fa 3c 3c 92 11 bd
       -0.043902017 0.013098933 0.030538628 -0.03553985
0001a0 08 8f bb bc 0e 84 45 3d c1 79 8a bd de bd 1b 3b
       -0.022895351 0.04822164 -0.06761504 0.0023764293
0001b0 79 3f 91 3b a5 0f 38 bd 44 3a 05 3c 64 b4 e0 ba
       0.0044326154 -0.044936795 0.008131567 -0.0017143604
0001c0 b6 7d 9a 3c 70 3d 25 3c a1 d6 bc 3d de 19 c2 3d
       0.018858772 0.010085449 0.09220625 0.0947759
0001d0 c3 8e 72 3b d1 02 d4 3d b7 f1 82 3d 5c 3d 24 3e
       0.0037011362 0.103521 0.0639376 0.16039032
0001e0 a6 89 c9 bc 9e 05 59 3d 92 e8 23 3b 4e 39 31 3b
       -0.024601769 0.052983873 0.002501045 0.0027042213
0001f0 5c 44 e2 3b b2 48 12 3d 34 9e 0c 3d da 3d d8 3c
       0.0069051217 0.03571386 0.03433056 0.02639668
000200 cb 3f 1d bd b6 e3 7c bc 6c 0c 30 3d 40 90 91 3d
       -0.038390916 -0.01543515 0.042980596 0.07107592
000210 3f 65 a3 3c 43 c7 41 bd 4d 06 78 bc ae 9f 90 3b
       0.019945739 -0.04730917 -0.015138221 0.0044135666
000220 33 56 c3 bc 30 8f c5 bc c0 cb 36 3d e7 e3 11 bd
       -0.023844814 -0.024116129 0.044627905 -0.035617735
000230 00 f3 12 bd bc 89 63 bd 3b 35 ff 3b 59 fa 65 bd
       -0.035876274 -0.055551276 0.007788328 -0.056146953
000240 cd 6c 86 bc 97 81 75 3d 78 74 8a 3d 56 b1 3b 3d
       -0.016409302 0.05993804 0.06760496 0.045823418
000250 12 b3 de 3c d5 49 4d 3d ba 94 c8 3d f3 01 54 3d
       0.027184997 0.05011924 0.09793992 0.05175967
000260 6c 6f 13 3d e3 48 c8 3c 34 5a df 3d 0f 89 50 3d
       0.035994932 0.024448818 0.10905877 0.05091196
000270 b6 5c 83 3d d6 eb 61 3d fc 19 7d 3d f2 14 d9 3d
       0.064141676 0.05515655 0.06179236 0.10599698
000280 86 56 8d 3d d3 43 d7 3d 8c f5 e2 3d 54 03 52 3d
       0.06901269 0.10510983 0.110819906 0.051272705
000290 46 59 d7 3d 5e 94 0e 3e 0d 88 ee 3d 47 1e dc 3c
       0.105150744 0.13923785 0.116470434 0.026869906
0002a0 d5 11 af 3d 66 ee a6 bb c2 d3 b9 3d 07 88 e9 3d
       0.08548323 -0.0050943373 0.09073593 0.11402898
0002b0 87 8b 07 3d 89 40 ea 3d 3d 21 94 3d 82 db e5 3d
       0.033092048 0.1143809 0.07232902 0.112235084
0002c0 64 bc d6 3c 30 60 82 3d a5 ad 95 3d 06 42 19 3d
       0.026212879 0.063660026 0.07308511 0.03741648
0002d0 e4 14 38 bb 3d 7d 83 3b f8 a1 d7 3c f6 22 8a 3c
       -0.0028088624 0.0040127323 0.02632235 0.016862374
0002e0 05 33 0e bd 3d 6e 5b 3d e2 dd 2f bd 7e 50 26 bd
       -0.034716625 0.05357193 -0.042936213 -0.040604107
0002f0 d6 70 1a 3c db 8c 2b 3d 88 d6 a5 39 ee e6 f2 3c
       0.009426316 0.041882377 0.0003163109 0.029651131
000300 d8 61 2a 3d a7 6e 48 3c ce b1 6f 3d bf b5 aa 3d
       0.041597217 0.012233413 0.058519177 0.083354466
000310 96 53 92 3d 84 6a 08 3d 44 20 d8 3c 2c 4d 1c bd
       0.07144849 0.033304706 0.026382573 -0.038159534
000320 4e 28 e7 3c 9e 40 aa 3d 44 7c 6d 3d d0 37 b6 bc
       0.028217461 0.08313106 0.057979837 -0.02224341
000330 6a 57 3f 3b 7b 08 c7 3d 9b da 36 3d d4 f3 ff 3d
       0.002919639 0.097184144 0.044642072 0.124976784
000340 45 d6 b0 3d 1c 22 b2 3d 65 75 34 3c 16 ad 39 bd
       0.08634619 0.08697912 0.011014317 -0.045331083
000350 a2 67 cb 3c fc cc 75 bc 61 ee 9e 3b c2 dc 8e 3c
       0.02482969 -0.015002485 0.0048501943 0.01743925
000360 72 dd c3 bb 0a 50 77 3d 4c 04 14 bc 9d 75 a1 bd
       -0.005977326 0.060379066 -0.009034228 -0.07883761
000370 a0 7d 38 3d 22 80 01 3d d7 db c8 bc 7a 6a b8 bd
       0.04504168 0.031616338 -0.02451889 -0.09004684
000380 e0 8f 87 bc 50 b3 f1 bc b0 1f 1f 3d ba 37 19 bd
       -0.016548097 -0.029504448 0.03884858 -0.03740666
000390 42 fb 8c 3c 40 28 7d bd 28 96 97 bd f2 49 1d 3d
       0.017209653 -0.061805964 -0.07401687 0.038400598
0003a0 d8 15 34 bd ab 21 ad bb e7 e2 b5 bc 31 61 0b 3c
       -0.043966144 -0.0052835546 -0.022202922 0.008507059
0003b0 a0 e1 d4 3d 84 74 b3 3c 6d 87 2c 3e 0d 23 02 3e
       0.10394597 0.021906145 0.16848536 0.12708683
0003c0 b3 ac 12 bd 90 9d 1a 3d bc 17 f2 3c 91 03 62 bd
       -0.03580923 0.03774792 0.029552333 -0.055179182
0003d0 10 2b 00 bd ad b4 76 3d 4e 3b 54 3d c9 76 49 bd
       -0.031291068 0.0602309 0.05181437 -0.049185548
0003e0 61 c3 6d bd b5 a0 6c 3c 86 ad 4f 3d d0 f2 a4 3c
       -0.058047656 0.014442612 0.050702594 0.020135313
0003f0 eb 7f c3 3b 24 fe 28 3d 66 0a 64 bb 9b 4e 41 bc
       0.0059661767 0.041257992 -0.0034796237 -0.011798526

model.nn.0.bias f4 [20]
000000 f2 53 10 3d 21 ba 9f 3d 61 15 67 bc 5b cc 35 3c
       0.035236306 0.07799173 -0.014104218 0.011096085
000010 44 19 ba 3c 08 f5 83 3d f4 dc 04 3d eb 97 de 3c
       0.022717126 0.064432204 0.03243728 0.02717205
000020 f6 2f b2 3c ee 88 49 3d 20 6d 5a 3d 56 63 98 3c
       0.021751385 0.049202852 0.053326726 0.018602055
000030 c2 3e 30 3d 74 36 4d 3d 0b ab 7c bc 48 2c 02 3d
       0.0430286 0.05010076 -0.015421639 0.03178051
000040 ab e6 68 3d 97 28 3d 3d 3e cf 93 bc e5 8f 49 3d
       0.056860607 0.046181288 -0.018043157 0.049209494

model.nn.2.weight f4 [20, 20]
000000 56 2c 61 bc 00 93 86 bd 4f 01 91 3d dc c0 39 bc
       -0.013743481 -0.06571007 0.07080328 -0.011337485
000010 2c 1f a7 bc 5e f9 b3 bd f4 c7 a6 3c 13 17 04 3e
       -0.020400606 -0.087877974 0.020359017 0.12899427
000020 fe 02 21 bd 69 a8 8e bd 9c 0b 75 bd ef a2 03 3e
       -0.039309494 -0.069657154 -0.059825525 0.12855123
000030 8b bc 11 3e ca 35 b3 3c 14 69 aa 3c 74 78 01 3e
       0.1423208 0.021876235 0.020802058 0.12643605
000040 8f e1 d2 bd 8c 72 47 3c 88 a7 98 3b 9c c9 09 3e
       -0.10296928 0.012173306 0.004658643 0.13455814
000050 c6 d1 fa bd d4 fc 5c bd 55 0c 9e bd 4f 7c d6 bc
       -0.12247042 -0.053952053 -0.07717196 -0.026182322
000060 6a fb d3 bc a4 1e e5 bd d4 e8 02 be 23 d7 83 bc
       -0.02587672 -0.11187485 -0.1278413 -0.016093796
000070 d2 3b 76 bd 86 76 98 bd db 23 6a bd 08 14 c6 bd
       -0.060115643 -0.074444816 -0.0571631 -0.096717894
000080 c8 b9 22 bd 27 8e d9 bd 7a 4c ce bc 06 14 21 bc
       -0.039727956 -0.106228165 -0.025182951 -0.009831434
000090 6c 5d 79 3b 9b 9b 07 be f3 57 5a 3d ed 35 d8 bd
       0.0038050069 -0.13242953 0.05330653 -0.105571605
0000a0 bd db 7d bd 70 6e 35 3c 98 0c c4 bc ab 6f 8a bc
       -0.061977137 0.011073694 -0.023931786 -0.01689895
0000b0 48 80 75 3c b5 0f e3 bd 07 5e 4b bd d3 f8 91 3c
       0.014984198 -0.1108698 -0.04965022 0.017818844
0000c0 7c 22 8c bd 7f 78 b3 bb 56 55 4f bd d6 6e 3c bd
       -0.06842515 -0.0054770107 -0.050618492 -0.04600414
0000d0 b4 8f 4b bb 3c 07 de bd a1 2c cc 3b 02 52 db bd
       -0.0031060996 -0.108412236 0.006230906 -0.10709001
0000e0 13 53 c4 bd b3 c0 d3 bd 69 64 4c bd 91 55 8a bd
       -0.09586158 -0.10339489 -0.049900446 -0.06754602
0000f0 88 fb 12 3d dc fc 50 3d 3a 4a 87 3d 80 74 a3 3b
       0.03588441 0.051022395 0.066059545 0.004988253
000100 43 e2 1e bc e1 51 e7 3d 57 77 da 39 8e 22 56 bc
       -0.0096975 0.11294914 0.00041669115 -0.013069762
000110 a3 5d a2 3d af 92 d3 3d 55 af d6 3d 08 c6 97 3c
       0.07928016 0.10330712 0.10482661 0.018527046
000120 65 89 39 3d 53 c7 25 3d 84 3d 20 bd 87 29 d8 3d
       0.045297045 0.040473294 -0.039121166 0.10554796
000130 69 80 b1 3a ee 22 a6 3d 18 0c b2 ba 2e 85 f1 3d
       0.0013542298 0.08112131 -0.0013583926 0.1179298
000140 02 2d 7d bc 2f 9d e6 b9 a3 4d 3e 3c c3 60 10 bd
       -0.015452625 -0.0004398613 0.01161519 -0.03524853
000150 ff b8 12 bd f9 af 61 bd 1f 10 48 bd 5e d1 02 be
       -0.035820957 -0.05509946 -0.0488435 -0.1277518
000160 19 6a d3 bd 86 09 ae 3c 5f 1e 78 bd e2 1d 00 be
       -0.10322971 0.021244776 -0.06057584 -0.125114
000170 aa c9 db bd a8 2e 0f 3d 48 56 6a bd 89 47 d3 bd
       -0.10731824 0.034956604 -0.05721119 -0.103163786
000180 b6 b5 39 bd 61 c9 5f 3d f5 e1 47 3d 19 78 0e be
       -0.04533931 0.05463541 0.048799474 -0.13913001
000190 bd b4 c1 bc 60 d9 d5 bb f0 6a 5b bd cf d2 a5 3d
       -0.023645753 -0.0065261573 -0.05356878 0.08096849
0001a0 a6 17 2c bc 70 89 01 bd 45 35 7f 3d 2c c8 06 3d
       -0.010503685 -0.03162521 0.06230666 0.032905743
0001b0 67 04 cc bc cc 7d 43 3d a9 97 2c 3c fd e2 b1 3d
       -0.024904443 0.04772739 0.0105342055 0.08685873
0001c0 a8 7b c8 3d 6c 4f 82 bd a3 ae 15 bb ad 2b bf 3d
       0.097892106 -0.06362805 -0.0022839687 0.09334502
0001d0 2c 4a 5b bd 32 b0 c1 bc 5d ae 4b 3d 1e da 84 3d
       -0.053537533 -0.023643587 0.049726833 0.06486915
0001e0 71 dc 6a 3d 7c 5c d6 3a e8 80 67 3c 44 c8 ba 3d
       0.057339136 0.0016354467 0.014129855 0.09120229
0001f0 d6 f4 c1 3d 3e 37 92 3b c0 12 a9 3d 58 db 35 3d
       0.09470527 0.004462152 0.082555294 0.044398636
000200 94 1c 39 3b 25 b1 8a 3d fd 52 2b bd d3 f1 c6 3d
       0.0028245794 0.06772069 -0.04182719 0.09714093
000210 0e 47 14 3e 62 78 4d 3d af df 33 bd bd 1d af 3d
       0.1448023 0.050163634 -0.043914493 0.08550594
000220 bc 5b 74 3c d4 f5 8c 3d 1e cb 4f bd dc d1 e4 3d
       0.014914449 0.068828255 -0.050730817 0.1117284
000230 0e 40 ef 3d a7 1d 37 bd 85 e7 d5 3b da ca d6 3d
       0.11682139 -0.044706013 0.0065278434 0.104879096
000240 9d b2 a9 3d 15 cb 91 bb b0 11 4f 3d d9 48 f1 3d
       0.08286021 -0.004449258 0.050553977 0.11781473
000250 da 9d 86 3d 03 6d 9a bb ef 13 b7 3d 38 5f 37 3e
       0.065730765 -0.0047127022 0.08939349 0.17907417
000260 cc 76 fb 3d ec 08 63 3d 6c 82 83 3b 09 83 28 3e
       0.12278518 0.05542843 0.0040133502 0.16456236
000270 e6 60 1a bd 75 4a 1f 3d 44 8f 66 3d 09 78 16 3e
       -0.037690066 0.038889367 0.056288972 0.14694227
000280 9a 40 c2 3c 15 1c b5 3d 33 94 ff bc 34 78 ec 3d
       0.023712445 0.08843247 -0.031198597 0.115463644
000290 f8 91 b3 3c a7 81 5b 3d 94 98 bf 3d 82 b1 5e ba
       0.02192019 0.053590443 0.09355274 -0.00084950787
0002a0 a3 41 e3 3d d5 a9 6f 3d c6 6c 74 3d a0 82 db 3d
       0.110965036 0.058511574 0.059674047 0.10718274
0002b0 02 8e 5f bd 2b c4 ba 3d 1f 42 b8 3c c2 98 d6 bc
       -0.05457879 0.09119447 0.022492466 -0.026195887
0002c0 89 5b 00 3e 45 99 c3 3d d5 61 ae 3c 94 43 22 bd
       0.12534918 0.09550718 0.021286884 -0.03961523
0002d0 71 fb 7a 3d fe e2 ef 3c e9 fd 72 bc fb 0d c9 3d
       0.06127495 0.029283043 -0.014831045 0.0981712
0002e0 13 12 3e 3d c1 b5 ad 39 52 cd cc 3d 35 c1 09 3e
       0.046403956 0.0003313255 0.10000099 0.13452609
0002f0 f8 04 7e 3d ee b0 33 3d 95 4a 9c 3d e0 bf e8 3d
       0.062016457 0.043869905 0.07631413 0.11364722
000300 24 50 c6 3d 0e 40 92 3c e2 30 fa bb b9 06 65 3d
       0.09683254 0.01785281 -0.007635222 0.055914614
000310 6b b3 85 3d bc 19 bb bc fb 10 fc 3c 72 67 1e 3e
       0.06528362 -0.02283942 0.030769816 0.15469149
000320 cc 23 49 bc 78 a9 b8 3d c3 b6 97 3c 29 c2 89 bd
       -0.012276601 0.090166986 0.018519765 -0.06726486
000330 38 d5 1b bc e4 4d 3b bd ae e0 98 3d f6 b2 a8 bd
       -0.0095112845 -0.04572858 0.07464729 -0.08237259
000340 60 77 90 bd 31 20 8a 3d 08 7a 9c 3d b9 1d 0b be
       -0.07054019 0.06744421 0.07640463 -0.13585557
000350 e4 bf 2d be 02 b5 9e 3c df 73 96 bd c3 22 41 be
       -0.16967732 0.01937342 -0.073463194 -0.18860917
000360 49 bd 4d 3c 83 15 4d bd ec 8a 05 3c fb df 88 bd
       0.012557336 -0.050069343 0.008150797 -0.06683346
000370 f0 ee f4 bc a7 12 c9 bd b1 c8 a3 bd ce 4b 98 3b
       -0.02989909 -0.09818011 -0.07997263 0.0046477085
000380 0f a6 10 3d c5 5a 0a be ba 09 10 bd 88 d3 19 3e
       0.035314616 -0.13511188 -0.035165526 0.15022099
000390 ec c4 e5 bc ff 46 8e bd c6 00 10 be a0 47 9d 3c
       -0.028048001 -0.06947135 -0.14062795 0.019199193
0003a0 01 97 10 3e 5e 4e 96 bd 0d c3 8a bc a6 1b ef 3d
       0.14120103 -0.07339166 -0.01693871 0.116751954
0003b0 7a d1 0c be 71 11 9e bd 70 6f c0 ba f6 e7 ba 3d
       -0.13751784 -0.077181704 -0.0014681648 0.09126274
0003c0 f0 98 54 3d 69 80 aa 3c 30 33 14 3d 61 e7 36 bb
       0.051903665 0.020813184 0.03618163 -0.0027908909
0003d0 69 1f f2 bd 4d 06 6a 3d 62 28 b9 bc 78 9f d4 bd
       -0.11822397 0.057134915 -0.022602264 -0.10381979
0003e0 47 32 97 bd da e1 3f bd 85 13 24 bd 53 33 b5 bd
       -0.073826365 -0.04684625 -0.040057678 -0.0884768
0003f0 8a ec 96 bd 48 64 bd bc 89 86 43 3c ab 01 38 be
       -0.07369335 -0.023119107 0.011933931 -0.17969386

model.nn.2.bias f4 [20]
000000 a0 70 27 bd d0 ba 60 bd d2 2a 18 bd b6 29 52 3d
       -0.040878892 -0.05486566 -0.03715021 0.05130931
000010 67 18 1e bc 8b 7e ae 3b 04 ea dd 3c 9c d1 02 3d
       -0.009649373 0.0053251437 0.027089126 0.03193818
000020 88 32 6a 3d 17 c5 c3 3c f5 e4 2e 3c 69 e3 a2 bd
       0.057177097 0.02389769 0.010674705 -0.07953531
000030 5d 80 58 3b 01 bf 78 bd ae 49 17 3d d8 2f 87 3d
       0.0033035495 -0.06072903 0.0369355 0.06600922
000040 9c 1a 71 bd 61 59 0c bd 7a 88 10 bd a3 6b b7 bb
       -0.058863267 -0.034264926 -0.035286404 -0.005597548

model.args_proj.proj.0.weight f4 [1, 20]
000000 fb b4 06 be 2d be 04 3e 78 20 6a 3b 09 e1 3f 3d
       -0.13154976 0.12963171 0.003572492 0.04684547
000010 a6 1d 7a 3e d9 36 35 3e 05 40 89 be 8a 00 5c be
       0.24425372 0.17696704 -0.26806656 -0.2148458
000020 67 f7 0c 3e 5e ff b7 3d 8a c2 3a 3e 88 2d 91 bd
       0.13766252 0.08984254 0.18238273 -0.070887625
000030 ff c9 96 bd be 2e 4a be e0 b4 53 3e 08 11 1b 3e
       -0.073627464 -0.19744393 0.20674467 0.15143216
000040 e9 41 67 be 5a 70 28 3e e3 e6 df bd b2 c2 4e 3c
       -0.22583736 0.16449109 -0.1093271 0.012619661

model.args_proj.proj.1.weight f4 [1, 20]
000000 fa 4e d8 3d 8d 50 1a be ac 8a 86 bd 87 19 94 3d
       0.105619386 -0.1506979 -0.06569418 0.072314315
000010 56 5a 42 be 9e 96 32 3e 73 2b 56 3e a5 38 34 3e
       -0.18979773 0.17440268 0.20915012 0.17599733
000020 92 75 9b 3d ab 78 4b 3e dd a9 40 be 7d cb d0 bc
       0.07590784 0.1987025 -0.18814798 -0.025487656
000030 8c 3d 0c be 54 b5 d6 bd 62 f6 e2 bd 16 b1 75 bd
       -0.13695353 -0.10483804 -0.1108215 -0.059983335
000040 63 29 9a 3d 3e 39 00 3e e9 5e c8 3d 9f 90 08 bd
       0.07527425 0.12521836 0.09783728 -0.033341046

model.args_proj.proj.2.weight f4 [1, 20]
000000 f1 cc 8b 3e 8b 3c 86 3e 42 80 b0 3d c0 46 11 be
       0.27304795 0.26218066 0.08618213 -0.14187145
000010 10 49 2b bd 99 30 8c 3d 31 3f 9f bd e8 ba 8a bd
       -0.041817725 0.06845207 -0.07775725 -0.06773931
000020 63 4c 3c be 98 ae 87 bd b9 45 45 be 65 84 a6 3e
       -0.18388514 -0.06625098 -0.19264878 0.32522884
000030 33 87 9d bd a5 7b 8f 3e 26 d6 86 be 19 5e 39 be
       -0.07691803 0.2802402 -0.26335257 -0.18102302
000040 cf d7 85 3e 64 65 78 3e f8 10 77 3e 5b 08 be 3c
       0.2614121 0.24257427 0.24127567 0.023197344

exp_avg f4 [20, 30]
000000 6d d1 dd 3c 00 08 fb 3c a6 8c 0d 3d d9 90 f7 3c
       0.027077401 0.030643463 0.03455796 0.030220436
000010 a1 35 f2 3c 11 af e4 3c ec 69 d7 3c 42 a7 f2 3c
       0.029566588 0.02791551 0.026295625 0.02962077
000020 69 6a e4 3c 5e 08 e0 3c 09 b4 e6 3c 27 b2 fc 3c
       0.027882772 0.02734774 0.02816202 0.030846668
000030 3b 36 ff 3c 24 90 00 3d fd 06 08 3d e9 ee 16 3d
       0.031153789 0.031387463 0.03320979 0.036848936
000040 6b 8f 31 3d 54 b1 40 3d 10 72 46 3d c0 9a 4a 3d
       0.043349665 0.047044113 0.048448622 0.049463987
000050 aa 43 4b 3d 8a 41 50 3d 09 5a 4a 3d 58 79 4c 3d
       0.049625076 0.050843753 0.04940227 0.04992041
000060 b2 cd 3d 3d 13 28 21 3d 20 c6 f4 3c 65 b0 87 3c
       0.046338744 0.03934486 0.02987963 0.016563604
000070 c2 2a 08 3b e8 ed bd bb b8 ce ec ba c2 7d 1a bb
       0.0020777439 -0.005796183 -0.0018066978 -0.0023573493
000080 d6 62 60 bb 3e 93 16 bb be d3 1a bb c4 53 13 bb
       -0.0034238598 -0.0022975947 -0.0023624743 -0.0022480348
000090 d0 9d d8 ba cc af 65 bb 68 c8 48 bb a2 b5 45 bb
       -0.0016526524 -0.003504741 -0.003063703 -0.0030168076
0000a0 3a 85 85 bb cf 63 bb bb e6 44 cd bb 3c 1b e1 bb
       -0.0040747197 -0.005718685 -0.006264317 -0.0068697017
0000b0 12 bb 00 bc c8 dc 1e bc 52 6d 59 bc 99 bd 6b bc
       -0.007857101 -0.009696193 -0.013270693 -0.014388465
0000c0 44 ba 73 bc f1 0d 77 bc 50 3b 7b bc b9 c7 7a bc
       -0.014875952 -0.0150790075 -0.015333965 -0.015306407
0000d0 fa 65 6a bc 46 b8 62 bc bc 05 7b bc 72 4b 42 bc
       -0.01430654 -0.0138378795 -0.015321191 -0.011858808
0000e0 94 2a d0 bb d8 37 73 3a da 03 1f 3c ed 91 94 3c
       -0.006352732 0.0009278036 0.009705508 0.01813599
0000f0 35 d3 0c 30 fc 2c f5 2f d1 12 14 2f 4a f0 0b b0
       5.1231847e-10 4.4597204e-10 1.3467207e-10 -5.0909377e-10
000100 7f 54 ee ae e1 d8 90 af 6e 08 65 af 36 c5 46 af
       -1.08379965e-10 -2.634755e-10 -2.0830423e-10 -1.8078058e-10
000110 2d fe f2 2f 87 04 18 30 26 d4 75 af 01 73 9f af
       4.4200146e-10 5.530371e-10 -2.235799e-10 -2.9003647e-10
000120 54 ff 94 ad d8 a7 b8 af 00 d0 a4 af 9b 69 1b af
       -1.693904e-11 -3.3588665e-10 -2.997922e-10 -1.4134686e-10
000130 fe 3b 0f 30 ec fe b9 2f 98 d6 43 2f 2a ed 49 b0
       5.210835e-10 3.3832437e-10 1.7811386e-10 -7.3460404e-10
000140 01 7e 60 b0 d6 cc 81 af ee 2d 06 30 dd 3d 85 af
       -8.166979e-10 -2.3610508e-10 4.8814186e-10 -2.4236516e-10
000150 68 67 3e af b4 8c bf 2f 25 06 31 2e ae 80 0e 2e
       -1.7317137e-10 3.4842673e-10 4.0250598e-11 3.2401352e-11
000160 63 fc 58 b0 98 27 82 ae d2 7a 12 3d b8 09 26 3d
       -7.8939005e-10 -5.918749e-11 0.03576166 0.040536612
000170 62 6a 3c 3d e2 a3 23 3d 1c 47 20 3d e6 6d 17 3d
       0.045999892 0.039951213 0.039130315 0.03697004
000180 e7 db 0d 3d d3 b2 22 3d f4 ca 18 3d cc d7 15 3d
       0.034633543 0.03972132 0.037302926 0.036582753
000190 70 f7 1b 3d 70 fa 2c 3d ec 77 2f 3d 42 b1 31 3d
       0.03807777 0.042231023 0.042838976 0.043381937
0001a0 4d fd 3c 3d f8 5a 53 3d 16 d2 7b 3d 12 90 88 3d
       0.046140004 0.051600426 0.06147965 0.06668104
0001b0 1b a4 8c 3d a0 77 8f 3d 4d 1b 90 3d c0 3f 93 3d
       0.06867238 0.070052385 0.07036457 0.07189894
0001c0 37 99 8e 3d 08 88 8f 3d da 97 87 3d aa 69 64 3d
       0.06962817 0.07008368 0.0662076 0.05576483
0001d0 a3 7e 28 3d b2 b3 a9 3c 38 51 de ba 30 5d b4 bc
       0.041136395 0.020715568 -0.0016961461 -0.022017092
0001e0 63 2d cc 3c 8c 98 e1 3c 43 24 fc 3c 6d 8a dd 3c
       0.024923986 0.02753856 0.03077901 0.027043546
0001f0 d9 a5 d8 3c 0b e9 cd 3c 6f c7 c1 3c 67 e5 dc 3c
       0.02644627 0.025135538 0.023654668 0.026964856
000200 84 ba cf 3c 58 94 ca 3c 42 fe d1 3c b8 08 e7 3c
       0.025357492 0.024728939 0.025633935 0.0282024
000210 70 9f e8 3c 1a e4 e9 3c e2 85 f7 3c d3 8b 09 3d
       0.028396338 0.02855115 0.030215207 0.033580612
000220 41 df 22 3d e5 65 2f 3d ea 6f 33 3d d0 64 36 3d
       0.039763693 0.042821784 0.0438079 0.044529736
000230 32 de 36 3d de 47 3a 3d 5f 95 34 3d 10 4a 35 3d
       0.044645496 0.045478694 0.044087764 0.044260085
000240 66 88 2d 3d e3 f0 12 3d 90 2c da 3c df 8e 62 3c
       0.042366408 0.03587426 0.026632577 0.013828008
000250 90 8d b7 b9 5b af 80 bc 43 9e 27 3c 0b 6e 3a 3c
       -0.00035009952 -0.015708616 0.010230604 0.011378775
000260 7d 26 4a 3c 91 2a 38 3c c4 f6 32 3c 51 b6 28 3c
       0.012338278 0.011240617 0.010923091 0.010297374
000270 a4 c7 23 3c 1d 13 27 3c 3a a1 1f 3c 5a 5f 1c 3c
       0.0099963285 0.010197428 0.009743029 0.009544218
000280 d5 db 16 3c 43 0d 18 3c e6 61 14 3c 0b 8c 0f 3c
       0.0092076855 0.009280506 0.009056544 0.008761416
000290 ea b2 11 3c 75 69 17 3c ae 90 1e 3c f4 36 2c 3c
       0.008892754 0.0092414515 0.009678049 0.010511149
0002a0 c4 ac 30 3c b0 7c 35 3c d4 d7 33 3c 2e 88 3c 3c
       0.010783378 0.011077091 0.01097675 0.011507077
0002b0 cc 1b 3d 3c 9f 95 45 3c b9 14 1d 3c d8 39 11 3c
       0.011542272 0.012059598 0.00958746 0.008863889
0002c0 2c 06 0d 3c cb 4d 03 3c 8e 99 fb 3b 8b bb 9d 3c
       0.0086074285 0.008014153 0.0076782173 0.019254467
0002d0 8a 2e eb 3c ee c6 04 3d 46 1f 15 3d 20 f6 02 3d
       0.028708715 0.032416277 0.036406778 0.031973004
0002e0 6a 08 00 3d 3c ce f1 3c 95 97 e4 3c e7 e7 fe 3c
       0.031258024 0.029517286 0.027904311 0.031116439
0002f0 f8 66 f0 3c 8a c8 eb 3c f6 32 f1 3c 14 0e 03 3d
       0.029345974 0.028782148 0.029443245 0.031995848
000300 48 f4 03 3d 7c 7b 04 3d bb ae 0b 3d c6 2b 1a 3d
       0.032215387 0.032344326 0.034102183 0.0376394
000310 12 cd 33 3d ff 19 43 3d 3d dd 48 3d 4d 27 4d 3d
       0.043896742 0.047632214 0.049039114 0.05008631
000320 0c a8 4d 3d e1 01 53 3d ab 80 4d 3d 82 29 50 3d
       0.05020909 0.051515464 0.050171535 0.050820835
000330 17 4c 3f 3d c7 70 23 3d 86 73 fd 3c ca 46 95 3c
       0.046703424 0.039902475 0.030938875 0.018222231
000340 1e 8b 95 3b a0 70 4d 3a c0 8a 23 3d 53 1f 3b 3d
       0.004563703 0.0007836912 0.039927244 0.04568417
000350 d2 5f 59 3d 73 3f 3b 3d f5 ac 37 3d 24 9f 2d 3d
       0.053069897 0.045714807 0.04484268 0.042388096
000360 0e 0d 21 3d f5 49 3f 3d d0 af 32 3d 5b 58 2f 3d
       0.03931909 0.04670139 0.0436247 0.04280887
000370 b7 f2 3a 3d 8c bb 53 3d ee a6 58 3d 82 35 5c 3d
       0.045641627 0.05169253 0.05289357 0.053761967
000380 53 0f 6c 3d 4f ab 85 3d 6e 69 a2 3d 0e 36 b0 3d
       0.0576318 0.06526815 0.07930265 0.0860406
000390 92 8f b5 3d 54 e9 b8 3d d5 ea b9 3d 8d 4a bd 3d
       0.088652745 0.09028879 0.09077994 0.09242735
0003a0 e4 af b6 3d 30 7c b7 3d 06 4d b1 3d 0b fc 93 3d
       0.08920267 0.08959234 0.08657269 0.07225808
0003b0 1f d8 51 3d 51 b5 b4 3c b1 ce 29 bc 12 26 57 bd
       0.0512315 0.022059115 -0.0103642205 -0.05252654
0003c0 4a d7 c6 3c 06 73 e0 3c 25 e6 fc 3c 21 53 dd 3c
       0.02427258 0.027398597 0.03087146 0.027017178
0003d0 6c 90 d8 3c be ab cc 3c a6 c9 c0 3c 67 86 d9 3c
       0.026436053 0.024984237 0.023533653 0.026553346
0003e0 d6 cc cc 3c ca c4 c8 3c 98 f9 ce 3c 7f e6 e2 3c
       0.025000017 0.024507899 0.0252655 0.0276978
0003f0 30 16 e5 3c c8 ba e6 3c f7 2b f4 3c 1a 83 07 3d
       0.027964681 0.028165236 0.02980612 0.033084013

exp_avg_sq f4 [20, 30]
000000 69 38 79 3b e5 a4 72 3b ab 68 6c 3b de cd 6b 3b
       0.0038028008 0.0037024554 0.003607313 0.003598086
000010 2a 70 68 3b 24 28 68 3b 42 d5 64 3b 65 87 61 3b
       0.0035467246 0.0035424316 0.003491715 0.0034412977
000020 e8 18 61 3b ec 73 60 3b 3c 39 5f 3b 26 3a 60 3b
       0.003434712 0.0034248782 0.0034061214 0.0034214347
000030 f8 ac 60 3b e9 25 5f 3b 58 06 60 3b 00 0f 63 3b
       0.0034282785 0.0034049696 0.0034183469 0.0034646392
000040 ad e8 64 3b 84 f4 66 3b 96 ed 6a 3b 97 2e 6a 3b
       0.0034928725 0.0035240958 0.0035847179 0.0035733336
000050 79 70 6a 3b 06 8d 68 3b e3 e0 66 3b 72 4d 67 3b
       0.0035772605 0.0035484447 0.0035229258 0.0035293964
000060 cb 27 69 3b 4c 2b 6b 3b 8a 3d 6b 3b 37 72 6c 3b
       0.0035576697 0.0035883961 0.0035894834 0.003607882
000070 48 ef 70 3b 99 0c 81 3b 8c 97 1a 3a b5 c8 18 3a
       0.0036763716 0.0039382693 0.0005897216 0.00058282475
000080 af e2 16 3a 48 d1 15 3a 3e 89 13 3a ff 89 13 3a
       0.00057558244 0.0005715084 0.00056280557 0.0005628168
000090 5f f8 11 3a a7 17 10 3a 29 b5 11 3a 6c 38 11 3a
       0.0005568321 0.00054966885 0.0005558306 0.00055397185
0000a0 72 dd 10 3a de 8c 11 3a 6a 93 11 3a 1a f5 0f 3a
       0.0005526162 0.0005552302 0.00055532774 0.000549154
0000b0 c7 c6 11 3a e1 1e 12 3a f0 fd 12 3a a1 c3 12 3a
       0.0005560931 0.00055740593 0.00056072976 0.0005598609
0000c0 17 f7 13 3a 33 3c 13 3a 0f 4c 13 3a 19 80 13 3a
       0.0005644424 0.00056165754 0.00056189386 0.0005626693
0000d0 4a 8b 17 3a 1b 81 1d 3a f6 dc 24 3a 95 0a 31 3a
       0.00057809486 0.0006008313 0.0006289029 0.0006753591
0000e0 5a de 4f 3a 45 4c 6d 3a f3 8f a3 3a 97 8b 4e 3b
       0.00079295563 0.00090521976 0.0012478813 0.0031516307
0000f0 66 c4 e8 35 a5 9d e8 35 15 4d e7 35 8d bd e9 35
       1.7342506e-06 1.7331228e-06 1.7233275e-06 1.7415019e-06
000100 c6 62 eb 35 32 8f ed 35 06 7f ee 35 e0 53 ec 35
       1.7537611e-06 1.7699551e-06 1.776935e-06 1.7607781e-06
000110 22 7b ef 35 00 2e f0 35 13 ba f3 35 d0 62 00 36
       1.7842724e-06 1.7894781e-06 1.8159066e-06 1.9131003e-06
000120 93 38 02 36 ea 3a 03 36 4c 6c 05 36 e3 c0 06 36
       1.940444e-06 1.9554814e-06 1.9881581e-06 2.007983e-06
000130 94 fa 07 36 5e 51 09 36 1f a1 0c 36 c8 7d 0e 36
       2.0262423e-06 2.0461953e-06 2.095541e-06 2.1232863e-06
000140 eb 7b 11 36 a0 e4 13 36 82 d7 2e 36 5e 75 32 36
       2.1678813e-06 2.2037784e-06 2.6053463e-06 2.6592384e-06
000150 1f 0f 37 36 61 90 3a 36 14 a8 3c 36 31 f3 41 36
       2.7277927e-06 2.78002e-06 2.8112017e-06 2.8900797e-06
000160 f0 06 49 36 1b 07 4c 36 b9 4c d3 3b 2e c9 cd 3b
       2.9955372e-06 3.0402505e-06 0.006448355 0.006280086
000170 d4 9a c8 3b a2 de c7 3b d9 cd c4 3b 47 c5 c4 3b
       0.0061219726 0.006099538 0.0060059843 0.0060049626
000180 63 0d c2 3b 83 25 bf 3b 2b 54 bf 3b e2 da be 3b
       0.005922006 0.005833329 0.005838891 0.0058244327
000190 bb e3 bd 3b c4 df be 3b 99 a7 be 3b 18 c9 bc 3b
       0.00579497 0.005825015 0.005818319 0.005761277
0001a0 9a 9f bd 3b 1a c6 bf 3b 45 f6 c0 3b 7a c8 c2 3b
       0.0057868483 0.005852473 0.0058887326 0.005944309
0001b0 7f 41 c6 3b e0 5c c5 3b 9a 48 c5 3b 6f 86 c3 3b
       0.006050288 0.0060230345 0.0060206177 0.0059669535
0001c0 9a ff c1 3b 7e b4 c2 3b 24 25 c5 3b ae fa c6 3b
       0.0059203627 0.0059419265 0.0060163904 0.006072364
0001d0 3e a4 c8 3b 2f ed ca 3b c5 64 d0 3b 77 f8 da 3b
       0.006123095 0.0061928253 0.006359669 0.0066824513
0001e0 6a 59 2c 3a 5c 71 28 3a e6 f0 26 3a da ef 26 3a
       0.0006574603 0.0006425583 0.0006368294 0.0006368138
0001f0 16 02 25 3a 6d fc 27 3a ef 03 26 3a 6c 6d 23 3a
       0.00062945613 0.0006408159 0.00063329836 0.00062342617
000200 12 99 25 3a 84 02 25 3a 4d 73 24 3a dc df 25 3a
       0.000631706 0.00062946253 0.00062732847 0.0006327608
000210 0d a5 20 3a a3 1d 1b 3a c3 7c 19 3a 9b 13 17 3a
       0.000612811 0.0005917197 0.0005855078 0.00057631143
000220 9b d1 15 3a 52 31 16 3a 36 61 18 3a 29 3c 14 3a
       0.00057151326 0.0005729395 0.00058128254 0.00056547165
000230 55 1a 13 3a 9a 9b 12 3a 38 04 0f 3a c0 87 0c 3a
       0.0005611529 0.00055926444 0.0005455646 0.00053608045
000240 b1 3b 0e 3a b5 f8 0d 3a cc 38 0f 3a d5 4a 12 3a
       0.0005425765 0.00054157834 0.00054634805 0.0005580609
000250 3c cd 17 3a b4 d2 1d 3a 8e cf df 39 ac 49 da 39
       0.0005790775 0.0006020472 0.00042688515 0.0004163509
000260 ce 64 d5 39 e4 0f d6 39 d9 1c d4 39 34 47 d3 39
       0.0004070163 0.000408291 0.00040457284 0.00040298107
000270 ad 21 d0 39 1b 1a ce 39 f0 d6 cb 39 f6 6d ca 39
       0.00039697942 0.00039310832 0.00038879318 0.0003861037
000280 34 78 c9 39 f3 8b c9 39 23 42 cb 39 df 57 cc 39
       0.00038427266 0.00038441978 0.00038768453 0.0003897538
000290 bf 44 cc 39 bc 78 cf 39 e0 ca d2 39 20 17 d2 39
       0.00038961132 0.0003957207 0.00040205475 0.0004007155
0002a0 9e 67 d3 39 90 40 d3 39 49 77 d6 39 ee f6 d7 39
       0.00040322257 0.0004029316 0.00040906135 0.00041191973
0002b0 18 08 d9 39 b8 d0 d8 39 81 c7 d6 39 1f f4 de 39
       0.00041395496 0.00041354238 0.00040965903 0.00042525024
0002c0 8c a0 e6 39 98 29 ef 39 af e5 11 3a 5e b1 aa 3a
       0.00043988635 0.00045616622 0.00055655366 0.001302283
0002d0 b1 a2 95 3b bc c6 91 3b 7b 30 8e 3b d1 e3 8d 3b
       0.0045665135 0.00444874 0.0043392754 0.0043301363
0002e0 1d 03 8c 3b b7 c8 8b 3b eb bb 89 3b 1b d0 87 3b
       0.004272832 0.0042658704 0.00420331 0.004144681
0002f0 65 3f 87 3b a8 90 86 3b d7 b1 85 3b 6f 3f 86 3b
       0.0041274303 0.0041066 0.004080038 0.0040969173
000300 8c e5 86 3b 71 4f 86 3b 81 a7 86 3b cc 89 88 3b
       0.0041167196 0.0040988256 0.0041093235 0.0041668173
000310 b5 e1 89 3b 01 09 8b 3b 5d 56 8d 3b d1 26 8d 3b
       0.0042078146 0.0042430167 0.004313274 0.004307606
000320 76 7f 8d 3b 52 91 8c 3b d7 d5 8b 3b 4e 02 8c 3b
       0.004318173 0.0042897845 0.004267435 0.0042727357
000330 41 dd 8c 3b 48 47 8e 3b 04 b4 8d 3b 0c 3a 8e 3b
       0.0042988365 0.0043419935 0.004324438 0.004340416
000340 36 7a 91 3b 5d 7f a8 3b a8 65 dc 3b 4a e7 d5 3b
       0.0044396175 0.005142136 0.0067259856 0.006527816
000350 59 99 d1 3b fe 9a d0 3b 10 0b ce 3b 0c 86 ce 3b
       0.0063964543 0.0063661328 0.00628794 0.0063026007
000360 33 c8 cb 3b 48 c8 c8 3b d9 7c ca 3b 1d 3c c9 3b
       0.006218934 0.006127391 0.006179434 0.0061411993
000370 0e a4 c8 3b 45 cc c9 3b 5b 2b c7 3b db ae c3 3b
       0.0061230725 0.006158384 0.0060781664 0.005971772
000380 c2 84 c4 3b 3e 65 c5 3b c5 6e c5 3b f9 05 c7 3b
       0.0059972713 0.006024032 0.0060251676 0.00607371
000390 72 95 ca 3b cd c1 c8 3b e5 1f c8 3b 4b 10 c7 3b
       0.006182366 0.0061266185 0.0061073177 0.0060749403
0003a0 4a 0c c5 3b 68 b8 c5 3b 1b 99 c9 3b ec 5a cc 3b
       0.006013428 0.006033946 0.006152285 0.0062364247
0003b0 b3 3e d2 3b 0c 5c d8 3b f7 dc e4 3b 2a 7e fb 3b
       0.0064161657 0.0066027697 0.006984349 0.007674952
0003c0 db fb 2d 3b 37 5e 29 3b 61 0c 25 3b 15 95 24 3b
       0.0026547823 0.002584351 0.002518438 0.0025113274
0003d0 ee 2f 22 3b da 13 22 3b e7 c9 1f 3b 65 77 1d 3b
       0.0024747807 0.002473107 0.0024381818 0.0024027464
0003e0 ea 4a 1d 3b a2 d9 1c 3b 56 02 1c 3b d7 b9 1c 3b
       0.002400095 0.002393343 0.0023805103 0.002391448
0003f0 42 bf 1c 3b c9 7a 1b 3b be 04 1c 3b df f9 1d 3b
       0.002391771 0.0023724309 0.0023806538 0.0024105234

exp_avg f4 [20]
000000 6b 6e 08 3d c6 80 cc bb ff 02 1b af eb a8 39 3d
       0.033308428 -0.006240937 -1.4098232e-10 0.04532711
000010 e6 ce f2 3c e3 99 29 3c 1e f5 0d 3d b2 c8 60 3d
       0.029639672 0.010351631 0.03465759 0.054878898
000020 ae 11 f4 3c 76 d0 8d 3c b0 92 84 3c 8b f8 8f 3d
       0.029793587 0.017311316 0.016183227 0.07029828
000030 99 84 8c 3d ce 8a 56 3c 18 69 29 af b3 58 8d 3d
       0.068612285 0.013094617 -1.5407797e-10 0.06901684
000040 32 b7 35 3b 52 d2 57 3c 94 93 c8 ac 66 f4 9b 3d
       0.00277276 0.013172703 -5.7007263e-12 0.07614975

exp_avg_sq f4 [20]
000000 ac d0 5d 3b 30 fe 10 3a 8d d5 0d 36 79 1f bc 3b
       0.0033846302 0.0005531041 2.113494e-06 0.0057410565
000010 83 ab 16 3a 1d 65 c6 39 d3 fe 84 3b 97 e7 c3 3b
       0.0005747603 0.00037840838 0.0040586977 0.0059785354
000020 8e 6f 1a 3b 40 f8 68 3a 76 54 43 3a df 64 67 3c
       0.0023565027 0.000888709 0.00074512453 0.014123171
000030 30 97 a8 3b 0f 39 f4 39 bf 20 e6 35 8f 88 9e 3c
       0.005144976 0.0004658182 1.7145866e-06 0.019352226
000040 3c 2c 09 39 f0 24 f9 39 b3 40 32 36 a6 fd ae 3c
       0.00013081817 0.00047520502 2.6561727e-06 0.021361183

exp_avg f4 [20, 20]
000000 a4 a8 d3 3c 04 7e b7 3d 3a 9d 42 30 3e c5 3a bb
       0.02583725 0.089595824 7.080022e-10 -0.0028498913
000010 e0 ae 0d 39 fc 21 89 3d e6 35 b8 3c 9e d0 49 bc
       0.00013511954 0.06695935 0.022486638 -0.012317805
000020 8c 27 ce 3b ce 7f 5a 3d 34 ce 51 3d e4 8a 98 bb
       0.0062913354 0.05334454 0.05122204 -0.004655229
000030 bd eb 2e bc c8 72 37 3d 86 ae 64 2f 63 6d a0 3b
       -0.010676322 0.0447872 2.0798482e-10 0.0048958524
000040 0a b8 73 3d 1e 04 30 3d c9 1d 98 2e 8f a3 86 3b
       0.059501685 0.042972676 6.9174506e-11 0.004108853
000050 68 a7 6f bd 1a 3e 2a be f9 18 54 b0 7a e4 f2 bb
       -0.05850926 -0.16625252 -7.716064e-10 -0.0074124904
000060 71 69 ec bb c5 f2 03 be 0c 37 49 bd dd 3b d5 3b
       -0.007214718 -0.12885578 -0.049124762 0.0065073804
000070 12 df df bc e0 3a d6 bd a8 27 d3 bd 88 3f e6 bb
       -0.027328048 -0.10460448 -0.10310298 -0.0070266165
000080 80 dc 8c 3b d3 84 be bd 13 6c 8a af 59 f5 5d bc
       0.0042987466 -0.09302678 -2.5178845e-10 -0.013547265
000090 89 7d eb bd 3a 19 b5 bd ea a6 04 30 a3 89 87 bc
       -0.11498553 -0.08842702 4.825852e-10 -0.016545122
0000a0 41 0c cd bc 49 c8 92 bd 31 8b 83 af 5f d3 3e bb
       -0.025030257 -0.071671076 -2.3927663e-10 -0.0029117686
0000b0 b1 05 41 bb f5 3e 63 bd 6e 65 ac bc 32 8f 50 3b
       -0.0029452855 -0.055479962 -0.02104446 0.0031823632
0000c0 a0 4f 3b bc ad 55 38 bd ba 67 35 bd 72 f8 30 bb
       -0.011432558 -0.04500358 -0.044288374 -0.0027003554
0000d0 fc b7 11 3b 98 69 23 bd 0f 10 89 2e 9d b9 bc bb
       0.0022234907 -0.039895624 6.232891e-11 -0.0057594315
0000e0 1e 9c 4a bd 92 74 1b bd 91 24 0f b0 51 e4 e4 bb
       -0.04946529 -0.037952967 -5.207506e-10 -0.0069852252
0000f0 f0 b9 ef 3c fa 77 a7 3d cb 91 35 30 b8 98 87 3b
       0.029263467 0.081771806 6.60546e-10 0.0041380785
000100 75 b5 78 3b 3f 47 82 3d 79 bc c8 3c 44 4c 2a bb
       0.0037949954 0.06361245 0.024503933 -0.00259854
000110 e4 18 66 3c 90 df 53 3d d1 19 51 3d 7d 3c 86 3b
       0.01404402 0.051726878 0.05105001 0.0040965662
000120 bf 75 cd ba f6 11 3d 3d de 14 d7 af 8a a8 e1 3b
       -0.001567535 0.046159707 -3.91231e-10 0.0068865465
000130 23 5a 68 3d 74 b2 33 3d d0 4d 4a 2d 3d 84 0c 3c
       0.056726586 0.043871358 1.14996485e-11 0.00857645
000140 8a 8d 7b bd 12 7a 40 be b3 b6 ff 2e b1 66 32 bb
       -0.06141428 -0.18796566 1.16285113e-10 -0.0027221853
000150 b5 82 a6 bb 8a 11 13 be 52 ed 55 bd 78 21 6f 3c
       -0.0050814995 -0.1436216 -0.05222828 0.014595382
000160 0f 1f c4 bc 5a 0c ed bd 03 6e e7 bd fe d6 7c ba
       -0.023940591 -0.115746215 -0.1130028 -0.00096450734
000170 90 f1 3f 3c e6 5c ce bd 4d 3d 1d b0 a6 4a 59 bc
       0.011715308 -0.10076313 -5.720338e-10 -0.0132624265
000180 18 0c 03 be 36 d3 c4 bd cc 2d ef 2f 9f b5 70 bc
       -0.12797582 -0.09610598 4.3506387e-10 -0.014691739
000190 a6 1d 69 3d 90 56 30 3e d6 47 13 b0 08 c3 3f 3b
       0.05691304 0.17220521 -5.3580373e-10 0.0029260535
0001a0 92 b9 9b 3b fd 14 07 3e 2f cd 45 3d c6 78 55 bc
       0.0047523463 0.131916 0.04829138 -0.013029283
0001b0 49 8c b7 3c 3a fd d9 3d dc 99 d4 3d 54 4c c6 3a
       0.02240576 0.10644002 0.10380909 0.0015128949
0001c0 aa 1d 2c bc be d1 bd 3d be 7c c9 ad bf a4 4e 3c
       -0.010505119 0.09268521 -2.2906451e-11 0.012612521
0001d0 01 56 f0 3d fe 26 b5 3d 9c 35 15 30 98 77 67 3c
       0.11735154 0.08845328 5.428207e-10 0.0141276345
0001e0 d9 a3 92 3d 4c 22 5b 3e c0 2c 1b 2f ee fe a7 3b
       0.07160158 0.21399802 1.4113066e-10 0.0051268255
0001f0 6e c3 e1 3b 1a 2e 28 3e f0 5d 78 3d 6e bf 65 bc
       0.006889752 0.16423836 0.06063646 -0.014022691
000200 84 b1 f3 3c a0 d9 07 3e 9a 09 05 3e 71 4b 6b 3b
       0.029747732 0.13266611 0.12991944 0.003590312
000210 72 2f 32 bc 1c 2b ee 3d 2a 78 f1 af a7 b2 81 3c
       -0.01087557 0.11629316 -4.3923026e-10 0.015832258
000220 a5 f0 15 3e 88 e6 e2 3d be b5 f4 af 88 a8 94 3c
       0.1464258 0.110791266 -4.4512477e-10 0.018146768
000230 7a 5b 77 3d aa 97 38 3e 98 4f 8f 2e 01 08 90 3b
       0.060389973 0.18026605 6.517026e-11 0.0043954854
000240 dd 74 bf 3b ea b4 0d 3e 7e 6d 51 3d 09 f4 3f bc
       0.0058427886 0.13838544 0.05112981 -0.011715897
000250 01 0d ce 3c 1c f6 e4 3d 03 3f e0 3d ea d1 4c 3b
       0.025152685 0.11179754 0.109495185 0.0031253048
000260 8b a8 14 bc 50 c1 c8 3d bd 46 30 2e 7a 0a 5b 3c
       -0.009073387 0.098024964 4.0080595e-11 0.013369197
000270 0f ab fc 3d 5a 41 bf 3d 38 cf 28 30 d5 89 7b 3c
       0.12337314 0.09338637 6.141252e-10 0.015352686
000280 f8 05 04 3d 6c df b4 3d 1c 8c ab af cd 3b a9 3b
       0.032232255 0.08831677 -3.1204272e-10 0.0051645995
000290 3e 38 92 3b 56 4b 8d 3d 6e 68 dc 3c 18 77 fd ba
       0.004462271 0.06899135 0.026905265 -0.0019337861
0002a0 72 3c 83 3c 9c 3e 66 3d da b3 63 3d 21 bb ad 3b
       0.016020034 0.056212053 0.05559144 0.0053018485
0002b0 30 74 67 ba 1a 7a 4e 3d 7a 49 77 2f d4 f9 fc 3b
       -0.0008829264 0.050409414 2.2490623e-10 0.0077202115
0002c0 22 f5 7b 3d 58 22 44 3d 1f e8 83 2f 08 bc 20 3c
       0.061513074 0.047884315 2.3993693e-10 0.009810455
0002d0 bc 3b 8e 3d c6 1b 52 3e 07 3c 23 af 9a c5 b7 3b
       0.06944987 0.20518407 -1.484609e-10 0.0056082727
0002e0 91 58 e2 3b a9 ac 21 3e be 71 70 3d e9 60 4f bc
       0.0069075306 0.15788521 0.058702223 -0.0126573825
0002f0 2c 7c f0 3c 3a be 02 3e f3 12 00 3e 74 cc 8f 3b
       0.029356085 0.12767878 0.12507229 0.0043883864
000300 6a dc 1f bc b2 93 e5 3d 13 11 a8 ae 28 76 7f 3c
       -0.009757141 0.11209811 -7.6427885e-11 0.0155921355
000310 5d ff 0f 3e b6 c3 da 3d ce 85 c9 2f 64 c0 94 3c
       0.14062257 0.1068186 3.665676e-10 0.018158145
000320 48 b9 64 bd e6 13 35 be 61 b9 4b 2f cc b9 34 b9
       -0.05584076 -0.17683372 1.8528602e-10 -0.00017235352
000330 60 1c 61 bb 24 7f 09 be f6 ab 43 bd 30 20 8a 3c
       -0.0034349188 -0.13427407 -0.047771417 0.016861051
000340 3f 37 a0 bc 71 ea dc bd 7a 96 d6 bd 75 d3 04 3b
       -0.019557593 -0.10786904 -0.1047792 0.002026764
000350 bf 8b 65 3c 9f 50 be bd db ea 49 b0 56 03 40 bc
       0.014010369 -0.09292721 -7.3457124e-10 -0.011719545
000360 30 c9 f4 bd 9d d7 b5 bd 5f 0e 1f 2e 45 0a 48 bc
       -0.11952436 -0.088790156 3.616518e-11 -0.01220948
000370 c5 b3 9f bc dd 28 38 bd 06 d2 5b b0 fb 87 d0 bb
       -0.0194949 -0.044960845 -7.9970197e-10 -0.0063638664
000380 92 9c 8d bb c1 55 15 bd 04 e4 81 bc 04 8d 7a bb
       -0.004321643 -0.036458734 -0.015855797 -0.0038231025
000390 fe fd 50 bc 3a d1 f7 bc f7 1d fb bc 86 fc ee bb
       -0.012755869 -0.030251134 -0.030653937 -0.0072932867
0003a0 f6 f4 86 bb 9e 0c ea bc 9b 40 3a af d2 b1 ab bb
       -0.004118557 -0.02857047 -1.6939554e-10 -0.0052397037
0003b0 04 c7 05 bd 7e 7e dc bc fe 15 09 ae 9b cc f8 bb
       -0.0326605 -0.026915785 -3.1169727e-11 -0.0075927502
0003c0 c2 73 34 bd c1 e7 09 be 3f f5 c6 2f 61 1f ed ba
       -0.044055708 -0.13467313 3.6190248e-10 -0.0018091017
0003d0 ba b2 65 bb 36 e4 d2 bd 06 70 19 bd 4c 92 2f 3c
       -0.0035049156 -0.10297434 -0.03746035 0.010716032
0003e0 3a f9 8a bc dd fb a9 bd ac bd a5 bd 35 b6 1a ba
       -0.016964544 -0.08299992 -0.08092818 -0.0005901785
0003f0 c5 7e 0e 3c c0 b6 93 bd 5c 46 03 2f dc e6 1c bc
       0.008697216 -0.07212591 1.1939377e-10 -0.009576526

exp_avg_sq f4 [20, 20]
000000 8a e6 ec 3b 06 90 e4 3c 3f 4a 0d 35 75 39 77 3a
       0.007229631 0.027900707 5.2634635e-07 0.0009430864
000010 9a 79 7b 38 9c 63 ac 3c dd 08 9b 3b 1c 9a 6f 39
       5.9956314e-05 0.021043591 0.004731281 0.00022850226
000020 dd 1c 42 3b 13 f4 7f 3c 6c 6b 83 3c 7e c0 a4 3a
       0.0029619255 0.015622157 0.016042434 0.0012569574
000030 34 85 d7 38 1b 8a 4d 3c d3 56 9c 34 13 10 1d 3a
       0.0001027681 0.012545134 2.9120437e-07 0.000599147
000040 48 ec 6b 3c 7f 3c 3f 3c 9e dc 86 35 8b e7 99 3a
       0.014399596 0.011672138 1.0047986e-06 0.0011741979
000050 f4 18 6a 3c 2f 81 6f 3d 7e 7a 8b 36 a1 bd cc 3a
       0.014288176 0.05847281 4.156783e-06 0.0015620479
000060 f7 91 f2 38 88 d9 33 3d 52 2c 1d 3c 4f 42 a6 39
       0.00011566647 0.043908626 0.009593086 0.0003171139
000070 b3 80 b9 3b 43 4a 04 3d 1b 39 08 3d ea 72 ef 3a
       0.005661094 0.032297384 0.033257585 0.00182685
000080 29 4e 2d 39 2f ef d4 3c 80 75 a6 35 fc 18 66 3a
       0.00016527683 0.025992958 1.2402161e-06 0.00087775267
000090 a2 24 f5 3c 17 b2 c5 3c cd 3c 89 36 f1 14 f2 3a
       0.029924694 0.024132771 4.0899963e-06 0.0018469376
0000a0 3f 7c 33 3b a4 e3 39 3c 00 cd 1b 35 d7 61 94 39
       0.002738729 0.011345778 5.8040314e-07 0.00028301656
0000b0 fc c4 b9 37 b2 2d 0b 3c fc ca f0 3a 81 dc 82 38
       2.2145447e-05 0.008494781 0.0018371041 6.239955e-05
0000c0 31 27 8c 3a d3 93 cb 3b 07 de d1 3b 8f 0b b4 39
       0.0010692832 0.0062126904 0.0064046416 0.00034340887
0000d0 91 fb 05 38 44 f1 a4 3b ab e2 50 34 38 04 35 39
       3.194396e-05 0.005033644 1.9453971e-07 0.00017263077
0000e0 7a 9b bd 3b 02 35 99 3b 6b 82 33 35 d2 e3 bd 39
       0.0057863565 0.0046755085 6.687248e-07 0.00036218629
0000f0 d6 f1 5b 3b a1 e8 62 3c aa ab 54 35 88 15 bd 39
       0.0033560893 0.013849408 7.922596e-07 0.0003606493
000100 e8 56 e1 37 46 32 2a 3c b1 30 14 3b 4c 82 9e 38
       2.6862559e-05 0.010387963 0.002261203 7.558297e-05
000110 a2 c6 ad 3a 56 de f9 3b 35 be 00 3c 42 88 db 39
       0.001325805 0.0076253815 0.007857849 0.00041872455
000120 59 ab 23 38 26 68 c9 3b 24 59 83 34 a3 1c 57 39
       3.902181e-05 0.0061464487 2.446551e-07 0.00020514666
000130 da c3 e7 3b 6a f1 ba 3b d4 c9 5e 35 f9 17 e3 39
       0.007072908 0.0057050483 8.2995143e-07 0.00043314675
000140 24 74 b3 3c c6 c0 b6 3d 89 71 e9 36 ef ea 1b 3b
       0.021905966 0.08923487 6.9571583e-06 0.0023791154
000150 5c a7 41 39 24 c2 88 3d 08 92 6d 3c 4e e4 13 3a
       0.0001846826 0.066776544 0.014500149 0.0005641625
000160 16 4e 0d 3c 5c 32 48 3d 6d 3a 4e 3d e0 1c 4c 3b
       0.008624574 0.04887615 0.050348688 0.003114514
000170 fc 30 91 39 5a 9f 22 3d 8b 6f 32 36 14 0b ca 3a
       0.0002769305 0.03970275 2.6588993e-06 0.0015414678
000180 48 e9 3a 3d 70 36 17 3d 69 f3 13 37 88 79 4f 3b
       0.04563263 0.03691715 8.818556e-06 0.0031658132
000190 7b 90 87 3c e6 db 8f 3d cf 88 b3 36 e3 f9 db 3a
       0.016548386 0.07024364 5.3505423e-06 0.0016782846
0001a0 d7 8c 24 39 6e cb 54 3d 4b 13 35 3c d4 4b e0 39
       0.00015692726 0.05195182 0.011051963 0.00042781106
0001b0 9b 73 d2 3b 5e 7e 1a 3d 3e c9 1f 3d 91 f5 10 3b
       0.0064224727 0.03771817 0.03901028 0.0022119025
0001c0 90 56 6f 39 d8 c5 fb 3c f1 65 09 36 36 14 8d 3a
       0.00022825063 0.030733988 2.0473929e-06 0.001076347
0001d0 14 83 12 3d af 0a ea 3c be 8f e3 36 58 b3 18 3b
       0.035769537 0.028569547 6.781861e-06 0.0023300257
0001e0 80 75 da 3c a5 2b e0 3d 82 2d 31 37 08 2d 39 3b
       0.026667356 0.109458245 1.0560618e-05 0.00282556
0001f0 16 22 6a 39 04 ad a7 3d 9f 15 91 3c a0 59 2b 3a
       0.00022328677 0.08187297 0.017710505 0.00065364875
000200 19 53 2b 3c 0f 38 75 3d a9 a3 7c 3d a7 d5 6d 3b
       0.010456824 0.059867915 0.061679516 0.0036290677
000210 c9 c6 ab 39 26 2b 47 3d 26 76 7d 36 ec 8a eb 3a
       0.00032763768 0.048625134 3.776871e-06 0.0017970479
000220 83 fc 64 3d 75 25 39 3d 26 1e 50 37 8e 53 74 3b
       0.055904876 0.045201737 1.2404786e-05 0.0037281248
000230 a2 c1 92 3c 33 16 99 3d 3d 93 8c 36 5d 83 f2 3a
       0.017914597 0.07474937 4.189466e-06 0.0018502284
000240 86 79 25 39 07 ca 63 3d d6 5e 43 3c e5 1a ea 39
       0.00015780897 0.05561259 0.011924466 0.00044651996
000250 46 07 e5 3b 20 d2 25 3d d0 2a 2b 3d 71 e6 1d 3b
       0.0069893925 0.040483594 0.041788876 0.0024093653
000260 5d f3 70 39 46 1d 07 3d 21 87 c1 35 b3 12 9b 3a
       0.00022978843 0.0329869 1.4418948e-06 0.0011831134
000270 ac 1a 1c 3d 59 30 fb 3c e9 a6 a0 36 75 ff 23 3b
       0.038111374 0.030662702 4.7878025e-06 0.002502409
000280 67 42 77 3b 4a d5 7b 3c cd 02 87 35 dd c4 e3 39
       0.0037728788 0.015370676 1.0059099e-06 0.00043443489
000290 c0 a3 f8 37 ff 9c 3d 3c 08 21 27 3b 11 4f b5 38
       2.9640156e-05 0.011573075 0.0025501866 8.64548e-05
0002a0 9f 4f c7 3a ff 07 0c 3c 1a 2c 10 3c d7 24 fd 39
       0.0015206224 0.008546828 0.008799577 0.00048283368
0002b0 9d 84 39 38 73 42 e0 3b 4c f2 98 34 1c bb 6f 39
       4.4230943e-05 0.006843859 2.84885e-07 0.0002286252
0002c0 51 02 01 3c d7 f9 cf 3b e2 00 80 35 f2 ff fc 39
       0.007874087 0.006346922 9.537e-07 0.0004825588
0002d0 ec 85 c2 3c 41 c4 c9 3d 85 e3 09 37 7a f9 20 3b
       0.0237455 0.098518856 8.21881e-06 0.0024562762
0002e0 97 58 53 39 61 a9 96 3d 77 de 81 3c 61 33 15 3a
       0.0002015553 0.07356525 0.01585315 0.0005691555
0002f0 55 9b 17 3c 0d 1e 5c 3d a0 fb 62 3d 3d 9d 4b 3b
       0.009253343 0.053739596 0.05541575 0.0031069063
000300 3a 3f 99 39 b0 8f 32 3d e5 8d 41 36 59 52 cb 3a
       0.00029229542 0.043594062 2.8841835e-06 0.0015512212
000310 c8 d1 4d 3d 22 f7 25 3d 2b 05 22 37 34 72 55 3b
       0.05024889 0.040518887 9.657156e-06 0.003256929
000320 bc a4 9e 3c 5b 1f a5 3d 9b 74 60 36 e2 b0 08 3b
       0.01936566 0.08062621 3.3446474e-06 0.0020857383
000330 58 b1 3f 39 4d a2 74 3d 24 da 51 3c 9e cc 10 3a
       0.00018281245 0.059725095 0.012808356 0.00055236544
000340 73 15 f9 3b da ed 31 3d b5 d7 37 3d 1f 24 3c 3b
       0.007601434 0.043439724 0.04488345 0.0028708053
000350 c9 1a 92 39 6b 28 11 3d 33 fe b9 35 0e 98 b5 3a
       0.00027867247 0.035438936 1.3857556e-06 0.001385452
000360 f9 91 28 3d 90 08 07 3d 11 42 9a 36 39 fd 3e 3b
       0.041154835 0.03296715 4.597249e-06 0.0029142632
000370 e7 61 bd 3a f3 56 84 3b ae ce 0f 34 f0 58 b5 39
       0.0014448733 0.0040386855 1.3393102e-07 0.00034589274
000380 d6 57 ad 36 3d c3 5e 3b a5 2e 81 3a 46 59 37 38
       5.166027e-06 0.0033990883 0.000985582 4.3713742e-05
000390 a8 cc 40 3a cb fa 3c 3b bd 6b 3d 3b ca 7a a2 39
       0.0007354715 0.0028836008 0.0028903328 0.00030990533
0003a0 5e 24 82 37 de 84 03 3b 15 d7 ab 32 4d eb ef 38
       1.5514142e-05 0.0020068209 2.0004828e-08 0.00011440236
0003b0 44 59 13 3b b8 bb f1 3a 08 d2 50 33 fc 19 4c 39
       0.0022483626 0.0018442785 4.8619796e-08 0.00019464636
0003c0 15 b1 31 3c bc f5 37 3d 5e 8f 45 36 dc 09 97 3a
       0.010845442 0.044912085 2.9438738e-06 0.0011523324
0003d0 e7 1a ca 38 20 13 09 3d ce c1 ec 3b 4d 7d 91 39
       9.6371215e-05 0.033465505 0.0072252518 0.00027749912
0003e0 19 0f 8b 3b 6a 4e c8 3c 79 b6 ce 3c 47 5c c3 3a
       0.004243743 0.024451453 0.025233494 0.001490482
0003f0 8d 0c 15 39 24 7b a2 3c 31 6a 9c 35 4b a3 40 3a
       0.00014214423 0.019834109 1.1653811e-06 0.00073485513

exp_avg f4 [20]
000000 22 64 e3 3c 38 ad 62 bd 44 cf c2 bc 32 4f e0 3c
       0.027757708 -0.055340976 -0.023780473 0.027381513
000010 64 4b 79 bd c1 0c 65 3d 4c 27 8f 3d 28 48 71 3d
       -0.060862914 0.055920366 0.06989917 0.058906704
000020 8e 0c f4 3c ae c2 89 3d 80 95 67 bd 8d 6e 85 bc
       0.029791143 0.06726585 -0.05653906 -0.016288066
000030 e6 8e 32 bd 16 b0 2a bd bc 64 f1 bc fe d4 72 bc
       -0.04359331 -0.041671835 -0.02946698 -0.014821289
000040 ea b3 91 3c 14 78 12 3d d6 06 d5 3c ab 4b 3f bc
       0.017785985 0.035759047 0.026004236 -0.0116757555

exp_avg_sq f4 [20]
000000 3b 97 9f 3b 28 ba 29 3c fe 12 ff 3a de d3 1e 3b
       0.004870323 0.0103593245 0.0019460616 0.002423517
000010 53 45 7a 3c 4c 00 40 3c 0b 8a 9a 3c d2 5f 4e 3c
       0.015275317 0.011718821 0.018864652 0.0125960875
000020 77 d2 34 3b 28 4e 8a 3c 28 c3 5a 3c c9 b5 94 3a
       0.0027591267 0.01688297 0.013352193 0.001134568
000030 11 8a f9 3b a9 d4 b2 3b e6 fb ac 3b 25 d2 c1 3a
       0.0076153358 0.00545748 0.005279052 0.0014787359
000040 85 ed 28 3b 65 1f d5 3b 24 df 89 3b f7 ee 07 3a
       0.0025776338 0.0065039867 0.0042075086 0.000518545

exp_avg f4 [1, 20]
000000 c4 bc 4c ba b8 0c b2 bb 12 ba 83 bb 8c 23 8a 3b
       -0.00078101107 -0.005433645 -0.004019984 0.0042156633
000010 60 76 2e bb 84 6d f5 39 cc f4 4d 3b 17 88 78 3b
       -0.002662085 0.00046811637 0.0031426428 0.0037922913
000020 b4 52 9b 3b 73 97 80 3b 0d 5a 34 ba 6c f6 71 bb
       0.0047400836 0.003924304 -0.00068798737 -0.003692056
000030 6a ad ca ba 83 32 88 bb 9d c5 10 3a ba 50 8e 3a
       -0.0015463058 -0.004156412 0.0005522611 0.0010857799
000040 f6 1c a4 ba db 89 3e b9 0f ee b5 ba a8 e9 d3 ba
       -0.0012520838 -0.00018171167 -0.0013880151 -0.0016167657

exp_avg_sq f4 [1, 20]
000000 d0 e1 83 37 ba 88 ab 39 79 9a 4e 39 89 8b 42 39
       1.5721569e-05 0.0003271753 0.00019703236 0.00018553263
000010 52 b5 98 38 28 bb 7a 36 74 8c c8 38 93 ea 51 39
       7.281698e-05 3.7361842e-06 9.5629046e-05 0.00020019179
000020 97 86 a1 39 25 2f 3d 39 16 62 86 37 05 d7 1d 39
       0.0003080859 0.00018042007 1.601972e-05 0.00015052788
000030 d0 6b d7 37 75 d1 39 39 bc be 46 37 4f 67 c6 37
       2.5680201e-05 0.00017721004 1.18461285e-05 2.3651546e-05
000040 bc 85 02 38 48 9c 03 37 8f 9a 02 38 37 60 a6 37
       3.1118965e-05 7.8445955e-06 3.113836e-05 1.9833546e-05

exp_avg f4 [1, 20]
000000 d7 76 8c be e8 e9 ed be f6 ef ba be c6 c2 c9 3e
       -0.27434418 -0.4646752 -0.365112 0.39406413
000010 9f 9d cd bd 44 0e 6b bd 98 9a 27 3e 8a fe fb 3d
       -0.100398295 -0.05738665 0.16367567 0.12304409
000020 f8 63 ee 3e 9c 45 66 3e d2 d8 09 3e 78 be 0f bf
       0.46560645 0.22487491 0.13461617 -0.5615001
000030 8e 40 97 bc b8 62 d9 be e7 93 86 3e 01 88 aa 3e
       -0.0184634 -0.4245813 0.26284716 0.33306888
000040 96 e4 bc be 5a de 48 be e3 d8 a1 be cc f4 dc bd
       -0.36893147 -0.1961607 -0.31610784 -0.10788879
