deep-learning/rv_only/lightning_logs/version_75/checkpoints/epoch=4-step=250.ckpt (torch, 27739 bytes, 21 tensors)

model.nn.0.weight f4 [20, 30]
000000 9c 61 6d 3d c4 ec 17 3d 17 90 6f 3c 59 68 08 bd
       0.057954416 0.03709103 0.014621756 -0.03330264
000010 10 7e 16 bd 5f d8 b6 3b 1a 8e ec 39 a9 f8 83 bd
       -0.036741316 0.0055799927 0.00045119302 -0.064439125
000020 01 01 be 3b df ad 6a bd 30 e2 97 bd ac 57 29 bd
       0.0057984595 -0.057294723 -0.07416189 -0.041343376
000030 39 15 de bc dc e7 15 3d 8b e9 87 bd f9 87 80 bd
       -0.02710973 0.03659807 -0.06636342 -0.06275935
000040 24 aa 81 bc 9b 47 b1 bc 7d 8d 7f bd a2 b1 17 bd
       -0.0158282 -0.02164059 -0.062390793 -0.03703464
000050 92 35 8b 3c 0e ec 78 3c cc 47 c7 3c c1 5e 6a 3d
       0.016993318 0.015192999 0.024326228 0.05721927
000060 ec 31 77 3c 15 c3 87 3d 86 ba 9e 3d 53 b9 b7 3d
       0.015087586 0.06629006 0.0775042 0.08970895
000070 1a bf 33 3e a5 54 15 3e 15 ed 5e bd 34 ba ca bc
       0.17553368 0.1458307 -0.054425318 -0.024746992
000080 4a 08 ef 3c 09 5e 5b bd 40 54 06 bd 63 9e 46 3d
       0.029178757 -0.053556476 -0.03279519 0.048490893
000090 33 75 2a 3d fd 15 df 3c 32 15 f2 bc 01 63 e5 bc
       0.041615676 0.027232165 -0.029551122 -0.02800131
0000a0 2e e7 52 bd 86 4d 7c bc b6 5f c7 3c 7d 63 b8 3b
       -0.05149 -0.015399342 0.02433763 0.0056270943
0000b0 94 44 90 3c 1c 14 8c 3b 21 99 5e 3d 60 8e 39 bd
       0.017610826 0.004274858 0.054345254 -0.045301795
0000c0 68 a0 38 bd 07 13 44 bd a0 44 3c bd 28 c3 ff 3c
       -0.04507485 -0.04786971 -0.045963883 0.031220987
0000d0 1c 20 54 bd d3 e3 c2 bb 97 52 17 bd a6 80 fd bc
       -0.051788434 -0.005947569 -0.036944 -0.030945133
0000e0 a3 0c 3f 3b ec 2e 91 3c 95 06 e7 3c 0e 43 85 bd
       0.002915182 0.01772257 0.02820138 -0.0650693
0000f0 39 bc 00 3d f4 ae c5 bc 5f ad dd 3b b0 ae 7e 3d
       0.031429503 -0.024131276 0.006765052 0.062178314
000100 58 ab 3d bd 66 6a 70 3c 99 a8 c9 bc 60 07 b0 3b
       -0.046305984 0.014673805 -0.024616526 0.005371973
000110 22 00 ae ba 1e 17 5a bd 3c b6 8a 3d ae 07 41 bd
       -0.0013275186 -0.053244703 0.0677304 -0.047126465
000120 06 7a 14 3c 36 0d 27 bd 94 99 0e bd 23 e1 b1 bc
       0.009062296 -0.040784083 -0.034814432 -0.021713799
000130 04 50 db bc 5c 69 1f 3d 62 0f c4 bd 01 e6 db bc
       -0.026771553 0.038918838 -0.095732465 -0.026843073
000140 bf 69 ba bc 62 c7 55 bd ee 75 69 bc 78 e3 93 3c
       -0.022755502 -0.0521921 -0.014249308 0.018052801
000150 55 e4 66 bc 4e 1c 22 3d 21 11 cc 3d 00 7b d4 3d
       -0.014092525 0.039577775 0.099642046 0.10375023
000160 25 a8 11 3d 13 93 2f 3e 87 e9 c8 3d 72 dd 2b 3e
       0.035560746 0.17145948 0.09810167 0.16783693
000170 2b ea 28 3e 9b 57 e3 3d 84 04 f1 3d 06 b2 3c 3d
       0.16495578 0.11100694 0.117684394 0.046068214
000180 57 92 a3 3d e8 d2 14 3e cc 83 99 3d a9 91 24 3e
       0.079868965 0.1453358 0.074958414 0.1607119
000190 d6 b4 c8 3d 3a d9 fa 3d 75 d8 87 3d d9 dc 78 3d
       0.09800117 0.12248464 0.06633083 0.06075749
0001a0 20 d5 20 3e 6c 58 bc 3d 48 25 98 3d 5e 38 2f 3d
       0.157063 0.09196553 0.07428986 0.042778365
0001b0 05 ee 8c 3d 85 b4 e4 3d 8e c6 35 3d c2 8c ef 3b
       0.06881336 0.11167244 0.04437881 0.007310481
0001c0 52 09 cf 3d 5a 8c 7f 3d 21 9d e2 3d 2d e9 02 3e
       0.101091996 0.06238971 0.11065126 0.12784262
0001d0 9d 86 07 3d 9c 08 f5 3d 30 0c ca 3d 7c 2a 95 3c
       0.03308736 0.11964533 0.09865606 0.018208735
0001e0 e4 c8 d8 bc 6a 20 03 3c 8c 72 1d bd 79 c9 7f bd
       -0.02646298 0.008003334 -0.03843932 -0.062448
0001f0 d1 ab f0 3c 71 ad 0c bd 7f 90 11 bc c0 a2 b4 bc
       0.029378803 -0.034345094 -0.008884548 -0.022050261
000200 60 74 2b bd 3b 92 7f bd 76 3a 3b bd de f9 96 3c
       -0.04185903 -0.062395316 -0.04571005 0.018429693
000210 83 fc 1a bd 0a 13 1a ba 2d fc d8 bb 08 16 82 bd
       -0.03783847 -0.0005877471 -0.0066218586 -0.063518584
000220 eb dc 80 3d 62 96 a7 3c 53 06 28 3c c8 f0 46 3d
       0.06292137 0.02045745 0.010255414 0.04856947
000230 49 1e 6f bd 1d e2 6b 3d 03 47 07 bd 38 cc 05 3c
       -0.05837849 0.057588685 -0.033026706 0.008166365
000240 8e 7f d7 3d 90 d0 a8 3b 9b a1 03 3e 4b b2 ca 3d
       0.10522376 0.0051518157 0.12854616 0.09897288
000250 4f 42 e8 3d 1f 9e 4e 3e 69 2d d4 bb 11 1c c7 3c
       0.11340772 0.20177506 -0.00647514 0.024305375
000260 fd 66 4c bd 89 54 39 3d d8 bf 0c 3b 61 e3 3b bd
       -0.049902905 0.045246635 0.0021476652 -0.045871142
000270 e6 7e 82 bd 99 63 8d bc 64 0d cb bc f3 b4 cd 3c
       -0.0637186 -0.017259406 -0.024786659 0.025110697
000280 bf 0b 7b bb b8 41 db bb 07 31 91 bd 83 c3 82 3c
       -0.0038306562 -0.006691184 -0.07089429 0.015962368
000290 87 8d 99 bd f5 ee 1b 3d 2f 3d 26 bd 65 09 9a bd
       -0.07497697 0.038069684 -0.040585693 -0.07521323
0002a0 0b 58 59 bc 40 a0 71 bd 38 9d 93 bd 53 90 53 3c
       -0.01326562 -0.058990717 -0.072077215 0.012912828
0002b0 23 46 80 3d 63 97 41 3d e8 29 e6 3c a9 1b ad 3d
       0.062633775 0.047263514 0.028096154 0.084525414
0002c0 7c a9 7d 3c 30 cb 07 3e 50 59 10 3e bc 2f 0c 3e
       0.015482303 0.13261104 0.1409657 0.13690084
0002d0 c5 df ce 3c 7e 22 4c bd 9a 39 1b bd 40 fb cc 3c
       0.025253186 -0.04983758 -0.03789673 0.02502215
0002e0 b5 28 13 3d ce b3 03 bd a8 8a 69 bd 1c 8b 30 bd
       0.035927493 -0.032153897 -0.057017 -0.043101415
0002f0 d3 9d 0e 3d e2 62 3c bd 1e 16 34 3c 06 8f 52 3c
       0.03481848 -0.04599274 0.010991601 0.012851482
000300 b2 3b 81 bd ae 2e ea 3b e8 ef 07 bc 83 c3 2d bd
       -0.06310214 0.007146678 -0.008296944 -0.042422783
000310 de 28 a8 bd fb ae c7 ba 52 0c 18 3d cc 67 29 bd
       -0.0821092 -0.0015234643 0.037121125 -0.041358754
000320 0a a7 33 3d db 22 10 bc 97 10 ba bc 3d bb 15 bd
       0.043860473 -0.008797373 -0.022712989 -0.036555517
000330 d5 15 f9 3c de bc 75 bb 34 97 e8 3c dc 58 0c 3e
       0.030405918 -0.0037496607 0.028392412 0.13705772
000340 17 96 9b 3d 1a 5d fd 3d fb d0 1b 3d 3a a6 4c bd
       0.07596987 0.12371273 0.038041096 -0.049963214
000350 bb be e2 bc f9 73 16 bc 4c 83 7d bd fb 8a 84 bd
       -0.027678838 -0.0091829235 -0.061892793 -0.06471821
000360 ee f2 4f bb ad 44 a9 3c 95 0a 85 bd 2e e6 d3 bb
       -0.003173049 0.02066263 -0.06496159 -0.0064666485
000370 70 27 a8 bc 7a f6 69 bd 2a 6a 53 3b 7c da 06 bd
       -0.020526618 -0.057119824 0.0032259324 -0.032923207
000380 af ff 9b bd e6 87 5a 3d 2c c2 d2 3c 6c e3 22 bd
       -0.07617127 0.05335226 0.025727354 -0.039767668
000390 13 4a 4a 3d db cc 80 3c 54 e1 84 3d d6 45 00 bd
       0.04938705 0.015722683 0.064882904 -0.0313166
0003a0 eb 2a 45 bc c0 f7 b1 3d fe 8b 85 bb 1d f2 cb 3d
       -0.012034158 0.08689833 -0.0040755263 0.09958289
0003b0 32 d5 c8 3c 15 f7 c7 3d 0a bd 1c 3e 9a e2 2e 3e
       0.024515722 0.09763924 0.15306488 0.17078629
0003c0 57 0d 02 3e 80 c0 a1 3c 5e df fa 3d 92 6c e8 3d
       0.12700401 0.019745111 0.12249635 0.11348833
0003d0 2a 77 5b 3b af 85 fa 3d 9e 28 5d 3d 93 2a 11 3e
       0.0033487775 0.12232529 0.053993814 0.14176397
0003e0 81 6a 92 3c 07 43 11 3e 2e 48 85 3d 4a cf 98 3d
       0.01787305 0.14185725 0.06507908 0.07461412
0003f0 e7 51 67 3d d2 cc d5 3d 81 76 7c 3d 4f 5b 0d bb
       0.056474593 0.10439457 0.06163645 -0.0021569317

model.nn.0.bias f4 [20]
000000 bd 3f 0d 3d 9c ea 35 bc 7f f2 2c 3c af d7 ae 3d
       0.034484614 -0.0111032985 0.010555862 0.08537232
000010 94 55 04 3d 76 9b 45 3d d0 fc c9 3c 28 6f 75 3c
       0.032308176 0.048243962 0.024656683 0.014980115
000020 5d b3 8b 3d 00 00 00 00 6a 7a c6 3d 56 ad ae 3c
       0.0682132 0.0 0.096913174 0.021322887
000030 9c 21 25 3d 6f b9 31 bc 29 af 77 bc 94 a5 0b 3d
       0.040315256 -0.0108474335 -0.015117445 0.034093454
000040 f1 24 d6 3c 2f 4c 8a 3c 8c 8e 21 3d ac 80 57 bc
       0.026140662 0.01688203 0.039442584 -0.013153236

model.nn.2.weight f4 [20, 20]
000000 fc 76 10 3e 74 c6 56 bb 3f 3a 81 3d e2 c2 17 bc
       0.14107889 -0.0032772096 0.06309938 -0.009262772
000010 f7 b2 f6 3d d8 7d d7 3d 0d 55 3c 3d a3 9f e4 3d
       0.120458536 0.1052205 0.04597955 0.11163261
000020 f1 bb f7 bb 7f d1 c8 bc 86 a0 79 bd a6 e0 c5 3d
       -0.007560246 -0.024513958 -0.060944103 0.09661989
000030 d6 24 75 3c 9f 45 ee bc a1 55 c6 3c 01 f4 bf bc
       0.014962396 -0.029085932 0.024210753 -0.02343178
000040 e2 9a 4b 3d a5 48 b9 3d 86 12 18 bb 76 65 2f bc
       0.049708255 0.09047059 -0.00232044 -0.0107053425
000050 c6 18 0b be 2d ee 1e bd 36 29 1f bd af 87 ef bd
       -0.13583669 -0.03880136 -0.03885766 -0.116958015
000060 4f 44 e2 bd f9 b0 b8 bd c4 b8 3f 3d 06 f9 77 bc
       -0.11048185 -0.0901813 0.046807066 -0.015135055
000070 74 3e cf bb 86 a4 0b 3d 71 9f e1 bd 86 44 ec bb
       -0.0063245837 0.03409245 -0.11016739 -0.007210317
000080 de b4 da bd 42 7d 9b bc ff 72 a5 bc 3b d7 03 be
       -0.10679029 -0.018980626 -0.020196436 -0.12875073
000090 12 91 61 bd a5 1a 1f bc f3 c7 02 3c d9 9c 16 3d
       -0.05506999 -0.009710942 0.007982242 0.036770675
0000a0 91 ce 9b 3d 44 7f be bc 21 b1 9e 3d 9f 90 dc bd
       0.07607759 -0.023254044 0.077486284 -0.10769772
0000b0 f8 4c 92 3d db 43 b6 3d af 11 ff 3d ce a6 7d 3d
       0.07143587 0.08899661 0.12454545 0.061926655
0000c0 c7 d9 c1 bd b5 57 b0 3c df 67 c9 bd a6 1a 18 3e
       -0.09465366 0.021526197 -0.09834265 0.14853916
0000d0 a1 6e 27 3c b1 68 4f bd 44 cb 13 3d c4 81 ae bd
       0.010219247 -0.05063695 0.03608252 -0.085208446
0000e0 60 86 18 bd 20 05 89 bd ca 61 95 bd 3d 47 ba bb
       -0.037237525 -0.06690431 -0.072940424 -0.005684762
0000f0 f1 b5 0e 3e 4d a9 94 bc 2c 58 5c 3d 70 8d 98 bd
       0.13936593 -0.018147135 0.053795025 -0.07448852
000100 81 66 00 3e 11 c2 44 3e bb 8a da 3d c5 39 c0 3d
       0.12539102 0.19214655 0.10670992 0.09386019
000110 78 96 a1 bd 9b 4b 0b bd 66 28 d3 bd 7a 8e bf 3d
       -0.07890028 -0.03400765 -0.1031044 0.09353347
000120 84 91 3b bd d9 b7 33 3d 69 ed 04 bd 01 92 18 bd
       -0.04579307 0.043876503 -0.032452974 -0.037248615
000130 aa cd 39 ba 91 a9 b5 3d b6 b9 51 3c 0e b6 02 bd
       -0.0007087836 0.08870233 0.012800625 -0.031911902
000140 dc 7f 15 3e 36 ad e3 3c b6 ca 2a 3e 05 99 d9 bd
       0.14599556 0.027792554 0.1667889 -0.10624889
000150 d5 ca 28 bb 3a e1 3c 3e 65 8f 16 3e 10 75 a4 3c
       -0.0025755663 0.18445292 0.14703138 0.020075351
000160 f8 80 57 bd 75 aa 11 3b c0 1d 3c be 88 c6 45 3e
       -0.05261323 0.0022226844 -0.18370724 0.19314015
000170 cf d6 d5 3b 04 46 cb bb ac f5 a0 3c 12 91 e7 3a
       0.0065258513 -0.006203415 0.019648395 0.0017667136
000180 c8 d3 d4 bd 20 33 3f bd e0 61 bb bd bf 5a 99 3d
       -0.103919566 -0.046679616 -0.091495275 0.074880116
000190 b1 f4 2d bc af 7e 34 3d 00 7c 63 bd d3 cf 0e be
       -0.010617421 0.044066127 -0.055538177 -0.13946466
0001a0 46 0b 46 bd e8 21 27 bc 49 cb 52 bd f7 df ba bc
       -0.048350595 -0.010200955 -0.0514634 -0.022811873
0001b0 83 d6 db bd 67 0e c7 bc c1 fe b6 bd 4a 14 8e bd
       -0.10734274 -0.02429886 -0.08935309 -0.069374636
0001c0 4e 89 fa bd 41 09 7c 3d f4 df a0 3c df 6f 10 be
       -0.1223322 0.061532263 0.01963804 -0.14105175
0001d0 e2 51 51 bd f4 40 0d bd 78 35 e5 bd 18 bd c3 bb
       -0.05110348 -0.034485772 -0.11191839 -0.0059734695
0001e0 94 39 10 be 15 f6 0d 3d 5e 0c ce bd d3 69 f5 bd
       -0.14084464 0.03465851 -0.100609526 -0.11983075
0001f0 6c ec 0c be 12 0b 07 bc 57 5c 30 3d 83 5d 0e be
       -0.13762063 -0.008242385 0.043056812 -0.1390286
000200 54 f2 86 bd e9 eb 0c 3d b1 55 35 bd 8d 49 c0 bd
       -0.06589189 0.03440467 -0.044271175 -0.09389029
000210 f0 1e 86 bd 0c 2a 47 bc 1d 5d 6b 3c e8 85 f7 bd
       -0.065488696 -0.012156021 0.014365462 -0.120860875
000220 6a 87 0a bd 71 1f 58 bc 38 a8 c7 bd cc b1 d9 bc
       -0.033820547 -0.01319109 -0.09748882 -0.026574038
000230 e2 e1 92 bd c0 41 01 3d 82 c0 2d be 3b 45 31 3d
       -0.0717199 0.031556845 -0.16967967 0.043278914
000240 c2 ee 87 bd 26 68 99 bd ff 61 22 be 27 01 d5 3c
       -0.06637336 -0.07490568 -0.15857695 0.026001526
000250 6b 37 9e 3d 7a fa 08 3d 10 46 fc 3c 0d 3d 1e be
       0.07725414 0.033441998 0.030795127 -0.15452977
000260 87 f1 85 bc 7b d0 3a bd fb 66 b9 bc 03 be 48 3d
       -0.01635052 -0.04560898 -0.022632113 0.049009334
000270 40 bd db bc 19 a5 82 bd 06 3c 74 3d 3c ba 3f 3d
       -0.02682364 -0.06379146 0.059627555 0.046808466
000280 65 aa 31 3e 40 7a 26 bd 36 b9 bd 3d f6 36 c4 bd
       0.17350157 -0.04064393 0.09263842 -0.095807955
000290 0c 9e 66 3d 91 d3 0f 3e 37 73 18 3d ee 52 08 3d
       0.05630307 0.1404555 0.037219252 0.033282213
0002a0 b9 07 17 3d d9 b6 3d 3d 28 bd a0 bc 9a d6 fd 3d
       0.0368726 0.046316955 -0.019621447 0.123944476
0002b0 d5 6a 4b 3d 52 c3 ed 3c 62 bb 12 bd e1 e9 5b 3d
       0.04966243 0.0290238 -0.035823233 0.05368984
0002c0 fa aa 66 3d a8 a0 2a bd 55 47 60 bc 18 5d 52 bd
       0.0563154 -0.04165712 -0.013688882 -0.051358312
0002d0 1b bd 55 3d a0 d6 95 3d 48 15 94 3d 71 0e f4 3c
       0.0521823 0.07316327 0.072306216 0.029792042
0002e0 b7 8b 09 3e f3 e3 80 3c b8 6b 09 3d f7 e4 8d 3d
       0.13432203 0.015733695 0.033549994 0.06928437
0002f0 06 57 de 3d e3 e6 b9 bc 2b df 88 3d 19 c9 ef 3d
       0.10856442 -0.022693103 0.06683191 0.11708278
000300 64 9b b9 3d bd 30 9f 3d 19 cf b8 bc 73 7c a4 3d
       0.090628415 0.07772968 -0.02255969 0.08031549
000310 85 8e 84 3d 69 82 1d 3c 23 ae 84 3d cc 07 2f 3c
       0.06472496 0.009613612 0.064785264 0.010683011
000320 ca 00 9b bd 75 2b 09 3d ab f3 dd bd a3 b6 86 3d
       -0.0756851 0.03348871 -0.108374916 0.06577804
000330 94 51 0d be 0b 22 ec bd 3d 4e dd bc 8b f1 b0 bd
       -0.13800651 -0.11529931 -0.027014846 -0.08639821
000340 d8 a2 1d 3c ef d0 79 3b 8a 3e bb 3d 8f d3 57 bd
       0.0096213445 0.003811892 0.09142788 -0.052691992
000350 bd ac 86 3d 1f 5c d3 3b d1 bc 86 bd 0e f8 79 3c
       0.06575916 0.0064501907 -0.065789826 0.015256895
000360 95 ca 2b 3d de 08 64 bd 2d 32 08 3c 64 84 4d 3d
       0.041941244 -0.05567252 0.008312744 0.050175086
000370 82 4d 7f 3d 48 73 2d bb 48 b1 8e 3d a9 ec 0c be
       0.062329777 -0.0026466418 0.069674075 -0.13762154
000380 9b 51 a5 bc a6 15 3d 3c 66 cb 27 3d be 54 b8 3b
       -0.020180514 0.011540806 0.04096546 0.0056253364
000390 fa 1a 33 be fc 30 0d bd f7 67 9d bd 70 78 3b 3d
       -0.1749076 -0.034470543 -0.07685845 0.045769155
0003a0 27 4b 01 be bd 3e 1e bc 63 6a e5 bc 43 84 8b bd
       -0.12626325 -0.009658513 -0.02800483 -0.06812336
0003b0 ce c4 1d be 11 5d 01 be b5 bf 04 be 94 50 93 bc
       -0.15407106 -0.12633158 -0.12963755 -0.017982759
0003c0 2e 97 0b 3e 00 64 b7 bc 7e 97 4d 3c fb 0b cd 3d
       0.13631889 -0.02238655 0.012548326 0.10012051
0003d0 92 6b 13 3e c7 a2 8c 3d 00 d2 50 3d 04 5d 97 3d
       0.14396504 0.06866985 0.05098152 0.07390788
0003e0 67 ba 4c 3b 3a 64 d7 bc 49 74 d7 3d 42 86 2f bc
       0.0031239034 -0.026292909 0.105202265 -0.010713162
0003f0 6c 79 e8 3d 3b d2 79 bd fa 41 53 bd 8d c2 dd 3d
       0.113512844 -0.060991507 -0.051576592 0.10828123

model.nn.2.bias f4 [20]
000000 8a 48 cf 3b 95 0b 2f bd 44 3f 39 bd 7d 67 82 bc
       0.006325786 -0.042735655 -0.04522635 -0.015918488
000010 41 20 94 bd 46 d3 60 bd 3d 85 87 bd 2a 38 c7 3c
       -0.072327144 -0.054888986 -0.0661721 0.024318773
000020 ed 54 f7 bb 6b bc 53 3d 05 97 61 3c 32 df bb bd
       -0.0075479657 0.05169336 0.013768916 -0.091734305
000030 81 8b 48 3d 86 f7 15 bc 57 01 ed 3c 97 0b ec bc
       0.048961166 -0.0091532525 0.028931303 -0.02881412
000040 57 12 81 bd d4 c8 cc 3d 49 81 a5 3c 49 a0 ce 3c
       -0.06302326 0.099992424 0.02020325 0.025222914

model.args_proj.proj.0.weight f4 [1, 20]
000000 0d 82 d1 bb 40 27 af 3d d0 53 61 3e cf 27 7e be
       -0.006393677 0.08552408 0.22004628 -0.24819873
000010 1c 22 e5 bd 5e 37 d3 bd 63 05 20 3e fd a1 25 3e
       -0.111881465 -0.10313295 0.15627055 0.16175075
000020 db 2e 5d 3d eb 51 54 be d8 db 3b 3e e0 fb 97 3d
       0.053999763 -0.20734374 0.18345582 0.07421088
000030 a4 c5 50 bd 38 0b 25 3d 65 be 84 3d 2f 13 35 bd
       -0.050969735 0.040293902 0.064816274 -0.044207748
000040 fe 11 09 3e e2 0c 99 3d 85 6f 3d be 69 69 22 be
       0.1338577 0.0747316 -0.18499573 -0.15860523

model.args_proj.proj.1.weight f4 [1, 20]
000000 6e ab 55 3e 8d 39 3f be e9 59 b9 3d 6e 3d 4d 3e
       0.20866176 -0.18674298 0.09050352 0.20042965
000010 dc 90 22 3d 4f 18 4b be bc 00 b0 bd 5e dd 13 be
       0.03968893 -0.19833492 -0.0859389 -0.14439914
000020 fd 1e 73 3e 52 35 32 3e 19 55 43 be 71 0c 2f bd
       0.2374229 0.17403153 -0.19075431 -0.042736474
000030 36 cf e3 3d 97 a0 40 be e3 a7 67 3e c5 1f e6 bd
       0.11123507 -0.1881126 0.22622637 -0.11236528
000040 e9 38 5c 3d a3 56 82 3d 27 28 44 3e 8f 6a 6c 3e
       0.05376521 0.06364181 0.19155942 0.23087524

model.args_proj.proj.2.weight f4 [1, 20]
000000 2d 95 ae 3d 09 36 1b 3e 27 ed 86 3e c1 0d 8e 3e
       0.08524547 0.15157332 0.26352808 0.27744868
000010 4b 69 b1 3e 1e a5 65 3e 75 fd fa 3d e3 dd 83 be
       0.34650645 0.22426268 0.12255374 -0.25755224
000020 4f f5 41 3e 09 50 2e be 3e b3 79 be 09 46 39 3e
       0.18941234 -0.17022718 -0.24384782 0.18093123
000030 c2 8a df bd c8 46 0b bd 49 b5 88 bd 9e a2 75 3d
       -0.10915138 -0.03400305 -0.066752024 0.059969537
000040 2b 8e 85 3e 11 9f 93 be 15 89 b4 bc 8e 5b 4e bd
       0.26085028 -0.28832296 -0.022038022 -0.050380282

exp_avg f4 [20, 30]
000000 91 70 5a bd f9 4c 20 bd 40 33 46 bd 48 6a 80 bd
       -0.053330008 -0.039135907 -0.04838872 -0.062702715
000010 fd ce 93 bd e4 89 9c bd e8 c1 ae bd 0c c6 c0 bd
       -0.07217214 -0.07643488 -0.085330784 -0.094127744
000020 32 27 b8 bd fa e6 a6 bd a4 52 a7 bd 60 0b 99 bd
       -0.08991851 -0.08149524 -0.08170059 -0.07472873
000030 a2 ef 82 bd 01 23 5f bd 79 0c 1b bd 82 0b d9 bc
       -0.063933626 -0.05447674 -0.03785369 -0.026494745
000040 0c 18 6d bc 10 55 44 3b 4c 89 89 3c 8e a5 e9 3c
       -0.014471065 0.0029957928 0.016789101 0.028521325
000050 dd 93 0b 3d cf 07 37 3d 53 03 0b 3d 5d f8 16 3d
       0.03407656 0.04468518 0.033938717 0.03685795
000060 6b a7 09 3d 18 25 b8 3c a8 37 e0 3b 6a e6 99 bc
       0.033606928 0.022478625 0.0068425722 -0.018786628
000070 d2 11 80 bd a6 b0 d3 bd cb 09 17 b0 76 65 89 af
       -0.06253399 -0.103364274 -5.4947397e-10 -2.4992247e-10
000080 6d fe a1 2f e0 a0 14 b0 76 10 b6 af dd 93 06 30
       2.946651e-10 -5.4070703e-10 -3.3117303e-10 4.895904e-10
000090 8d 02 e7 2f a5 30 97 2f 7a 0f a4 af 7c 75 9b af
       4.2020468e-10 2.7501304e-10 -2.9842423e-10 -2.8277813e-10
0000a0 8a e5 0e b0 6c 03 2b af c8 1f 87 2f 22 fd 79 2e
       -5.1985494e-10 -1.5553575e-10 2.457894e-10 5.6840872e-11
0000b0 4f 91 43 2f e1 ea 3d 2e f2 d0 16 30 49 76 fb af
       1.778677e-10 4.318224e-11 5.486661e-10 -4.574068e-10
0000c0 f0 33 fa af bd da 04 b0 a6 22 ff af f7 53 ad 2f
       -4.551164e-10 -4.8332166e-10 -4.640885e-10 3.1528177e-10
0000d0 72 b9 0f b0 d4 1c 84 ae 68 16 cd af c0 1e aa af
       -5.228663e-10 -6.007786e-11 -3.7305203e-10 -3.094467e-10
0000e0 8c ba 00 2e 9c 2c 43 2f cc 31 9b 2f 80 c8 32 b0
       2.9269517e-11 1.7750995e-10 2.8229719e-10 -6.504095e-10
0000f0 8d d6 33 bd 0f b6 0c bd 55 b4 28 bd 19 08 52 bd
       -0.043905783 -0.034353312 -0.041187603 -0.051277254
000100 41 af 6c bd d1 ed 78 bd 72 81 89 bd 16 71 96 bd
       -0.057784323 -0.060773674 -0.06714143 -0.07345788
000110 92 54 90 bd 4c 9c 83 bd 6a 68 83 bd bf 7a 70 bd
       -0.070473805 -0.06426296 -0.064164 -0.05871081
000120 82 dc 4d bd 97 40 2f bd e4 43 ef bc 48 11 aa bc
       -0.05025912 -0.042786207 -0.029207177 -0.020760193
000130 cc 12 3f bc 80 80 ce 39 fc 29 28 3c ad 23 99 3c
       -0.011662196 0.00039387122 0.010263916 0.01869377
000140 c0 58 c5 3c d0 65 fe 3c 09 25 c6 3c 98 29 db 3c
       0.02409017 0.031054407 0.024187582 0.026753232
000150 52 8c c7 3c d4 0a 82 3c 4c 5f af 3b f0 98 4f bc
       0.024358902 0.015874304 0.0053519364 -0.0126707405
000160 58 ac 3c bd 3c be 9f bd 54 ec cd bc 99 91 bb bc
       -0.046062797 -0.07799956 -0.025137104 -0.022896575
000170 c8 cd bb bc c4 a3 c9 bc cc 99 d4 bc 56 75 d8 bc
       -0.022925273 -0.024614222 -0.025952242 -0.026423138
000180 16 db de bc 2f 4e e3 bc 74 95 dd bc 2d ad d9 bc
       -0.027204078 -0.027747242 -0.027048804 -0.026571834
000190 f8 eb dd bc 5c a3 dc bc b0 d0 da bc c0 a3 d8 bc
       -0.027090058 -0.026933365 -0.026710838 -0.02644527
0001a0 f4 36 d4 bc e1 d9 d0 bc 49 38 ca bc 1f 7e c6 bc
       -0.02590511 -0.025494518 -0.024685042 -0.024230061
0001b0 ef dd be bc ec 78 a9 bc 4b dc a7 bc f4 2c 7b bc
       -0.023299186 -0.020687543 -0.020490786 -0.015330542
0001c0 92 b5 86 bc 90 c7 85 bc da 00 87 bc f4 fe 8c bc
       -0.016444001 -0.01633051 -0.016479898 -0.017211415
0001d0 0b be 96 bc dc 7b a7 bc 0e 3f 93 bc 5b 67 40 bc
       -0.018401166 -0.020444803 -0.017974403 -0.011743392
0001e0 8c d8 1e bd 0a ef d5 bc a6 51 08 bd a9 3e 3c bd
       -0.038780734 -0.02611496 -0.03328099 -0.045958195
0001f0 bb 7c 60 bd ef 16 71 bd b8 0a 89 bd 02 66 99 bd
       -0.054806452 -0.05885976 -0.066914976 -0.074901596
000200 2a d6 91 bd 84 4d 82 bd 5a d5 84 bd 83 cf 6f bd
       -0.07120927 -0.06362441 -0.06486006 -0.058547508
000210 57 95 48 bd 07 3a 25 bd f2 18 cc bc 14 ce 79 bc
       -0.048970547 -0.040338542 -0.024914239 -0.015246887
000220 68 c4 fc bb 98 19 c1 3b 60 81 8e 3c fc b3 e5 3c
       -0.007713843 0.0058929436 0.017395675 0.028039925
000230 83 23 07 3d 36 2d 33 3d 9a 31 10 3d 68 3c 16 3d
       0.03299285 0.04374429 0.035203554 0.0366787
000240 04 74 0a 3d 45 bb bc 3c 34 8e 00 3c 44 17 7c bc
       0.033802047 0.023038516 0.007846404 -0.015386406
000250 03 c8 54 bd a4 0a ad bd 90 1e 66 bc 90 30 72 bb
       -0.05194856 -0.08449295 -0.014045373 -0.0036955215
000260 88 b6 36 bc 42 cb b9 bc 1a 57 f7 bc e2 25 0a bd
       -0.011151917 -0.022679929 -0.0301929 -0.033727534
000270 9c 46 2b bd 62 6a 4b bd 27 5a 3f bd e9 e8 2a bd
       -0.041815385 -0.049662 -0.046716835 -0.041726027
000280 24 96 2b bd 53 7a 1d bd e4 d4 f6 bc 42 c9 bb bc
       -0.041891232 -0.038446736 -0.030130811 -0.022923116
000290 f8 b0 13 bc 00 64 d4 39 02 2f 24 3c ac 27 c8 3c
       -0.009014361 0.00040510297 0.010020973 0.02443298
0002a0 3e 35 0f 3d 68 0f 2b 3d b4 e7 3c 3d a3 d6 54 3d
       0.034962885 0.04176274 0.046119407 0.051962506
0002b0 42 28 33 3d 63 28 3c 3d 9d a5 2f 3d b5 a6 0a 3d
       0.043739565 0.045936953 0.04288255 0.03385039
0002c0 53 53 b1 3c c0 8e 61 3a 88 d1 11 bd a3 1d 93 bd
       0.021646177 0.000860434 -0.035600215 -0.07183387
0002d0 a4 f1 9c bb a8 89 89 3a c8 81 a6 3a 90 02 59 bb
       -0.004789548 0.0010493295 0.0012703473 -0.00331131
0002e0 aa 1c cb bb 93 2e 01 bc 06 d0 5f bc 9f 40 87 bc
       -0.0061984854 -0.007884639 -0.0136604365 -0.016510306
0002f0 6c 50 90 bc 89 c8 74 bc 35 01 7a bc d4 c7 60 bc
       -0.017616473 -0.014940389 -0.015259077 -0.013719518
000300 c7 fc 0a bc 34 c0 8f bb f8 e8 da ba 10 65 dc 3a
       -0.008483118 -0.004386926 -0.001670151 0.0016814787
000310 80 2f df 3b 74 ce 18 3c f2 9b 77 3c 22 fd a3 3c
       0.0068110824 0.009326566 0.015112864 0.020018164
000320 3e 3e b8 3c 1c ec db 3c 5a e8 d9 3c f2 ea db 3c
       0.022490617 0.026845984 0.026600052 0.02684543
000330 c8 3c c9 3c e0 45 97 3c 89 d1 62 3c 34 8d 4c 3b
       0.024565116 0.018465936 0.013843902 0.0031212093
000340 24 3f 94 bc e4 fc 1c bd d9 84 1c bd 02 8a f2 bc
       -0.018096514 -0.038327113 -0.03821263 -0.029606823
000350 dd 04 08 bd b0 19 29 bd 71 8c 3f bd 2c 0c 4a bd
       -0.033207763 -0.041284263 -0.046764795 -0.049328014
000360 9f 6b 5d bd 22 56 6a bd 75 40 5e bd 3c af 47 bd
       -0.054057714 -0.05721105 -0.05426069 -0.0487511
000370 d4 cd 4b bd 9e b2 3b bd 22 e6 22 bd cc 42 0d bd
       -0.04975684 -0.04582464 -0.039770253 -0.03448753
000380 b8 03 cc bc 72 2b 90 bc 0c c4 4e bc c0 99 5a bb
       -0.024904117 -0.017598841 -0.012619983 -0.0033355802
000390 d0 d3 88 3b 30 38 3b 3c 12 7e 6e 3c ea 81 b2 3c
       0.0041756406 0.01142697 0.014556425 0.021790463
0003a0 4a 04 84 3c ea 67 8b 3c b7 75 76 3c 3c d7 04 3c
       0.016115326 0.017017324 0.015042714 0.0081079565
0003b0 60 b0 f0 ba a1 29 89 bc 7c a5 1d bd 42 01 6f bd
       -0.0018363111 -0.016743483 -0.038487896 -0.05835081
0003c0 b8 8f e8 bc e4 cf c8 bc fc 11 d2 bc 84 f7 ed bc
       -0.028388843 -0.024513192 -0.025643341 -0.029048689
0003d0 29 3f 01 bd 9c 62 05 bd f3 32 0d bd ff 10 14 bd
       -0.031554375 -0.032564744 -0.034472417 -0.03614902
0003e0 8c 45 0f bd 82 c7 08 bd a2 5a 0b bd 06 cd 06 bd
       -0.034978434 -0.03339339 -0.03402198 -0.03291037
0003f0 2e c0 ff bc b2 b4 f2 bc e0 55 da bc c7 16 cb bc
       -0.031219568 -0.029627178 -0.026652277 -0.024791135

exp_avg_sq f4 [20, 30]
000000 be 0e ea 3c 3c fa e3 3c be 83 e0 3c 9d f3 db 3c
       0.028571483 0.027829282 0.02740657 0.026849562
000010 1b 7a d8 3c a0 7a d4 3c 5a 45 d1 3c 4b 39 cf 3c
       0.026425412 0.025937378 0.025545765 0.025295874
000020 21 d4 cd 3c 0a d4 cb 3c 21 7a ca 3c c8 bd c7 3c
       0.025125565 0.024881382 0.024716439 0.024382487
000030 d4 2e c5 3c 03 c9 c3 3c 73 00 c4 3c a3 05 c2 3c
       0.024070181 0.02389956 0.023925995 0.023684328
000040 5c 56 c1 3c c6 65 c4 3c b1 c9 c9 3c ab ca cb 3c
       0.02360075 0.02397431 0.024632307 0.024876913
000050 b4 13 d0 3c 89 0e ce 3c 2e aa ca 3c 35 b5 cb 3c
       0.02540002 0.025153415 0.024739351 0.02486668
000060 16 6b cc 3c 15 c0 c9 3c dd 25 ca 3c fe e9 cd 3c
       0.024953406 0.024627725 0.024676258 0.02513599
000070 38 19 d5 3c 9e ad e0 3c bd 47 c4 1f 36 b1 a3 1e
       0.026013002 0.027426537 8.312791e-20 1.7331589e-20
000080 91 46 e3 1e c6 1b be 1f e3 66 0f 1f 48 10 9c 1f
       2.4063745e-20 8.051408e-20 3.0366534e-20 6.6095505e-20
000090 70 55 66 1f 47 13 c6 1e 9f 16 e9 1e 09 60 d1 1e
       4.8775067e-20 2.0972038e-20 2.467919e-20 2.2168455e-20
0000a0 f1 d1 af 1f b7 3f fe 1d 27 57 9e 1e cc 33 88 1c
       7.44627e-20 6.729912e-21 1.6764946e-20 9.013114e-22
0000b0 cf 25 26 1e 9f 47 1d 1c 24 b5 c3 1f ec 54 88 1f
       8.7957855e-21 5.203951e-22 8.2885384e-20 5.773873e-20
0000c0 47 fa 86 1f eb 1d 98 1f db 51 8c 1f 3d 06 02 1f
       5.7165257e-20 6.4424e-20 5.9427725e-20 2.753373e-20
0000d0 7f d9 b1 1f 98 24 98 1c 57 c3 35 1f a0 44 b1 33
       7.532223e-20 1.0067976e-21 3.8489822e-20 8.2546876e-08
0000e0 8e 69 f4 33 01 06 37 34 62 74 36 34 c2 92 36 34
       1.1381336e-07 1.7045387e-07 1.699241e-07 1.7003461e-07
0000f0 27 94 2a 3c b3 c9 25 3c 9b 9d 23 3c 11 a1 20 3c
       0.010411299 0.01011889 0.009986307 0.009804026
000100 95 99 1d 3c bd a5 1a 3c 1e 16 18 3c 49 37 16 3c
       0.009619136 0.009438929 0.009282617 0.009168454
000110 20 e6 13 3c 93 cd 11 3c 77 95 0f 3c 66 d8 0c 3c
       0.009027034 0.00889911 0.008763663 0.008596515
000120 71 29 0a 3c c3 24 08 3c 6c 8c 07 3c 76 8c 05 3c
       0.008432732 0.008309546 0.008273225 0.008151164
000130 39 c4 03 3c f6 a7 04 3c 84 b2 07 3c dd 05 08 3c
       0.008042389 0.008096686 0.008282308 0.008302179
000140 c1 42 0a 3c f3 f5 08 3c 74 d0 06 3c 25 17 07 3c
       0.008438767 0.00835942 0.00822841 0.008245264
000150 d5 26 07 3c 60 d2 04 3c 1a 1f 06 3c 94 59 0a 3c
       0.008249004 0.008106798 0.008186126 0.008444209
000160 43 43 10 3c 0d fb 19 3c 15 01 73 3a 7c 65 6a 3a
       0.008805099 0.009398234 0.00092698756 0.0008941514
000170 ac 46 65 3a 0f 76 62 3a c0 92 5f 3a 8b 89 5c 3a
       0.00087461877 0.0008638808 0.00085286424 0.00084128295
000180 ca c0 5a 3a 4d 65 58 3a 33 bc 59 3a 31 d0 59 3a
       0.0008344768 0.0008254841 0.0008305937 0.0008308916
000190 df a6 5a 3a b9 45 58 3a 0b 84 59 3a aa 2c 5b 3a
       0.0008340906 0.00082501356 0.0008297569 0.00083608425
0001a0 e3 44 5e 3a 5f 19 5f 3a 79 5e 61 3a d2 2b 65 3a
       0.0008478893 0.00085105555 0.00085971464 0.00087421865
0001b0 5c b1 6c 3a b2 2b 71 3a a0 d6 7e 3a da 7d 7d 3a
       0.0009029114 0.00091999315 0.00097213127 0.00096699374
0001c0 38 df 80 3a 50 50 82 3a 9c 9b 84 3a 4d 01 89 3a
       0.0009832149 0.0009942148 0.0010117176 0.0010452658
0001d0 00 cd 87 3a 0c 08 8f 3a b5 f4 9b 3a 3e e9 c0 3a
       0.0010360777 0.0010912432 0.001189849 0.0014717949
0001e0 98 0e b0 3c e9 ef ab 3c 36 80 a9 3c 9e 4a a6 3c
       0.021491334 0.020988422 0.020691019 0.020299252
0001f0 b5 bd a4 3c b4 93 a2 3c df d4 a0 3c 24 c7 9f 3c
       0.02010999 0.019845821 0.019632755 0.019504137
000200 d4 d0 9e 3c a3 11 9f 3c 47 0a 9f 3c e0 4e 9d 3c
       0.019386686 0.01941759 0.01941408 0.01920265
000210 08 c0 9b 3c 18 33 9b 3c c0 85 9b 3c c3 01 9b 3c
       0.019012466 0.018945262 0.018984675 0.018921738
000220 15 22 9b 3c bd 83 9e 3c 24 ad a2 3c 17 d6 a4 3c
       0.01893715 0.019349927 0.01985795 0.020121617
000230 3e 7d a9 3c bb fd a7 3c 7c a0 a5 3c 21 b8 a6 3c
       0.020689603 0.02050673 0.020218126 0.020351471
000240 47 c6 a7 3c 9c 4c a6 3c 83 4c a7 3c 41 f6 a9 3c
       0.020480288 0.020300202 0.020422226 0.020747306
000250 c6 70 ae 3c e4 ce b5 3c 07 3b 76 3c 8c d9 6f 3c
       0.021294009 0.02219338 0.015028722 0.01463927
000260 80 c6 6b 3c f3 55 66 3c 7c 7d 62 3c e9 88 5e 3c
       0.014390588 0.014058578 0.013823863 0.013582447
000270 64 18 5b 3c d0 cb 58 3c 39 8e 56 3c 9f 66 54 3c
       0.013372514 0.013232186 0.013095432 0.01296392
000280 d9 c0 52 3c 5f 33 50 3c 7e 3d 4d 3c 34 a2 4b 3c
       0.012863361 0.01270756 0.012526868 0.012428809
000290 dd fc 4b 3c f7 14 4a 3c 89 43 48 3c 0a 9a 4b 3c
       0.012450424 0.0123341 0.012223133 0.0124268625
0002a0 9b 02 51 3c 09 ab 52 3c eb f6 56 3c 0d 77 55 3c
       0.012756969 0.012858161 0.013120393 0.013028872
0002b0 dc 73 53 3c 0b bc 54 3c 13 92 56 3c cf 9d 53 3c
       0.012906041 0.012984286 0.01309635 0.0129160425
0002c0 47 40 57 3c 68 12 5e 3c 69 72 69 3c 9a 2d 7b 3c
       0.0131378835 0.013554193 0.014248469 0.0153306965
0002d0 80 e4 56 3b 88 8f 53 3b 64 99 4f 3b 99 c7 4d 3b
       0.0032790005 0.0032281596 0.0031677121 0.0031399487
0002e0 74 04 4a 3b b4 d0 47 3b 68 2a 45 3b 73 f2 44 3b
       0.0030825408 0.0030489387 0.003008509 0.0030051738
0002f0 47 b3 45 3b d0 40 45 3b 2f 72 46 3b 3e fc 44 3b
       0.0030166672 0.0030098446 0.003028046 0.0030057575
000300 40 eb 43 3b 17 12 43 3b 7a 76 45 3b f6 fb 44 3b
       0.0029894859 0.002976542 0.0030130432 0.0030057407
000310 4b 2e 44 3b 76 3e 49 3b 21 eb 51 3b 2e b4 54 3b
       0.002993482 0.0030707396 0.0032031017 0.0032456028
000320 6f cc 5a 3b 80 e2 5a 3b 3e c7 5a 3b ba 60 60 3b
       0.0033386012 0.0033399165 0.0033382918 0.003423734
000330 6e 83 64 3b 27 9a 62 3b 5c 9f 6c 3b d1 db 78 3b
       0.0034868377 0.0034576745 0.0036105728 0.0037972818
000340 d2 f1 85 3b 47 44 91 3b 11 0b 2a 3c c3 a1 25 3c
       0.004087665 0.004433188 0.010378615 0.010109368
000350 95 0b 23 3c 72 72 20 3c 2d af 1d 3c b1 48 1b 3c
       0.009951492 0.009792911 0.009624285 0.00947778
000360 94 ed 19 3c 59 49 18 3c 80 fd 17 3c 0b ec 17 3c
       0.009395022 0.009294831 0.009276748 0.009272586
000370 ef 7b 17 3c 90 b7 15 3c 1d 9a 14 3c ec e2 13 3c
       0.009245857 0.009138003 0.009069947 0.00902627
000380 e3 eb 13 3c a6 af 12 3c 03 77 12 3c d0 7e 14 3c
       0.009028408 0.008953011 0.008939507 0.009063438
000390 b0 c1 18 3c 8f ef 19 3c 2c 10 1e 3c f6 44 1c 3c
       0.009323522 0.009395494 0.00964741 0.009537926
0003a0 9c 0f 1a 3c cb 05 1b 3c e7 11 1b 3c 9e cc 18 3c
       0.009403136 0.00946183 0.0094647175 0.009326128
0003b0 9f fc 17 3c cf 42 19 3c 90 0d 1c 3c f0 d7 21 3c
       0.009276538 0.009354307 0.009524718 0.009878144
0003c0 73 50 06 3b 74 59 02 3b 82 00 00 3b 14 e5 fb 3a
       0.0020494729 0.0019889744 0.0019531553 0.0019218051
0003d0 98 f8 f7 3a aa f0 f3 3a 68 e6 f1 3a a3 41 ef 3a
       0.0018918691 0.0018611152 0.0018455507 0.0018253814
0003e0 7f 19 ef 3a 29 a3 ee 3a 6a 32 ee 3a 5c f4 ea 3a
       0.0018241851 0.0018206585 0.0018172984 0.0017925608
0003f0 f0 9f ea 3a 21 cf ea 3a 0b e5 eb 3a 7b d0 ea 3a
       0.0017900448 0.0017914512 0.0017997337 0.0017914915

exp_avg f4 [20]
000000 04 fb 05 bd cc 17 f4 ae 12 0e da bc 14 48 b9 bc
       -0.03271009 -1.11000625e-10 -0.026618037 -0.022617377
000010 7a 74 ba bc 90 18 a1 bb 88 4f 8e 3a 01 fc bb bc
       -0.022760618 -0.004916258 0.0010857442 -0.022947313
000020 fe ab c0 bc 00 00 00 00 9a 44 91 bc 5a 3f 01 3c
       -0.023519512 0.0 -0.017732907 0.007888639
000030 14 ae a2 bc 2c 89 ee ae 42 13 26 af 82 27 c5 bc
       -0.019858398 -1.08473536e-10 -1.5104454e-10 -0.02406669
000040 00 6c 90 bc 47 92 8b bc 7b 80 78 bc b5 9c 10 af
       -0.017629623 -0.017037524 -0.015167351 -1.3152397e-10

exp_avg_sq f4 [20]
000000 5b e0 c4 3c 8e 2e 6a 31 08 cb 08 3c ed 75 59 3a
       0.024032762 3.4077945e-09 0.008349188 0.00082954654
000010 a4 34 9c 3c 6c f7 4d 3c 90 75 48 3b dd da 12 3c
       0.01906807 0.012571197 0.003058765 0.008963314
000020 4b 5b e9 3a 00 00 00 00 2e c7 85 39 2a 05 2c 3c
       0.0017803697 0.0 0.00025516137 0.010499278
000030 7f 96 31 3b 05 1e 33 30 fe 14 e5 36 a5 0f a7 3b
       0.002709776 6.516248e-10 6.8271756e-06 0.0050983005
000040 29 3e 2a 3b 87 ce 70 3b 91 98 8e 3a ab 19 92 32
       0.0025976992 0.0036744194 0.0010879209 1.700831e-08

exp_avg f4 [20, 20]
000000 7c 46 f1 3a 57 2b 10 ae 48 5d 2f bc c8 6a 78 bd
       0.0018407847 -3.2780303e-11 -0.010703392 -0.06064871
000010 54 71 44 3b 82 d0 13 bb 9c 1f 6a bb b7 07 88 3b
       0.0029974775 -0.00225547 -0.0035724407 0.0041513103
000020 ae 23 6c bd 57 1a 88 af f1 f6 92 bd 42 09 5d 3b
       -0.057651214 -2.4756971e-10 -0.071760066 0.0033727442
000030 ea f0 b0 bc 03 e7 9f af 92 10 85 2f 4a 4c cf bc
       -0.021599252 -2.9086075e-10 2.4204333e-10 -0.025304932
000040 12 d0 b0 bc 92 7b 96 bc e0 48 59 bc 67 6b eb ae
       -0.02158359 -0.01836947 -0.013262004 -1.0705641e-10
000050 14 a8 89 ba 34 53 d5 af b2 8c 0d 3c 4d b9 c7 3d
       -0.0010502362 -3.8803594e-10 0.008639501 0.0975214
000060 80 80 64 39 fe 36 0d 3b d9 27 1a 3b a4 b5 97 ba
       0.00021791644 0.002154767 0.0023522286 -0.0011574519
000070 79 34 a5 3d 72 43 bd 2f 59 16 e8 3d 44 91 49 bb
       0.08066649 3.4426823e-10 0.113323875 -0.003075675
000080 ca 02 15 3d cf b1 50 af fd fe 5d af 44 c1 1e 3d
       0.036379613 -1.898066e-10 -2.0190423e-10 0.03875853
000090 85 6a 11 3d 28 be 9a 3c 88 4d e7 3c 65 26 ca 2f
       0.035501976 0.018889502 0.028235212 3.6770867e-10
0000a0 09 5c b8 3a 25 b1 7f af 82 91 b5 bb 17 9b 86 3c
       0.0014065515 -2.3255049e-10 -0.0055410275 0.016431374
0000b0 b7 1e 88 3b a0 e5 5a ba bd c0 1b bb c8 33 8d 3b
       0.004154052 -0.0008350257 -0.0023766004 0.0043091513
0000c0 30 dd 75 3b 87 09 6f 2f 20 83 8e 3c da 66 b9 3a
       0.0037515871 2.1740308e-10 0.01739651 0.0014145032
0000d0 f0 dc f4 3b b6 30 0b b0 68 59 c6 2f f2 c5 a2 3b
       0.007472627 -5.063713e-10 3.6079517e-10 0.0049674446
0000e0 26 a0 d9 3b 67 21 b5 bb 6e 60 2a 3c c2 07 7a ae
       0.0066414056 -0.0055276635 0.010398967 -5.685031e-11
0000f0 4b 51 0e 3b db 8c 47 af a5 7b 38 bc 1c 0c a4 bc
       0.0021715935 -1.8148986e-10 -0.011259948 -0.020025305
000100 86 d5 ac 3b 78 2b 10 bb 21 d4 8c bb e8 c4 c7 3b
       0.0052744774 -0.0021998566 -0.0042977487 0.006096471
000110 84 17 f4 bc f8 ca bc af 84 d9 d0 bc 59 47 4b 3b
       -0.02979637 -3.434122e-10 -0.025494345 0.0031017868
000120 d8 79 bd bb 76 36 f1 2f a4 73 b2 af 88 99 26 bc
       -0.005782347 4.3876341e-10 -3.246018e-10 -0.010168441
000130 e0 1e d5 bb 7a 92 80 bc 20 f8 de 3a aa 70 af af
       -0.0065039247 -0.015694845 0.0017011203 -3.1912367e-10
000140 a7 d6 98 3a 53 c8 98 2f 3a 6f 65 bb 30 b2 57 3d
       0.0011660651 2.7790978e-10 -0.0035008923 0.052660167
000150 5e b3 9b 3b 41 21 a5 b9 9e 19 03 bb b4 79 92 3b
       0.004751607 -0.00031496029 -0.0020004283 0.0044700745
000160 30 a3 03 3d 56 7f c5 2d 9f b5 72 3d 52 3b 05 3a
       0.03213805 2.2452856e-11 0.05925524 0.0005082387
000170 ff 0e ad 3c e8 6a 88 ae bf 06 58 2f 17 18 9c 3c
       0.021125315 -6.203554e-11 1.9647482e-10 0.019054456
000180 94 c6 a2 3c 20 16 9d 37 5a 01 b2 3c 07 d4 4d 30
       0.01987008 1.8726161e-05 0.02172916 7.4879875e-10
000190 58 0e 81 ba 02 41 f2 2f ad ad 10 3c 05 2d ef 3d
       -0.0009846194 4.4065734e-10 0.00883047 0.11678509
0001a0 78 f3 88 3a a8 e2 14 3b 34 d5 0f 3b 30 60 06 ba
       0.0010448536 0.0022718105 0.0021947147 -0.00051260274
0001b0 67 8d c1 3d b2 e8 86 af 92 9d 0a 3e 63 60 59 bb
       0.094507985 -2.4539798e-10 0.13536671 -0.0033169023
0001c0 bf 69 33 3d 8a 23 29 30 a6 fd 57 2f d4 9a 3c 3d
       0.04380202 6.1532346e-10 1.964425e-10 0.046046093
0001d0 80 8b 2e 3d 06 c2 a9 3c 65 3c 0f 3d ac 5b 83 ae
       0.042613506 0.0207224 0.034969706 -5.9734745e-11
0001e0 30 3d b5 b9 03 92 be 2f 81 b2 77 3b 62 71 5e 3d
       -0.00034568598 3.4664546e-10 0.0037795606 0.05430735
0001f0 50 57 42 3a 4f 87 86 3a eb 84 6c 3a 40 21 03 38
       0.0007413523 0.0010263714 0.0009022492 3.12638e-05
000200 24 0b 32 3d 01 ff be 2f f0 ba 80 3d 99 d8 ba ba
       0.043467656 3.474199e-10 0.062856555 -0.0014255225
000210 3d a2 a7 3c c4 a8 05 af b4 f8 1d 2f f2 ee ae 3c
       0.020463103 -1.2156237e-10 1.4367424e-10 0.021354172
000220 1c cd a2 3c 4c 62 17 3c 6b b3 87 3c 54 18 92 af
       0.019873194 0.009239744 0.016565045 -2.6574531e-10
000230 d4 ea e0 ba f4 7e ad 2f 1f d1 08 3c e0 c9 5d 3b
       -0.0017159828 3.1558722e-10 0.00835064 0.003384225
000240 e5 9f 94 bb 6e 4c cb 3a 87 14 59 3b e4 28 a5 bb
       -0.0045356625 0.0015510449 0.0033123808 -0.005040275
000250 3c 0a 66 3c 61 a7 b9 2f 70 fc be 3b 71 70 11 bb
       0.014040526 3.3770234e-10 0.0058284327 -0.0022192264
000260 80 34 42 b9 b6 bc fa af e8 c7 78 af 18 73 52 3b
       -0.0001852084 -4.5608822e-10 -2.262649e-10 0.0032112058
000270 60 37 11 3a 1c 03 2f 3c 1c fa b0 bb e0 aa 00 30
       0.00055395626 0.010681894 -0.005400909 4.6808957e-10
000280 f8 3a 1b 3b 98 73 df af c1 84 4d bc e4 1f 4f bd
       0.002368627 -4.0645598e-10 -0.012543858 -0.050567523
000290 3e a7 97 3b be 3e 23 bb 76 8f 90 bb b2 b4 bd 3b
       0.004628091 -0.0024909223 -0.004411633 0.005789363
0002a0 7e c7 59 bd 10 8c 00 30 f4 b6 78 bd df d8 7a 3b
       -0.053168766 4.676517e-10 -0.060721353 0.0038276238
0002b0 f6 d8 8d bc 1d 8f 9f 2f da fd c4 af 96 5d b3 bc
       -0.01731537 2.902362e-10 -3.5832565e-10 -0.021895211
0002c0 28 a0 90 bc fe 81 a2 bc 84 73 05 bc 96 2c 0d b0
       -0.017654493 -0.019837376 -0.008145217 -5.135886e-10
0002d0 28 98 64 3a 5e 23 49 30 ca bd 02 bc 16 00 c5 bd
       0.0008720183 7.3173634e-10 -0.00797982 -0.09619157
0002e0 90 21 1a ba 50 1a 07 bb 8a bc 0a bb b8 83 42 3a
       -0.0005879635 -0.0020615049 -0.0021169507 0.00074201403
0002f0 08 58 a1 bd e8 fd 7b af 22 9e e4 bd 3f de 3a 3b
       -0.07878119 -2.2918523e-10 -0.11162974 0.0028513817
000300 59 84 13 bd a3 a9 55 30 c7 1a 78 af 40 2d 1c bd
       -0.03601489 7.7730017e-10 -2.2564982e-10 -0.03812909
000310 8d bb 0f bd 26 1c 93 bc 9c f9 e7 bc c9 eb ea 2e
       -0.03509097 -0.017957758 -0.028317265 1.0682972e-10
000320 13 6e 04 bb 9b 1d b8 2f 38 d6 2d 3c bc be be 3c
       -0.002020721 3.349044e-10 0.010610156 0.023284309
000330 24 d3 9b bb e5 29 09 3b 94 f5 82 3b 61 7d b6 bb
       -0.0047553945 0.0020929512 0.0039965604 -0.0055691455
000340 24 7c ff 3c b0 59 29 2e 44 16 ee 3c 26 52 42 bb
       0.031187125 3.850581e-11 0.029063351 -0.0029651015
000350 00 8c ea 3b 72 d8 8d 2e 64 d2 34 b0 dc 32 38 3c
       0.0071578026 6.450386e-11 -6.57826e-10 0.011242595
000360 70 58 fe 3b 27 48 78 3c 00 30 d3 b7 ea eb 09 30
       0.0077620074 0.015153921 -2.5175512e-05 5.0175564e-10
000370 80 f1 03 39 44 d5 e8 ad 93 b5 b1 3a 98 ef 4c 3d
       0.000125831 -2.6470055e-11 0.0013558142 0.050033182
000380 0a 49 f6 3a de b5 11 3a 00 32 bb b7 56 5f b0 3a
       0.0018790078 0.00055584114 -2.231542e-05 0.0013456147
000390 e6 dd 17 3d 97 5c bf af fc 23 6b 3d 11 97 45 ba
       0.037076853 -3.4808487e-10 0.057407364 -0.0007537464
0003a0 23 8e 9d 3c fa 64 d4 ae f1 f4 99 af 06 24 9d 3c
       0.019232815 -9.658581e-11 -2.800458e-10 0.019182216
0003b0 d0 71 97 3c fe 08 c0 3b b4 cb 8a 3c 50 b9 45 af
       0.018486887 0.005860447 0.016942836 -1.7982882e-10
0003c0 a8 db 1d 3a de 2a 76 af 8c 48 a5 bb 0c 39 7b bd
       0.0006021806 -2.2388799e-10 -0.0050440487 -0.0613337
0003d0 90 54 ac b9 12 ef a5 ba 10 66 ac ba 30 8a 06 3a
       -0.000328694 -0.001265975 -0.0013152976 0.0005132286
0003e0 14 a1 4d bd 14 fa 91 af bd cc 91 bd b8 ce f2 3a
       -0.050202444 -2.6553038e-10 -0.07119129 0.0018524742
0003f0 5c e2 bb bc 54 a7 27 b0 c6 c7 0d b0 85 d8 c6 bc
       -0.022935085 -6.0992034e-10 -5.1579396e-10 -0.024273166

exp_avg_sq f4 [20, 20]
000000 53 63 bf 3a 03 08 36 2f 58 e2 06 3a f4 de c9 3d
       0.0014601744 1.655565e-10 0.0005145422 0.09856978
000010 6b 6f 03 3b dd 8a 8b 3a 40 c3 a6 39 ee 91 25 3b
       0.0020055424 0.0010646243 0.0003180746 0.0025263983
000020 b6 a2 5a 3d 84 a2 a0 1e 85 0f e1 3d d9 ca 33 3a
       0.05337783 1.7007874e-20 0.10989288 0.0006858535
000030 13 32 ab 3c ab 8f 7f 30 da 89 33 36 d9 57 b8 3c
       0.0208979 9.2972624e-10 2.6753319e-06 0.022502827
000040 c9 15 a3 3c e3 11 23 3b ab d5 69 3c b5 40 60 31
       0.019907849 0.0024882487 0.014272134 3.2633072e-09
000050 85 4a a9 3a c2 b3 2b 2b 21 c6 dd 39 65 ff af 3d
       0.0012915885 6.100087e-13 0.00042300022 0.085936345
000060 89 65 f0 3a 01 85 73 3a 63 80 8f 39 99 54 1f 3b
       0.0018340807 0.00092895335 0.0002737074 0.0024311899
000070 54 5d 3f 3d c5 e9 1a 1f da ba c2 3d a1 cd 23 3a
       0.046719864 3.2804138e-20 0.09508295 0.00062485976
000080 9e 58 98 3c 2b 25 1a 2f e8 12 15 36 84 e3 a3 3c
       0.018596943 1.4019423e-10 2.2213735e-06 0.020005949
000090 6a 35 91 3c c9 6b 13 3b cb 6a 4e 3c 63 08 17 30
       0.017725665 0.0022494665 0.012598704 5.49454e-10
0000a0 a7 4c c5 39 49 7c 77 2f b0 21 1b 39 6b d1 b0 3c
       0.00037631879 2.2508674e-10 0.00014794501 0.021584233
0000b0 28 84 02 3a d5 82 8f 39 a0 91 ba 38 1d 40 34 3a
       0.0004978799 0.00027372563 8.896296e-05 0.00068760087
0000c0 2f 18 42 3c e5 f2 77 1e 6b c8 c1 3c 9a 95 32 39
       0.011846586 1.31263005e-20 0.023655137 0.00017031134
0000d0 eb c3 9c 3b 91 c1 90 30 53 4a 35 35 02 7e ac 3b
       0.0047840974 1.0532394e-09 6.753591e-07 0.0052640447
0000e0 a5 74 9b 3b 33 74 24 3a b6 51 53 3b a9 78 3c 31
       0.0047441297 0.00062734185 0.0032244748 2.7426188e-09
0000f0 a7 ab d3 3a 7d b0 6c 30 57 c3 1d 3a 01 62 c8 3d
       0.0016149179 8.6107105e-10 0.00060181826 0.09784318
000100 58 7c 0d 3b e1 69 98 3a 3d e3 ba 39 99 e6 32 3b
       0.0021589007 0.0011628234 0.0003564599 0.0027298091
000110 e1 2e 5a 3d c1 25 1a 1f 40 bd dd 3d d4 b9 3e 3a
       0.053267363 3.2641998e-20 0.10827112 0.00072756154
000120 7d 87 ac 3c cb 86 8f 31 e5 83 72 36 2b 69 bb 3c
       0.0210607 4.177172e-09 3.6137583e-06 0.022877296
000130 47 d6 a6 3c bf 1f 2d 3b b1 24 6a 3c 5d d6 14 32
       0.020365847 0.0026416627 0.0142909745 8.663474e-09
000140 99 92 83 39 41 4f 39 30 cc 1d e4 38 95 5a e1 3b
       0.0002509549 6.7415235e-10 0.00010877437 0.0068772533
000150 7b 64 b6 39 c3 f2 3e 39 3d 13 94 38 db 7c 15 3a
       0.0003478861 0.00018210248 7.060773e-05 0.0005702504
000160 84 18 84 3b a3 2f 2a 1b a4 30 e8 3b 42 8f ee 38
       0.004031243 1.4077463e-22 0.0070858765 0.00011375408
000170 d0 13 ff 3a 28 a9 2f 31 dd 00 c7 33 8b b1 16 3b
       0.0019460861 2.5562006e-09 9.266817e-08 0.0022994007
000180 15 8a 11 3b df ca ca 39 e6 32 a1 3a 06 5d 84 31
       0.0022207547 0.00038679593 0.0012298494 3.852281e-09
000190 a0 8d c3 3a 37 da d2 2e 5a 8e fd 39 7f ff c7 3d
       0.0014919527 9.588457e-11 0.0004836198 0.09765529
0001a0 3c 6b 0d 3b 4a 04 8d 3a 0e ea a8 39 60 ce 40 3b
       0.002157881 0.0010758725 0.0003221784 0.0029419884
0001b0 44 d5 59 3d 9c d6 9d 1e f1 fa dc 3d 5c b0 40 3a
       0.0531819 1.6711782e-20 0.10790051 0.00073504983
0001c0 18 ea ae 3c ff 8e 08 30 5e ee 1a 36 5a 45 bc 3c
       0.021351859 4.967972e-10 2.3086536e-06 0.022982288
0001d0 50 32 a7 3c 15 a9 2c 3b a1 57 6c 3c b5 da fe 2e
       0.020409733 0.0026345898 0.014425189 1.1589433e-10
0001e0 81 45 91 39 35 06 99 29 88 eb b9 38 cd a5 95 3c
       0.0002770834 6.7956417e-14 8.8653585e-05 0.018267537
0001f0 eb f2 d0 39 5c 89 51 39 1b 54 7a 38 cb 98 0b 3a
       0.0003985384 0.00019982964 5.9682974e-05 0.0005325197
000200 4a c0 22 3c dc bf 1d 1f 0b 87 a5 3c ba 94 0f 39
       0.009933541 3.3404746e-20 0.020205995 0.00013692948
000210 98 00 82 3b d8 81 da 2c 46 f1 81 34 c1 70 8b 3b
       0.003967356 6.210348e-12 2.4203672e-07 0.0042553847
000220 10 0a 76 3b 40 17 fc 39 6c 0a 30 3b fe 4a ca 2c
       0.0037542619 0.00048082508 0.002686168 5.749511e-12
000230 b5 5d 64 3a e0 a5 6e 30 c6 60 ad 39 3b 8a 51 3d
       0.0008711473 8.681962e-10 0.00033069233 0.051157217
000240 7f ab 99 3a a8 bd 24 3a 1d 3b 4d 39 0f 4a cd 3a
       0.0011724083 0.00062843645 0.00019572345 0.001566233
000250 d9 64 e5 3c 20 16 15 1f ba f4 66 3d 64 5c cc 39
       0.02800219 3.157028e-20 0.056385733 0.00038978748
000260 c4 00 38 3c 5a 95 83 31 db e4 12 36 9c f8 49 3c
       0.011230651 3.829581e-09 2.1888907e-06 0.0123273395
000270 b4 f0 35 3c de 3f be 3a e7 a3 f8 3b 9c a6 0a 32
       0.011104751 0.0014514884 0.007587898 8.07054e-09
000280 aa 38 05 3b 05 a7 32 30 fc 54 3f 3a 35 64 08 3e
       0.0020327964 6.499337e-10 0.00072987354 0.13319476
000290 93 7f 35 3b 9c 54 c1 3a a0 23 e8 39 2e 3c 6b 3b
       0.0027694448 0.0014749947 0.0004427703 0.0035894024
0002a0 db 50 94 3d 49 78 8e 1f 88 44 17 3e d8 60 76 3a
       0.072419845 6.0338334e-20 0.14772236 0.0009398586
0002b0 e5 58 ea 3c 48 a4 65 31 9e ab c2 36 f9 5d fe 3c
       0.028606841 3.341727e-09 5.8016294e-06 0.031050669
0002c0 b3 e5 e2 3c 90 0c 63 3b ff 51 9f 3c ee 8a 2f 32
       0.02769742 0.003464494 0.019448278 1.021793e-08
0002d0 41 b1 92 3a f9 1b e7 29 35 e3 be 39 82 a2 98 3d
       0.0011191742 1.0263313e-13 0.00036408906 0.07452871
0002e0 87 36 d1 3a 9b f1 52 3a eb bc 78 39 bc f3 0b 3b
       0.0015961685 0.0008046866 0.000237215 0.0021354994
0002f0 27 02 26 3d 4e bb 89 1e 67 e4 a8 3d 24 53 0e 3a
       0.040529396 1.4582907e-20 0.08246689 0.0005429259
000300 56 5a 84 3c 6e a1 b1 2e 11 8a ea 35 26 56 8e 3c
       0.016156357 8.077704e-11 1.7474541e-06 0.017375063
000310 bc 1f 7c 3c f9 55 00 3b f7 41 33 3c 6b 63 6f 2f
       0.015388425 0.0019582494 0.01094102 2.1772244e-10
000320 63 9d bb 3a c5 05 47 30 4c c6 0a 3a 22 a8 b4 3d
       0.0014313873 7.240398e-10 0.0005293831 0.08821131
000330 78 a5 fb 3a ff 38 87 3a 44 e2 a4 39 f4 d2 1f 3b
       0.0019199094 0.0010316669 0.000314491 0.0024387212
000340 46 a5 44 3d c4 26 fa 1b e5 fb c7 3d a6 c5 29 3a
       0.04800918 4.1384082e-22 0.09764842 0.00064762903
000350 8f 71 9b 3c 4d a6 7b 31 b6 18 72 36 b0 d2 a8 3c
       0.018975047 3.6619838e-09 3.6075194e-06 0.020608276
000360 d4 59 96 3c 3b c4 1a 3b a3 0b 53 3c ad 56 08 32
       0.01835338 0.0023615498 0.012881192 7.93595e-09
000370 4b 17 d5 38 3f 1e 05 2e ec d5 06 38 ce d4 ac 3b
       0.0001016097 3.0267563e-11 3.214732e-05 0.0052743917
000380 e1 34 22 39 f6 33 9b 38 d5 b8 d3 37 1c 48 79 39
       0.00015469223 7.4006544e-05 2.523923e-05 0.00023773353
000390 2a 19 3f 3b ed 59 1e 1f 75 b6 bb 3b 66 cf 62 38
       0.0029159286 3.3532186e-20 0.0057285377 5.4075754e-05
0003a0 b3 52 a3 3a 17 2a 12 2f 9c df 43 31 66 05 b2 3a
       0.0012460559 1.3293576e-10 2.8503342e-09 0.0013581931
0003b0 4a 1c a0 3a 5a 4d 34 39 1d 4b 57 3a 6c de 62 2f
       0.0012215462 0.00017194953 0.0008212792 2.06336e-10
0003c0 25 42 ef 39 4e 4d 67 2a 65 b0 1b 39 0e c4 f7 3c
       0.00045634914 2.0543742e-13 0.00014847664 0.030244853
0003d0 9b c5 2a 3a 50 86 ac 39 a3 e6 cc 38 bc de 60 3a
       0.0006514431 0.00032906467 9.7704375e-05 0.0008578112
0003e0 ec a2 86 3c c2 b2 b8 1e f9 1e 09 3d 59 03 6a 39
       0.01643511 1.955569e-20 0.033476803 0.00022317226
0003f0 b4 51 d6 3b d5 5f fb 2d ad 54 fb 34 17 fc e5 3b
       0.0065405015 2.8577954e-11 4.6814003e-07 0.007018577

exp_avg f4 [20]
000000 48 0a 9a bc 59 42 03 3d b6 db e1 3b e8 cf 98 bb
       -0.01880373 0.032045696 0.0068926467 -0.004663456
000010 9f 65 9b 3c d4 4f 1e 3d 1f 16 94 3c 40 92 09 ba
       0.018969355 0.03865035 0.018076954 -0.0005247928
000020 94 4e 74 bc ed 08 02 bd 18 db c1 3b 9c f0 8b 3c
       -0.014911313 -0.031746794 0.0059160106 0.017082505
000030 75 b6 a5 bc 54 34 9f 3c 16 81 fe bc 0b e4 8b 3c
       -0.020228604 0.019434132 -0.031067412 0.017076513
000040 b2 fe 35 3c 48 6f de bc f4 52 c1 bc b0 8a f7 bc
       0.011108087 -0.027152672 -0.023599125 -0.030217499

exp_avg_sq f4 [20]
000000 c7 1a 70 3c 16 e8 53 3c a9 5d 63 3b 4c bd 76 3c
       0.014654822 0.012933752 0.0034693277 0.01505978
000010 bc a4 c6 3a 0c e3 71 3c 4f 52 30 3b c6 62 07 3c
       0.0015155296 0.014763605 0.0026904528 0.0082632955
000020 6f ac a9 3c 7c 0e 37 3c 8c 25 5f 3c 32 23 5e 3a
       0.020712106 0.011172887 0.013619792 0.00084738724
000030 7a 8e 92 3b 90 56 54 3c d0 5a 98 3c 88 9c 98 3b
       0.004472551 0.012960091 0.01859799 0.004657332
000040 62 fd b9 3a 5f eb 0e 3b e0 e1 59 3c a4 10 a0 3c
       0.0014189894 0.0021807773 0.013298482 0.019539185

exp_avg f4 [1, 20]
000000 ce 92 cf 39 00 56 7b 3a 8a 6b 9c 3a 10 2f 86 3a
       0.00039591495 0.0009587705 0.0011933905 0.0010237414
000010 bd cc c8 3a b8 aa aa 3a 39 64 65 3a 9a d1 32 ba
       0.0015319806 0.0013020849 0.0008750591 -0.0006821394
000020 33 ba ad 39 77 24 41 ba be dc 5b ba 50 45 cc 3a
       0.0003313586 -0.00073677994 -0.000838708 0.0015584622
000030 63 f1 56 ba 98 76 67 38 1a 4c 81 b8 b4 9f 8f 39
       -0.00081994216 5.518514e-05 -6.165374e-05 0.00027394074
000040 2e 71 a6 3a 6a 21 ae ba 1a 86 8b b8 ea d9 5a b9
       0.0012698525 -0.0013285105 -6.653015e-05 -0.0002087128

exp_avg_sq f4 [1, 20]
000000 7f f5 3a 38 a4 d9 f0 38 2e 3a 92 37 35 7a 20 37
       4.457449e-05 0.000114846305 1.7431648e-05 9.565197e-06
000010 1b 2e c2 37 82 5d 23 39 4c 53 36 39 4c 17 37 36
       2.3148072e-05 0.00015579726 0.00017387903 2.7282686e-06
000020 9e ec fe 37 55 88 fd 38 ad 6c 8b 36 6f 9a 29 39
       3.0389343e-05 0.00012089374 4.1551743e-06 0.00016174627
000030 ae a7 34 39 72 d4 11 38 25 8c 41 38 23 58 10 38
       0.00017228603 3.476855e-05 4.6145306e-05 3.441436e-05
000040 d2 62 e8 36 cc cd ad 38 16 c7 19 38 8a da a5 38
       6.925643e-06 8.2876155e-05 3.6663456e-05 7.908519e-05

exp_avg f4 [1, 20]
000000 7c cc c5 3c d7 cd 08 3e 35 c2 19 3e c5 19 d9 3d
       0.024145357 0.13359772 0.1501549 0.10600618
000010 ff 10 27 3e 00 c8 3e 3e 0b 93 02 3e 7c 50 61 bd
       0.16315077 0.18630981 0.12751405 -0.055008397
000020 23 3c 95 3c 1a 16 ed bd e8 af a9 bd 52 f5 5b 3e
       0.018217152 -0.11576481 -0.082855046 0.21480301
000030 85 a7 07 be 57 5e 11 3d be f3 0e bd 1e 77 2a 3d
       -0.13247497 0.03549036 -0.03490042 0.041617505
000040 a0 67 05 3e c4 51 1f be e0 08 36 bd ac 80 68 bd
       0.13027811 -0.15558535 -0.044442058 -0.056763336
