lightning_logs/version_27/checkpoints/epoch=4-step=250.ckpt (torch, 331103 bytes, 33 tensors)

model.param_proj.proj.0.weight f4 [1, 40]
000000 91 31 36 3e ac ed a5 bd 90 41 14 be 9c fd 33 be
       0.17792346 -0.08101973 -0.14478135 -0.17577213
000010 f5 70 3f bd ed d4 08 3d a2 f0 11 3e 8f fb c2 3d
       -0.046738584 0.033406187 0.1425195 0.09520637
000020 29 1c de 3d a5 14 74 3d ad 81 d9 3d 8a 0d 10 3e
       0.10845215 0.05959 0.10620437 0.14067665
000030 de 6a d8 3c d8 12 c5 3d f5 3b 84 bd 10 5b 21 bd
       0.026418146 0.09622735 -0.064567484 -0.039393485
000040 12 2a 70 3e ee d2 cd 3d 89 17 a7 3d 56 6e d5 bd
       0.23453549 0.10049997 0.08158786 -0.104214355
000050 30 35 ce 3d 8a 1e 31 3e cc 5a fc bd 0f 63 25 3e
       0.100687385 0.17296806 -0.12322006 0.16151069
000060 63 33 bb 3c 99 eb 43 3d 0d bf cb 3d 90 75 1b 3d
       0.022851652 0.047832105 0.099485494 0.037953913
000070 8a 86 9a bd 92 0a a1 3d e2 46 be bc 80 e3 18 be
       -0.075451925 0.07863344 -0.023227159 -0.14930534
000080 d4 b6 85 3d a4 3a 1b 3d 29 05 2f 3e 5a b2 40 bc
       0.06529012 0.03789772 0.17091812 -0.011761272
000090 02 8c fe 3d 69 51 8d be c7 eb 00 3e d4 36 11 bd
       0.12429048 -0.27601174 0.12589942 -0.03545268

model.param_proj.proj.1.weight f4 [1, 40]
000000 e9 50 4f bd 56 b9 5d bc f6 78 e2 bd 3f e4 2d be
       -0.05061427 -0.013532957 -0.11058228 -0.169816
000010 fd c6 15 be a5 3e 08 be 93 50 2a 3d 9c 54 48 3e
       -0.1462669 -0.13305147 0.041580748 0.19563526
000020 87 6a 11 3d 39 d1 a5 bd ce db 19 3a ba f2 9c 3d
       0.035501983 -0.08096547 0.000586924 0.07663484
000030 87 12 39 3e 32 ee 91 3d 8e 3a 92 3d 4e 4d 29 be
       0.18073474 0.0712551 0.07140075 -0.16533396
000040 b9 6e f1 3d 23 ff 27 3e 6d d5 1c be 6b b2 e9 3d
       0.11788697 0.1640592 -0.1531579 0.11410984
000050 98 03 3a be 4e 18 b1 3c 3f a5 bf bd 1c aa 06 3e
       -0.18165433 0.021618035 -0.0935769 0.13150829
000060 fb c8 e4 bd 77 ec 8f bd be 0e 6a bd e0 ca 5f 3d
       -0.111711465 -0.07027524 -0.057142965 0.054636836
000070 01 05 01 3e 86 92 e7 3d 60 51 dc 3d 0d ad 1e 3d
       0.12599565 0.11307244 0.107577085 0.038739253
000080 27 c6 25 3d f5 be dc 3d cc 9d f4 bd b1 4b 8d bc
       0.040472176 0.1077861 -0.1194416 -0.017248007
000090 82 c5 1d 3e be 73 27 bd d7 ed a5 3d 73 e6 f8 bc
       0.15407375 -0.040881865 0.08102005 -0.030383324

model.param_proj.proj.2.weight f4 [1, 40]
000000 68 57 6a 3e 16 7d d4 3d d0 67 f2 bd 29 b0 75 bc
       0.22884905 0.10375421 -0.11836207 -0.014995613
000010 02 23 28 3e 78 18 b0 3d 3c 29 75 be 77 d5 ae 3c
       0.16419604 0.08598417 -0.23941511 0.021342022
000020 93 fe 89 be 15 ec 1f 3e db e8 3e 3e 5c 06 79 be
       -0.26952037 0.15617402 0.18643515 -0.24318832
000030 d6 fc 07 bd 52 2a ae bd f7 19 c5 bd b1 66 0d bd
       -0.033200108 -0.08504166 -0.09624093 -0.034521762
000040 e4 f0 d0 3d 26 33 c9 bc a0 2e 21 3e 7b cf 18 be
       0.10202196 -0.024560522 0.15740442 -0.14922898
000050 e7 75 80 3d 13 cb 2b 3e 35 7a 00 3e 51 4f c3 3d
       0.06272488 0.16776685 0.12546618 0.09536613
000060 18 1f 3b 3e 04 23 7d 3e b1 d6 e6 3d c0 55 ad 3d
       0.1827358 0.24720389 0.11271418 0.08463621
000070 48 55 cd bd ce 18 e7 bd cf 36 0f be 7d f5 19 be
       -0.10026032 -0.11284028 -0.13985752 -0.15035053
000080 ad b3 18 be c3 bf aa bd 77 3f 19 3e b4 15 0e be
       -0.14912291 -0.08337357 0.14965616 -0.13875467
000090 f8 4a 6e be 33 04 57 be 68 e2 e2 bd 70 4a ec 3d
       -0.23270786 -0.20997696 -0.1107834 0.11537635

model.rnn.weight_ih_l0 f4 [160, 37]
000000 42 03 57 3e ed 4e 5a 3d 54 7e 5d 3d f4 18 49 3e
       0.20997337 0.053297926 0.054075554 0.19638425
000010 9b f2 06 3d f1 c3 82 bc 5e ad 18 3e b2 13 dd 3d
       0.03294621 -0.015962573 0.14909884 0.10794772
000020 5d f2 18 3e 08 ee f2 3b e0 24 b5 3d 11 a9 05 3e
       0.14936204 0.0074136294 0.08844924 0.13052775
000030 39 a6 da 3c 7b e3 fb bc f0 39 7c 3c 3a dc 51 3e
       0.02669059 -0.03074812 0.015394673 0.20494166
000040 23 64 95 3d b3 7f 1d 3e 71 7f 12 3e b2 d9 2d 3e
       0.0729449 0.15380745 0.14306428 0.16977575
000050 8e cf 87 3d 47 af b2 bd 14 65 ce 3d d0 29 ea 3d
       0.06631385 -0.08724838 0.10077873 0.11433756
000060 9e 7a fa 3d b4 32 47 3c b4 6c c8 3d 42 39 bd 3c
       0.122304186 0.012158085 0.097863585 0.023098592
000070 fc 7f 27 3c 7d 7f 98 bd 19 64 80 3e 77 4c bc 3d
       0.010223385 -0.074461915 0.25076368 0.09194272
000080 de 03 86 be 7f 17 d6 bd 64 18 c7 3b c3 67 b4 3d
       -0.26174825 -0.104537 0.0060759056 0.088088535
000090 75 c2 49 3e 9c 8b 7d 3e d3 06 f2 3d 53 1b de 3d
       0.19703086 0.24760288 0.11817708 0.108450554
0000a0 dd 2e fb 3d a2 a0 9f 3d d8 33 6d 3d db 2d 7c 3e
       0.12264798 0.0779431 0.05791077 0.24626867
0000b0 da a0 16 bd bc 5b 61 bc 2c 9c 9b 3d a0 15 7e 3e
       -0.036774494 -0.013754781 0.07598147 0.24812937
0000c0 cc 42 28 bd e3 a6 8b 3d 27 06 45 3e f6 d5 4d 3e
       -0.041079327 0.068189405 0.19240628 0.20101151
0000d0 3c 01 56 3e 50 e0 74 3e 67 fc 64 3e 49 ec cf bb
       0.20898908 0.23913693 0.22361909 -0.006345306
0000e0 e0 53 c2 3c 3c 0b d6 bb 66 b5 63 3e 30 46 8c bc
       0.023721635 -0.006532101 0.22237167 -0.017123312
0000f0 1a 2f fa 3d 79 4a 87 bd 48 57 a6 3c 0b ae a2 bd
       0.12216015 -0.066060014 0.02030529 -0.07943352
000100 9e 4e 90 bd fc b4 99 3d 91 95 e7 3d 16 8e 26 3e
       -0.07046245 0.07505223 0.113078244 0.16265139
000110 c1 a6 17 bd ea 31 42 3d b7 d2 26 3d aa 1d c9 bd
       -0.037024263 0.047410883 0.040728297 -0.09820111
000120 64 d9 51 3b db ea 1c 3c a4 89 f4 3c c8 87 d5 3d
       0.0032020444 0.009577478 0.029850788 0.10426289
000130 a9 08 71 3d b4 51 1d 3d 08 a5 18 3e 58 fb 5c 3e
       0.05884615 0.038407996 0.14906704 0.21580255
000140 db 20 a5 3c a7 61 81 3e da b1 01 3e c5 13 83 3e
       0.020157268 0.25269815 0.12665501 0.2560102
000150 fd b6 01 3e 8b 93 57 3b 13 c5 83 3e 8b f9 fd bc
       0.1266746 0.003289434 0.25736293 -0.03100278
000160 2f 79 7d 3e 0d 67 86 3d 9e f3 6b 3e 49 55 57 3e
       0.24753259 0.06562624 0.23042151 0.21028627
000170 93 a9 75 3e da 1b 36 3d 5b d8 68 3e 29 6d 2f bd
       0.23990469 0.044460155 0.22738783 -0.042828713
000180 3e 77 16 3e 84 d2 92 bc c9 4a 85 3d 90 f4 0e bd
       0.14693925 -0.017922647 0.06508405 -0.0349012
000190 3a 85 12 bd f0 01 be 3d 6f 6f f7 3c f5 2b 3b bd
       -0.035771586 0.09277713 0.030204503 -0.045696218
0001a0 e2 33 51 3e d5 94 4b 3c 4d c2 bc bd b2 06 2f bd
       0.20429948 0.012425621 -0.092167474 -0.042730995
0001b0 bf db e0 3d fd dd 95 3c e3 1d 77 3e d8 8e 53 3c
       0.10979413 0.018294329 0.24132495 0.012912475
0001c0 97 3d 7b 3d 81 ad 23 bc 1c 61 58 3e 14 51 12 3e
       0.061338034 -0.009990097 0.21130794 0.14288741
0001d0 7e 31 3c 3e 07 85 72 3e 8c 75 aa b8 cf ac 0d 3d
       0.18378255 0.23683558 -8.1281265e-05 0.03458863
0001e0 70 dd 75 3e e6 f3 5e 3e 21 97 90 3d 72 d8 3b bd
       0.24010253 0.21772727 0.070600756 -0.045860715
0001f0 57 f2 60 3e 5b b5 52 3e 3b d2 67 3d 71 f1 1f 3e
       0.21967445 0.20576994 0.056596976 0.15619446
000200 55 e9 1c bd 67 02 22 3d be bc fc 3c 93 5a 50 3e
       -0.03830846 0.039553072 0.030851718 0.20347051
000210 9a d0 36 bd 78 70 da bd 3a 7e ca 3c 85 3b f7 bd
       -0.04463253 -0.10665983 0.024718393 -0.12071899
000220 62 c0 40 3b 74 39 64 3d 83 84 c7 3d 94 98 c9 bd
       0.0029411544 0.055718854 0.097420715 -0.09843555
000230 b6 88 8f 3d 8e 47 c6 3d 4d 72 ef 3d 5e da 91 bc
       0.070084974 0.09681617 0.11691723 -0.01780432
000240 d2 03 11 3e 4a 00 fe 3d 32 c9 0f 3e cc 8e 72 3d
       0.14161614 0.12402399 0.14041594 0.059218213
000250 1e d2 86 3e b9 5f b4 3d e0 e8 7f 3d 10 d2 de 3d
       0.26332182 0.0880732 0.062477946 0.1087991
000260 20 b8 7d 3d b0 f7 95 3d b2 70 ab 3c e7 3b 6f 3e
       0.061943173 0.07322633 0.02092776 0.23362695
000270 77 67 0d 3e 31 25 53 3e f7 78 a5 bc 04 a9 1d 3d
       0.13809 0.20619656 -0.020199282 0.038491264
000280 0c d7 21 3e 8c 33 3f 3e bc 53 8d 3d 2d 94 42 3e
       0.1580469 0.18672007 0.06900737 0.19001837
000290 e3 eb a9 bb 17 58 07 3e b4 39 8c 3d e1 e6 f7 3d
       -0.0051855906 0.13217197 0.068469435 0.121045835
0002a0 c5 7e 9d 3d 07 67 55 3d bc c7 01 3e a4 c4 81 bd
       0.07690195 0.052100208 0.12673849 -0.06336334
0002b0 9e 37 a6 bd d9 b2 4a 3d 0f 67 1c 3b 1d 20 a4 3d
       -0.08116077 0.04948697 0.0023865139 0.080139376
0002c0 b9 34 47 bd ca 81 46 3c 24 53 f7 3d 96 ae 40 bd
       -0.048634265 0.012115905 0.12076405 -0.047041498
0002d0 80 dc 01 3c 0d a7 bd 3d 7d 90 68 bd 98 7b e9 3d
       0.007926106 0.09260378 -0.05677842 0.11400527
0002e0 6d 45 6b 3d 8a 8f 2c bc a5 55 e2 3d 9b 06 3f bd
       0.057439256 -0.010532269 0.11051492 -0.04663716
0002f0 93 3e f0 bc 62 7b 6c 3d f0 bf d3 bc ea b6 ba 3b
       -0.029326713 0.057734855 -0.025848359 0.0056980746
000300 5b 0f 31 3c fc 07 69 3d 73 8d fb 3d 13 e6 44 3e
       0.010806884 0.05689238 0.12282839 0.19228391
000310 6d e6 97 3b 2f 0c 46 3e 31 cf 5d 3d 4c aa 33 3b
       0.004635623 0.19340585 0.05415267 0.0027414737
000320 9e 96 4a 3e ad 3e 0a 3e 39 8c 29 3e 64 fe b8 3d
       0.19784018 0.13500471 0.16557397 0.09032896
000330 67 10 72 3e 54 56 d3 3d 5d 0a 28 bd f4 a9 0e 3d
       0.2363907 0.103192 -0.04102551 0.03483005
000340 60 50 36 3e 2e fb ac bd 55 55 39 3d 95 b2 ec 3b
       0.17804098 -0.08446346 0.045247395 0.007223437
000350 8d 1f 84 bc 2e ee ee bc 81 86 54 3d 73 e7 7f 3d
       -0.016128326 -0.029166307 0.051886085 0.062476587
000360 8e 25 ee bd a3 f2 55 be 48 8e 09 3e de fb 47 bd
       -0.11628257 -0.2089334 0.13433182 -0.048824184
000370 70 2b b8 3d 2b 7e 07 3e ca b1 0d 3e 9a 0f d5 3d
       0.0899266 0.13231723 0.13837352 0.104033664
000380 46 20 38 bb e6 82 1c 3e bd 04 3a 3e 52 70 f8 3d
       -0.0028095408 0.15284309 0.1816587 0.121307984
000390 84 25 6b bc 76 41 68 bd b3 a9 8b bc 5b f7 cc 3d
       -0.014352206 -0.056703053 -0.017048692 0.10008117
0003a0 cd b2 7e 3d c4 3d 64 3d 2d da 43 3e 61 61 5b 3e
       0.062182236 0.055722967 0.19126196 0.21423866
0003b0 9b 34 47 3d 09 6b 8e 3c ef 7d b6 bc 10 f2 89 bb
       0.048634153 0.017385023 -0.022276847 -0.0042097643
0003c0 ce 93 48 3e 00 89 29 3d 84 86 e0 3d ed 3a 24 3e
       0.19587633 0.04139042 0.10963157 0.16038103
0003d0 3f 3f 8d bd 5a 00 cb 3d 79 26 dd 3d 16 f0 ee bc
       -0.06896829 0.099121764 0.10798354 -0.029167216
0003e0 96 ac 8d 3d f1 82 c2 bc 92 a2 c1 bd e2 56 c7 bd
       0.06917684 -0.023744078 -0.09454836 -0.097333685
0003f0 a0 af 4f 3e c7 ba 9f bc 28 6e 0e be 3a 19 d3 bd
       0.2028184 -0.019498242 -0.13909209 -0.10307546

model.rnn.weight_hh_l0 f4 [160, 40]
000000 fe 85 c3 3d a7 73 d6 bd df 51 38 3e f4 ad db bb
       0.09547041 -0.10471278 0.17999981 -0.0067040864
000010 fc 78 6c ba b0 29 81 3d ad 9f 20 3d f2 44 92 3d
       -0.00090207136 0.063067794 0.03921478 0.071420565
000020 64 da b4 3d b8 5d 26 3d 27 14 6b 3b c7 3a e5 3d
       0.08830717 0.04061672 0.0035870166 0.111928515
000030 33 97 c8 bd c3 f9 f8 bd fc e9 8b bd 56 b5 1a 3d
       -0.09794464 -0.12157013 -0.06831738 0.03777059
000040 8d 1d d8 3d 0f 02 d2 bd c4 9b f3 bc 07 80 d6 3d
       0.10552511 -0.10254299 -0.02973736 0.10473638
000050 93 f3 af 3d 4d 2e 1f 3d b4 4d 0c ba 30 96 d2 bc
       0.0859138 0.038862515 -0.0005352155 -0.02570638
000060 0a 72 0d 3d ad c8 1b be bd 4e a5 bd 19 da e9 3b
       0.034532584 -0.1521327 -0.08071659 0.007136595
000070 83 02 cd 3c 2a 7d d8 ba a0 30 8b bd 57 f5 96 3c
       0.025025612 -0.0016516794 -0.06796384 0.018427534
000080 46 de 10 3e 6d c5 e9 bd c2 17 75 bd ed d8 23 3e
       0.1414729 -0.11414609 -0.05983711 0.1600072
000090 cc 0a bf bc 14 d1 b3 3d 9b ec 9f bd 96 a5 c0 bd
       -0.023320578 0.08780113 -0.07808801 -0.09406583
0000a0 c0 63 09 bd e8 67 70 3b 27 eb da 3c b5 7b eb 3d
       -0.033542395 0.0036683027 0.026723458 0.114982046
0000b0 9f b5 57 3d f8 c4 42 3d b0 40 fa 3d f7 8d da 3c
       0.05266344 0.047551125 0.122193694 0.026679022
0000c0 92 9a 8e bd ba e0 30 3e 94 c9 fa 3d ca 82 f6 3d
       -0.06963076 0.17273226 0.12245479 0.12036665
0000d0 00 df 43 3e 35 70 d6 3d 2e 65 2a 3d 82 71 ef 3d
       0.19128036 0.104706205 0.0416004 0.11691572
0000e0 49 b7 1d be a8 0c b7 bc 68 9e 5e bd 67 4e 0c 3e
       -0.15401949 -0.022344902 -0.054350287 0.13701783
0000f0 41 94 ce bd df f9 4a 3d bb ee 4a 3d 59 34 eb 3d
       -0.10086871 0.049554702 0.049544077 0.11484594
000100 c2 23 c8 bc ff 8a 65 3c 6f 59 d4 bd 1b 9e 2c 3e
       -0.024431113 0.01401019 -0.103686206 0.16857187
000110 ab c7 b2 3d 5d b8 25 bc 31 7f a5 bd 4f 4f 13 3e
       0.0872949 -0.010114756 -0.080809005 0.14385723
000120 55 2b 43 3b 93 17 37 be d3 30 ce 3d 18 19 41 bd
       0.0029780467 -0.17880087 0.10067906 -0.047143072
000130 de 7e ec 3c 65 08 45 3e 81 cc c5 3d ea 57 a1 3d
       0.028869089 0.19241484 0.09658147 0.078780964
000140 00 66 cb 3d 93 7b 1b be e6 81 32 3e 58 7b 18 bc
       0.09931564 -0.15183859 0.17432365 -0.009306751
000150 43 96 3c 3d 2a 01 ef 3d cc ed 37 3e 93 c1 2d bc
       0.04604174 0.11670144 0.17961806 -0.010605234
000160 f0 63 12 be 79 4a bc 3d b7 72 c3 bd e1 fc a0 3d
       -0.14295936 0.09193892 -0.095433645 0.07860733
000170 56 93 ee 3c 70 13 79 bd 3f 68 7f bc 84 92 b7 3d
       0.02912299 -0.060809553 -0.015588819 0.089634925
000180 08 10 d9 bd c9 3d eb 3c 5c de 55 3e 0f b8 f4 3d
       -0.10598761 0.028715985 0.20885605 0.11949169
000190 0b 41 9d 3c e0 82 24 be 50 be 60 3d bf 21 10 bc
       0.019196054 -0.1606555 0.054868996 -0.008797108
0001a0 c4 90 5c be a2 40 df 3b 45 6e db 3d c6 a2 35 bc
       -0.21539599 0.0068131248 0.107143916 -0.0110861715
0001b0 7e 5f 9e bc 63 fe 6a bd b1 60 44 be 83 ff c7 3c
       -0.019332644 -0.05737151 -0.1917751 0.02441383
0001c0 31 04 d9 bb 57 75 34 bc 3f 03 2f be 45 25 5b 3d
       -0.006622814 -0.011014304 -0.17091082 0.05350234
0001d0 da 59 b2 bd 26 c1 d1 3d c9 86 5b bd 0d 44 41 3d
       -0.08708544 0.10241918 -0.053595338 0.04718404
0001e0 d3 cf e7 3d a2 2c 35 be b0 71 05 3e 63 dd f2 3d
       0.11318936 -0.17692807 0.1303165 0.118586324
0001f0 b1 3d 1a 3e f4 6e 4d 3e 51 1b 04 3c 61 15 32 3e
       0.15062596 0.20061857 0.008063153 0.17390968
000200 c2 8d 99 3d 3f 86 f7 3d b1 1e 0c 3e ca 48 8d 3b
       0.07497741 0.12086152 0.13683583 0.0043116556
000210 07 fc 28 3e fb 93 a1 3d cf 88 36 be 2c 5f 14 3d
       0.16502391 0.07889553 -0.17825626 0.036223575
000220 87 ea 0c be 9d 99 c8 3d c7 e4 32 3e 05 8a aa 3d
       -0.1376134 0.097949244 0.17470084 0.083271064
000230 5a 7c bc 3d b6 49 dd bd 16 78 05 3e ef 94 aa 3d
       0.09203406 -0.10805075 0.1303409 0.08329188
000240 03 e2 16 bd 11 6b 14 be 40 53 18 bd a6 22 16 3e
       -0.036836635 -0.14493968 -0.03718877 0.14661655
000250 06 cc b3 bd 93 0a 0b 3e 08 7d 9a bd 6f 85 4a bd
       -0.08779149 0.13578252 -0.07543379 -0.04944366
000260 b9 40 83 bd 24 69 3e bc 89 f9 ec bd d3 ab 27 bd
       -0.06408829 -0.011621747 -0.115710326 -0.04093535
000270 04 ff ed 3c 30 c1 4b 3e 79 8e 07 3b 1e f6 09 3e
       0.029052265 0.19897914 0.0020684286 0.13472793
000280 1e fb 47 bd 2d 15 44 be 02 4c c2 bd e1 4a 43 bd
       -0.04882347 -0.19148703 -0.094871536 -0.047678832
000290 0b a0 86 bd 94 29 56 3e 5d 84 83 3d 08 da 15 bd
       -0.065734945 0.20914298 0.06421731 -0.036584884
0002a0 a1 ed 47 be af a7 e8 3c c1 4d 43 bd de 86 1b 3d
       -0.19524242 0.02840027 -0.047681574 0.037970416
0002b0 ad ca 90 bd 3d 8d 30 be 02 18 c6 3b 9f c1 6f bd
       -0.07069907 -0.17241378 0.0060453424 -0.05853426
0002c0 24 38 97 bd ea dc 4b bd 6c fe ec 3d 7a 06 4e bd
       -0.07383755 -0.049771227 0.115719646 -0.050299145
0002d0 c8 38 5d bc a3 a6 ab 3d e7 62 f0 bb 27 21 16 3e
       -0.013502307 0.08381393 -0.007336009 0.14661084
0002e0 8f 95 e4 bd 11 fb 66 bd 78 6a 43 3e cb ff 89 bb
       -0.111613385 -0.05639178 0.19083583 -0.004211401
0002f0 26 fb 87 bd fb 95 84 3d 78 df ad bd 89 ba 96 3d
       -0.066397 0.06473919 -0.08489889 0.073597975
000300 4a 19 0e 3e a6 cb 86 3d ae ef 84 3d 0b ef 2c 3d
       0.13876835 0.065818116 0.06491028 0.042220157
000310 38 07 37 3d 5d 1d c4 3d da bf 04 be 9c 81 ce bc
       0.04468462 0.09575913 -0.1296381 -0.025208287
000320 88 33 78 bd 7e a7 12 3d d2 62 2a 3e 5e 38 1f be
       -0.06059602 0.035804264 0.1663926 -0.15548846
000330 4d 3b 06 3e 62 5f aa bc c7 cf bf bd 2a a9 2d bd
       0.13108559 -0.020797435 -0.09365802 -0.042397656
000340 54 11 77 bd d6 07 a1 bc f9 e2 9b 3d 22 69 74 3d
       -0.06031926 -0.019657057 0.07611651 0.059670575
000350 f9 3c bc bd 8e 24 0f bd 11 ce fe bd c8 eb 47 3e
       -0.09191317 -0.03494697 -0.12441648 0.19523537
000360 e2 04 8d bd 5d ed be bd bf 90 00 be 2e 16 24 3e
       -0.06885697 -0.09322617 -0.12555216 0.16024086
000370 01 d7 c7 3d 0a af c8 bd 58 e2 89 3d 61 ec 9b 3d
       0.097578056 -0.09799011 0.06732625 0.07613445
000380 d9 a6 4d 3d 45 fe 39 be b5 5b 6c 3c b4 50 da bd
       0.050207946 -0.18163402 0.014426162 -0.10659924
000390 41 f8 03 3d f7 8a ed 3d 97 08 3f be 68 1e 8c bd
       0.032219175 0.11598771 -0.1865562 -0.06841737
0003a0 b6 e1 07 3e 6a b7 e0 3b 69 a7 8c bd 5e ec db 3d
       0.13269696 0.006857802 -0.068678685 0.10738443
0003b0 18 cd c5 3d e8 ee 07 3e 3a dd d1 3c 47 cb 27 bb
       0.09658259 0.13274729 0.025618184 -0.002560334
0003c0 7a 46 7f bc d6 31 8f bd 3f ac 8f bd 75 8f e8 3a
       -0.015580768 -0.06991927 -0.07015275 0.0017742949
0003d0 86 36 a0 bd 43 82 ad 3d 6e 25 d0 3d 3c 97 64 3d
       -0.078228995 0.08472111 0.10163389 0.05580829
0003e0 38 52 e3 3d b5 09 40 3e 2a 4e 2f bd 84 bb ef bd
       0.11099666 0.18753703 -0.042799152 -0.11705688
0003f0 a4 3b d3 3d b6 11 d6 3d d3 64 3c bd 04 89 b8 bd
       0.1031411 0.10452597 -0.04599459 -0.09010509

model.rnn.bias_ih_l0 f4 [160]
000000 6e d4 2a bc 68 a9 62 3e 0d fd 55 3e e6 21 25 3e
       -0.010426624 0.22134936 0.20897312 0.16126212
000010 08 d5 b1 3d 6e 16 08 3e 50 84 19 bc e9 6e 12 3e
       0.086832106 0.13289806 -0.009369925 0.14300121
000020 60 76 ce 3d dc 52 62 3e fe 60 7c 3e 79 fb 51 3e
       0.10081172 0.22101921 0.24646375 0.20506085
000030 63 15 bb bc 69 58 7d 3e 1f a3 7d 3d f2 ce 8f 3e
       -0.022837346 0.24740757 0.061923143 0.28087574
000040 28 0b 63 3e 81 39 69 3d 2d 78 fd 3d 58 e5 4f 3e
       0.22172225 0.056939606 0.12376437 0.20302331
000050 ab c1 63 3e 65 2c 3c 3e ea 58 90 3e 1a 05 a0 3d
       0.22241847 0.1837631 0.28192836 0.07813473
000060 f3 72 00 3e 76 bf 81 3e 0c d1 55 3e 79 c1 89 3d
       0.1254385 0.25341386 0.20880526 0.06726355
000070 ea ec 56 3e ec 30 8e bd 0f 56 fe bc ae 13 11 3e
       0.20988813 -0.06942925 -0.031046895 0.14167663
000080 13 e6 42 3e 3d b1 f9 bc 02 3c 10 3e ec 30 b9 3d
       0.19033079 -0.030480022 0.14085391 0.09042534
000090 36 74 42 3e 23 0a d3 3b 1a e7 22 be ae 46 21 3c
       0.18989643 0.0064404174 -0.15908471 0.0098435115
0000a0 56 49 80 3c 8c 72 19 3e 95 90 0a 3e 11 e8 c3 3d
       0.01565997 0.14985102 0.13531716 0.095657475
0000b0 9d 74 f5 3d 2b 88 91 3d 98 ed 1c bd 72 46 2f 3e
       0.11985133 0.0710605 -0.038312525 0.17116717
0000c0 74 a3 c9 3d 04 44 c9 3d 7f c1 e4 3d 03 5c 01 be
       0.09845629 0.09827426 0.11169719 -0.12632756
0000d0 84 df 87 3d f6 2e 19 3e 09 c4 71 bd 86 8e 04 bd
       0.06634429 0.1495932 -0.059024844 -0.032362483
0000e0 97 bb 04 3e 2f 81 40 bd 71 d6 36 3d 91 8f f1 ba
       0.12962185 -0.0469982 0.0446381 -0.0018429627
0000f0 41 44 0b 3e 8a d1 9b 3d 11 55 a5 3c d8 36 32 bd
       0.13600256 0.07608326 0.020182164 -0.043509334
000100 3e 80 2d bd 55 39 d7 3d d9 a3 12 3e 46 d3 f0 bd
       -0.04235863 0.10508982 0.14320315 -0.11759047
000110 5f 1d 4b 3d 00 1b 3a 3c 45 bb b0 3d 52 63 ec 3d
       0.049588557 0.011358976 0.08629469 0.11542381
000120 7b 23 d0 3c f2 e2 f2 bc 8e bb 2d 3e 6e 2d 65 bd
       0.025407543 -0.029649232 0.16966078 -0.05595153
000130 36 8b c6 bd ba ce 66 3d a7 5c 35 be 87 b4 0a bd
       -0.09694521 0.056349494 -0.17711125 -0.03386357
000140 50 5c 2d bd fd 9c 58 be 61 93 ab 3d 21 af 6f bd
       -0.042324364 -0.21153636 0.0837772 -0.058516625
000150 22 3e 67 3e 40 77 4d 3e 5d 5b 1e bc 8d 48 32 3e
       0.22582296 0.20065022 -0.009665337 0.17410488
000160 04 16 fb bd e7 25 90 3d 46 f1 01 3e 1f 30 fc bc
       -0.122600585 0.07038479 0.12689695 -0.030784665
000170 58 d2 3c 3e 70 19 80 be 25 4d bf 3d d3 d8 2a 3d
       0.18439615 -0.25019407 0.09340886 0.041710686
000180 44 80 8d 3d 11 7a 30 3d 2f c1 59 3e 56 25 f4 3d
       0.0690923 0.04308516 0.212651 0.11921184
000190 fb 45 76 3e e1 1f c3 bd 44 f9 70 bd 18 02 ad 3a
       0.24050133 -0.09527565 -0.05883147 0.0013199477
0001a0 11 0b 29 bd 1e e8 96 3d 9c 98 13 3e f6 77 2a 3e
       -0.04127032 0.073684916 0.14413685 0.16647324
0001b0 14 3c 76 3e 48 66 1b 3e 8f 0d 8e bd 7c 54 26 3d
       0.24046355 0.15175736 -0.0693618 0.040607914
0001c0 fa df 77 3e 29 a7 76 bd e6 c6 11 be a2 20 11 3e
       0.24206534 -0.06021801 -0.1423603 0.14172605
0001d0 af 64 f1 3d 4c 18 2a 3e e5 43 24 be 40 88 60 3e
       0.11786782 0.16610831 -0.16041525 0.21926975
0001e0 54 d5 72 3e a3 9c 02 3e d8 a7 36 3e 93 b3 a2 3d
       0.2371419 0.12755065 0.17837465 0.07944407
0001f0 a4 d2 0d 3e 22 6b 09 3e ae fb d7 3d ea bc 6e 3e
       0.13849884 0.13419774 0.10546051 0.23314252
000200 01 2b bf 3c bb d4 3a bd 1b b3 82 3d 8b e2 ea 3d
       0.023335936 -0.04561303 0.06381818 0.11468991
000210 8e 7e 2a 3e 18 0e 2b 3e 29 82 d1 bd 10 aa 92 3e
       0.1664984 0.16704595 -0.10229904 0.28645372
000220 25 d6 24 bc ca c2 f9 3d 38 25 25 3c a4 b1 c6 bb
       -0.010060822 0.12195356 0.010079674 -0.006063657
000230 f2 dc 0d bc d2 8e 66 3e 21 55 a4 3c 17 cf 2c 3e
       -0.0086586345 0.22515419 0.020060124 0.16875874
000240 d6 f1 4d 3e e9 d5 f1 3d 9a a3 f3 3d 45 9e c7 3d
       0.20111784 0.11808378 0.11896439 0.097469844
000250 09 aa 35 3e a9 a2 bc 3d ef f1 9d bc d2 3d 66 3d
       0.17740645 0.092107125 -0.019280402 0.0562113
000260 ad cf 28 bd 00 bf 7a 3d 74 5b 85 3e bf 83 19 3e
       -0.04121368 0.061217308 0.26046336 0.14991663
000270 6c f3 75 3e 9b 39 3d 3e 1d d3 3e 3d bd f6 70 3e
       0.2401864 0.18479006 0.046588052 0.23531623

model.rnn.bias_hh_l0 f4 [160]
000000 90 47 a0 bc 3f e4 35 3e 56 df cf 3c 6f 15 d7 bc
       -0.019565374 0.1776285 0.02537505 -0.026255338
000010 48 be 11 bb fa 69 fa 3d 17 4a 35 3e fd bd e2 3d
       -0.002223866 0.12227245 0.17704044 0.11071394
000020 00 68 d5 3d 79 14 d4 3d aa 24 89 3e a0 07 59 3e
       0.10420227 0.10355467 0.26785785 0.21194315
000030 f3 db d8 3d d0 0f fa 3d 37 f9 8e bd 67 9e 8a 3e
       0.10588827 0.12210047 -0.06981128 0.27073976
000040 f3 fa f1 3d 2b ed 31 3e 56 63 39 3d 66 55 81 3e
       0.11815443 0.17375629 0.04526075 0.25260466
000050 01 80 7b 3d 66 45 88 bc d6 33 46 3e b7 93 5e bd
       0.06140137 -0.016634654 0.19355711 -0.05434009
000060 ce 51 01 bd 9b e6 66 bd 9e b1 4f 3e dd 98 45 3e
       -0.031572156 -0.056372266 0.202826 0.19296594
000070 ad 05 ee 3d 3c 14 1f bd 2a d5 5d 3e 3b 94 4c 3e
       0.11622176 -0.038837656 0.21663347 0.1997842
000080 42 26 c0 3d 68 05 73 3d dd 9c b3 3d 6e f4 21 3c
       0.09382297 0.059331328 0.08770154 0.009884937
000090 42 d8 6f 3d 06 3a 50 3e 7d b3 22 be 63 91 31 3e
       0.05855585 0.20334634 -0.15888782 0.17340617
0000a0 dd 95 92 3b 13 8b 41 bd 90 fc b5 3d 12 e1 95 3d
       0.0044734315 -0.047251772 0.08886063 0.073183194
0000b0 1f 6b c7 3d 59 4d a7 bd a7 ab dd bd e9 06 68 3e
       0.097372286 -0.0816905 -0.10823756 0.22658886
0000c0 9d 75 d2 3d 87 8a c2 3d cb 90 90 bd f7 e4 cf 3c
       0.10276339 0.09499078 -0.07058867 0.025377734
0000d0 d2 62 79 3c 8d 1e a0 bd 5a 82 a9 bc ab 4e 89 bc
       0.0152213145 -0.07818327 -0.02069204 -0.016761145
0000e0 12 3a 79 bd cd 1c a1 bd 4c 05 89 3c b7 16 af 3d
       -0.060846396 -0.078668214 0.016726159 0.085492544
0000f0 dd 60 93 3d 76 e7 ab bd 56 9f 3b 3e 1a 70 fc 3c
       0.071962096 -0.08393757 0.183225 0.030815173
000100 ad 4e 0f 3e 6d 34 0c 3e a7 25 36 3e 33 b4 b7 bd
       0.13994856 0.13691874 0.177878 -0.08969917
000110 93 c2 06 bc 5e 0f 6e bd 2d 9d 14 bd ea d3 c1 3d
       -0.008225101 -0.058120124 -0.036282707 0.094642475
000120 ba 31 cc 3c 46 9c 4d 3d 7f e3 b6 bc 3c 9f b7 bd
       0.024926055 0.050197862 -0.022325275 -0.089659184
000130 14 a9 a1 3d 26 4d aa bd 49 02 45 be f5 7a f4 bd
       0.07893577 -0.08315496 -0.19239153 -0.11937515
000140 c3 8c 67 3e 9a c3 8d bb bf 3e 2a 3e 75 1f 12 3e
       0.2261229 -0.004326296 0.16625498 0.14269812
000150 4c af 71 3e 6f fa 6c 3e 39 06 c3 3d 93 b5 2d 3e
       0.23602027 0.23142408 0.09522671 0.16963796
000160 3c 40 84 be 43 c3 19 3e c1 86 59 bd f1 15 ee bd
       -0.25830257 0.15015893 -0.053107027 -0.11625279
000170 42 87 71 3e ef 0d a0 bd 36 84 8d 3d 7e 6b ce 3c
       0.23586753 -0.078151576 0.06909983 0.02519774
000180 80 1c 00 be eb f4 f3 3d a6 57 55 bd 24 42 2b 3e
       -0.12510872 0.11911949 -0.05208554 0.1672445
000190 30 ca 59 3e cd da 06 bd 8a 17 81 3e fb 33 81 3c
       0.21268535 -0.03292351 0.2521327 0.015771857
0001a0 d8 ac 11 be 45 0c e1 bd 3f 06 2d bd 0d 57 4e 3e
       -0.14226091 -0.10988668 -0.042242285 0.20150395
0001b0 70 bc 9b 3a 80 31 8d 3d 8f 46 e8 bd ec 19 3c 3e
       0.001188172 0.06894207 -0.11341583 0.18369263
0001c0 f8 57 1b 3d 7b d0 cb bd 46 84 7c be 3e a0 83 3d
       0.03792569 -0.09951874 -0.24659833 0.06427048
0001d0 26 3c f9 3d ea a1 4b 3e 8a f4 3e ba e0 40 e2 3d
       0.121696755 0.19885984 -0.0007284364 0.1104753
0001e0 68 df 46 3b 42 32 78 3e 4d cf 04 bd bf 7f e4 3d
       0.0030345563 0.24237922 -0.03242426 0.11157178
0001f0 33 14 93 3e 37 a4 26 3d 1a d4 e2 3d f7 46 15 3d
       0.28726348 0.04068395 0.110756114 0.03644463
000200 ee ee 66 3e 83 a0 d6 bc 47 bf b6 3d 53 14 03 bd
       0.22552082 -0.026199585 0.08923202 -0.032001805
000210 c3 a8 f0 3d 8d f2 ab 3c c8 2a 57 3d 1e 8c b8 3d
       0.11750939 0.02098968 0.052531034 0.090111
000220 1f f0 66 3d 82 2c a1 3d 73 b1 49 3e 9d 64 30 3c
       0.05638134 0.07869817 0.19696598 0.010766176
000230 7c 91 2d bd c6 1f 1d 3e 2e ed 52 3e b0 2e 3d 3b
       -0.042375073 0.15344152 0.2059829 0.002886694
000240 71 de a1 3d df 6b 92 3d c3 18 c1 3d f6 98 2b 3e
       0.079037555 0.07149481 0.09428551 0.16757569
000250 77 6c 4e 3e fc 8c 8c bd 39 1b a7 3d 56 e6 c8 3b
       0.20158564 -0.06862828 0.08159489 0.006130974
000260 df eb 4f 3e 90 f4 01 bd fc de 38 3e 85 14 4a bd
       0.20304821 -0.031727374 0.18053812 -0.049335975
000270 64 41 86 3d 53 39 9a 3d b2 0d a5 3b eb 03 25 3e
       0.06555441 0.07530465 0.005037033 0.16114776

model.rnn.weight_ih_l1 f4 [160, 40]
000000 ca 3d 4c 3e 2f d8 7b be f1 27 63 3e 6a 8e 95 3e
       0.19945446 -0.24594186 0.22183205 0.29210216
000010 d9 13 32 3e 04 56 94 3d 7a 79 38 3e 24 80 42 3e
       0.17390384 0.07242969 0.1801509 0.18994194
000020 21 e4 1c be 3c c2 15 3d 7a f3 ea bb 92 1d 92 be
       -0.153214 0.03656219 -0.007170138 -0.28538185
000030 6d 4c d4 bc 1e 9e 67 be 87 da 69 be 75 1e 65 3e
       -0.025915349 -0.2261891 -0.22837268 0.223749
000040 4d 5d 60 be d6 da 26 3d d0 62 8e 3d bf c5 f9 3d
       -0.21910591 0.040736042 0.06952441 0.1219592
000050 20 f5 1e 3c 74 f5 45 bd 91 31 8d 3d 1f fd 0b bc
       0.009701997 -0.048329785 0.0689422 -0.0085442355
000060 35 4b db bd 7f 28 61 be 15 e9 bc 3d 5b a9 81 3e
       -0.10707704 -0.21988104 0.09224144 0.2532452
000070 b7 3b 2c 3e 6b c4 f6 3d 55 54 13 be bc a3 95 3e
       0.16819654 0.120491825 -0.14387639 0.29226482
000080 a4 bb 49 3e 43 6c 34 be c2 48 61 be 7e ed 4f bc
       0.19700485 -0.17619424 -0.22000411 -0.0126909
000090 89 1e bc 3d 38 9c 45 3d 03 f5 bf 3d 74 3a 0f 3e
       0.091855116 0.048244685 0.09372904 0.13987142
0000a0 10 9f 88 3e 95 01 82 be 13 56 f6 bc 0e cb 39 bc
       0.26683855 -0.25391832 -0.03007034 -0.011339916
0000b0 cb 06 a5 3d 48 b5 25 3d fb f2 ed 3d 5e 9d 1f 3e
       0.08057936 0.040456086 0.116186105 0.15587375
0000c0 07 9c 4a be a9 1c 3d bd 33 d6 05 3e 4d 1c 98 be
       -0.19786082 -0.04616991 0.13069992 -0.29709092
0000d0 34 48 ca 3d 0e ed 5a be e3 93 af 3b 19 4a 5c 3c
       0.09877053 -0.21379492 0.0053582056 0.013445401
0000e0 35 5c 81 be 2d 3b 15 3e cd ea 1b 3c ea 9d 1e 3e
       -0.2526566 0.14573355 0.00951643 0.15489927
0000f0 89 0a 35 3e aa 1e 73 bd f7 c8 6b 3c 9b 41 e8 3d
       0.176798 -0.059355415 0.0143911755 0.11340638
000100 f2 c3 fe bd 7b 3b 7f be be 49 05 bd d9 56 44 3e
       -0.12439717 -0.24925034 -0.03254103 0.19173755
000110 4f c0 d4 3d d4 42 03 be b7 11 59 be 41 43 32 3c
       0.103882425 -0.12818462 -0.21198164 0.010880292
000120 2e 27 20 bd 58 70 c1 3c e9 4a 2f be 5e 0d 2c be
       -0.039099865 0.02361314 -0.1711842 -0.16801974
000130 4d 74 f1 3c fc 60 0b 3d 60 ea 98 bd 14 28 08 3d
       0.029474402 0.03402804 -0.074665785 0.033241346
000140 e8 97 14 3e a1 a8 77 3c ae 35 0f 3e 5d 47 63 3c
       0.14511073 0.015115888 0.13985321 0.013871995
000150 38 5a 3c 3e 50 8d 90 bd 0f 2f 40 3e 7e 17 00 3e
       0.1839379 -0.07058203 0.18767951 0.12508962
000160 7c 28 69 be 0d bf 0a 3e eb 4b 95 3d 74 ef 84 3c
       -0.2276935 0.13549443 0.07289871 0.016227461
000170 60 f0 3d 3e e7 cc 3b be ec 3c c4 3c 84 28 0e bd
       0.18548727 -0.18339883 0.023954831 -0.034706607
000180 1d 27 ba bd 5f 2e 4f bc b1 16 45 3e c5 5a 0b 3e
       -0.090894915 -0.012645333 0.19246937 0.13608845
000190 53 5f a5 3c 98 87 e9 bd c0 b6 db 3d c6 84 72 3d
       0.020187056 -0.114028156 0.10728216 0.059208654
0001a0 58 51 eb bd 24 5e 8c bd a0 25 95 3d 5e aa 2b 3e
       -0.114901245 -0.068538934 0.07282567 0.16764209
0001b0 d0 d3 5e 3e f0 db 91 bd 32 8b 50 be da d3 0b 3e
       0.21760488 -0.07122028 -0.20365599 0.13655034
0001c0 7b 04 ad bd 31 4e 3c be 40 1f 31 be 1c 93 e7 bd
       -0.0844812 -0.18389203 -0.17297077 -0.11307356
0001d0 d1 33 65 3e f3 7a 30 3e f6 77 4e 3d 5e c6 6b 3b
       0.22383048 0.17234401 0.050407372 0.003597639
0001e0 3c f9 48 3e 58 fa 5a be 22 53 69 bd 86 13 c4 bd
       0.19626325 -0.21384561 -0.056964047 -0.09574036
0001f0 03 c0 75 bd fc d6 1c 3c 99 12 7b 3c 19 72 e8 3d
       -0.05999757 0.009572741 0.015324258 0.113498874
000200 7c 76 5a 3d d2 b3 1d 3e 9f 9c 1d 3d f8 96 13 bd
       0.05333565 0.15400627 0.038479444 -0.036032647
000210 e6 52 13 3e 53 a3 fb bd a3 32 1a 3d e4 12 02 3e
       0.14387092 -0.12287011 0.037645947 0.12702519
000220 2f 16 8e 3d f9 78 22 3e 7b 9c 3b 3e 53 cf c3 3d
       0.06937825 0.1586646 0.18321411 0.09561028
000230 fc 8c 59 3e 9a 1a 8d 3d 90 27 91 bd 78 8e ca 3d
       0.21245188 0.068898395 -0.07087624 0.09890455
000240 55 32 53 3d 17 d8 fe 3c 2b 21 34 3e 55 4f 95 bd
       0.051561672 0.031108899 0.17590778 -0.07290522
000250 c6 38 1b 3e 46 0f d2 bc 3c 04 48 3d be ba 0a 3e
       0.15158376 -0.025642049 0.048832163 0.13547799
000260 d1 f9 9f 3c ff 25 17 be a3 d5 16 be 31 03 b5 bd
       0.019528301 -0.14760588 -0.14729933 -0.08838499
000270 d2 14 c5 3d e3 81 91 3d 2e 62 62 3b cb f7 93 bd
       0.09623112 0.07104852 0.0034543383 -0.07224997
000280 52 c5 11 3d ff b6 66 3d 53 b3 17 3c 44 3e 8c 3d
       0.03558857 0.056326862 0.009259063 0.06847814
000290 e3 31 fc bc 3f 06 e4 bc 67 1b 19 3e 47 24 c3 bd
       -0.030785507 -0.02783501 0.1495186 -0.09528404
0002a0 c0 da f0 bd fb 46 b2 bd 2c 24 ed 3d 49 1c 60 3d
       -0.11760473 -0.08704945 0.11579165 0.054714475
0002b0 af 9b a7 bd 05 93 2e 39 19 0f 88 3c fa bd a0 bd
       -0.08183991 0.00016648702 0.016608762 -0.07848735
0002c0 95 0c 58 3d 5e 55 bd 3c 27 d5 da 3d 54 a5 20 3e
       0.052746374 0.023111995 0.10685187 0.15688068
0002d0 57 4f 9f bd 60 5a 82 bd f6 88 e8 bd f7 03 60 bd
       -0.07778805 -0.06364894 -0.11354248 -0.05469128
0002e0 c1 b0 fc 3d d7 dd f7 3d e1 18 67 bb 3d c3 1f 3e
       0.12338401 0.121028595 -0.0035262632 0.15601821
0002f0 ae 52 e0 3d 87 17 ea bd 10 cb 10 3e e4 51 9d 3b
       0.1095327 -0.11430269 0.14139962 0.004801022
000300 fa 4e 6a bd 1d c6 d9 bd 65 21 a7 3d f1 11 a6 bd
       -0.057204224 -0.1063349 0.081606664 -0.08108891
000310 10 83 de bd ac 73 1b 3e cd 77 c1 bc 87 48 93 3d
       -0.10864842 0.15180844 -0.023616696 0.07191568
000320 b9 ff 81 bd 1c a0 84 bc b9 93 03 be 6a 29 e6 bb
       -0.06347603 -0.016189627 -0.1284932 -0.00702398
000330 4e f3 f3 3c 53 0b ee 3d 32 95 a0 3d 2a 8b 8b 3d
       0.029779103 0.11623254 0.07840957 0.06813653
000340 bc 0d ff 3d 9b 03 08 bd 8d 76 25 3c 72 62 c0 3d
       0.124537915 -0.033206563 0.0100990655 0.09393777
000350 bf 48 17 be ab 7e 00 3d 91 22 db 3d 35 f7 ae bc
       -0.14773844 0.0313708 0.106999524 -0.021358112
000360 94 bc c3 bd 7b b4 f9 bd d9 91 fd 3d c0 ab 0c bd
       -0.09557453 -0.12192627 0.12381334 -0.03434348
000370 48 f6 c9 3d 1c a0 81 3d 7a 35 1a 3e 0a 59 6d bd
       0.098614275 0.063293666 0.15059462 -0.057946242
000380 86 91 7c bc 9e fa 7c bd ad 5b 06 be 53 c0 5d 3d
       -0.015415555 -0.061762445 -0.13120909 0.054138493
000390 16 3a b5 bd 0e b1 93 3d 62 f4 d8 bc d1 a7 a8 bd
       -0.0884897 0.07211505 -0.026483718 -0.082351334
0003a0 a2 34 4c 3d 42 6e ae bd d0 68 94 bc c3 1f a3 3d
       0.049854882 -0.08517124 -0.018116385 0.079650424
0003b0 94 e0 ea 3b a0 70 c9 bd 20 89 a7 bd 2a a8 fa bd
       0.007167885 -0.09835935 -0.081804514 -0.12239106
0003c0 ed d4 29 3d 1f 50 49 be 9d c6 3f 3c 83 08 39 3e
       0.041462827 -0.1965947 0.011705068 0.18069653
0003d0 2d cb 5d 3e a4 79 ed 3d 60 9f d7 bb d5 69 62 3d
       0.21659537 0.11595467 -0.0065802783 0.05527671
0003e0 49 2c 43 bd 29 65 11 3e 9b 10 02 3e c8 63 0c bd
       -0.047649655 0.14198746 0.12701647 -0.034274846
0003f0 fb d4 dd 3d 66 5e df 3b dc 42 80 bd 94 8a b4 3d
       0.108316384 0.006816673 -0.062627524 0.08815494

model.rnn.weight_hh_l1 f4 [160, 40]
000000 df 3e c3 39 e0 19 c0 bd 8f c9 a1 3d 7b f6 b0 bd
       0.0003724014 -0.09379935 0.078997724 -0.086407624
000010 f3 c3 35 bd be 5b d8 bc 25 7e 3b 3d 38 90 8b bd
       -0.044376325 -0.026410934 0.045774598 -0.06814617
000020 cb da e5 3d 74 08 54 be b0 fd 45 be 9a bd 1e 3e
       0.11223372 -0.2070635 -0.19335055 0.15502015
000030 c4 4d ae bd 81 ad 41 bd d9 ad b7 3d b5 bc 2d bd
       -0.08510926 -0.047284607 0.08968706 -0.042416293
000040 8d b7 4a 3b 2e 28 15 3d fb 3f 00 bd 93 5f 89 3b
       0.0030932159 0.03641527 -0.031311017 0.0041923015
000050 ff bd a1 bd 77 25 10 3e 34 f7 41 3c 54 ab 31 3e
       -0.07897567 0.14076792 0.011838723 0.17350513
000060 58 22 51 be c6 98 6e be b7 64 f3 bc dd 22 e7 bd
       -0.20423257 -0.23300466 -0.02971111 -0.112859465
000070 fe fa 9f 3d 26 fb 60 3e ab 8c da bb ae 55 8c bd
       0.07811545 0.21970806 -0.006669601 -0.068522796
000080 d9 b7 bb 3d 91 7a 5a 3c 90 ea d4 3b 02 fe 85 bd
       0.091659255 0.013334886 0.0064976886 -0.06542589
000090 ff b3 60 3e 6d 32 60 3d 16 27 88 bd c7 38 42 3d
       0.21943663 0.05473559 -0.0664808 0.04741743
0000a0 d9 f7 79 bb c4 ab 03 3d 01 79 9d bd a5 3d 57 bb
       -0.0038142113 0.03214623 -0.07689095 -0.003284314
0000b0 63 b7 30 3d 3c 8b 68 3d da a1 30 3e 9f d1 1d 3e
       0.04314364 0.05677341 0.17249241 0.15411995
0000c0 28 86 cb 3d f9 9c c9 3d 89 28 06 be 7d b6 1b bd
       0.09937698 0.09844393 -0.131014 -0.03801583
0000d0 f2 a9 81 bd dd 5c f9 3c 6d 8f ca 3d 2b c0 c7 3d
       -0.063312426 0.030439788 0.098906375 0.0975345
0000e0 37 71 3b bd cb 30 ef bd 7f 0a 3e be 07 99 a9 3d
       -0.045762267 -0.116792284 -0.18558691 0.08281141
0000f0 f7 8a 43 3d b7 00 1f bd db 32 f9 bd 0a 9d 8e bd
       0.04773995 -0.03881904 -0.12167903 -0.069635466
000100 af d5 0b 3e 09 cd 27 bd fc 67 09 be f9 37 25 bd
       0.13655733 -0.04096702 -0.13418573 -0.040336583
000110 a7 56 12 bd b9 a6 26 bd cb 38 55 3d ad 1a 33 3d
       -0.03572717 -0.040686343 0.052056115 0.043726612
000120 36 34 82 3d 15 a5 05 3e 26 72 8c 3d e3 37 c1 3d
       0.06357615 0.13051255 0.068577096 0.09434488
000130 81 71 b3 3d b4 fb a6 3d 18 8f 03 3e 58 10 02 3e
       0.087618835 0.08153477 0.12847555 0.12701547
000140 40 77 8b bd 6d 7b 72 3d 8e a7 39 bd be 4d ee bd
       -0.068098545 0.05919974 -0.04532581 -0.11635922
000150 7f c7 e3 3d f5 03 20 3d d6 9a 5c 3e 3d 67 d5 3d
       0.11122035 0.039066274 0.2154344 0.10420082
000160 9a 1d c7 3d 93 8d 95 3d 0c f1 2b be e5 a7 1a 3e
       0.09722443 0.07302394 -0.16791171 0.15103109
000170 cc 0b e3 bd 0d af 72 3d 61 d3 33 bd 8f ef 87 bd
       -0.110862345 0.059248973 -0.04390276 -0.06637489
000180 4b 64 e7 bd 22 1c 6f 3d 6b f0 2c be 66 c2 24 3e
       -0.11298426 0.05837644 -0.16888587 0.16089782
000190 c6 91 2b bd 15 d7 00 bd 18 96 5f 3d 2f 71 2c bd
       -0.041887067 -0.03145512 0.0545865 -0.042100128
0001a0 54 3c 18 be 38 4f 9a bc c8 2f f0 3c 86 2f 2a 3d
       -0.14866763 -0.018836603 0.029319659 0.041549228
0001b0 01 92 37 3d 39 b1 d5 bc f9 ba db bd 87 03 b2 bd
       0.044816975 -0.026085483 -0.107290216 -0.08692079
0001c0 93 77 91 bd 56 fc ae 3d 1f 7d 89 3d 06 3c bf 3d
       -0.07102885 0.08544223 0.06713318 0.093376204
0001d0 a9 40 16 bd c4 c8 fb bc a8 95 12 3d e0 95 31 be
       -0.03668276 -0.030735381 0.035787255 -0.17342329
0001e0 9c 29 17 bd 4b f2 59 3d 50 ae 3b bd e5 76 56 bd
       -0.036904916 0.053209584 -0.045820534 -0.05235948
0001f0 4d 56 9c 3d 5d 75 27 3c 02 26 a5 3d f3 61 68 3d
       0.07633648 0.010220853 0.0806389 0.056734037
000200 3b ce 4f 3d 08 cf e5 3d e7 07 c1 3d 17 83 02 3d
       0.050733786 0.11221129 0.094253354 0.0318633
000210 e4 cd 22 3d 77 66 88 bd 6f fc c5 bd 92 3e c4 bc
       0.039747134 -0.066601686 -0.096672885 -0.023955617
000220 e3 1e 20 be e6 57 7e 3d 9f 4e 33 3e e4 9d 76 bd
       -0.15636782 0.062095545 0.1751046 -0.06020917
000230 c7 c8 db 3b ff e8 52 3b 20 97 dd bd 82 65 32 be
       0.006707284 0.0032182334 -0.108198404 -0.17421535
000240 c5 a7 63 3e fc b7 66 3e 2b 7c d9 bd 0e d9 d8 3d
       0.22231968 0.22531122 -0.10619386 0.10588275
000250 99 07 a3 3d 8c bd 28 bd 18 ba 26 3d 65 2e 39 be
       0.079604335 -0.04119639 0.040704817 -0.18084104
000260 9b 9c 27 be 02 5e 02 3d ce 84 9b 3d 57 c1 a4 3d
       -0.16368334 0.031827934 0.0759369 0.08044689
000270 b6 79 64 3d be 53 99 3d 5d 47 61 3d f7 57 51 3e
       0.055780135 0.07486676 0.054999698 0.20443712
000280 f6 64 c0 bd 5b 31 13 3e 9c dc 7d bd 90 93 b0 3d
       -0.09394257 0.14374296 -0.061977968 0.08621895
000290 04 46 61 bd 7f 0c 35 3e b6 dc 06 be 3d 5f 2a bb
       -0.054998413 0.17680548 -0.13170132 -0.0025996708
0002a0 be e8 9b bc 45 7c 3d 3b 44 79 db bd 72 63 87 3c
       -0.019031879 0.0028913182 -0.10716489 0.016526911
0002b0 03 18 d1 bd fd 74 39 3d 4b 95 db 3d c1 21 02 be
       -0.10209658 0.045277584 0.10721835 -0.12708189
0002c0 6c 34 0d 3e 05 ab 83 bd dc 40 d8 3d 92 53 93 bd
       0.13789529 -0.06429104 0.10559246 -0.07193674
0002d0 d5 db 1e bc eb ca d5 3d 81 11 4b 3d 16 d5 8d 3d
       -0.009695967 0.10439094 0.04957724 0.069254085
0002e0 9e 77 22 3e b9 c5 07 3d 78 31 38 3e ca c6 e9 bd
       0.15865943 0.033147547 0.17987621 -0.11414869
0002f0 60 64 59 bb 55 50 98 3b 22 83 ce bd c0 b1 cc 3c
       -0.00331714 0.004648248 -0.10083605 0.024987102
000300 c4 8c e2 bd d5 18 51 bd 33 f9 ad 3d 6f 20 d1 3d
       -0.11062005 -0.051049072 0.084947966 0.10211264
000310 b4 11 17 be 87 ae 43 bd 5d 54 09 3d 84 80 00 bd
       -0.14752847 -0.047773864 0.03352772 -0.031372562
000320 5d b4 35 3e 47 31 09 be a0 90 3e 3d 28 db 7e 3c
       0.17744584 -0.13397704 0.046524644 0.015555181
000330 e3 89 56 3e 71 31 0d 3e a6 94 c8 bd 7a 2e 39 bd
       0.20951037 0.13788392 -0.097939774 -0.04521034
000340 3c 44 7a 3d ac 6b 25 bd cc bc 11 be e5 db 7a bc
       0.06110023 -0.040385887 -0.14232177 -0.015311216
000350 75 56 b4 bd 69 4c 51 bd d2 64 c8 3d 0f c4 94 3d
       -0.08805553 -0.05109826 0.09784855 0.07263958
000360 44 1e f9 3d 97 b4 ba bd 78 58 16 3e 66 66 84 3d
       0.12163976 -0.09116476 0.14682186 0.064648435
000370 e4 87 43 bd 1b 88 18 3e 6a 2f 10 3e 69 87 de bd
       -0.047737017 0.1489567 0.14080587 -0.10865671
000380 3f f2 9d 3d 0c 92 c1 bd 7c aa b4 bd 0b 55 d1 3d
       0.077122204 -0.09451684 -0.0882158 0.10221299
000390 57 ca f6 bd 81 76 ea bc fe 64 94 3c e3 41 98 bd
       -0.12050312 -0.02862096 0.018114563 -0.07434442
0003a0 aa d3 76 bc 84 98 20 be 75 49 d6 3d d4 6f 16 3e
       -0.015065113 -0.1568318 0.104632296 0.14691097
0003b0 55 c2 20 be 09 01 08 be 87 2c dd 3d 3c eb 8b 3c
       -0.15699132 -0.13281645 0.107995085 0.017079942
0003c0 a4 e2 14 bc 53 33 f6 3c a8 b4 8c bd 6a 11 00 3c
       -0.009087238 0.03005377 -0.06870395 0.007816652
0003d0 68 3b 24 be 6d bd f8 bd ba 0f 5c 3e 56 4a 28 3d
       -0.16038287 -0.12145505 0.21490374 0.041086517
0003e0 17 76 54 3e c7 df a7 3d fe 86 0f 3d 5e a3 be 3c
       0.20748173 0.08196979 0.035040848 0.023271259
0003f0 60 e8 09 3e ee 87 54 3e 9a 39 c1 3c 9d c6 5f be
       0.1346755 0.20754978 0.023587037 -0.21853109

model.rnn.bias_ih_l1 f4 [160]
000000 50 a2 45 3d 4a 1a 8c 3e e3 46 aa bb 74 f4 33 bc
       0.048250496 0.27363807 -0.0051964386 -0.010983575
000010 8c 42 b8 bd 53 48 2f 3e 8c 5a 55 3e a1 ec c9 3d
       -0.08997068 0.17117433 0.20835322 0.098595865
000020 29 03 ae 3d 89 70 82 3e 85 68 2a bd b4 93 69 3e
       0.084966965 0.25476483 -0.041603584 0.2281025
000030 1d 03 c1 3d ac e7 cf 3d 33 df 1c 3e 16 08 0b 3e
       0.09424422 0.1015161 0.15319519 0.13577303
000040 f9 08 9d 3d bb 22 a4 bd a3 c2 c3 3a b6 f9 e1 bc
       0.07667727 -0.08014437 0.0014935326 -0.027584892
000050 a3 4f 59 3d 72 74 a0 3d 8a 04 79 3d 30 11 10 be
       0.053054463 0.0783471 0.060795344 -0.14069057
000060 b7 9e 4e 3e 4c 6f bc 3d fb 9f 29 bd 65 10 a1 3d
       0.20177732 0.09200916 -0.041412335 0.07864455
000070 29 d2 fb bb 9b a1 86 3e 34 95 fc 3d 25 81 93 3e
       -0.007684965 0.2629517 0.12333146 0.28809467
000080 bf 7b 95 3d 73 cf 94 bd bc 85 6b 3e f9 1e 29 3e
       0.07298993 -0.0726613 0.23000234 0.16515721
000090 3f 4f b0 3c ed b2 24 3e 4d ae 2c 3e 20 a6 35 3e
       0.021522162 0.1608388 0.16863365 0.17739153
0000a0 e4 e2 3e bd c3 5c 31 3e 0e dd 89 3d ed f6 63 bd
       -0.0466031 0.17320542 0.06731616 -0.05565541
0000b0 29 a9 04 be 2b 64 c6 3d 2e 79 0b 3e 74 41 e6 bd
       -0.12955154 0.09687074 0.13620445 -0.11242953
0000c0 de 92 0a 3d 38 54 a0 bd 20 61 05 3d c9 e3 a5 bc
       0.03383147 -0.078285635 0.03256333 -0.020250218
0000d0 b1 44 d2 3c e0 0f b4 bd 8d 68 d9 bd d8 e3 c0 3c
       0.02566752 -0.087920904 -0.106156446 0.023546144
0000e0 20 87 03 be e2 06 ae 3c f3 ef 81 bd 4c da 13 3e
       -0.12844515 0.021243516 -0.06344595 0.14438742
0000f0 cf 1b 89 3d 94 a8 b4 3d 19 2e 00 bc ee 6b 4e 3d
       0.06694757 0.08821216 -0.007823491 0.0503959
000100 d7 9f 20 3d b5 cd 4b 3e d4 e0 3f 3b 99 0c 13 be
       0.039214935 0.1990269 0.0029278295 -0.14360274
000110 73 a1 c2 3d 0a 45 45 3e 05 fa 8c 3c f9 9e ee 3d
       0.0950345 0.19264618 0.017209062 0.116514154
000120 75 fb 2d 3e 94 ca fb bb 1a 42 04 3d 71 36 45 3b
       0.16990454 -0.0076840613 0.0322896 0.0030092264
000130 a5 ce 35 3d 85 f5 7f bc e1 13 eb 3d cc 05 ad 3d
       0.044386525 -0.015622501 0.11478401 0.08448371
000140 4b 2b a7 3b ff 49 f1 bc 6b 15 d7 bd 40 31 9c bd
       0.0051015965 -0.02945423 -0.10502132 -0.07626581
000150 64 ff af 3d d3 f1 25 be 5d 32 02 3d bc 8f d1 bd
       0.08593634 -0.1620553 0.03178631 -0.10232493
000160 d2 1d 72 bd 03 e6 72 3d f4 dc 0b be 3f 2f 5d 3d
       -0.05911047 0.059301388 -0.13658506 0.054000136
000170 44 2e 06 bd fd a3 15 3d 7b 19 0b 3e 58 ba b6 bd
       -0.032758966 0.036533345 0.13583939 -0.08922261
000180 72 f7 80 3d 81 ff 39 3b 30 54 39 bd ed 94 af 3d
       0.062971964 0.0028381052 -0.045246303 0.08573327
000190 d6 e9 d8 bd 6b 4b 13 3c 0d 12 c4 bd 60 76 21 3c
       -0.10591476 0.008990149 -0.095737554 0.009854883
0001a0 8b 60 d3 3c 9e 6f 31 be 5a 5e eb bd 3d 99 d0 3d
       0.025802871 -0.17327735 -0.114926055 0.10185478
0001b0 a1 43 da 3d 56 9f 34 3e 33 47 a0 bc ca e9 69 3d
       0.106574304 0.17638907 -0.0195652 0.057107724
0001c0 ca 42 29 3e 16 69 57 bd 3a 0b 03 bd fc bc 12 3e
       0.16529384 -0.052590452 -0.03199313 0.14329904
0001d0 4f 76 ef 3d dc 33 87 3c 02 5d 9d 3a 0e 8b 81 bd
       0.116924874 0.01650422 0.0012005868 -0.06325351
0001e0 e8 82 63 3e 78 84 e2 3c e8 a6 f0 3d 11 25 72 3d
       0.22217906 0.027651057 0.11750585 0.05911738
0001f0 d8 6f 85 3d 8e 4d 36 3b 6d f2 78 3d 7a 92 0c 3e
       0.06515473 0.0027817222 0.06077807 0.13727751
000200 33 68 73 3e 9c 74 5c 3e 95 f9 8e bd 8c 18 49 3e
       0.23770218 0.21528858 -0.06981198 0.1963827
000210 27 67 fa 3d c6 9d 46 3e 21 43 e1 3d fa 79 a5 3d
       0.12226706 0.19396123 0.10999132 0.08079906
000220 a9 78 d7 bc c8 2c 88 3d 3d 89 ce 3d 50 aa 02 3d
       -0.026302652 0.06649166 0.1008477 0.031900704
000230 ca 25 c9 bc 8d 28 6e bb 8e 06 9e 3d a3 eb 04 be
       -0.024554152 -0.0036340088 0.07716094 -0.12980513
000240 07 4b 5e 3e be 0a 35 3e d7 63 91 3d 92 0a b8 bd
       0.21708308 0.17679879 0.07099121 -0.08986391
000250 f2 4f 42 3e b6 83 33 3e 6b a3 33 3c c3 8d f7 3d
       0.18975809 0.17530712 0.010964255 0.12087586
000260 15 18 43 3e 56 05 b8 3d b2 8a a0 3d 30 2d 4c 3e
       0.19052155 0.08985393 0.07838954 0.19939113
000270 fe 83 fa 3d 27 b8 cd 3d 14 3f f5 3d 95 d3 43 3e
       0.12232207 0.1004489 0.11974922 0.19123681

model.rnn.bias_hh_l1 f4 [160]
000000 01 1f cb 3d ad 00 c0 3d 28 b7 9f 3d b9 b6 0e 3e
       0.09918023 0.09375129 0.07798606 0.1393689
000010 2c b8 a8 3d 86 6a 2d 3e c7 d5 65 3d 5a 3b 82 3d
       0.08238253 0.16935167 0.056112077 0.06358977
000020 ec 0d d3 3d 86 9a 0b bc e9 92 db 3d fb 87 3e 3d
       0.1030539 -0.008520728 0.1072138 0.0465164
000030 ac e5 bc bc a2 9f 9c 3d 86 45 10 bd 07 77 6b 3e
       -0.023058735 0.07647635 -0.035222553 0.22994624
000040 73 5e a1 3d f0 ab 4a 3d e8 6d de bd 1d 11 50 3d
       0.07879343 0.04948038 -0.10860807 0.05079757
000050 43 f9 e5 bc 1b 0c aa 3d c1 ad b6 3d 6b 7d ff 3d
       -0.028072959 0.0830309 0.0891986 0.124750935
000060 bb 19 45 3e de 46 98 3d e7 56 c9 3d 89 51 e5 3d
       0.19248097 0.07435392 0.098310284 0.11197192
000070 0e f3 cf 3c 7d 52 fc 3d 3b 95 17 bd 7a 6a 56 3d
       0.025384452 0.12320421 -0.03700755 0.052347638
000080 90 c2 ad 3d b2 1c 3e bb bb bf f7 3d 99 e7 ff bc
       0.084843755 -0.0029008803 0.120971166 -0.031238364
000090 d3 33 59 bc eb 9d 06 3e 96 90 83 3e cf e0 4d bd
       -0.013256985 0.13146178 0.25696248 -0.050263222
0000a0 95 97 ac 3d fc 4b 8b bd a2 e5 c6 bd 0d e0 10 be
       0.084273495 -0.06801602 -0.09711768 -0.14147969
0000b0 10 a6 1f be f5 e4 1a be 9c 0d 53 bd 42 0c 28 be
       -0.15590692 -0.15126403 -0.05152665 -0.16410926
0000c0 b5 22 a1 3d a2 53 87 3d 97 57 e7 bb 50 68 52 3e
       0.07867948 0.066077486 -0.007060002 0.20547605
0000d0 2b d5 1c be 3e 4b c0 3d 16 4d eb 3d 62 30 09 3e
       -0.15315692 0.09389351 0.11489312 0.13397363
0000e0 6a c1 01 3e 49 e8 50 bd 70 dc 05 be bf eb cf bd
       0.12671438 -0.051002774 -0.13072371 -0.10152387
0000f0 aa 4b ff 3d 45 de 12 3e cf 4b 71 3d 07 50 35 be
       0.12465604 0.14342602 0.058910187 -0.1770631
000100 64 15 e6 3d 83 2a 3d 3e 27 9e a1 bd bd f2 ee bd
       0.11234549 0.18473248 -0.07891493 -0.116673924
000110 2c 39 8c 3b 86 26 c5 3d f5 01 ca 3d 03 24 94 bd
       0.0042792764 0.096264884 0.098636545 -0.07233431
000120 6f c8 48 3d e6 46 20 3d 51 55 99 bd 25 c2 3c bc
       0.049019273 0.039130114 -0.07486976 -0.011520897
000130 ef 98 2a bd b8 74 05 3d 89 44 00 3d a3 6c bc 3d
       -0.041649755 0.032582015 0.03131536 0.09200408
000140 b1 68 2a 3d c2 61 3b be 1d 57 57 3d c6 11 31 bd
       0.041603748 -0.1829901 0.052573312 -0.04322984
000150 cd e2 62 3d 83 3c c5 bd db 93 f3 3d 65 f0 54 bd
       0.055392075 -0.09630682 0.118934356 -0.05198707
000160 b4 7d 39 3e 16 7c 51 be 24 48 1f be 53 28 ae 3b
       0.18114358 -0.20457491 -0.15554863 0.0053148656
000170 d4 71 b7 3c b8 cd 1f 3e 09 8d 22 3e 1f 40 0d be
       0.022393145 0.15605819 0.15874113 -0.13793992
000180 e7 14 28 bd ff ec 99 bd 02 57 f4 bd 05 92 cc 3d
       -0.04103556 -0.075159065 -0.11930658 0.099887885
000190 1f 6d 07 be 64 f6 f5 bd 39 bb c4 bd 99 78 09 bd
       -0.1322522 -0.12009886 -0.096060224 -0.033562277
0001a0 f2 ee d7 bc 88 35 96 3d 16 e4 95 bd d6 95 3a 3b
       -0.026359055 0.07334429 -0.073188946 0.0028470657
0001b0 30 58 1c bd 0d 34 54 bd ab b2 cb 3d b9 cd 01 3d
       -0.03817004 -0.051807452 0.099461876 0.031690333
0001c0 1b 3e 1f 3e f1 53 9a 3d ad 91 a7 3d 08 01 bc 3d
       0.15551035 0.07535542 0.08182082 0.09179884
0001d0 26 12 35 3e 3f ad 90 bb 97 af 49 3e 42 37 17 3d
       0.17682704 -0.004415184 0.19695888 0.036917932
0001e0 13 50 83 3d 66 17 0c 3e 76 41 a2 bd 54 58 80 3d
       0.06411757 0.13680801 -0.07922642 0.06266847
0001f0 9a 07 21 bd 60 dd c0 bc fc 37 7c 3e 74 38 d5 3d
       -0.03931389 -0.02354306 0.24630731 0.10411158
000200 96 b5 63 3e ed f0 fd bc 61 dc 73 3e c9 77 76 3e
       0.22237238 -0.030998671 0.23814537 0.24069132
000210 6d 03 28 3e dd e9 0f bd 9c c3 c1 bd 34 57 6a bd
       0.16407557 -0.03513514 -0.09461138 -0.05721207
000220 1d 8b f7 3c cf 20 be bc 66 08 20 bd 0a 1f d6 3d
       0.030217702 -0.023209004 -0.03907051 0.10455139
000230 a9 d2 7e bc 70 88 b1 ba e0 92 01 3e 00 7b 85 bd
       -0.015553155 -0.001354469 0.12653685 -0.06517601
000240 6a 21 a2 bd 1c 1e 81 3e 83 2e 0f 3d 6d c8 a4 3c
       -0.079165295 0.25218284 0.034956466 0.020115102
000250 5c 58 0b bc 31 6c f8 bc 40 22 1e 3e d1 ab 58 3b
       -0.008504953 -0.030325027 0.15442753 0.0033061395
000260 a6 33 bd 3d ea 11 93 3d 35 56 c3 3d 22 cb 68 3b
       0.09238367 0.07181151 0.09537927 0.0035521467
000270 cc 09 64 3e 70 56 48 3d c7 1f 99 3d 02 7d 38 3e
       0.22269362 0.04891056 0.07476764 0.18016437

exp_avg f4 [1, 40]
000000 59 e9 e1 bb 1b 08 e2 bb 9d f5 e6 3b b2 6d b9 38
       -0.0068942723 -0.006897939 0.0070483224 8.84192e-05
000010 9b 7a ab ba df 46 12 ba 45 d4 e4 3b 55 7a f3 b8
       -0.0013082804 -0.00055800186 0.0069833123 -0.00011609929
000020 85 8b e3 3b cc 9d e2 bb 7f 2e e2 bb a3 1a e2 3b
       0.0069441223 -0.0069157835 -0.0069025154 0.006900148
000030 70 32 17 39 28 ef 06 3b d5 2a 41 3b 13 b5 92 ba
       0.00014419272 0.0020589326 0.0029474993 -0.001119288
000040 90 35 94 bb a5 fe f5 39 85 8a b7 b9 8d 19 06 3b
       -0.0045229867 0.00046919766 -0.00035007685 0.0020462007
000050 f5 e5 8c ba bc 53 9a bb d4 ec ba bb ed 04 bc b8
       -0.0010749685 -0.004709689 -0.0057045016 -8.965456e-05
000060 f4 7f d0 bb e8 e2 e3 bb 1e 5f a0 bb 9d 34 64 ba
       -0.0063629095 -0.0069545396 -0.0048941514 -0.000870535
000070 93 0e 33 3a ca cf ab 3b 7e fe 51 3b 60 f3 e1 3b
       0.000683048 0.0052432762 0.0032042558 0.0068954676
000080 5a 1a e4 3b 65 ad e8 39 18 ee 14 bb 87 26 e2 3b
       0.006961149 0.00044379677 -0.0022724923 0.0069015655
000090 1e 23 e2 3b df 60 d6 3b bf 1f b3 3b 19 44 97 ba
       0.006901159 0.0065423097 0.005466431 -0.001154068
