lightning_logs/version_9/checkpoints/epoch=0-step=50.ckpt (torch, 331167 bytes, 33 tensors)

model.param_proj.proj.0.weight f4 [1, 40]
00000000: e851 de3d e3a2 98bd 3aac b73d 38eb 6e3d
00000010: 649b 2ebd 7ebf 2d3c 4494 4cbe ba2f 1c3e
00000020: 76ae c43d 3550 243d 4c2d 71bc edd7 073e
00000030: 3a55 ca3d 03db 30bd 72cb 31bb 5ad5 b33d
00000040: 140c 97bd d34c dabd 58d7 31bd 7ec3 f83d
00000050: 0f7d 3b3d d30b 223e 4087 a7bd 0daf 05be
00000060: 1153 10bc 3eb3 9abd 991c 013e 9899 c3bd
00000070: 8e89 e23d 4133 133e 52b4 3abd 9b66 4b3e
00000080: dca9 23be ec09 84bd 8fa2 7fbd b92f 603d
00000090: 5d25 0fbe 6bf7 fabd eea5 e6bd f069 7bbd
0.10855466 -0.07452943 0.089683965 0.05832979 -0.04262866 0.010604737 -0.19978434 0.15252581
0.09603588 0.040115554 -0.014720272 0.13265963 0.09879537 -0.043177616 -0.002712932 0.08780928
-0.073753506 -0.10659184 -0.04341826 0.12146662 0.045773562 0.15824823 -0.08180094 -0.13055058
-0.008808867 -0.07553719 0.12608565 -0.0955078 0.11061393 0.1437502 -0.045582123 0.1986336
-0.15982765 -0.06447205 -0.062410887 0.054733012 -0.13979097 -0.122542225 -0.11262117 -0.061380327

model.param_proj.proj.1.weight f4 [1, 40]
00000000: 5875 933d e35c 303e d861 0f3e f327 f33d
00000010: ad6a c3bd 7d29 9fbd d9ee d03d 1ed7 d7bd
00000020: f4a9 683d e6c9 2f3d 0788 f2bd b6ef 193e
00000030: 98dd f83d 004d 933d 8ceb e0bd 04ce 123e
00000040: 23ce 323d eefe e13c 33cf 4bbd 97b4 383d
00000050: cd34 eabd 1ad6 b23d d79c 253d f3ca 9ebd
00000060: 4fe6 a43d eb38 0f3c d174 bbbc 224a b7bd
00000070: 1e4e 4d3d 4a7b 8bbd 6f1f 05be 696a 043e
00000080: b8a7 12bd f6c6 983d d6a2 f23c b679 803c
00000090: c3b9 efbd 05da 09be 579a 19be 498c 833c
0.07200116 0.17222933 0.14002168 0.11872854 -0.09541831 -0.07771585 0.102018066 -0.10539077
0.056802705 0.042917155 -0.118423514 0.15032849 0.12151641 0.07192421 -0.10982427 0.14336401
0.04365362 0.02758738 -0.049758147 0.0450941 -0.11435852 0.08732243 0.040432777 -0.07753553
0.080517404 0.008741598 -0.02288285 -0.089496866 0.050123326 -0.06810625 -0.13000272 0.12931217
-0.03580448 0.07459824 0.029618662 0.015683036 -0.11705353 -0.13462074 -0.15000282 0.016058104

model.param_proj.proj.2.weight f4 [1, 40]
00000000: 9ad3 163e e3f7 6e3d c4e6 8c3d 7a6e 233e
00000010: ac24 83bd d5b9 01be ea09 223e f921 9c3d
00000020: c86a 14be f5be 1b3e 8c96 08bd e897 18be
00000030: ebbb 08bc 43c3 0bbe d69b 003e b2eb 953b
00000040: e7d1 45be 13bb 9e3d 40d9 2c3e be78 41be
00000050: e633 3d3e c688 113d fa6c 03be 8566 c8bd
00000060: e218 563d 23b3 183e 22dd 05be a597 a03c
00000070: 7e73 983c 2a1f bc3d 3bbb 87bd 60d0 c7bd
00000080: 2a65 9cbd a32e 39be 0a94 22be 5375 0b3b
00000090: 8c2f 183e 0358 c93d 8f2f 91bc 2e3a 4abd
0.14729157 0.058341872 0.068799525 0.15960112 -0.06403479 -0.12668546 0.15824094 0.07623667
-0.14493859 0.15209563 -0.033346698 -0.14901698 -0.008345584 -0.13648705 0.12559447 0.004575216
-0.19318353 0.07750525 0.1687975 -0.18893716 0.18476829 0.035530828 -0.1283454 -0.09785179
0.052269824 0.14912085 -0.13072637 0.01960356 0.018609758 0.091856316 -0.06627508 -0.09756541
-0.07636483 -0.18084197 -0.15876785 0.0021279647 0.14861888 0.0983124 -0.017722873 -0.04937189

model.rnn.weight_ih_l0 f4 [160, 37]
00000000: 868c 4cbb e3a2 b5bd 757a ba3d 673a 99bd
00000010: 9a56 303e 87de 4ebd 6162 2abc a3f2 b1bb
00000020: 7451 d63c cfff 353e d1c6 033d 8b4e 1b3e
00000030: 32f7 f0bd 244b 3b3e 4e52 a03c dca6 00be
00000040: 23fb 2f3e afee 583d 099a d8bd 091e f9bd
00000050: 86a0 d0bd 96a9 82bd a790 bfbd be7a 393d
00000060: 6200 2a3d e7d9 8b3d bd0c 253d 392f fbbd
00000070: 0d06 6d3d 692f 90bc cd98 343e 9830 393d
00000080: 45a3 ffbd 3a8f 803d 8312 783d 66ea f83c
00000090: af52 213e d7aa 573c ad11 0e3e e8e7 0d3d
000000a0: 83d1 d23d 64c3 923d 2cdc 1cbd ca52 573d
000000b0: 5e97 e7bd ec46 d0bd 62a5 3dbc 3acf d73d
000000c0: ca62 24bd ebf8 04be b99c 253e 06e7 3cbc
000000d0: 396f af3d d991 8cbd db40 c63d d2b8 7d3d
000000e0: 82a4 ffbc e60c 8e3d 981b 9e3d ff91 063e
000000f0: a216 a93d a73b c5bc 4b76 d3bc d49b 0f3d
00000100: 8f16 3abd 3a89 b5bd 6c04 01be 7f48 93bc
00000110: c7f2 753d 535b 0a3e 5d3d 073e b841 813d
00000120: 9760 243d c69d cc3d 2489 693d e9d4 dabd
00000130: ef55 0d3e 5af5 adbd b586 fa3c dec3 123e
00000140: 3d41 86bc 22e8 e43d adc4 2cbd bf92 30bd
00000150: cc1a 95bc f1ad 0cbd f2c8 d73d fb31 cf3d
00000160: f6a9 233e 388b d5bd e238 59bd 5e56 99bc
00000170: a1c5 d43d a362 ccbd b143 0a3e fcff 0a3e
00000180: 9741 f2bd 9af7 83bd 5c34 903d 7e7d 0e3e
00000190: 7ed8 0d3e 0695 b5bc 2997 15be 0acd 00be
000001a0: 26c6 b63d 86f0 763d b83c fa3c 5cea 3dbe
000001b0: 1051 e5bd daf5 44bd 3a2f 2e3e f6e2 e63d
000001c0: 7f25 2a3e 3cda 97bd 21ed fdbd 4c78 333d
000001d0: 8ac0 543d a998 d23d 07b8 fc3d 5171 bcbd
000001e0: ed42 8bbd 02c9 bb3b cc49 22bd a28b bebd
000001f0: 7672 bbbd 0d79 ecbc be80 2ebd c6e1 adbd
00000200: 7049 793d c68a 7bbd eb04 d3bd b5da 7d3c
00000210: 712a 193e 014a 183e fd8b b0bd 8298 683d
00000220: 767a 0fbe c4e4 e4bc fc00 ba3d 601f ae3d
00000230: d9c2 e23b 9eef 063e 2366 b6bc 4724 f53d
00000240: 2ddf 153e a7f4 623d d3c0 ce3c 8ee1 583c
00000250: 3cb7 08be 8d65 053d c5c2 08be 25d2 dc3d
00000260: b563 153e 66be e53d 3d80 04be daf4 043e
00000270: 348a d9bd 2839 d53b 9b76 b5bd 3485 9f3d
00000280: ec42 0dbb ad5e 323b 9775 413c 4939 98bd
00000290: 9d96 89bd 4c05 8bbc dae1 4b3c f2ac f0bd
000002a0: 7a88 3f3c aab8 d1bc 116a 143e 7d36 e33b
000002b0: 868e a7bd 7527 32bc c05d ecbd 2b20 023e
000002c0: 6bc2 563d 201d 56bd 353c 663c 68ec 1fbd
000002d0: 36ac 193e b30a 8fbd 3682 e6bc f213 4e3d
000002e0: 440d ca3d 9653 053d 52f1 5b3d 43ae 883d
000002f0: f085 2abd 379e aebc 245d f93d 5bc7 a63c
00000300: 98b3 1ebe 7b8f 68bd aa41 d7bd 510d b73c
00000310: 062e e23c f1b6 22be 8b5c 19be 1d4e 0ebd
00000320: 2dcd ac3d 16a8 d03d 3a42 6ebc fc2a 973d
00000330: ef1c fc3b 2041 f83d 63ac 09be ccad ee3d
00000340: e99e 18bd 6a68 0ebe 7331 043e f1fa 15bd
00000350: 46a3 15bd 52a2 e1bd d5f3 02be 2cef 9c3c
00000360: 3241 843d 5209 dd3d 4b41 163e 4607 c33d
00000370: c7d3 18be 1acc 5a3c ddc5 f33c a214 ac3d
00000380: 2848 013d 593f 173d 3c0b 04be 3d68 013d
00000390: 97f1 a1bc 408e 0bbe 05a2 64bd 6967 64bd
000003a0: ec85 eabc ba35 55bc e623 103e d2b4 bebd
000003b0: ac57 743d 8460 ccbd 3428 a6bd 762a 543c
000003c0: 1fa0 1a3e 64b9 c93d 4db2 d63d 9e47 023e
000003d0: dad2 3dbc 0179 a4bd 844c 0cbe d5b7 b63c
000003e0: 50f4 c6bd 46db 713d 93a2 313d 8cc9 883d
000003f0: 0cc4 0e3e 0a3b 0f3e c741 b23c feac 61bd
-0.0031211688 -0.08868959 0.09105388 -0.074818425 0.17220536 -0.050505187 -0.010399432 -0.005430536
0.026161887 0.17773364 0.032172028 0.1516668 -0.11765899 0.18290383 0.019570496 -0.12563652
0.17185645 0.052962 -0.10576255 -0.12163932 -0.101868674 -0.06380002 -0.09353762 0.04528307
0.04150427 0.06828671 0.04029535 -0.122648664 0.0578671 -0.017600732 0.17636414 0.04521236
-0.12482313 0.06277318 0.06056453 0.030385207 0.15754198 0.01316329 0.1387393 0.03464499
0.102938674 0.07166174 -0.03829591 0.05256919 -0.11308168 -0.10169777 -0.011575075 0.10537572
-0.040133275 -0.1298558 0.16173066 -0.01152969 0.08566136 -0.06863756 0.09680339 0.061943837
-0.031206373 0.06936054 0.07720107 0.1314163 0.0825627 -0.024076296 -0.025813242 0.03506072
-0.04543167 -0.088640645 -0.12599343 -0.017978905 0.060045984 0.135114 0.13207002 0.06311363
0.040131178 0.099910304 0.057015553 -0.10685141 0.13802312 -0.08494063 0.030581811 0.1433253
-0.01638853 0.11177088 -0.042179752 -0.043108698 -0.018201254 -0.03434557 0.10536374 0.10116955
0.15982804 -0.104269445 -0.053032763 -0.01871794 0.10389257 -0.09979751 0.13502385 0.13574213
-0.118289165 -0.064437106 0.07041237 0.13915059 0.13852116 -0.022165786 -0.14608444 -0.12578216
0.089245126 0.060287975 0.030546531 -0.18546432 -0.11197102 -0.048086025 0.17010203 0.11273758
0.16615866 -0.07414672 -0.123987444 0.043815896 0.051941432 0.10283024 0.12339788 -0.09201301
-0.067998745 0.005730749 -0.03962116 -0.093039766 -0.09152691 -0.028866315 -0.042603247 -0.084903285
0.06086105 -0.06141164 -0.103036724 0.015494038 0.14957596 0.1487198 -0.08620451 0.056786068
-0.14011559 -0.027941115 0.09082219 0.08502078 0.0069202003 0.13177344 -0.0222655 0.1196981
0.14635916 0.0554091 0.02523843 0.01323737 -0.13351148 0.03256755 -0.13355549 0.107822694
0.14588816 0.11217956 -0.12939544 0.12984028 -0.10622063 0.0065070577 -0.08860513 0.07789078
-0.002155478 0.0027217076 0.011807821 -0.07432801 -0.0671818 -0.0169703 0.012443984 -0.11751737
0.011690253 -0.02560075 0.14493586 0.0069339857 -0.08181481 -0.010873665 -0.11541319 0.12707584
0.052431505 -0.05227387 0.01405244 -0.039043814 0.150071 -0.069844626 -0.028138261 0.05031199
0.098658115 0.032550417 0.053696938 0.06673863 -0.04163164 -0.021315677 0.12175968 0.020358732
-0.15498197 -0.05677746 -0.10510571 0.022345217 0.027609836 -0.15890099 -0.14976709 -0.034742463
0.08437572 0.1018831 -0.014542157 0.073812455 0.007693879 0.121217966 -0.13444667 0.11654243
-0.037260924 -0.13907018 0.12909488 -0.03661627 -0.036532663 -0.11017288 -0.12788327 0.019157015
0.064577475 0.10792793 0.14673345 0.09522872 -0.14924537 0.013354326 0.029757435 0.08402373
0.031562954 0.036925647 -0.1289491 0.03159355 -0.01976852 -0.13628483 -0.055818576 -0.055762682
-0.028628312 -0.013013298 0.14076194 -0.093118325 0.059653923 -0.099793464 -0.08113137 0.012949577
0.15100144 0.098498136 0.10483227 0.12722632 -0.011585915 -0.08030892 -0.13701063 0.022304455
-0.09714568 0.059047006 0.043367933 0.06679067 0.13941973 0.13987365 0.02175988 -0.05509662

model.rnn.weight_hh_l0 f4 [160, 40]
00000000: 65b0 e23d fbf0 34bd eac1 9cbc 94cb b33d
00000010: fa5f 58bb 5a76 7d3d 6f12 c43d af0e 28bd
00000020: a5bf 99bd 2399 25be cf5d 61bd 0090 e33c
00000030: 2a39 853d 9cbb 1dbe 688e b6bd 3240 efbd
00000040: 0e2a bd3d c859 dabc c196 0f3d 24aa 2c3d
00000050: 273b 82bd b455 143d 2ba0 03bd 55e5 783d
00000060: ad22 053e 743d 753d 07ae 023e fddf 32bc
00000070: e2a6 7a3c 462d 023e 384b a6bd 0ba1 f6bd
00000080: 7c45 acbc 8bba bd3b 9832 07be 38bb 4cbc
00000090: 69da c6bd fccd 0abe a498 483c 0f4e 70bd
000000a0: 70da 2ebe e288 863c 0997 aa3d 5f3a 9ebc
000000b0: fbb8 bcbc 55fa c9bb 4dba c93d 3fb0 a6bc
000000c0: 5afa ec3c c285 653d b960 983c 40f8 083e
000000d0: 94c7 82bd 997d 7c3d e017 ff3d 4e6c 07be
000000e0: 7bcc b13d 48d1 dd38 57ba d33d 4429 c1bd
000000f0: 54e0 8abd 3b62 f93c 0e82 a9bc c63d bdbd
00000100: 5720 023e 2edf 23be 09c1 fbbb 9f64 c43d
00000110: 9bac b3bd 17b6 373d a1dc a23d 6d46 ac3d
00000120: ba06 263e 09a4 50bd f4a2 86bd c87f b13d
00000130: 6efd 4cbc 403b 18be 8953 5cbd 75eb 183e
00000140: e8ae 3abe 57f0 e4bd 90ce a83d b42c 883d
00000150: 1fea 29be 7f21 483e 2111 e1bc 0407 f53d
00000160: 9926 6fbc 6adb 27bd 279b 933d deb3 233e
00000170: 1324 cebd 92bf aa3d 392c 39bd 24ee 6c3d
00000180: 91f9 26bd 8f11 f43c 5b36 033e 6a04 a4bd
00000190: 3434 1cbd 3ced b33a 908f 6dbb e79c e83b
000001a0: 5380 9ebd d41e bc3d 66ca 003c 7fd1 07be
000001b0: ddda 9b3d c0e4 ad3d 69f4 963d fcd0 9bbd
000001c0: b14c 433b 98ad 9b3c 1ef9 af3d 141f a83d
000001d0: 1f83 e03d af8e bd3d 1e91 933c 15c1 953d
000001e0: 2c1b 1b3e 2a07 9b3d 69a7 bdbc 595e 763d
000001f0: 3f09 2a3c e887 96bc 68bc 933d 1078 0e3d
00000200: 123b 4abd 0c4d b63d 1538 b73b bc6c a53d
00000210: a1a7 b6bc 4b8c cc3d 32c0 063e dda4 4d3d
00000220: d253 a63d f0a2 a73d 6c1a 22be b23c 013d
00000230: 1083 c43d febf f2bd 66dd 59bc 8caa 003e
00000240: 1d9a 7f3d 6308 f3bd b258 1dbe fec5 043e
00000250: c101 133e a9e1 b7bd 1cb1 27bd b22f a6bd
00000260: 2f71 b4bd fcfe 4f3d 026b 233c ae3c 2d3d
00000270: 71cc b2bd 5efa c3bc aadd ce3d 50dd 0cbe
00000280: 8c36 f4bd 376d 0abe c428 f0bd 49fe 15bc
00000290: f9c6 0a3e c825 18be 4743 1bbe 2e60 7bbd
000002a0: 51e5 afbc fc0c eebc c4fc f93d de67 0fbe
000002b0: d753 eabd 6a9d 993d 8aa8 543d 67d3 c53d
000002c0: f38c a93d 3b3a 0bbd 975b febd e52d 483d
000002d0: 5de6 b93d f749 973d 22cc 06be 0b65 e23d
000002e0: 10bd debd 79fe 133e 0cc3 0e3e a96a 2ebd
000002f0: 1871 f4bd be23 ca3c 7a51 9c3d 9737 c8bd
00000300: 94ff 193d 4f60 94bd 272d 16be 4ab0 2ebd
00000310: 5d1b 1b3e 5a7f 1f3e 90ef dbbd bd6c 0e3e
00000320: fb48 c43d e1f0 363e 7c78 abbd 9f12 59bd
00000330: 8b8f 813c 1450 a93d c228 6e3d b9fa 363d
00000340: 31f1 39bd dc3c 79bd e11b bdbd 37a2 7bbc
00000350: 4b5e 8abc 900f a83d 46b8 95bd 28a2 0cbe
00000360: 792e e9bd 36ea 33bd d22a 02be 9bbd ddbc
00000370: b7c8 4abd e99e 383e 43f0 4f3a 93b6 163e
00000380: 1f6d e1bd c1da ebbd 912a 13bd 72b5 8cbd
00000390: 6881 223b e392 20bd d344 883d ef18 3b3d
000003a0: 0b50 0a3d 3a30 00be 262c f83d 8147 2ebd
000003b0: ce3e a7ba 6b7b cabd d17b 933d d97b 07be
000003c0: e2f7 9a3d e0d6 a13d 9604 98bd 86e3 813d
000003d0: 0b6e 0e3e 1eab 12be 4bc1 26be d846 b23d
000003e0: 4866 0bbd 59f3 3c3d eeaa 223d 8b20 5dbc
000003f0: 11c4 fe3c 6974 5bbd 35eb 9e3d 9c4c e2bc
0.11068801 -0.04417513 -0.019135434 0.08779064 -0.003301619 0.061880447 0.095738284 -0.04102963
-0.075072564 -0.16171698 -0.055021103 0.027778625 0.06505044 -0.15403599 -0.089138806 -0.11682166
0.09236537 -0.02665414 0.03505588 0.042154446 -0.06358939 0.036214545 -0.03213517 0.060765583
0.13001509 0.05987306 0.12761699 -0.010917661 0.015298577 0.12712583 -0.081198156 -0.12042435
-0.021029226 0.00579006 -0.13202894 -0.012495808 -0.09709627 -0.1355514 0.012243424 -0.058668192
-0.17075515 0.016422693 0.08329589 -0.019314943 -0.023037424 -0.006163875 0.09849987 -0.020347713
0.02892797 0.056035765 0.018600808 0.1337595 -0.06385723 0.061643217 0.12455726 -0.13224909
0.0868158 0.00010577083 0.10338276 -0.09431699 -0.067810684 0.030442348 -0.020691898 -0.09240298
0.12707649 -0.16003105 -0.0076829237 0.095895045 -0.08773156 0.04485139 0.07952238 0.0841187
0.16213503 -0.050937686 -0.065740496 0.086669505 -0.012511594 -0.14866352 -0.053790603 0.1493357
-0.18230784 -0.11178654 0.08242524 0.066491514 -0.16593216 0.19544028 -0.027473988 0.11964229
-0.014596605 -0.040980734 0.07207327 0.15986583 -0.10065474 0.083373204 -0.04520819 0.057844296
-0.04076535 0.029793529 0.12813704 -0.080086544 -0.038135722 0.0013727318 -0.00362489 0.0070987823
-0.0773932 0.091855675 0.007860756 -0.1326351 0.07610104 0.08490896 0.07370836 -0.0760822
0.002980035 0.019003674 0.08592437 0.08209053 0.10962509 0.0925573 0.018013533 0.07312218
0.15147084 0.07569726 -0.023151116 0.06014857 0.010378181 -0.018375352 0.0721367 0.03478247
-0.04937274 0.08901414 0.0055914023 0.0807738 -0.022296729 0.09987696 0.13159254 0.050206054
0.08121456 0.08185375 -0.15830392 0.031552024 0.09595311 -0.11853026 -0.013297414 0.12565058
0.062402833 -0.11866834 -0.15365866 0.12966153 0.14356138 -0.08978588 -0.04094039 -0.08114566
-0.088106506 0.05078028 0.009974243 0.042294197 -0.087304 -0.023923095 0.10100873 -0.13756299
-0.119244665 -0.13518225 -0.117265254 -0.009154865 0.13552465 -0.14858162 -0.15162383 -0.06137102
-0.021471651 -0.029058926 0.12206414 -0.14004466 -0.114417724 0.075007275 0.051918544 0.096594624
0.08278837 -0.03399108 -0.12419813 0.048871893 0.090771414 0.073871545 -0.13163808 0.11054429
-0.108759046 0.14452542 0.13941592 -0.042582188 -0.119356334 0.024675246 0.07632728 -0.09776228
0.037597254 -0.07244932 -0.14665662 -0.04264859 0.15147157 0.15575925 -0.10739052 0.13908668
0.095842324 0.17865326 -0.0837259 -0.052996274 0.015815517 0.08267227 0.05814434 0.0446727
-0.045396034 -0.060849056 -0.09233833 -0.015358499 -0.016890666 0.08206093 -0.07310538 -0.13733733
-0.11385817 -0.043924533 -0.12711647 -0.02706795 -0.049507823 0.1802937 0.0007932225 0.14718084
-0.11007141 -0.11516333 -0.035929266 -0.068705454 0.002479637 -0.039202582 0.06653752 0.045678075
0.03376774 -0.12518397 0.12117796 -0.04254866 -0.0012759806 -0.09886821 0.072013505 -0.13230838
0.07566811 0.07902312 -0.0742275 0.06342225 0.13909166 -0.14323089 -0.16284673 0.087049186
-0.03403309 0.046130512 0.039713793 -0.013496528 0.031099351 -0.053577814 0.07759706 -0.02762442

model.rnn.bias_ih_l0 f4 [160]
00000000: 69af 5b3c 4803 f23d e464 833b 8614 9a3d
00000010: c6cc 8dbd edff 373d e4c5 20be 5547 b93c
00000020: fcfa 4c3c e2f0 3f3e 1c82 84bd 893d 03be
00000030: 8052 d9bd 6e16 ebbd 4b8e 063e d7fa 2fbc
00000040: 89b8 19be f7c6 7c3c 9f43 a1bd 9633 a5bd
00000050: 403c 543d 94a3 a53c cea2 043e 0031 b4bd
00000060: b001 86bd 57c9 843d 423a 7f3d a9a4 63bd
00000070: 9b36 9dbd d047 103e 5f7b 7a3d ffc8 0bbe
00000080: 0023 c93c 0d55 0c3e afb0 c9bd 009f 0b3d
00000090: 6527 223e c402 133e 9c89 d23d f445 bebd
000000a0: f2da 233e 2bef d93d c0a9 ef3d 5870 c73d
000000b0: eb5a ac3d e402 c4bd 9609 17be d8d4 093d
000000c0: 9d10 16bd c554 523d 1e8d 073e a8e7 a3bb
000000d0: 44d5 bb3d 353a c5bd 3673 a63d c155 2ebc
000000e0: a2a5 cabc b696 c7bd ea40 a93d b8f3 fbbd
000000f0: a92f 13bd b503 b63d 0cf5 2cbd b762 053e
00000100: a65b 883d 9812 f53d f87b 87bd dba4 ff3a
00000110: 51db c23d b3f0 1e3e 4415 05bd bd22 173d
00000120: 5fea 31bc 4f79 fdbd 9bef 813d c34e 233e
00000130: ff46 3d3e 40cf 853d 7944 58bd dd88 d23d
00000140: 3725 edbd 1fc2 09bd d799 0e3e 0cea 9abd
00000150: 3a51 02bd 731e a7bc 38ae babc 008a 5f3d
00000160: b9f6 2e3e 9c2c a8bd 5e1d 38bc 25f0 053e
00000170: 4d10 003d a1e8 32bd 59d6 5abb 3fb6 65bd
00000180: a6a7 fb3d 4475 dd3d 55a4 103e fe3e 09be
00000190: 3ac0 c0bd 9e93 16be 0af1 093e 12a8 933d
000001a0: 66ea 8abd 457e e93d af16 03bc 0ee4 2abe
000001b0: 60ed bd3b 9bd6 d1bb 931b 03be 0630 dc3d
000001c0: bc15 a43d fd48 903d bfc9 18bc f33a 4dbd
000001d0: a9e2 0fbc aa1a 153e f26a 9b3d 852c 103e
000001e0: 2ed9 39bc 36ec 93bd 6be9 2a3e 2f41 363e
000001f0: e52f 90bb 7504 013e ec72 8b3a 69a6 503c
00000200: 84a0 b3bd c11a eebd d1a2 0e3d 1dce 99bd
00000210: 5458 cabd ec89 e7bc 46e0 11be bf73 403e
00000220: 0137 10be 8d30 053e 4b23 233e 1946 733d
00000230: 6914 113d 8b82 bdbd 7bb9 cb3d 0bd0 6e3d
00000240: d9d0 88bd 8880 dabc 9366 253d 7ea3 27bd
00000250: a98a ebbc 2dfb 2a3e d009 a1bd 8463 e63c
00000260: 9e5d e63b 077c 54bd 26eb 473b 2953 bdbd
00000270: 9e94 a93c 0003 4ebb ee89 593d 1080 343e
0.01340852 0.11817032 0.00400983 0.07523446 -0.06923823 0.044921804 -0.1570049 0.022617022
0.012511011 0.18744233 -0.06470129 -0.12816443 -0.10611439 -0.114788875 0.13140218 -0.010740957
-0.15011801 0.015428296 -0.07874226 -0.0806648 0.05181527 0.020219602 0.1295273 -0.087984085
-0.065432906 0.06483715 0.06231142 -0.055576954 -0.07676431 0.14089894 0.061152812 -0.13650893
0.024552822 0.1370432 -0.09848153 0.03408718 0.1583534 0.14356524 0.10280153 -0.09290686
0.1600149 0.10641321 0.11702299 0.09738225 0.08415779 -0.09570864 -0.1474975 0.03365025
-0.036636937 0.051350374 0.13237426 -0.005001981 0.091715366 -0.09630243 0.081274435 -0.0106405625
-0.024737183 -0.09745543 0.082643345 -0.12302345 -0.035934124 0.08887426 -0.042225882 0.13025938
0.066581056 0.11966437 -0.06615442 0.0019504087 0.095144875 0.15521507 -0.032490984 0.036898363
-0.010859101 -0.123766534 0.06344529 0.15948014 0.18484114 0.065336704 -0.052799676 0.10280011
-0.11579364 -0.033632394 0.13925873 -0.07564172 -0.031815745 -0.020400262 -0.022788152 0.054574966
0.17086305 -0.082116336 -0.01123747 0.13079889 0.031265546 -0.043678883 -0.0033391921 -0.056082007
0.12287836 0.10813382 0.14125188 -0.13402936 -0.09411664 -0.14704749 0.13470855 0.07209791
-0.06782989 0.11401037 -0.008001014 -0.16688558 0.0057961196 -0.006403757 -0.12803487 0.10751347
0.08011958 0.070451714 -0.009325444 -0.050105046 -0.008782067 0.14560953 0.075887576 0.14079483
-0.011343284 -0.07222788 0.16690604 0.17798303 -0.0044002407 0.12599356 0.0010639108 0.012734988
-0.0877085 -0.11626197 0.034823243 -0.07510016 -0.098801285 -0.028264008 -0.1424571 0.18794154
-0.14083482 0.13006802 0.15931432 0.059393022 0.035419855 -0.09253415 0.09947487 0.058303874
-0.066804595 -0.026672617 0.040381026 -0.040927403 -0.028752642 0.16697378 -0.078632 0.028123625
0.007030203 -0.051876094 0.003050515 -0.09244377 0.020700749 -0.0031434894 0.053110056 0.17626977

model.rnn.bias_hh_l0 f4 [160]
00000000: 244c ab3d 4d7d 243e 7a1c 693d e3f6 ca3d
00000010: 7fda bfbc 28df 0fbe aed9 70bd c0a0 cc3c
00000020: 4dc0 cbbd 91b9 e73d 67e8 f03d 443c 1e3e
00000030: 04a1 023e 29dd fd3c dd34 29be b3fe a83c
00000040: 300f 10be 4003 f2bd 78ad 3e3e a5ff 8fbd
00000050: a0e5 eb3a f9d9 dfbd af28 43bd 0559 1fbe
00000060: f8ed 2e3d ec57 d2bc 3c01 9ebc 0e2b 06be
00000070: bb7a 99bd c16b 0abd 6d72 5ebd f79f 0f3e
00000080: 0433 7dbd ea30 143e b019 79bd fea1 473d
00000090: 7049 a3bd 259d 27be 4f83 023e 6165 b7bd
000000a0: 4419 8bbd 341a cfbd ce82 37bc 825b b03d
000000b0: 7ae6 43bc fbea f93b 0ea9 07be 189d 5bbd
000000c0: 55ee 03be ea96 203e 779f ed3d d90d 56bd
000000d0: 9129 f6bd 5a5f 283e fcf9 993d c204 e23d
000000e0: 312f 28bc a108 4cbd 6507 9fbc e710 9c3d
000000f0: 46b7 023e 8036 f93d a7da 113d 856c 97bc
00000100: 38bd fd3d 0b2b 22be 3b6e 16be 54ad e73d
00000110: d0d6 a3bd 72be 313e ff6f 87bc a56d 08bd
00000120: e7b0 4cbd ad23 23bd 0b89 11be dd09 cbbd
00000130: 70c9 1d3c c967 0f3d 4eee 5c3a 09a4 393d
00000140: 91f6 24be 35d1 a9bd 2e71 34bd c81e 173e
00000150: 31f4 febd f176 ae3d 14ac fe3d 9acd f9bd
00000160: 0be0 85bd 7b73 debd 2711 343d 9746 f33d
00000170: 21b1 a03d 8912 49be ed78 c33d 20cf aa3d
00000180: ae03 ef3d 9050 0c3e 2f50 903b 84c5 d93d
00000190: a5a7 2b3d e46c 46bd f45d e33d 34b1 1ebe
000001a0: 500f 7e3d d4b5 90bd 451d a8bd d7da 74bd
000001b0: cb8f 33bd 799f 27be 3612 05be cfe3 aabd
000001c0: d172 363c 744f 1b3e c0d6 babd b076 b8bd
000001d0: b339 00bd b9e0 a83d d0a7 2d3e b0f2 463e
000001e0: 3528 123d 260e efbd 857b 463c b910 b43d
000001f0: 4124 11be d485 25be 2635 f93d 00ff 04bd
00000200: 6c2b 63bd a803 fbbc 86c2 0f3e 1294 06be
00000210: aef7 6abd fc2d e4bd 78bf 563d 3c97 823d
00000220: ee61 eabd 5d10 d03d cac5 0a3d d4f7 a1bd
00000230: 7afe c3bd 1997 a3bd 514e 11be a518 01be
00000240: c572 c9bd 3d66 19be c0a5 e2bd f594 b63d
00000250: 3888 30be eb5c 153e 8f72 ceba 4855 c13c
00000260: ab02 453d cae2 ab3d a8b4 6d3c 9ecf 293e
00000270: e691 703d 6353 e2bd 8569 013e a53b 07bd
0.08364132 0.16063423 0.056911923 0.09910371 -0.023419617 -0.14049971 -0.058801346 0.024978995
-0.09948788 0.11314691 0.11763077 0.15452677 0.12756735 0.030989246 -0.16524072 0.020629263
-0.14068294 -0.11817026 0.1862086 -0.07031182 0.0017997511 -0.10930247 -0.04764622 -0.15561302
0.042707413 -0.02567669 -0.019287698 -0.13102362 -0.07494112 -0.03379417 -0.054308344 0.14025865
-0.06181623 0.14471784 -0.060815513 0.048738472 -0.079729915 -0.1636854 0.12745403 -0.08954883
-0.067919284 -0.1011242 -0.01120062 0.08611204 -0.011956805 0.007626889 -0.13248083 -0.053616613
-0.12883885 0.15682569 0.11602681 -0.0522593 -0.12019647 0.16442624 0.07518384 0.11036064
-0.010265158 -0.049812917 -0.019412706 0.07620411 0.12765226 0.12168598 0.035608914 -0.018484363
0.12389606 -0.15836732 -0.14690487 0.113123566 -0.079999566 0.17357805 -0.016532896 -0.03330769
-0.049973395 -0.039828945 -0.14212434 -0.09913991 0.009630546 0.035011087 0.0008427844 0.04532245
-0.16109683 -0.08291856 -0.04405325 0.14757836 -0.124489196 0.0851878 0.12435165 -0.121974185
-0.065368734 -0.1086187 0.04396167 0.11878698 0.07846285 -0.19635977 0.09544549 0.08340287
0.11670624 0.13702607 0.00440409 0.10633376 0.041907925 -0.04844369 0.111019045 -0.15497285
0.062026322 -0.07065931 -0.08208708 -0.059779014 -0.043838304 -0.16369428 -0.12995228 -0.08344232
0.011135773 0.15167028 -0.091229916 -0.09007013 -0.031305026 0.082459874 0.16958547 0.19428515
0.035682876 -0.116726205 0.01211441 0.08792252 -0.14173986 -0.16164333 0.121683404 -0.03246975
-0.055461332 -0.030641392 0.14039049 -0.13142422 -0.057365112 -0.11141583 0.052428693 0.06376502
-0.1144446 0.10159371 0.033880033 -0.079085976 -0.09570022 -0.07987804 -0.14190032 -0.12607057
-0.09836344 -0.14980407 -0.110667706 0.0891513 -0.17239463 0.14586227 -0.0015750694 0.023600236
0.048098247 0.08392866 0.014508404 0.16583106 0.05873289 -0.11051061 0.12637909 -0.033015866

model.rnn.weight_ih_l1 f4 [160, 40]
00000000: b28e 0fbe a864 e3bd fe65 2d3d 7a75 27bd
00000010: ad83 063e 86a2 abb9 4c8a 21bd 6fd4 0a3e
00000020: d442 4f3d 0b2b e83d 836d 16be f275 8bbc
00000030: 6604 15be 9ebc 7ebb 9e15 05be de0e 1abe
00000040: 031b fa3d a47a 213e 843a 103e 09b4 c9bd
00000050: 67b4 dcbd 67dd 1ebd c896 ddbd 9b62 013e
00000060: fd05 a63d 32ef 9abd a842 c3bd 33bd f93d
00000070: e608 303d b850 93bd d439 913d ed63 9fbd
00000080: 2fe7 7e3c ec5c 713d c42f d13d 6db4 1abe
00000090: 4cd8 7bbd a3cb 27ba 3341 803d ab7b 803d
000000a0: 4bc6 633c bccd 133e 4b4e 19be 126a 05be
000000b0: c695 8bbd 11ba 0bbe 2328 d9bd 5ea1 ca3d
000000c0: 8cb4 2cbd 3682 333d 1514 073e ff2c 0bbd
000000d0: 7597 abbc ff6b b1bc 48ea b1bd edd6 dcbd
000000e0: 6d9c 443d bb14 d43d aa2c 3cbd f612 6b3c
000000f0: 1eb7 bdbd 872b dcbd 39b5 813d 5f8b 6a3b
00000100: a2fe 02bc 675c f1bd 540c e9bd a331 c5bd
00000110: d593 0b3c 7bdc 9b3d 1233 26bd f15c 9739
00000120: 2ec9 993d 2b20 1fbe 6e59 053e 4231 013c
00000130: cc41 0f3c 8df8 523d 1266 a63c fe5e 1b3e
00000140: 11af 703d 7c7c 0d3d 60b4 82bd ae04 b13c
00000150: efd8 103e a5ee 693d 33f6 2c3e aa92 c4bc
00000160: a4c5 9d3d e1a1 cdbd 92ca a03c 9f15 f43d
00000170: b8f1 81bc 53b6 143e 9151 043e d8e1 093e
00000180: b667 073e f8c0 5fbd d720 50bd c616 ce3d
00000190: 83fe f93d 6a1f 0cbe 9126 853d 3ac6 85bc
000001a0: db8c 163e 1aa5 f8bd 64db 4e3d 4769 12be
000001b0: d599 ab3c b418 10bd 78f5 d4bd b45e ae3c
000001c0: 0130 83bd 0212 d6bd 54b9 ffbd ddb2 8ebc
000001d0: 771c 15bd 6c96 8e3c 6f1a 1a3e ee11 17bb
000001e0: 9e04 7bbd cdf3 4ebd 1241 193e dfa3 dabd
000001f0: 311e 003e 704c ebbd 9d0f 943d 210f 613d
00000200: 720e c53d 82d2 51bd 2d6d d03c 8337 b73c
00000210: 2080 26bd db50 38bb ddfe fcbd 21bf a03d
00000220: 8f22 d33d efdc d53c 271e 2b3d 2c0f 0ebd
00000230: d521 83bd 95b8 413d f511 a8bd 6d7e 683d
00000240: b098 543c 6ef6 d33d 5636 19be 7ecb f33c
00000250: 1348 a6bd 16f2 f3bd 6653 6a3d 5734 1bbe
00000260: 2685 573d 3004 04bd 0a42 843c c779 acbc
00000270: 7106 c23c c5cd 803c e36e 07be 6f0f 7a3d
00000280: cf61 153e 6fa0 ef3d 3302 453d 542f a5bd
00000290: c4b5 283e 52bc 79bd 182b 56bd 7be2 a83d
000002a0: fbba 0fbe 1a16 65bc b1a6 92bd 9842 7d3d
000002b0: 0d26 cfbd 5c9a 893d e7ed 1d3e 69be 8b3c
000002c0: ed69 0abe 82c3 443c a7be aa3d 05ea 53bd
000002d0: ccc6 86bd 025c 913d 99a3 173e df59 173e
000002e0: 79e7 2b3e 07ab b43c fba6 9abb e598 a3bb
000002f0: 2fcb 613c 9c04 123d 09eb c33c 3770 6abd
00000300: 38fe 05be 6c0e e13b 4172 13be 559d 1c3e
00000310: f5ad f6bd 1be1 de3d 6d54 323b 58a4 b8bc
00000320: 6a57 213d ddf7 6c3c ed10 dc3d 1648 023e
00000330: 87c2 24bd 4797 51bc 0bb5 6e3d ddec 273e
00000340: dcb3 203b ba61 61bd 3013 b73d 1731 57bd
00000350: c52c 033e 210f 8e3d 7b14 9abd 78e9 73bd
00000360: 41eb a5bd c86a cdbd 49cb bebd eb6e 063d
00000370: 3f94 b2bc 302d ac3d d839 29bc 9482 b6bd
00000380: b8dd 963d 5f36 393d 67b0 153e 2c33 c63d
00000390: 330e 813d 9e2b d33d fbcc 1b3e 2162 e4bd
000003a0: d92c 053e d941 263c 96ff ee3c 8f15 773c
000003b0: 29bf 093e 1a72 50bd 4972 1cbe 7818 8a3d
000003c0: a201 9dbd 3831 3fbc a533 2bbd e421 74bd
000003d0: a23a ba3d 722a b8bd 2b04 753d 4c6a 5c3d
000003e0: a29d d83d 625a 2bbb af77 0b3e 42ac a63d
000003f0: 725d 09be 68d7 943d b321 14be 059b b83c
-0.14019278 -0.11103183 0.042333595 -0.04088352 0.13136168 -0.0003273675 -0.03943853 0.135576
0.05060084 0.11336335 -0.14690213 -0.017024014 -0.14552459 -0.0038869749 -0.12996528 -0.15044734
0.12212183 0.1576944 0.14084822 -0.09848792 -0.107765965 -0.038785364 -0.10819775 0.12635271
0.08106611 -0.07565154 -0.09534198 0.1219429 0.042977236 -0.0719313 0.07091108 -0.07782731
0.015558048 0.058926508 0.10214189 -0.1510789 -0.061485574 -0.00064008887 0.06262436 0.06273588
0.013902257 0.1443395 -0.14971273 -0.13028744 -0.068156764 -0.13645197 -0.106033586 0.098940596
-0.04216437 0.04382535 0.13191254 -0.03397846 -0.020946244 -0.021657942 -0.08687264 -0.10783181
0.04800074 0.103555165 -0.045941032 0.014347782 -0.092634425 -0.1075049 0.063333936 0.0035788638
-0.0079952795 -0.117852025 -0.113793045 -0.09628608 0.008519133 0.07610413 -0.04057605 0.0002887021
0.07509075 -0.15539615 0.13022396 0.007885279 0.008743715 0.051506568 0.020312343 0.15172955
0.058760706 0.034542546 -0.0638206 0.021608677 0.14145254 0.057112355 0.16890793 -0.023995716
0.077037126 -0.100406416 0.019627843 0.119181864 -0.01586233 0.14522676 0.1292174 0.13465059
0.13223156 -0.05462739 -0.05081257 0.100629374 0.122067474 -0.13683859 0.065014966 -0.016329873
0.1470217 -0.121408656 0.050502196 -0.14297973 0.020947376 -0.03517981 -0.10398382 0.021285392
-0.064056404 -0.104526535 -0.124865204 -0.017419273 -0.0364041 0.017405711 0.15049146 -0.0023051458
-0.0612837 -0.050525475 0.14966229 -0.10675787 0.12511517 -0.11489189 0.072295405 0.05494607
0.09621896 -0.051226147 0.025442684 0.022365337 -0.040649533 -0.0028124365 -0.12353299 0.07848955
0.10309326 0.026106326 0.041776802 -0.034682438 -0.06402937 0.04729517 -0.0820655 0.056761194
0.012975857 0.10349737 -0.14962134 0.029760119 -0.08119216 -0.119114086 0.05720844 -0.15156685
0.052617215 -0.032230556 0.016144771 -0.021054162 0.023684712 0.015723119 -0.13225894 0.061049875
0.14588092 0.11700522 0.0480978 -0.08065668 0.16475588 -0.060970612 -0.05228719 0.08246323
-0.14036171 -0.01398232 -0.071607 0.061831087 -0.101146795 0.06718895 0.15422784 0.017058568
-0.1351697 0.012009503 0.08337145 -0.05173685 -0.06580886 0.07097627 0.14808501 0.14780377
0.16787519 0.022054208 -0.0047196127 -0.0049925917 0.013781353 0.035648927 0.023915784 -0.057235923
-0.13085258 0.0068681743 -0.14399053 0.15294392 -0.120448984 0.10882779 0.0027210966 -0.022539303
0.039390005 0.014463392 0.10745416 0.12722811 -0.04022458 -0.012792415 0.058278125 0.1639895
0.0024521267 -0.05502484 0.089392066 -0.05253705 0.12810047 0.06936479 -0.075234376 -0.059548825
-0.08101512 -0.100301325 -0.09316117 0.032820623 -0.021799205 0.08407056 -0.010328732 -0.089116246
0.07366508 0.045217868 0.14618073 0.09677729 0.063015364 0.10311054 0.15214913 -0.11151529
0.1300539 0.010147535 0.029174607 0.015080824 0.13451828 -0.050890066 -0.15277971 0.06742948
-0.07666327 -0.0116694495 -0.0417973 -0.059602633 0.090932146 -0.08992471 0.059818428 0.05381231
0.10576941 -0.0026146402 0.13619874 0.08138324 -0.13414553 0.07267648 -0.1446598 0.022534857

model.rnn.weight_hh_l1 f4 [160, 40]
00000000: b907 923d a52a a4bd 5a5c 7fbd dddb 8f3d
00000010: a06a f5bd ddd6 2c3c c11f 04bd b0ea 94bd
00000020: d694 d73b caff 83bd 1ff4 a83c 5b95 b4bd
00000030: 6558 76bc a426 4d3d 0a0a e93a b75e 973d
00000040: ea70 baba 6b5b 01be 89e9 343c bd68 b0bd
00000050: cea0 14be 2992 a7bd 91ed e8bd ac11 793c
00000060: 7023 f23d b8cf 0dbd 947a 4e3d fcf4 11be
00000070: 889e 053e 947d 323d 2dc1 e23d d347 623d
00000080: f01c debd 1963 06be 1758 883d 9861 2abe
00000090: 115a 28be 9614 413d b6a2 c1bd c088 d83d
000000a0: 3624 103e 992c 2abe b1f7 03be 0f48 9b3d
000000b0: 8e00 81bd d5bf 943d ee25 a03d c7e3 a2bd
000000c0: 69d2 19be df85 183e f910 88bd 402f 07bd
000000d0: c255 af3b 6089 22be 2e4f ad3d 9119 0d3e
000000e0: 35b7 d9bd a89a b8bd 0fac febd 9764 4f3d
000000f0: c40d 313e ee25 06be 5b28 913c 205f 0dbe
00000100: eff6 243d ac71 58bd 3d89 5d3b 6a8b d93d
00000110: 0523 20be 40d8 4e3c f7e0 e23d 7901 44bd
00000120: ca58 63bc 1b05 2abd 5b15 95bd f23d 8f3d
00000130: 7096 253e 99e7 52bd 5e9c a5bd 4aba 8cbd
00000140: 4b7d d9bd e2f2 0d3e 01f3 d7bd bad5 ac3c
00000150: e9a3 a83d f932 b43d a7f3 aa3d 5aa6 8a3d
00000160: 7b57 89bd 258f 063e 187c d43d 7696 bbbd
00000170: 54c5 993c a4e8 e83d 4a56 aa3d 0e7f b9bd
00000180: afed 9e3c 6baa ea3c b170 733d ffd2 2ebd
00000190: 9a57 193d df20 8c3d b5fc 773d 6ae2 c33d
000001a0: f0c6 1f3d d9fb edbd db3e 3abd 5a11 efbd
000001b0: 4545 053e b55f 05bd 026c a7bd 3f7c 0ebe
000001c0: a758 abbc 1064 343d d8d0 dbbd e1cb 4d3d
000001d0: 619f 0c3e 077e f2bc 733d 4a3d e94d 173d
000001e0: 7ae6 dd3d d482 853d c352 9cbd 5725 4a3d
000001f0: 4d34 c6bd ed40 16be 9c78 973c a6c7 d23d
00000200: 5427 503d d868 963b 6382 903d ff4f 183e
00000210: 851b e13d 021a e93d e31e 0fbd ea9f 0dbe
00000220: 821d 493d 9b97 19bc b435 813c 547d b53c
00000230: 38f6 f03d a992 2b3e 428d c3bc eedc 29bc
00000240: 8c54 ec3c 595b a3bd bb23 b4bd e7ed 993c
00000250: 4d62 ecbd d2d4 7f3c f02c dbbd e1ee a83d
00000260: 391f 7b3c 653d 1d3e ad9b 813d 4a7b 823d
00000270: 32cc 603d fe52 b73d eee6 d6bd 49e5 a43d
00000280: 8df8 363e d05c 28be 284f 28be d3f1 283e
00000290: ac6b b83d 7d1d c2bd 5da5 b3bd 6d34 ef3d
000002a0: af03 d2bc b120 983d 2013 da3b 880b 2fbe
000002b0: 1e6b 88bd 4244 0dbe 25b3 f8bd 5e10 05bc
000002c0: ec42 a53c 0d2a 863c 8e7d cdbd 20cf c93d
000002d0: 6520 b4bd f7a9 283a bd50 08be 1a75 143e
000002e0: 4f06 453d c71f a73c 05f3 243d 2d4f f4bd
000002f0: 33e5 31bc dd6a fc3d 3e23 eb3d 15c5 733d
00000300: 6d1d 0b3e a6f1 4e3d 8f3e d03d 6fdc 143e
00000310: 9222 683d 6c9d c9bd f7e0 ccbd df52 d0bd
00000320: 3441 523c 14af 1e3d 0ea3 0fbd 3ecc 063d
00000330: e35b 123d a032 963d f3f2 b4bc 9e0a a63d
00000340: 84fb b43d bd8c d0bb a35c 263e df54 08be
00000350: 0908 b23a f5a7 20bd 32ae eebc 9d8a ac3d
00000360: 3af8 27bd 83e2 d53d fea9 e2bd 82b2 04be
00000370: c391 943d c73d ccbd ea57 25be 7296 f13c
00000380: f0c9 da3c b02b e53d 635a a53d 6fe7 b6bd
00000390: 2234 50bd 9de5 793c 8492 cd3d 7bf6 e3bc
000003a0: d322 da3d f92c 133d 0088 993d 8bc7 94bd
000003b0: 6ce5 1bba de5f a8bd da29 a53c 8b9d d03d
000003c0: 15d4 473d 38fd e93d 9170 fdbd cde9 1d3c
000003d0: e5cd bfbb 445f b93d d46a 04bd 8fd7 b0bb
000003e0: 541f 033d a098 82bb 53ac 89bc 5554 03be
000003f0: 52ca 753d ef06 e73d 6a55 c43b c6d6 303c
0.07130379 -0.08015946 -0.062343933 0.070243575 -0.11983228 0.010549274 -0.032256845 -0.072713256
0.006579022 -0.06445272 0.020624219 -0.0881755 -0.015035723 0.05008568 0.0017779481 0.07391112
-0.0014224325 -0.1263253 0.011042007 -0.08613727 -0.14514467 -0.08182175 -0.11373437 0.015201967
0.118231654 -0.034621924 0.05040987 -0.1425361 0.13048756 0.043576792 0.110720016 0.05524428
-0.10845363 -0.1312374 0.06657427 -0.16638792 -0.16440608 0.047138773 -0.09454863 0.10572958
0.14076313 -0.16618575 -0.12887456 0.075821035 -0.06298934 0.072631516 0.078197345 -0.07953601
-0.15021671 0.14894818 -0.06643862 -0.033004045 0.0053507993 -0.15872717 0.08462368 0.13779284
-0.10630647 -0.09013873 -0.12435161 0.05063304 0.17290407 -0.13100407 0.017719438 -0.13805819
0.040274557 -0.05284278 0.0033803724 0.10622294 -0.15638359 0.0126248 0.11078065 -0.047852967
-0.013876149 -0.041508775 -0.07279464 0.06994237 0.16170669 -0.0514904 -0.08086465 -0.06871469
-0.10619601 0.13862184 -0.10544396 0.021098007 0.082343884 0.08798785 0.08347254 0.0677001
-0.06706139 0.13140543 0.103752315 -0.091595575 0.018770851 0.11372498 0.083172396 -0.09057437
0.019400446 0.028645715 0.059433643 -0.04268169 0.03743706 0.06842207 0.060543735 0.095646694
0.03900808 -0.11620302 -0.0454701 -0.116732314 0.13014705 -0.032561976 -0.08174898 -0.13914584
-0.020916296 0.04404074 -0.10733193 0.050243262 0.13732673 -0.02960111 0.04937501 0.036939535
0.108349755 0.06519094 -0.07632973 0.049352016 -0.09677944 -0.14673205 0.018490128 0.10291986
0.050818756 0.004590135 0.07056119 0.14874266 0.10991577 0.11381914 -0.034941565 -0.13830534
0.049100406 -0.0093745245 0.015772678 0.022154488 0.117657125 0.16755165 -0.023871068 -0.010367615
0.028848909 -0.079764076 -0.087958775 0.018790198 -0.11542187 0.015614705 -0.107019305 0.082486875
0.015327268 0.15355451 0.06328521 0.06371172 0.054882236 0.089513764 -0.10493265 0.08051545
0.17868252 -0.16441655 -0.16436446 0.16498499 0.09004912 -0.09478281 -0.08771775 0.11679921
-0.025636522 0.074281104 0.006655112 -0.17094243 -0.06661056 -0.1379557 -0.12143544 -0.008121578
0.020173512 0.016377473 -0.10033713 0.09853959 -0.08795241 0.0006434018 -0.13312049 0.14497796
0.04810172 0.020400895 0.040270824 -0.11929164 -0.010857868 0.1232507 0.11481331 0.059514124
0.13585444 0.050523423 0.10168182 0.14537214 0.056673594 -0.09844479 -0.10003846 -0.101720564
0.012832928 0.038741186 -0.03506761 0.032909624 0.03573216 0.07333875 -0.022088503 0.08107494
0.08837035 -0.0063644336 0.16246276 -0.13313626 0.0013582717 -0.039222676 -0.029135797 0.08424876
-0.04100821 0.10443594 -0.1106758 -0.1295872 0.07254364 -0.099727206 -0.16146818 0.029490683
0.02670762 0.11189973 0.080738805 -0.08930861 -0.050830968 0.015252498 0.10037711 -0.027827492
0.106511734 0.03593156 0.07496643 -0.07264622 -0.0005946967 -0.0822141 0.020161558 0.10186299
0.04878624 0.11425251 -0.12374986 0.009638262 -0.005853402 0.090513736 -0.03232844 -0.0053967903
0.0320123 -0.0039854795 -0.016805803 -0.12825139 0.0600074 0.11280619 0.0059916275 0.0107933935

model.rnn.bias_ih_l1 f4 [160]
00000000: 3ffc 2c3e 2f04 063e 01bb c63d 1c8e 9abd
00000010: e095 813d 1884 6a3d db97 8d3d 95c9 833d
00000020: ef2b b3bd 820b 9fbd 56d9 b73d ac85 b33d
00000030: aa2d ff3b b9a3 a53d f2f6 853d 7529 2f3d
00000040: f901 ed3b b22e 063e 1e2d fabd 5751 51bc
00000050: 0fb1 ca3d 0255 a5bd cb97 d33d c197 2abe
00000060: e4cc fa3c 14ca b23d b63a 1b3e 60c6 83bc
00000070: ea1b 45bd c6c5 873c f7b4 0fbd e64d 9c3d
00000080: 6a1d 083e 4530 a93c 58c7 adbd 0b55 a7bd
00000090: 8ed1 8fba 5185 adbd eb83 713d 2bc3 d9bd
000000a0: 04f5 f0bd 0b15 1c3e b307 d53d e555 0abe
000000b0: 73f7 0a3e f417 253b d84e 293e a992 7a3c
000000c0: 746f c0bd b25a d0bd 9806 0fbe 3aac 233e
000000d0: 22f3 9ebd 4599 74bb b840 993d 6dd6 08be
000000e0: e58e f3bd 32dc 033d e0b7 ca3d c1ac 193e
000000f0: 14af c0bd 4f12 d63d 6255 e43d e8fe 92bd
00000100: f95d 10bd 86a8 b4bd 28e5 9bbd 07b9 edbd
00000110: 43b0 5e3d 8f24 913d d543 0b3e 3956 c2b9
00000120: c83a b63d 40f9 a8bd 5858 9cbd daa5 8a3d
00000130: 4c76 db3d 49f2 d13d c49c aebd 646c 063e
00000140: dac7 603d 44f2 98bd 71b9 333e d529 98bd
00000150: bd3c 2ebe c2aa ca3c 0902 8c3d b75e e93c
00000160: bc70 0a3e dd1b 12be 5f9b 54bd 8f12 2a3e
00000170: 7745 9b3d 3309 803d 4b88 783c 76e6 0a3e
00000180: be80 d03c a678 4e3d 2451 3dbc 5897 62bc
00000190: 3647 5c3d 303b 47bc 7ffa 933c e9d9 b13d
000001a0: ab76 823d ae36 0abe 5694 e43d 4638 a03d
000001b0: 3bab e0bd 68f7 44bd 188e e9bc dd52 9d3d
000001c0: 39b5 18be f183 853d a445 48bd 4659 90bd
000001d0: 65e0 10be 3de9 733c 69dd 143d c115 2d3e
000001e0: 0a65 04be d04d 4ebc 6690 11be 8efa c33d
000001f0: 17ae 3a3d fbc2 a5bd 8bfa 13be e3f0 18be
00000200: c015 76bd a8b2 053e 234c b8bd bbdc eaba
00000210: 5ce8 133e 65bc 91bd a850 2dbc e247 1abc
00000220: 5028 56bd e84d f13c 2ed0 ea3d 2dd9 ab3d
00000230: 527a da3d 7d57 af3c 6f18 333e 861b 0d3e
00000240: 615c bbbd 6787 81bd 4165 0e3d 8057 493d
00000250: d051 13be fc58 eabd 6203 dc3d 6509 423b
00000260: 6388 463d 7dc2 393e 6daa e5bd 133a 81bd
00000270: 292e 9d3d 47f8 a0bd 8608 a43d 8bb3 ebbd
0.16893099 0.13087533 0.09703637 -0.075466365 0.063274145 0.05725488 0.0691373 0.06434933
-0.08748614 -0.07765867 0.089770004 0.0876573 0.007787426 0.08087868 0.06541242 0.042764146
0.007232901 0.1310375 -0.12215637 -0.012775741 0.098970525 -0.080728546 0.103316866 -0.16659452
0.030615278 0.087299496 0.15159115 -0.016085804 -0.048122324 0.016573798 -0.03508469 0.076320454
0.1329247 0.0206529 -0.084852874 -0.081705175 -0.0010972486 -0.08472694 0.058963697 -0.106329285
-0.11765483 0.15242402 0.10401859 -0.13509329 0.13570957 0.002519128 0.16533983 0.015293756
-0.09396258 -0.10173549 -0.13967359 0.15983668 -0.07761218 -0.00373228 0.07483047 -0.13363047
-0.11892489 0.032192416 0.098983526 0.15007307 -0.094083935 0.10452711 0.11149098 -0.07177526
-0.03524587 -0.08821206 -0.076120675 -0.11607557 0.054367315 0.07087051 0.13600095 -0.00037066804
0.088979304 -0.08250666 -0.07634038 0.06769915 0.10715923 0.1025129 -0.085259944 0.13127285
0.054878093 -0.074680835 0.17551209 -0.07429854 -0.17015357 0.024739627 0.06836326 0.028487546
0.13519567 -0.14268441 -0.051905986 0.16608642 0.07581609 0.062517546 0.0151692135 0.13564476
0.025452014 0.050408028 -0.01155499 -0.0138300285 0.05377885 -0.0121601075 0.018063782 0.08684141
0.0637029 -0.13497421 0.11161105 0.07823233 -0.109701596 -0.048087507 -0.028510138 0.076818205
-0.14912881 0.065193065 -0.04889454 -0.070482776 -0.141481 0.014887151 0.036343966 0.1690283
-0.12929168 -0.012591794 -0.1421524 0.09569274 0.04557618 -0.0809383 -0.14451043 -0.14935641
-0.060079336 0.13056433 -0.08998897 -0.0017918566 0.14444107 -0.071160115 -0.010578312 -0.009416552
-0.05228454 0.029456094 0.114654884 0.08391032 0.10667862 0.021404022 0.1748979 0.1378003
-0.09148479 -0.06324654 0.034764532 0.049155712 -0.14386678 -0.11442754 0.10742833 0.002960765
0.048469912 0.18140598 -0.11214147 -0.06309905 0.0767482 -0.07859855 0.08009438 -0.115088545

model.rnn.bias_hh_l1 f4 [160]
00000000: b5f5 b33c d995 f83d a5f3 103e 36cf 82bc
00000010: 05cf 29bc 73b8 29bc 3060 e93c ca61 eabd
00000020: 74c5 fb3d e4a5 ca3d a413 f23d ea0f d5bd
00000030: 1fa7 703b 209a e13c da03 ba3d 9bb6 a93d
00000040: 14ce b8bc 2ee7 723d 8ad8 453e c514 9bbd
00000050: f946 353e 53a5 183e a6f8 363e 877a 3c3d
00000060: d513 bbbd ce7a 263e 73d4 efbd 7a69 95bc
00000070: 6d98 03be 4da9 5d3d 572e 45bd d136 f93d
00000080: 4c71 e93c 8f63 bebd f9dd ce3d e49a 473d
00000090: 887d 2e3e 36c4 9b3d 5484 313e 4500 cbbd
000000a0: 52ec e6bd 812c b33d b26f 84bd bd1f 9c3d
000000b0: 490b a73d aacd 083e 06e2 fdbd 5bd6 c7bd
000000c0: 401e 6dbd 1037 2e3e 5614 233d 359f a7bd
000000d0: 7ec6 9abd 3de4 003e e99c a0bd e06f 0dbe
000000e0: 9ae9 19bc 69a8 083e beeb 793d f96d 2d3d
000000f0: fd48 5e3d 257d cf3d ade9 083d 7f5d 0a3e
00000100: 04bc 033e 0e9d abbd bb49 033b 8459 903d
00000110: b182 29be 80c8 f1bd 74bc f03c e7d7 203e
00000120: c874 a63d c3f1 193e daf2 10be 94dc c33d
00000130: bbe8 003e 6467 8e3d f32e 0bbe 8799 1a3b
00000140: f960 073e 5489 103e 9818 ffbd 67c6 4abd
00000150: 9d5f 08be c0ad 82ba 1708 d5bd 25d8 c33d
00000160: f866 70bd 89a4 753d 6260 863c 858c a13d
00000170: 1fde 083e 80b6 0d3e e1f6 c4bd ad49 c4bb
00000180: 02c9 26ba 391e 243d a62d 5f3d ec1e 1aba
00000190: fb90 b23d 3c54 b03d 17f1 f03d b504 b2bd
000001a0: 0d89 f73d e675 1a3e 1d80 bdbd 9cee c9bd
000001b0: 1ba7 0d3e 72e2 f53d 3fb6 d53d c452 133e
000001c0: ebe4 613d ce1b 39bc 67ce 95bd 46aa 9b3d
000001d0: 312d 18be e46c da3d b3cb 113c d8e1 b63d
000001e0: 7430 36bc 70e0 8a3d e63a 903b afb1 a83d
000001f0: f1dc 133e 5a9d 0dbc 7db8 f33d af67 0dbc
00000200: fffa 8f3d eae5 6abc 27f2 1d3e c07d 103e
00000210: 51d7 1a3e 32ed 1c3e 22a8 9ebd c807 28be
00000220: 65ad e03c 72c4 5f3d 35be 803d f494 403e
00000230: ff54 323e 3455 053b 6737 03bd 7db7 50bd
00000240: 2ef3 253d f0a8 72bd ecfc d73d c772 46bd
00000250: 20d1 1e3e 6d72 32bd dace 21be ea82 263e
00000260: e0c6 52bd 1e0a e2bc 2a4a 093b e6b1 823d
00000270: e68f e23c aa82 053e 2d7a 2f3d 5751 263e
0.021967748 0.12137956 0.14155443 -0.015967946 -0.010364299 -0.0103589175 0.028488249 -0.11444433
0.122935206 0.098949224 0.118201524 -0.10403426 0.0036720706 0.027539313 0.09082766 0.08286782
-0.022559203 0.0593025 0.19320884 -0.07572321 0.17702855 0.14906816 0.1786829 0.04601529
-0.09134642 0.16257784 -0.11710443 -0.018238772 -0.12851115 0.054116536 -0.048139896 0.121686585
0.028496407 -0.09296333 0.10100932 0.0487317 0.17040074 0.07605784 0.17335635 -0.09912161
-0.11275543 0.08748723 -0.06466617 0.07623241 0.08156449 0.13359705 -0.12396626 -0.09757682
-0.057890177 0.17013192 0.039814316 -0.08184663 -0.07557391 0.12587066 -0.07842428 -0.13812208
-0.009394074 0.13345493 0.061015837 0.042341206 0.054268826 0.10131291 0.033425976 0.13512228
0.12864691 -0.08379565 0.002003296 0.07048324 -0.16553761 -0.118058205 0.029386736 0.1570736
0.08127743 0.15033631 -0.1415514 0.09563556 0.1258878 0.06953314 -0.13592128 0.0023590045
0.13220586 0.14114887 -0.12455863 -0.049505617 -0.13317724 -0.0009969994 -0.10401934 0.09562711
-0.05869195 0.059971366 0.01640338 0.0788813 0.13365982 0.1383915 -0.09617401 -0.005990228
-0.000636235 0.040067885 0.054486893 -0.00058792415 0.08719059 0.086098164 0.11764734 -0.08692304
0.12086687 0.15084037 -0.09252951 -0.09859964 0.13833277 0.12006082 0.10435151 0.14387041
0.055149954 -0.011298133 -0.07314759 0.076008365 -0.14860989 0.106653005 0.008898663 0.08929795
-0.011119951 0.06781089 0.0044015525 0.082370155 0.14439751 -0.008643473 0.11900423 -0.008630677
0.070302956 -0.014337042 0.15424405 0.1411047 0.15121199 0.15324858 -0.077469125 -0.16409218
0.027426431 0.054630704 0.06286279 0.18806821 0.17415236 0.0020344974 -0.032035258 -0.050956238
0.040515117 -0.059243143 0.10546288 -0.048449304 0.15509462 -0.043566156 -0.15801564 0.16260877
-0.051459193 -0.027592715 0.0020948746 0.06381588 0.027656507 0.13038126 0.042841125 0.16241966

exp_avg f4 [1, 40]
00000000: 0386 523c 1f29 2dbb ebad 67ba 367b e83b
00000010: 4576 2a3b e442 4738 276f 103c 5cef ee3a
00000020: fc12 89bc a50a 423c 4d48 383c d504 8abc
00000030: 9f43 47ba 07e2 89bc 697b 793c 8aba 7cba
00000040: da75 6ebc fc75 213c d2c7 823c 622a 7abc
00000050: f11b 833c 6c78 6fbc 29b9 7abc 6c4b 4339
00000060: aa08 00bb 1b23 3c3c d19f 13bc e7cf 503a
00000070: 1e9f 30bb 72a2 69b7 f194 363a d54e 7dbc
00000080: 21e0 323a 65c0 84bc 4a9e 64bc 153f d839
00000090: 44d6 af3b 23a3 763c cd14 443c ad10 e9bb
0.012849334 -0.0026422215 -0.00088378665 0.007094766 0.0026010436 4.7507594e-05 0.008815563 0.0018229294
-0.016732685 0.011843358 0.011247707 -0.016848007 -0.0007601324 -0.016831411 0.015227177 -0.00096408336
-0.014554465 0.00985479 0.015964422 -0.015268894 0.016004534 -0.014616113 -0.015302935 0.00018624746
-0.0019536414 0.011482979 -0.009010271 0.000796555 -0.002695031 -1.39257045e-05 0.0006964943 -0.01546069
0.0006823559 -0.016205022 -0.013953755 0.0004124573 0.0053661186 0.015053543 0.01196785 -0.0071125836

exp_avg_sq f4 [1, 40]
00000000: 4435 9c36 8e19 ba35 da17 f734 c172 b435
00000010: ece8 2836 3a6f c830 76f1 f035 3c2d 6f34
00000020: 130b 4737 f0bb 6736 2f65 eb36 be03 5837
00000030: b272 ee32 05b4 5537 c14a 1a37 c393 1a34
00000040: bb40 c936 ecd9 a736 5f17 1537 eebf f636
00000050: 76cb 1c37 7fd5 2437 dcb5 0f37 527d 5632
00000060: c833 cc35 8faf 4936 fef0 f335 841f 3434
00000070: b19a bb35 4288 4931 acf1 9f34 a8f3 3237
00000080: ba1e 5e35 7a76 2837 f220 b936 d8c2 4834
00000090: 7d37 5035 ff18 1037 f997 e136 0ada 9135
4.655363e-06 1.3865517e-06 4.602469e-07 1.3444443e-06 2.516953e-06 1.4583528e-09 1.7951668e-06 2.2275066e-07
1.1863903e-05 3.4531076e-06 7.015325e-06 1.2875475e-05 2.7759004e-08 1.2737703e-05 9.19652e-06 1.4396123e-07
5.9978024e-06 5.0023573e-06 8.886534e-06 7.353715e-06 9.3456965e-06 9.82487e-06 8.565807e-06 1.2484934e-08
1.5214255e-06 3.0053523e-06 1.8175049e-06 1.6775272e-07 1.3977607e-06 2.9326803e-09 2.9791897e-07 1.0666357e-05
8.274616e-07 1.0041165e-05 5.517265e-06 1.8697335e-07 7.7566784e-07 8.588889e-06 6.7232145e-06 1.08668e-06

exp_avg f4 [1, 40]
00000000: 3060 343c 260b d1bc 71f7 b6bc 10d2 693c
00000010: 3588 0b3d b0ce 883a 1857 44bd b1fd bbbd
00000020: 88d1 bebc b889 0cbe bef7 d83d b4d7 10bd
00000030: c07b e1bc ec31 02bd 4011 873b 9d91 82bc
00000040: b49d 253d 40d9 cb3b 2046 cc3b ace7 393d
00000050: a0a7 36bc a252 9bbd 2eae a03d b35e 4e3c
00000060: 086a 07bc 4063 5fbb 95ed bf3d 4247 293c
00000070: b6c9 003d e90a a9ba 3aa1 f83b 0e5a a1bd
00000080: f214 8e3c 0082 2c3b 6655 be3d a96b 033d
00000090: 94f3 93be 28bf e9bc b8cf 643d 805e 973c
0.011009261 -0.025518011 -0.022334786 0.014271274 0.034065444 0.0010437574 -0.04793462 -0.09179247
-0.023293272 -0.1372441 0.10594128 -0.03536196 -0.027524829 -0.03178589 0.0041219294 -0.015938574
0.0404336 0.0062209666 0.0062339455 0.045386955 -0.011148363 -0.0758412 0.07845722 0.01259582
-0.008265026 -0.0034086257 0.09371487 0.010331931 0.031442367 -0.0012896928 0.007587579 -0.07878505
0.017343972 0.0026322603 0.09293632 0.032085095 -0.28896773 -0.028533533 0.05586216 0.018477678

exp_avg_sq f4 [1, 40]
00000000: c159 cb3c 5db0 e73a 3e27 da39 30f3 073c
00000010: 28c8 7f3b 0e28 1a38 c41f 593c 9828 bb3a
00000020: 5e6d 2e3d bd82 b33c 164b a43c 1b13 333d
00000030: 8347 e438 b4a6 353d 5f28 0e3d d720 343a
00000040: 4784 f83c 8fc0 a33c 80b7 1c3d f358 113d
00000050: ca9c 1b3d 63db 043d df16 153d e44d b237
00000060: 1fa4 013b 72f9 953c f812 4e3c a050 773a
00000070: f418 f93a fcc8 4c37 e9f1 5f39 3b63 083d
00000080: 44e2 973a c9e3 223d 0698 f43c 81c0 6d3a
00000090: 4655 9c3b 2a11 0a3d 655c a13c 0cf3 d33b
0.024823071 0.0017676462 0.00041609438 0.0082977265 0.0039029215 3.6753765e-05 0.013252202 0.0014279066
0.04258477 0.021912927 0.020055335 0.043719392 0.00010885207 0.044348434 0.03470647 0.00068713486
0.030336512 0.01998928 0.038260937 0.03548522 0.037991323 0.032435786 0.036398765 2.1255524e-05
0.0019781662 0.018307421 0.012577765 0.00094343163 0.0019004629 1.2206143e-05 0.00021357056 0.03329776
0.0011587818 0.039768014 0.029857647 0.0009069518 0.0047709076 0.033707775 0.019697377 0.0064681824

exp_avg f4 [1, 40]
00000000: 01f4 a9be 4331 723d ea0b 983c 290b 3fbe
00000010: d20d 86bd 8b39 8cba 749d 6bbe 522c 37bd
00000020: 1bb9 de3e 5c00 a0be 3097 92be 4865 df3e
00000030: d152 903c 5374 df3e 043c cabe 2bde a43c
00000040: b92f c23e 15c9 82be 0b01 d5be 0da2 ce3e
00000050: 9d85 d7be da71 c23e 69ca d03e 37ff 85bb
00000060: da89 393d 01ff 97be 7184 643e eae0 95bc
00000070: b5a0 873d 1c74 2a38 ecae 71bc 4544 c93e
00000080: 33d3 63bc a868 d93e ef7d bd3e 4e81 d6bb
00000090: d449 03be 8450 c9be 6064 9bbe a0fa 343e
-0.33193973 0.05912901 0.018560369 -0.18656601 -0.06545605 -0.0010698301 -0.23009282 -0.04472
0.435006 -0.31250274 -0.28630972 0.4363196 0.017617615 0.43643436 -0.39498913 0.02012547
0.37927034 -0.25544038 -0.41602358 0.4035801 -0.42094126 0.37977487 0.40779427 -0.004089262
0.04529748 -0.2968674 0.22316147 -0.018295724 0.06622449 4.0639294e-05 -0.014751177 0.39309898
-0.013905334 0.4246266 0.37010142 -0.006546176 -0.12821132 -0.3931924 -0.30350018 0.17673731

exp_avg_sq f4 [1, 40]
00000000: cb74 5f3b 3be8 6f3a 1a51 9139 23ca 7e3a
00000010: 20d9 d53a fb87 bd36 0b15 a73a 8157 0139
00000020: 1c89 143c 583e 283b f488 9d3b 2ba8 1c3c
00000030: 4426 3f37 f641 1b3c 1e4c de3b ccd3 be38
00000040: 0162 943b 47a8 533b 9992 e03b d6d8 c13b
00000050: 2b06 f73b 7ae1 f53b f070 e73b 2fb5 1737
00000060: 8a3f 783a 67d7 073b 64fc 9a3a ead9 c138
00000070: e19c 883a 736d 5c35 43ec 5839 981d f83b
00000080: 8669 ec39 6dc8 013c e740 8d3b d811 aa38
00000090: 8c5e fd39 3802 d93b e858 9d3b 2049 2f3a
0.0034096714 0.00091517315 0.0002771698 0.0009719452 0.0016315319 5.648469e-06 0.001274736 0.00012334996
0.009065893 0.0025671925 0.004807586 0.009561579 1.1393397e-05 0.0094761755 0.006783976 9.099356e-05
0.0045282845 0.0032296346 0.0068534133 0.0059157414 0.007538577 0.0075036855 0.0070630237 9.042486e-06
0.0009469917 0.0020727755 0.0011824486 9.243547e-05 0.001042273 8.2115656e-07 0.0002068738 0.007571887
0.0004509205 0.00792132 0.0043107155 8.109555e-05 0.00048326363 0.006622579 0.004801858 0.00066866167
