deep-learning/rv_only/lightning_logs/version_90/checkpoints/epoch=4-step=250.ckpt (torch, 27739 bytes, 21 tensors)

model.nn.0.weight f4 [20, 30]
000000 33 f2 d4 3c ee 0a 1a 3b 4b d2 9e 3d d3 bc d1 3c
       0.025994396 0.002350505 0.07754954 0.025602734
000010 ea e9 bd bc 0b 8f 46 3d f3 73 5b 3d 2a dc 9d 39
       -0.023182828 0.04847626 0.053577375 0.00030109409
000020 e9 d1 25 3d 98 b2 2b 3c 06 71 98 bb ef 70 1d bd
       0.04048339 0.010479592 -0.0046521453 -0.03843778
000030 f4 14 90 3d da 47 a2 bc b5 23 c2 bc 91 39 b3 3d
       0.070352465 -0.019809652 -0.023698667 0.08751214
000040 54 02 7e 3c b4 4d 99 3d 85 3e 09 3d a6 ee 9c 3d
       0.015503485 0.07485524 0.03350689 0.07662706
000050 d3 55 91 3d ba 6c 80 3d b8 87 de 3c d7 7f e7 3d
       0.07096448 0.06270738 0.027164325 0.113036804
000060 56 f5 22 bb 49 81 54 3d 8a ef 8e 3d 1c 57 22 3e
       -0.002486547 0.05188111 0.06979282 0.15853542
000070 30 80 93 3d d5 db ce 3d 3d 41 b5 ba c7 c0 49 3d
       0.07202184 0.101005234 -0.0013828647 0.049256112
000080 c5 8e a2 bc 3f e8 8f 3d e4 60 b1 3d 0c c0 89 bc
       -0.019843468 0.07026719 0.086610585 -0.016815208
000090 e8 0d d2 3d 1a 36 18 3d 23 cd b6 3c 56 3e 2d 3d
       0.10256559 0.03716097 0.022314614 0.042295776
0000a0 42 06 ed 3d be 92 f0 3c cb 91 74 3c 8f 14 59 3d
       0.11573459 0.029366847 0.014927338 0.05299812
0000b0 a4 8d e9 3d f6 9e a6 3d 22 83 e4 3d 58 de 9b bb
       0.11403969 0.08135788 0.11157824 -0.00475673
0000c0 c8 99 70 3c dc b0 e9 3d 5b 8c c1 3c 93 d8 a9 3d
       0.014685102 0.114106864 0.023626497 0.082932614
0000d0 66 35 75 3c da 39 01 3e 4c d0 b9 3d d7 35 91 3c
       0.014966344 0.12619725 0.090729326 0.017725868
0000e0 95 31 0b 3e 2a b3 ac 3d c3 16 ce 3d 1f b9 58 3d
       0.13593133 0.0843261 0.10062935 0.05291092
0000f0 72 87 91 3c 5c da 81 bc 95 b2 89 bd fa 1f b0 bc
       0.01776478 -0.015851192 -0.06723515 -0.021499623
000100 03 73 81 3c e9 ad 3d bd e4 3e 3e bd 5b d6 1c 3b
       0.015801912 -0.04630843 -0.046446696 0.0023931477
000110 2f e8 21 bb f6 e2 80 bc 7f c7 2b bd a3 9f 30 3d
       -0.0024705043 -0.015733223 -0.0419383 0.04312099
000120 1b 83 b0 3a e6 1b 1d bd 61 bf 2b bd e6 8d 02 3d
       0.0013466807 -0.038356684 -0.04193056 0.031873606
000130 0e 8b 48 3c 2d 08 5a 3b 05 ed 92 bd ad 8a cc 3c
       0.0122401845 0.0033269033 -0.07174114 0.02496847
000140 1b 52 6a 3c 75 d5 62 bd e2 06 2b 3d 93 d1 eb 3c
       0.014301802 -0.05537935 0.04175461 0.028786456
000150 86 e3 7e bc f6 dc 24 3d 32 38 e0 3d d1 1e 0f 3e
       -0.0155571755 0.040249787 0.109482184 0.139766
000160 43 37 12 3e 8c a6 32 3e 2d 3d bc 3c 71 c7 3a bd
       0.14278893 0.17446345 0.02297839 -0.04560036
000170 de a0 40 bd cf e9 7e 3d 5b 83 64 bd 91 59 70 3c
       -0.047028415 0.062234696 -0.055789333 0.014669792
000180 10 9d 7e 3d 34 f8 ec 3c 54 f1 67 bd cf c4 17 bc
       0.062161505 0.028926946 -0.056626633 -0.009263231
000190 f6 2a 9a 3c e7 d9 b8 bb 4f 73 fd bc 88 bd 65 bd
       0.018819313 -0.0056412104 -0.030938772 -0.056088954
0001a0 99 de 2c bc ad e7 5b 3c 0b 3a ea ba fb c1 8d 3c
       -0.010551118 0.013421935 -0.0017870081 0.017304411
0001b0 fa 23 25 bc 91 fc 89 bd 4b 5c 5c bd b4 0f 15 bc
       -0.010079378 -0.06737626 -0.053798955 -0.009097982
0001c0 87 46 8c bc 9f 52 ba bb cb 7e 21 3c 4a c0 76 b9
       -0.017123474 -0.0056861187 0.00985689 -0.00023532021
0001d0 74 e2 de 3d 86 ad 3d 3d f4 33 20 3e 50 be 06 3e
       0.10883036 0.046308063 0.15644819 0.13158536
0001e0 df 73 56 3d 97 cb a7 3d ff cf 82 3c 84 95 3f 3d
       0.052356597 0.081931286 0.01596832 0.04677345
0001f0 46 67 43 3d 83 9a 63 bc 3d eb ba 3d 78 4a b8 bb
       0.04770591 -0.013891819 0.091268994 -0.0056241117
000200 7b 88 1e 3c 9b 04 9d 3d ca 26 01 3d 4e a9 a4 3d
       0.009676094 0.07666894 0.031531133 0.08040105
000210 b6 ae e1 3d 40 a7 aa 3d 3a d5 9d ba b2 0a 94 3d
       0.110196516 0.08332682 -0.0012041696 0.072286025
000220 14 ed 3d 3d d6 c0 ef 3c f2 87 a8 3d 5f 91 71 3d
       0.046368673 0.029266756 0.082290545 0.058976527
000230 03 fa 18 3d 85 f4 ee 3d 02 84 ac bb 33 dd 4a 3d
       0.037347805 0.11667732 -0.00526476 0.04952736
000240 e7 ae 69 3d 16 01 07 3e ef fe 13 3e ea c0 02 3d
       0.057051565 0.13184008 0.14452718 0.03192226
000250 14 a1 18 3e c5 e9 21 3d 5d e1 2f 3c b0 75 2b bd
       0.14905196 0.03952958 0.010734883 -0.041860282
000260 67 99 fa bc a7 0d 11 bd f9 e8 18 bd 3c 1d 51 3c
       -0.030590726 -0.03541341 -0.037331555 0.012763318
000270 af e7 25 bd 92 b2 80 3b 10 10 a8 3c 39 b0 01 3c
       -0.040504154 0.0039275372 0.020515472 0.00791555
000280 f7 fd 39 3d d6 9a dc 3c 33 dd 50 bc 85 94 0e bd
       0.045408215 0.0269293 -0.0127480505 -0.034809608
000290 d2 5e 29 bd 63 37 d0 bc f4 35 ac bc ec 82 14 bd
       -0.041350193 -0.025417035 -0.02102182 -0.03625767
0002a0 55 af 1e bd e5 ce 6d bb 47 9a 09 bd 10 d7 59 bd
       -0.03874143 -0.0036286649 -0.033594396 -0.053183615
0002b0 6b 84 2e 3d 65 5e 33 bd 2a 05 0c 3d 7e fe 09 bb
       0.042606752 -0.043791194 0.034184612 -0.002105623
0002c0 31 8e 62 bc d3 d9 09 bd 82 26 f5 bc b1 24 27 bd
       -0.013827846 -0.033655 -0.029925589 -0.040806476
0002d0 08 a9 8c bc 5e 0e 9a bc c3 39 5e 3c e7 19 8d 3c
       -0.017170444 -0.018805679 0.013563576 0.017224265
0002e0 71 12 aa bd 09 30 1e bd 40 f5 1f 3d 59 cf 01 3d
       -0.08304299 -0.03862003 0.039052248 0.031691883
0002f0 19 9e 05 3d ca 74 36 bd e9 e8 4e bd 3f 6b 98 bd
       0.032621477 -0.044544972 -0.05051509 -0.074423306
000300 c3 5e 4d bd 7e 42 f5 bc 59 8a 0c 3d 5e 68 83 bd
       -0.0501392 -0.029938933 0.034311626 -0.06416391
000310 49 e0 88 bd 66 20 c4 bc 07 5b 0d 3d 1f fe 42 3c
       -0.06683404 -0.02394123 0.03451064 0.0119014075
000320 2b 8e a1 bc 96 da 58 bd 93 3f 82 3c 70 dc a2 3c
       -0.019721111 -0.052942835 0.015899455 0.019880503
000330 02 a0 1f 3d 90 93 e3 3d 44 04 07 3e 7b f7 ee 3d
       0.038970955 0.1111213 0.13185221 0.11668297
000340 e7 4f 34 3e 9b e3 5e 3e ba d2 63 3d 1b 87 80 3d
       0.17608605 0.21766512 0.055620886 0.06275769
000350 5c 31 33 3d 68 37 1b 3d d4 d5 9c bc ae d6 56 3b
       0.043748245 0.037894636 -0.01914493 0.0032781768
000360 76 38 92 bd 61 ee 6d bd 7b ab 02 3d 70 20 a4 bd
       -0.07139675 -0.058088664 0.031901818 -0.080139995
000370 2e 69 1f bd 9e 1a 23 3d 46 24 91 3c d2 6c 66 bd
       -0.038918667 0.039820306 0.017717492 -0.056256123
000380 15 d1 93 3b cf 96 83 bd b6 a2 88 bd 63 69 af 3c
       0.0045110085 -0.06425249 -0.0667166 0.021412557
000390 4b 4c 9c 3c 7b 12 a9 bd a5 17 ae bc 61 b1 ca bd
       0.019079348 -0.08255478 -0.021251509 -0.098971136
0003a0 70 1f 18 3d 35 cf 3f bd 14 be 3f 3d e8 63 65 3d
       0.037139356 -0.046828467 0.046812132 0.05600348
0003b0 b1 77 7d 3d 10 3d ea 3d b6 20 67 3d 5a 1a 1b 3e
       0.061881725 0.11437428 0.05642768 0.15146771
0003c0 ed e1 59 bc 13 ac 51 bd bd 61 f2 bc ca b1 25 3d
       -0.013298494 -0.051189493 -0.02958762 0.040452756
0003d0 e9 13 8c bd 66 07 6a 3c c1 cb 1a bd c0 9e 46 3d
       -0.06839735 0.0142839905 -0.03779197 0.04849124
0003e0 07 57 21 3d b8 7b 62 3d ea 23 87 bd 42 d1 0b 3d
       0.039389636 0.05529377 -0.06598647 0.03413511
0003f0 1d ab 76 bd f3 3d 30 bc 18 be 34 bd 9b 5b 2d 3d
       -0.06022178 -0.010756957 -0.0441266 0.04232369

model.nn.0.bias f4 [20]
000000 8a 1b 1f 3d 8f ac 65 3d d0 b4 23 3c b9 07 8c 3b
       0.038844623 0.056072768 0.0099918395 0.0042733815
000010 74 e3 5b 3d 00 00 00 00 06 a6 69 3c 7a f1 77 ba
       0.053683713 0.0 0.0142607745 -0.0009458285
000020 0e 14 5a bc b3 4f 43 3d 0d 54 22 3d 9f 46 eb bb
       -0.0133104455 0.04768343 0.03963094 -0.0071800495
000030 23 7c c2 3c 16 14 c1 3c 3d 93 c0 3d e6 e6 27 3d
       0.023740834 0.023569148 0.094030835 0.040991686
000040 a4 53 19 3d a0 24 b6 bb 67 af 11 3c f1 a3 77 3d
       0.03743328 -0.0055585653 0.008891917 0.06045908

model.nn.2.weight f4 [20, 20]
000000 39 19 b9 3d 7b f3 7c 3d 50 fd e9 3c 05 81 9a 3d
       0.09038014 0.06175564 0.028563172 0.0754414
000010 6d 88 2a 3d a2 21 a4 bc ac 4e 1a 3e 96 68 92 3c
       0.041634012 -0.020035569 0.15069073 0.017872136
000020 ec 31 1e bd f7 5f b7 3d ac 60 20 3d 63 36 fb 3c
       -0.038621828 0.08953851 0.039154693 0.030665582
000030 a4 f2 0f 3c b9 d4 85 bc 50 f2 16 3e f6 fd f8 3d
       0.008785877 -0.016336786 0.14740872 0.12157814
000040 43 68 82 3d f3 24 70 b9 7e 93 ea 3d 99 ed 7a 3d
       0.063675426 -0.00022901948 0.11453913 0.061261747
000050 f6 b4 5e bc 3a 94 fa bd eb 44 34 3e 1b 57 19 3e
       -0.013592949 -0.12235303 0.17604415 0.14974634
000060 e9 10 be bd 74 2c 50 bd 28 68 4b 3e 6d 0c c0 3d
       -0.09280569 -0.050823644 0.19863951 0.0937737
000070 51 43 1d bb 5a dd b5 bd be c6 01 be 19 21 0f bd
       -0.0023996423 -0.0888011 -0.1267347 -0.034943674
000080 9b e1 30 bd 63 d0 03 3e 76 ac 34 be 70 b3 18 be
       -0.043183904 0.12872462 -0.17643914 -0.149122
000090 a5 37 4f 3e e4 fc 14 bd 7e 9f 27 3e d0 97 9c bd
       0.2023607 -0.036373988 0.16369435 -0.076461434
0000a0 bd cd 48 bd 21 7e f5 bc 1a 0d ba bd f5 be 58 bd
       -0.049024332 -0.02996737 -0.0908453 -0.052916486
0000b0 0c c9 88 bc d0 92 bd 3c 51 63 c8 bd 00 cc 7f bd
       -0.01669743 0.023141295 -0.09784568 -0.06245041
0000c0 40 7f 26 3d ac d8 39 bd 63 bc af bd 9f 22 f3 3c
       0.0406487 -0.04537265 -0.08580854 0.029679595
0000d0 76 89 a7 bd ca e9 04 bd e4 fc 8a 3d 28 0e 27 3d
       -0.081805155 -0.03244952 0.06786516 0.040784985
0000e0 e7 4c 91 bd ae e4 36 bd cd 4e 9e bc b6 a5 76 bd
       -0.07094746 -0.04465168 -0.019324685 -0.060216628
0000f0 d8 26 8f 3c 51 91 50 3b 2c 23 ac bd 19 4e 02 be
       0.017474577 0.0031824897 -0.08405146 -0.12725104
000100 8c 31 d4 3c 5c c5 a9 bc ae f6 9f bd d5 2b 89 bd
       0.025902532 -0.020723991 -0.07810722 -0.066978134
000110 3d b4 76 3d 9f c9 82 bc 36 63 eb bb d2 7f 77 3c
       0.060230482 -0.015965281 -0.0071834577 0.015106158
000120 8f 54 39 bd c1 2f 16 be 35 56 a0 3d 06 72 c7 3d
       -0.045246657 -0.14666654 0.07828943 0.09738545
000130 5f f1 31 be 11 15 87 bd 3c fd 47 bd e6 c6 15 3d
       -0.17377232 -0.06595815 -0.048825487 0.036566637
000140 81 98 e1 bc 32 55 ed 3c 61 8a 1d bd 23 a7 0b be
       -0.02753854 0.028971288 -0.038462047 -0.13637976
000150 58 6b 0e bc 29 47 1d bd f8 22 c1 bd 47 0c 35 bd
       -0.008692585 -0.03839794 -0.09430498 -0.04420116
000160 ba 59 43 3b dc 31 3b bd 0d 21 72 bd 6e fc 1d bc
       0.002980812 -0.045701846 -0.05911355 -0.009642703
000170 17 70 0d bd 05 a6 79 bd 11 b7 a7 3c cf 74 e7 3c
       -0.034530725 -0.060949344 0.020473035 0.02825394
000180 8d dc 3a be 05 d4 d5 bc 9d 87 26 be 11 88 49 bd
       -0.18248196 -0.026102075 -0.1626267 -0.04920203
000190 ab 5a 14 bc 6f 47 ef bc 00 46 7a bd ae 4b 1f bc
       -0.00905482 -0.029208867 -0.061101913 -0.009722633
0001a0 53 27 9d bd cf f6 0b 3d 18 97 27 be 4b e3 0f be
       -0.07673516 0.034170922 -0.16366231 -0.14051549
0001b0 f6 78 e3 3c ac 8a 93 bd 0f 36 10 3c b9 16 11 3d
       0.02776764 -0.07204184 0.008801951 0.03542206
0001c0 fa db c1 bd c7 05 e5 bd 6e 15 03 bc 6e 5b 74 bd
       -0.09465785 -0.111827426 -0.008000715 -0.059657507
0001d0 96 63 c7 bd cf 0d f4 3b f3 d3 ff bc 29 4c 3f bd
       -0.097357914 0.007447935 -0.031228995 -0.04670349
0001e0 51 a1 b4 3b da c1 3b bd 95 ab ff 3d b8 47 98 3d
       0.0055123945 -0.045839168 0.124838986 0.07435554
0001f0 66 52 2c bb c3 08 3b 3d 00 31 91 3d e6 0b 26 3e
       -0.002629423 0.045662653 0.07089424 0.16215476
000200 f3 20 1a bd 25 eb e5 3b 0d 77 b8 bd 96 b1 85 3c
       -0.03762908 0.007016557 -0.09007082 0.016320031
000210 69 79 3c 3d 7d a0 4b 3d f0 0b a1 bd aa 20 5c 3c
       0.046014223 0.0497136 -0.07863605 0.013435522
000220 27 65 9f 3d a1 88 8c bc 05 bd fe 3d 23 1d b0 bd
       0.07782965 -0.017154993 0.12438396 -0.085993074
000230 82 7c 6c bd 11 23 1b 3d 9d 11 03 3e 49 e2 41 3d
       -0.057735927 0.03787524 0.12799688 0.047334943
000240 17 b9 22 3d 06 1d 00 bd ba 9e c7 3d 6d 14 2d 3e
       0.039727297 -0.03127768 0.097470716 0.16902323
000250 c6 71 3c bc 2f 3d d1 bd 03 77 f5 bc 5a ba e7 bb
       -0.011501735 -0.10216748 -0.029963976 -0.0070717754
000260 ae 2a 06 3d c0 39 0d 3e 03 f9 52 bc b0 6a 0e 3d
       0.032755546 0.13791561 -0.012876752 0.034769714
000270 2b c8 45 3e 4d cd 84 3d ea 3c a1 3d b2 8e e8 bc
       0.1931464 0.064844705 0.078729466 -0.028388355
000280 b1 dd d0 bd 5e d4 e8 bd 19 c5 2e 3e bd 6a 11 3e
       -0.10198534 -0.11368631 0.17067374 0.14200874
000290 d6 c3 dd bd e3 b1 1a 3d 37 b4 52 3e 8e 94 ae 3d
       -0.10828368 0.037767302 0.20576559 0.08524428
0002a0 42 bc d2 bc 60 ad 95 bd b8 bb 8e bd 8c 0a 53 bd
       -0.025724534 -0.07308459 -0.06969398 -0.05152373
0002b0 08 38 c0 bc 1d d7 83 3d ac 93 15 be 18 b9 17 bd
       -0.023464218 0.06437514 -0.14607114 -0.037041754
0002c0 fe e2 16 3e c0 21 20 bd 1b 08 35 3e eb 79 74 bc
       0.14735028 -0.039094687 0.17678873 -0.014921646
0002d0 37 d7 0b 3d e2 73 cf 3c 04 1f 15 be bb 4d 29 be
       0.03414079 0.025323812 -0.14562613 -0.16533558
0002e0 05 7f a2 3d ad 17 75 3a 93 49 3b be b5 ce 98 bd
       0.07934383 0.0009349536 -0.18289785 -0.07461301
0002f0 92 64 0c bd 44 c0 9d 3b b5 69 db ba 5e 00 61 bd
       -0.0342756 0.0048141796 -0.0016739877 -0.05493199
000300 a0 5c ad ba ee e4 84 bd d8 cd 01 3e 64 44 89 3c
       -0.0013226457 -0.064889774 0.1267618 0.016756244
000310 c7 2e d7 bd 96 fb 0a ba 1f 22 33 be a4 e0 cf 3d
       -0.10506969 -0.00053017715 -0.17493485 0.10150269
000320 a7 4e 03 3d bf 0c 7b 3d de 5a 36 3d 78 14 0f 3d
       0.03205743 0.061291452 0.04452025 0.03493163
000330 64 bb 1b bd 77 93 a2 bc 62 49 ae 3d 2a cf 93 3d
       -0.038020507 -0.019845707 0.085100904 0.07217248
000340 62 9a 3e bd 97 2b 4d 3d 12 a8 cb 3c 15 83 47 3c
       -0.04653395 0.0500904 0.024860416 0.0121772485
000350 bf 98 cf 3b b4 31 f2 3c 53 f2 0a 3d d4 de d8 bc
       0.0063353474 0.029564716 0.033922505 -0.02647344
000360 31 37 35 3e d4 c1 23 bd cc 2a 68 3d 5e f1 dd 3b
       0.17696835 -0.03997977 0.05668144 0.006773158
000370 fa c3 f7 3d 0d bf c1 3d be df db 3d 6c 1f a0 3c
       0.120979264 0.09460268 0.10736035 0.019546233
000380 77 2c ee 3d 2c be c1 3c 0f 0d d1 3d 0e 4a 96 3c
       0.11629575 0.023650251 0.10207569 0.018345859
000390 79 a5 6b bd 46 31 94 3d f2 a0 ee 3c be 78 1f bd
       -0.057530854 0.07235961 0.02912948 -0.038933508
0003a0 26 fe e9 3d 84 f5 06 bd 9d dd 3c 3c 1e 3f ec 3d
       0.11425428 -0.032948986 0.011527446 0.11535476
0003b0 fd 37 69 bc c6 15 5a 3c 32 52 88 3d 10 85 61 3d
       -0.01423454 0.013310855 0.066563025 0.05505854
0003c0 df a9 48 3b 73 93 98 3d 36 5c be 3d 90 92 86 3c
       0.003061883 0.07449999 0.092949316 0.016427308
0003d0 ed f5 06 3e 63 4c fe 3b 13 6c 99 3d 7c a1 f5 bb
       0.1317975 0.007760571 0.07491317 -0.007496057
0003e0 5d ad 6e 3d 58 df 93 3d fe a0 ad 3d ae b9 05 bd
       0.0582708 0.07220334 0.084779724 -0.03264778
0003f0 c1 9f 02 3e d8 0d 4f 3b 89 a4 b6 3d 07 6a b6 bb
       0.12756254 0.0031593945 0.08918101 -0.0055668387

model.nn.2.bias f4 [20]
000000 2b 2d 79 3d 61 64 9b bd a8 a5 a9 bc 9e 05 57 3c
       0.06083409 -0.07587505 -0.020708874 0.013123898
000010 2a ac f2 bb 57 4d 11 bd 0f 16 6d bc f2 ff 25 bc
       -0.0074057775 -0.035474148 -0.014470591 -0.010131823
000020 02 45 3e bd 0f 81 5f 3d f2 b9 d6 3c 27 9c 5a 3d
       -0.04645253 0.05456644 0.026211713 0.053371575
000030 bd cd 59 3d c3 1f b8 bd 35 ac a7 3c af 7f a9 3d
       0.053174723 -0.08990433 0.020467857 0.08276307
000040 94 8a a9 3b 23 e1 4d 3d c2 7c 0c bb 7a ab a1 3b
       0.0051739905 0.050263535 -0.0021436666 0.0049337717

model.args_proj.proj.0.weight f4 [1, 20]
000000 9f 62 39 be d7 21 63 3b 63 2b 40 be bf 09 e7 bb
       -0.18104027 0.0034657621 -0.1876655 -0.0070507224
000010 e4 32 f2 bd cc 02 34 3e 27 1e 2e be a7 94 0e be
       -0.11826113 0.17579192 -0.1700369 -0.13923894
000020 3b fd 54 bd ec 8d 32 bd dc 78 4e be 15 b4 46 3d
       -0.051999312 -0.04359238 -0.20163292 0.048511583
000030 aa 1e e8 3d c4 ec 59 3d b1 d8 4e bc 87 35 10 be
       0.11333974 0.053204313 -0.012624905 -0.14082919
000040 83 3c 33 3e 54 95 82 bd f0 bf 09 3e 9b 83 e0 bc
       0.17503552 -0.06376138 0.13452125 -0.027406504

model.args_proj.proj.1.weight f4 [1, 20]
000000 df 59 89 3d fe 2e 6b 3d 24 d1 78 be e5 b0 ab bd
       0.06706595 0.057417862 -0.24298531 -0.08383349
000010 b9 a5 37 be 83 36 38 be 1b f5 1f 3e ae 63 cc 3d
       -0.17934312 -0.17989545 0.15620844 0.0997995
000020 2e 64 c1 3d 74 ea 82 bd a2 bc 1c 3e d0 5c 22 3e
       0.09442936 -0.06392375 0.15306333 0.15855718
000030 21 12 55 3e ea 58 b7 3b a9 47 4c 3e f8 cd 8d 3d
       0.20807697 0.005595316 0.19949211 0.06924051
000040 e3 c8 03 3e dc fa 5c 3e 4b ea 82 3e 30 46 15 3e
       0.12869601 0.2158007 0.25569376 0.14577556

model.args_proj.proj.2.weight f4 [1, 20]
000000 9e d5 1a be 0e 54 a0 3e 00 ed 94 3c de ae 9b bd
       -0.15120551 0.3131413 0.018179417 -0.07601713
000010 9c 31 73 bd 54 8c c3 3d d3 17 5f 3e c4 78 80 3d
       -0.059373483 0.0954825 0.21786432 0.06273034
000020 cb e0 a2 3e 89 fd 8a be c7 2e 37 bd 52 78 3d be
       0.31812128 -0.27146557 -0.044722345 -0.1850293
000030 14 45 75 be b3 e2 8d 3e 88 e8 35 bc 9f 94 81 be
       -0.23952132 0.2771202 -0.011102803 -0.253087
000040 dd 03 10 3d aa d0 74 be fd aa 3a 3e 65 86 f9 3d
       0.035159934 -0.23907724 0.1822929 0.12183837

exp_avg f4 [20, 30]
000000 ce 19 b0 bc fe 45 8f bc 67 f9 71 bc eb 20 67 bc
       -0.02149668 -0.01748943 -0.014768935 -0.014106969
000010 ee dc 67 bc 04 75 85 bc 4f 3f 77 bc 95 4e 84 bc
       -0.014151795 -0.016291149 -0.015090778 -0.016150752
000020 05 2c 8e bc 35 48 95 bc 4a 66 8a bc 1c 85 87 bc
       -0.017354975 -0.018222908 -0.016894478 -0.016542964
000030 80 24 7d bc 48 21 8c bc d8 30 8b bc c8 f1 7d bc
       -0.015450597 -0.017105713 -0.016991064 -0.01549954
000040 66 20 64 bc ba a8 3f bc 4e e2 30 bc a9 b6 34 bc
       -0.01392374 -0.011697942 -0.010796143 -0.011029878
000050 fd 05 1b bc bc fb 20 bc d4 d3 d9 bb 04 2f 67 bb
       -0.009461877 -0.009825643 -0.0066475663 -0.0035275826
000060 9c 82 9f bb a6 84 f0 bb 74 34 4d bc b4 4c 8e bc
       -0.004867865 -0.0073400317 -0.012524713 -0.01737056
000070 b6 91 d1 bc 68 7b f8 bc 20 7f cc bc 02 ae a7 bc
       -0.025582176 -0.030332282 -0.024962962 -0.020468716
000080 72 70 91 bc 9c 42 8d bc be 9d 8d bc 3f d4 9e bc
       -0.017753813 -0.017243676 -0.017287131 -0.019388316
000090 01 9d 95 bc f4 72 9e bc fd 16 a9 bc f1 ee b0 bc
       -0.018263342 -0.019341923 -0.020640844 -0.021598311
0000a0 a9 f6 a5 bc 54 18 a3 bc f2 cf 98 bc b2 47 a5 bc
       -0.020259218 -0.019909061 -0.018653844 -0.020175789
0000b0 40 08 a4 bc 44 8b 97 bc c8 83 89 bc ae 4b 70 bc
       -0.020023465 -0.018499024 -0.016786471 -0.014666481
0000c0 d5 b8 61 bc 56 61 66 bc fb 76 4c bc 44 86 51 bc
       -0.013776978 -0.014061293 -0.012479539 -0.012788359
0000d0 e9 45 19 bc 6e 33 c6 bb e0 5f f2 bb a8 bf 24 bc
       -0.009355047 -0.0060486114 -0.007396683 -0.01005546
0000e0 c2 c9 76 bc f4 b2 9e bc d0 3d de bc de 90 f5 bc
       -0.015062751 -0.01937244 -0.027129084 -0.029976305
0000f0 65 02 2c bd c2 38 06 bd 32 87 b4 bc 92 b3 8f bc
       -0.04199447 -0.032768972 -0.022037122 -0.01754168
000100 b6 3e 91 bc eb a2 da bc 38 c6 ab bc 49 7b cb bc
       -0.017730098 -0.026689013 -0.020968542 -0.02483906
000110 a1 af e7 bc 6b d5 f8 bc 00 ba ce bc b6 d0 c2 bc
       -0.028281989 -0.030375203 -0.025235176 -0.023781162
000120 9b 62 b1 bc f2 73 f4 bc 35 3b f5 bc 93 93 c9 bc
       -0.021653464 -0.029840443 -0.029935459 -0.024606502
000130 3d 0f a6 bc 1c b2 27 bc 68 bc d5 bb 3c 65 e0 bb
       -0.020270938 -0.010235336 -0.006522704 -0.0068480056
000140 e0 7d 6f ba a0 a4 4a bb e8 60 c6 3b c6 74 82 3c
       -0.00091358833 -0.0030920878 0.0060540326 0.015924823
000150 1e 5c 30 3c d8 0b 68 3b 27 6a 9b bc cf 0a 36 bd
       0.01076415 0.003540745 -0.018971516 -0.0444439
000160 c4 80 a8 bd 44 4f 02 be cf 5e 85 bc f4 8e 48 bc
       -0.08227685 -0.1272555 -0.01628056 -0.012241114
000170 9c 94 d5 bb 30 f5 7f bb e0 75 83 bb 44 b3 11 bc
       -0.0065179598 -0.0039056055 -0.0040118545 -0.008892838
000180 e4 4e ba bb 58 16 fd bb 80 f8 19 bc 20 3b 29 bc
       -0.005685674 -0.007723611 -0.009397626 -0.010329038
000190 10 8c f7 bb 70 11 dd bb 10 32 c2 bb 14 32 2c bc
       -0.0075545385 -0.0067464635 -0.005926378 -0.010509986
0001a0 ea 63 2e bc fa 00 01 bc 78 e7 be bb 80 fa a2 b9
       -0.010643939 -0.007873768 -0.005825933 -0.00031085685
0001b0 60 9b de 3a 20 75 d1 3a 60 93 9a 3b 60 bf 62 3b
       0.0016983561 0.001598034 0.0047172755 0.0034598932
0001c0 ec 53 01 3c ca 25 52 3c ec 02 25 3c 44 40 d7 3b
       0.007893544 0.012826392 0.010071497 0.0065689404
0001d0 c0 aa bb bb 72 e7 a4 bc 2c 12 28 bd 7a 03 8c bd
       -0.005727142 -0.020129893 -0.041032955 -0.068366006
0001e0 12 1f f5 bc 0a 1e c8 bc 7e 66 aa bc 9c 86 a3 bc
       -0.029922042 -0.024428386 -0.020800825 -0.019961648
0001f0 da 03 a4 bc bb 5c bb bc 36 65 ae bc 43 09 ba bc
       -0.020021368 -0.022871366 -0.021288496 -0.022709494
000200 e7 6c c7 bc e0 17 d1 bc ea 8a c2 bc 02 af be bc
       -0.02434392 -0.02552408 -0.02374788 -0.02327681
000210 a6 56 b2 bc a4 20 c4 bc b3 d2 c2 bc 83 7e b2 bc
       -0.021769833 -0.023941346 -0.02378211 -0.021788841
000220 ca f6 a0 bc c1 e4 88 bc bc 19 7e bc 27 be 81 bc
       -0.019648928 -0.01671064 -0.015509065 -0.015837742
000230 dc 22 61 bc e5 d8 68 bc 88 18 22 bc e2 d7 b9 bb
       -0.013741221 -0.014211868 -0.009893544 -0.005671487
000240 c5 86 f4 bb 1e 28 31 bc f0 d2 90 bc bf 76 c4 bc
       -0.007462355 -0.010812787 -0.017678708 -0.023982404
000250 97 8d 0e bd 61 23 26 bd 85 70 ee 2e 00 5e e8 af
       -0.034803 -0.040561084 1.08429744e-10 -4.2267345e-10
000260 85 d4 a9 af 0e 98 c4 af f4 3c cf af 73 be 0d 2f
       -3.0891925e-10 -3.5760234e-10 -3.769639e-10 1.2891536e-10
000270 b0 d7 e0 af e6 7c 2e 2e f2 d0 63 2f b9 d2 af 2e
       -4.0898618e-10 3.967395e-11 2.0719762e-10 7.9955105e-11
000280 6e 0d fc 2f 50 82 95 2f 0d 93 0d af 48 3e c1 af
       4.5848075e-10 2.7195535e-10 -1.2876118e-10 -3.515075e-10
000290 74 89 e5 af 8c 1d 8d af 0c 70 69 af 6f 47 c9 af
       -4.1752524e-10 -2.5668745e-10 -2.1231034e-10 -3.6612444e-10
0002a0 bc 0f d7 af e4 35 21 ae e3 7f ba af 1f 98 13 b0
       -3.9119452e-10 -3.6655026e-11 -3.3924072e-10 -5.3694466e-10
0002b0 4e 82 ec 2f ae 14 f3 af 60 c6 bd 2f 9c 18 bb ad
       4.3020737e-10 -4.4216136e-10 3.4519854e-10 -2.1270367e-11
0002c0 75 90 19 af fb d5 ba af 83 23 a6 af 22 85 e2 af
       -1.396659e-10 -3.3985245e-10 -3.0220457e-10 -4.1203757e-10
0002d0 e9 cd 6b bd 36 cc 38 bd 15 8b 00 bd 80 23 d3 bc
       -0.057569418 -0.045116626 -0.03138264 -0.025773764
0002e0 78 31 d5 bc ea 4d 19 bd 9a 61 f7 bc 44 2e 10 bd
       -0.026024565 -0.03742782 -0.030197907 -0.035200372
0002f0 50 e8 22 bd a5 a1 2e bd 26 d2 13 bd f7 53 0c bd
       -0.03977233 -0.042634625 -0.036089085 -0.034259763
000300 6b 33 00 bd b2 ac 2a bd 93 05 2b bd 04 f4 0e bd
       -0.031299036 -0.0416686 -0.041753363 -0.03490068
000310 e0 13 ef bc cc a1 86 bc c8 c6 3f bc 48 2b 47 bc
       -0.029184282 -0.016434573 -0.011705108 -0.012156315
000320 40 33 94 bb 78 0d ed bb b0 b5 9c 3b 74 a0 90 3c
       -0.004522711 -0.0072342716 0.004782401 0.017654635
000330 04 c7 34 3c a0 a1 c8 3a 37 91 de bc 3c 01 73 bd
       0.011033777 0.0015306957 -0.027168853 -0.05932735
000340 f4 ed db bd 02 d2 26 be 7a 88 84 bd 5a 84 76 bd
       -0.10738745 -0.16291049 -0.06471343 -0.060184814
000350 98 87 59 bd 0a ed 4e bd 42 2e 4d bd 4a b1 55 bd
       -0.053107828 -0.050519027 -0.050092943 -0.05217103
000360 8c 8d 41 bd 8a 7a 46 bd 51 25 50 bd 7c 05 50 bd
       -0.04725413 -0.048456706 -0.050816838 -0.05078648
000370 36 47 38 bd e0 1c 35 bd 8e d6 2e bd 90 fc 43 bd
       -0.044989787 -0.04421699 -0.042685084 -0.047848284
000380 f8 fc 41 bd 24 ae 32 bd ca df 22 bd 14 de 0d bd
       -0.04736039 -0.043623105 -0.039764203 -0.03463562
000390 50 2a 05 bd 45 c4 05 bd 83 8d e9 bc bd 12 f9 bc
       -0.032511055 -0.03265788 -0.02850986 -0.030404443
0003a0 2b 67 c6 bc c1 11 a0 bc c6 35 cc bc 18 6d ec bc
       -0.024219116 -0.019539716 -0.024927985 -0.028860614
0003b0 80 67 26 bd 8d c8 66 bd f4 0d a2 bd c5 fa dc bd
       -0.04062605 -0.056343604 -0.079128176 -0.10790018
0003c0 be af 13 af 26 10 0e b0 55 43 a4 af 76 64 de 2f
       -1.3432008e-10 -5.168225e-10 -2.9879269e-10 4.0452947e-10
0003d0 39 02 3c b0 6c 0e 1d 2f 33 c3 cf af 2f 4b 05 30
       -6.839716e-10 1.428419e-10 -3.7791778e-10 4.849196e-10
0003e0 ff 8c d8 2f 08 fe 17 30 5a 61 35 b0 dd a9 bb 2f
       3.9390355e-10 5.529448e-10 -6.598576e-10 3.4135797e-10
0003f0 d4 88 25 b0 9f 88 ec ae c5 95 f2 af 20 ae e8 2f
       -6.0221095e-10 -1.0756306e-10 -4.412596e-10 4.2324277e-10

exp_avg_sq f4 [20, 30]
000000 37 8f 04 3b e2 70 01 3b 56 38 00 3b e7 68 fe 3a
       0.0020226964 0.0019751121 0.0019564829 0.0019409925
000010 a0 0d f7 3a cf 2c f7 3a 64 a3 f0 3a b3 ea f0 3a
       0.0018848665 0.0018857958 0.0018359241 0.0018380493
000020 f2 57 ec 3a 3e a4 ea 3a 7e 44 e6 3a 28 8d e6 3a
       0.0018031581 0.0017901731 0.001756802 0.0017589675
000030 7b db e2 3a 8b c5 e2 3a 59 c5 e1 3a 69 28 de 3a
       0.0017307842 0.0017301304 0.0017224952 0.0016949299
000040 dc 01 e1 3a 79 3f e1 3a f7 fd e7 3a ab 29 ea 3a
       0.0017166692 0.0017185054 0.0017699589 0.0017865201
000050 d7 f4 e5 3a 69 c9 e8 3a f4 63 ea 3a 1e 4a ea 3a
       0.0017544281 0.001776022 0.0017882572 0.0017874872
000060 49 9c e6 3a ec 1b e4 3a 0d 50 e2 3a 39 5e e4 3a
       0.0017594184 0.0017403341 0.0017266289 0.00174231
000070 3b 09 f2 3a d8 b8 07 3b 90 f5 10 3b a1 93 0d 3b
       0.0018465886 0.002070954 0.0022119023 0.0021602886
000080 b4 46 0c 3b 27 32 0b 3b 70 3b 07 3b a0 36 07 3b
       0.0021404447 0.002123961 0.0020634793 0.0020631924
000090 ed d3 03 3b d9 f1 03 3b 2c aa 01 3b f2 87 00 3b
       0.0020115331 0.0020133166 0.0019785268 0.001961228
0000a0 58 26 fc 3a ad 72 fc 3a fd e9 f8 3a 13 3b f9 3a
       0.0019237502 0.001926025 0.0018990632 0.0019014798
0000b0 80 94 f8 3a 58 d8 f4 3a 26 d2 f8 3a 1b 07 f9 3a
       0.0018965155 0.0018680198 0.0018983528 0.001899931
0000c0 b9 95 00 3b b9 f7 01 3b a1 d7 ff 3a f7 bb 01 3b
       0.0019620492 0.0019831492 0.0019519218 0.0019795874
0000d0 44 ec 02 3b 05 02 03 3b 53 2e 01 3b 8b 20 00 3b
       0.001997725 0.0019990217 0.001971145 0.0019550647
0000e0 76 55 ff 3a 75 c8 01 3b 3f 11 0c 3b c9 1f 23 3b
       0.0019480425 0.001980332 0.0021372584 0.0024890772
0000f0 48 0d 83 3c 79 08 7f 3c 25 d6 7d 3c 0d 52 7b 3c
       0.015997544 0.015565985 0.015492951 0.015339387
000100 18 37 79 3c e5 22 7b 3c 48 64 77 3c 5f f8 78 3c
       0.015210889 0.015328144 0.0150995925 0.015195935
000110 d7 94 75 3c dc d7 77 3c e1 b5 74 3c a9 02 76 3c
       0.014989099 0.0151271485 0.014935941 0.015015283
000120 6e a2 73 3c 23 fd 73 3c f6 7d 73 3c e3 bf 70 3c
       0.014870269 0.014891895 0.014861574 0.014694187
000130 74 dc 73 3c e7 c1 75 3c 6b fd 79 3c 60 db 7b 3c
       0.014884103 0.014999843 0.015258173 0.015372127
000140 18 04 79 3c 2f 86 7a 3c 69 5c 7c 3c ac 94 7c 3c
       0.01519873 0.015290781 0.015402892 0.0154163055
000150 4c cc 79 3c d1 cf 77 3c 8b eb 74 3c 5f 2e 77 3c
       0.015246462 0.015125231 0.014948736 0.015086739
000160 13 02 7d 3c 73 db 86 3c cd 8c 84 3b 7c 4a 81 3b
       0.015442389 0.016462063 0.004045105 0.003945647
000170 8e 00 7f 3b f5 9d 7d 3b ba 08 77 3b 57 3e 77 3b
       0.0038910243 0.0038698886 0.003769441 0.0037726366
000180 01 6a 6e 3b f1 4c 70 3b 3e 8d 6a 3b ac 1b 69 3b
       0.0036379101 0.0036666954 0.0035789753 0.0035569472
000190 af 7e 65 3b 0a b5 65 3b fa 9e 60 3b 83 b0 5e 3b
       0.0035018136 0.0035050535 0.0034274445 0.003397972
0001a0 82 67 5d 3b 59 54 5b 3b 5f 12 5b 3b a8 9c 5c 3b
       0.003378362 0.0033467023 0.0033427698 0.003366271
0001b0 6f 27 5d 3b b8 39 5e 3b 7a ae 5c 3b 67 29 5c 3b
       0.0033745428 0.0033908915 0.0033673332 0.0033594014
0001c0 f0 77 5c 3b 1d b9 5c 3b 08 38 5b 3b 73 4d 58 3b
       0.0033640824 0.0033679672 0.0033450145 0.0033005148
0001d0 e6 7e 56 3b d9 23 57 3b 01 2b 5b 3b 94 ea 6f 3b
       0.0032729446 0.0032827763 0.003344238 0.0036608325
0001e0 7d 0a 65 3b 64 d4 5f 3b 60 c8 5d 3b 6e 1b 5c 3b
       0.0034948878 0.0034153694 0.0033841357 0.0033585685
0001f0 22 db 55 3b b3 da 55 3b 90 4d 50 3b c0 bb 50 3b
       0.0032631834 0.0032631576 0.0031784512 0.003185019
000200 82 f6 4c 3b 0e 6f 4b 3b ea a9 47 3b 68 f7 47 3b
       0.003127486 0.0031041536 0.0030466267 0.0030512456
000210 96 07 45 3b 8f 16 45 3b 1f 69 44 3b 15 98 41 3b
       0.0030064336 0.003007326 0.0029969884 0.002954011
000220 b9 40 44 3b a7 87 44 3b 15 55 4a 3b 36 54 4c 3b
       0.0029945804 0.0029988082 0.0030873467 0.0031178123
000230 5a 0b 49 3b 1b ae 4b 3b f7 65 4d 3b f9 74 4d 3b
       0.0030676932 0.0031079117 0.0031341293 0.0031350239
000240 2d ae 4a 3b 80 dc 48 3b e3 b5 47 3b 6f 2d 4a 3b
       0.003092657 0.0030649006 0.0030473403 0.0030849834
000250 7d 9b 57 3b 21 70 76 3b 6e 74 77 1d 89 08 69 1f
       0.0032899075 0.0037603455 3.275037e-21 4.934673e-20
000260 8f b3 f9 1e 51 16 27 1f 81 93 39 1f 9a cb ae 1d
       2.6438164e-20 3.5382085e-20 3.9297286e-20 4.6267936e-21
000270 1c 43 5a 1f 6a c6 04 1c 61 47 61 1e 1c a9 06 1d
       4.6218807e-20 4.393158e-22 1.1926162e-20 1.782218e-21
000280 01 f8 88 1f 10 b6 c1 1e c8 60 ae 1d 49 77 21 1f
       5.800853e-20 2.0509969e-20 4.6157486e-21 3.4191746e-20
000290 e5 6b 63 1f 69 a4 ac 1e 32 80 6c 1e 68 1b 2f 1f
       4.8158368e-20 1.8279207e-20 1.2520246e-20 3.708036e-20
0002a0 23 c7 47 1f ba b1 e2 1b 17 71 16 1f 5f 7d bb 1f
       4.230461e-20 3.7503417e-22 3.185728e-20 7.940499e-20
0002b0 32 5e 71 1f b4 e3 7e 1f 76 bf 1b 1f c4 bc 18 1b
       5.111165e-20 5.3974944e-20 3.29809e-20 1.2634139e-22
0002c0 4a 1a cd 1d 75 fb 16 1f be 01 ef 1e 91 83 5d 1f
       5.429023e-21 3.1971736e-20 2.530583e-20 4.69074e-20
0002d0 57 b1 07 3d ed 20 04 3d c0 83 02 3d 7d e6 01 3d
       0.03312811 0.032257963 0.031863928 0.03171395
0002e0 0b d1 fc 3c 22 dd fc 3c 19 d4 f4 3c b4 70 f5 3c
       0.030861398 0.030867163 0.029886292 0.029960968
0002f0 a5 6f ef 3c 3f 92 ee 3c 73 b7 ea 3c 67 e4 ea 3c
       0.029228041 0.02912247 0.028651929 0.028673364
000300 0b 3e e6 3c 0c 0d e5 3c a0 c1 e3 3c 71 02 e1 3c
       0.028105756 0.027960323 0.027802289 0.027466984
000310 46 a0 e1 3c e1 e0 e2 3c 23 e5 e5 3c b0 ec e6 3c
       0.027542245 0.027695121 0.028063362 0.028189033
000320 40 9c e3 3c 45 f6 e4 3c aa cb e5 3c fd f1 e5 3c
       0.027784467 0.027949462 0.028051216 0.02806949
000330 a1 53 e4 3c aa 39 e2 3c 19 5f e0 3c 4a 6a e1 3c
       0.027871909 0.027615387 0.027389096 0.027516503
000340 c9 3b e6 3c f6 89 f4 3c e1 3d c1 3b 9f 7b bb 3b
       0.02810468 0.029850941 0.005897269 0.005721524
000350 10 a1 b9 3b af 40 b7 3b e0 54 b2 3b 9d 37 ae 3b
       0.005664952 0.0055924277 0.005442247 0.005316688
000360 cd 24 ac 3b 3d 03 a9 3b b3 47 a3 3b cf 59 a0 3b
       0.0052534104 0.0051578567 0.0049829124 0.0048935185
000370 fa 88 9d 3b 44 36 9f 3b 84 cb 9e 3b b2 60 9e 3b
       0.0048075886 0.004858764 0.0048460383 0.0048333043
000380 9f e1 9e 3b ad 0d a1 3b 65 fd 9f 3b 68 80 a3 3b
       0.0048486735 0.0049149604 0.004882502 0.0049896725
000390 68 53 a7 3b d6 70 a9 3b 68 40 aa 3b 86 cd ac 3b
       0.0051063783 0.005170922 0.005195666 0.0052735237
0003a0 52 76 ad 3b 4c 82 ae 3b fe 6a ad 3b a0 dc aa 3b
       0.005293646 0.005325591 0.0052922955 0.005214289
0003b0 0c c6 a9 3b b0 f1 a9 3b 86 8f ad 3b 47 d4 bc 3b
       0.0051810797 0.005186282 0.0052966503 0.00576261
0003c0 ef ba bd 1d c4 c9 ad 1f 6d a9 e9 1e f1 84 73 32
       5.022117e-21 7.360214e-20 2.4739907e-20 1.4174689e-08
0003d0 02 81 74 32 8a 1d 75 32 33 ba 75 32 88 b4 20 33
       1.4232002e-08 1.4267593e-08 1.4303214e-08 3.7417095e-08
0003e0 6a 42 21 33 0b 2d 19 33 00 52 16 33 e8 28 0c 33
       3.7546137e-08 3.5664055e-08 3.4999175e-08 3.2633494e-08
0003f0 6a 62 0d 33 20 ce 00 33 77 7f f9 32 16 9f d9 32
       3.2918628e-08 2.9989792e-08 2.904538e-08 2.5334469e-08

exp_avg f4 [20]
000000 ff 54 6f bc 77 d5 8e bc 77 07 c0 bc 50 20 f8 bb
       -0.014607667 -0.017435772 -0.02344106 -0.0075722113
000010 8f 48 a8 bc 00 00 00 00 13 ca 07 bd 7c 42 3c bd
       -0.020542411 0.0 -0.033151697 -0.045961842
000020 76 dc 11 af 02 c7 71 bc 5f b3 55 bc a9 c4 9d ae
       -1.3265997e-10 -0.01475692 -0.013043254 -7.174467e-11
000030 ca 78 c0 bc fe c1 26 3c c4 eb 48 bc 9e 14 35 bc
       -0.023495097 0.010178087 -0.012263242 -0.011052279
000040 ea 48 b5 bc 7c 77 74 ae 6a 6d 60 bc 2c c5 67 bc
       -0.022129495 -5.55853e-11 -0.013697961 -0.0141461305

exp_avg_sq f4 [20]
000000 af c3 d9 3a 86 e1 ef 3a ad 7c 6b 3c 7a 9b 5a 3b
       0.0016614104 0.0018301464 0.014372987 0.0033356831
000010 14 e1 3d 3b 00 00 00 00 6a 56 df 3c bd 3c a1 3b
       0.0028973268 0.0 0.027262885 0.0049205706
000020 80 58 9f 32 f8 38 ac 3a d8 89 8a 3a 49 0d 13 33
       1.8550281e-08 0.0013139537 0.0010569645 3.4238187e-08
000030 21 31 eb 3b 33 89 8b 3b ed 0d c3 39 bd 14 2f 3a
       0.0071774875 0.004258299 0.00037203674 0.00066788105
000040 3e c3 b6 3c 79 9e 52 30 39 d3 1c 3c ce c9 7e 3a
       0.022309896 7.662276e-10 0.009571844 0.00097194023

exp_avg f4 [20, 20]
000000 0a 28 a0 bc da b3 d9 bc 52 59 1e bc 77 8a f1 bb
       -0.019550342 -0.026575018 -0.00966485 -0.0073712426
000010 a1 60 de bc fe 7c 5e af 78 d4 2b bc 74 db b3 bb
       -0.027145686 -2.0235189e-10 -0.010487668 -0.0054888073
000020 40 54 d4 af ac fd a3 bc 19 cd a3 bc ba 9e a8 2f
       -3.8622439e-10 -0.020018421 -0.01999526 3.0671804e-10
000030 c4 76 b4 bc 82 4d 80 bb 68 bb 28 bd 17 41 8d bc
       -0.022029288 -0.0039154897 -0.04119435 -0.017242951
000040 ec 29 de bb c3 2b 21 ac 64 f4 f1 bb 80 7a f9 bc
       -0.0067799 -2.2903769e-12 -0.00738387 -0.03045392
000050 ba d2 de 3b 61 45 57 3c 1d 0d d9 bb 2f b9 c9 bb
       0.006800023 0.0131391 -0.0066238777 -0.006156109
000060 22 ee 58 3c 5d 0c 0d b0 34 a6 04 bc 38 42 e1 bb
       0.013240369 -5.131307e-10 -0.008096267 -0.006874349
000070 a7 2f d4 ad 0e 71 33 3c b4 dd 02 3c 07 45 c0 af
       -2.4122771e-11 0.010952247 0.007987428 -3.4973643e-10
000080 7c d1 7c 3b b2 8f 7c bb d1 c3 df 3c 18 c0 30 3c
       0.003857701 -0.0038537798 0.027315052 0.010787986
000090 04 64 9d bb 38 01 c8 af 8e 33 07 bc 11 a0 90 3c
       -0.0048031826 -3.6380654e-10 -0.008252038 0.01765445
0000a0 ca c2 2f 3d da 02 60 3d bc be 00 3d 64 59 cf 3c
       0.042910375 0.05469022 0.0314319 0.02531118
0000b0 45 48 66 3d d6 7b 80 2f 54 a2 0e 3d 32 a9 ac 3c
       0.056221265 2.3371055e-10 0.034822777 0.021076772
0000c0 aa 65 df 2f ea 6e 24 3d 82 96 31 3d ee 16 a3 2f
       4.06357e-10 0.04014484 0.043356426 2.966582e-10
0000d0 64 25 57 3d ce 77 67 3c 43 4c 9f 3d 9b de 06 3d
       0.052525893 0.014127685 0.07778218 0.032927137
0000e0 b9 8b b7 3c 5a 7b f5 af 52 89 df 3c ce 58 76 3d
       0.022405492 -4.4652887e-10 0.02728716 0.060143284
0000f0 71 2b 30 3c b4 f1 4d 3c 19 a3 2f 3c e9 9b 10 3c
       0.010752545 0.012569834 0.010720038 0.008826234
000100 26 5e 54 3c 95 21 66 af 6c 2a 46 3c d3 3b ff 3b
       0.0129619 -2.0930309e-10 0.012095075 0.007789114
000110 f1 8e 25 30 f5 02 12 3c 1b a9 2c 3c 4a 19 26 2f
       6.022978e-10 0.008911838 0.010538365 1.5106597e-10
000120 d2 19 69 3c af c4 a4 3b a3 d0 80 3c 82 73 e1 3b
       0.014227347 0.0050283293 0.015724486 0.0068802247
000130 d2 ba fa 3b 8c 54 35 b0 87 a5 22 3c 86 77 55 3c
       0.0076516652 -6.5967565e-10 0.00992716 0.013028985
000140 f2 1f e2 3c 09 c4 0b 3d ab 1e bc 3c 63 17 99 3c
       0.027603123 0.0341225 0.022963842 0.01868791
000150 05 ef 0f 3d d0 27 d5 af 88 e7 d1 3c b9 ea 82 3c
       0.035140056 -3.8772763e-10 0.025623098 0.015981065
000160 0d f1 02 2e 40 aa ca 3c ec 50 e2 3c 6d 0f d4 ae
       2.9772674e-11 0.024739385 0.027626477 -9.643384e-11
000170 f8 b9 0e 3d 45 85 2c 3c 5f 70 3e 3d f3 b6 a2 3c
       0.034845322 0.010529821 0.046493884 0.019862628
000180 48 3c 86 3c a6 80 8f af 55 2f a8 3c 47 99 16 3d
       0.016386166 -2.610296e-10 0.020530382 0.03676727
000190 cb 00 14 3d 0b 4a 3f 3d 0a 31 c7 3c 24 44 9e 3c
       0.03613357 0.046701472 0.024315376 0.019319601
0001a0 d4 14 44 3d f0 b2 bd 2f 7c 6f dc 3c ff aa 81 3c
       0.047871426 3.4506042e-10 0.026908629 0.015828608
0001b0 64 ac 98 2f 56 55 0d 3d a4 44 15 3d e4 be c2 2f
       2.777113e-10 0.03450521 0.036442414 3.542403e-10
0001c0 b2 2c 31 3d 7a bb 2e 3c 60 20 8b 3d bf ab eb 3c
       0.043255515 0.010664815 0.067932844 0.028768418
0001d0 97 0c 8d 3c 16 ca a3 2e 7c 14 a9 3c 12 7d 54 3d
       0.017217917 7.4482795e-11 0.02063965 0.05187709
0001e0 fa dc 7e bc 98 f7 84 bc f5 72 a6 bc 37 80 8a bc
       -0.015555615 -0.016231343 -0.020318488 -0.01690684
0001f0 2c b9 89 bc cd 76 fd 2f 08 fd bd bc cf 88 7d bc
       -0.01681193 4.6104845e-10 -0.023191944 -0.015474512
000200 0b fd ce af e2 86 32 bc 08 9b 6f bc 5d 0d 33 2f
       -3.765098e-10 -0.010896416 -0.014624365 1.6284703e-10
000210 f5 15 b7 bc 98 5e 1f bc 70 05 86 bc 50 e9 fa bb
       -0.022349337 -0.009727143 -0.016360015 -0.0076572075
000220 fa 0d 6d bc d5 a0 3c af 67 3a a0 bc 88 0d 7b bc
       -0.014468664 -1.715564e-10 -0.019559098 -0.01532305
000230 62 7b 61 bc 09 83 85 bc 8d 0c 55 bc 1f 35 2e bc
       -0.013762327 -0.016297834 -0.013003481 -0.010632782
000240 82 44 89 bc 82 a4 ad af a6 9d 70 bc 0e 31 19 bc
       -0.0167563 -3.1585407e-10 -0.014686024 -0.009350074
000250 05 21 fd ae 1e b0 3e bc b2 87 5c bc 1c c9 9b ae
       -1.15109734e-10 -0.011638669 -0.013460087 -7.084308e-11
000260 cc 7d 92 bc fc 6a c5 bb 24 85 ab bc ff ec 15 bc
       -0.01788225 -0.0060247164 -0.02093751 -0.009150743
000270 11 50 17 bc 0c 44 32 30 98 8a 43 bc 63 e8 8b bc
       -0.009235398 6.4852723e-10 -0.011934899 -0.017078584
000280 a0 39 29 3a f4 31 b5 3b 4a 54 3e bc cf d4 26 bc
       0.0006455425 0.0055296365 -0.011616776 -0.010182573
000290 9c ee b1 3b f6 a7 d1 2f b2 45 60 bc ea 05 29 bc
       0.005430056 3.8136222e-10 -0.013688492 -0.010316351
0002a0 46 82 8d af 70 cd b1 3b 60 76 f7 3a bf b8 0d b0
       -2.5740315e-10 0.0054261014 0.0018879883 -5.155804e-10
0002b0 60 95 7a bb b1 25 c8 bb 1a 43 8a 3c 38 4e ce 3b
       -0.0038236007 -0.006108009 0.0168777 0.0062959455
0002c0 25 a5 08 bc 96 f0 d6 af 1f e6 4f bc 54 aa 1a 3c
       -0.008340155 -3.909732e-10 -0.0126891425 0.009440023
0002d0 c4 53 5d bb fa 05 05 bc 23 8f f4 3b b6 78 dc 3b
       -0.0033771852 -0.008119101 0.0074633523 0.006728257
0002e0 98 ec 04 bc 5d 27 26 2d f1 02 12 3c 39 7a e8 3b
       -0.008113049 9.444748e-12 0.008911834 0.007094648
0002f0 86 61 bc af 22 d1 e7 bb ce 53 8e bb 7a f0 16 b0
       -3.4266295e-10 -0.007074491 -0.0043434864 -5.491142e-10
000300 00 57 9b b9 9b f7 86 3b 9c 16 9b bc 90 4f f1 bb
       -0.00029628724 0.0041188723 -0.01893168 -0.007364221
000310 25 f3 b0 3b f7 8d ba ac aa 54 0d 3c 4a 1c 3f bc
       0.005400079 -5.3021992e-12 0.0086261425 -0.0116644595
000320 57 f9 ea bc 3e 8b 15 bd 57 65 a9 bc a2 5a 87 bc
       -0.028683348 -0.036509745 -0.020678205 -0.01652271
000330 3a 59 19 bd 5e 61 5c af 95 61 bc bc eb b2 61 bc
       -0.03743861 -2.0043475e-10 -0.02299575 -0.0137755675
000340 4e df ff af 41 b5 db bc 82 80 eb bc 29 c9 05 2f
       -4.6542897e-10 -0.026819827 -0.0287478 1.2167746e-10
000350 98 b5 0e bd c0 3d 16 bc 4f 5e 55 bd e9 ad b5 bc
       -0.03484115 -0.009169996 -0.052091893 -0.022177653
000360 e4 d5 6f bc 70 cc db af 1a 71 92 bc 03 88 24 bd
       -0.014638398 -3.998113e-10 -0.017876197 -0.040168773
000370 ad f7 18 bd 8e 6c 4c bd 75 cd ad bc 7f 22 88 bc
       -0.037345577 -0.049908213 -0.021216134 -0.016618012
000380 d0 74 51 bd 0b 4f 83 2f 72 8c bd bc 00 dc 53 bc
       -0.05113679 2.3884925e-10 -0.023138259 -0.01293087
000390 c1 17 1e b0 b4 de 18 bd cb a2 1c bd 55 e4 d5 af
       -5.751382e-10 -0.03732176 -0.03824119 -3.8906714e-10
0003a0 60 62 31 bd be 26 14 bc 70 a8 9a bd 3a 75 01 bd
       -0.04330671 -0.00904244 -0.07551658 -0.031605937
0003b0 42 97 76 bc 4c 5d 12 2f 60 09 8c bc 16 a9 67 bd
       -0.015050711 1.3311768e-10 -0.017094314 -0.056557737
0003c0 80 70 48 bd 69 07 86 bd 10 39 e3 bc 8e 0b b2 bc
       -0.048935413 -0.06544382 -0.02773717 -0.021734025
0003d0 1e 59 89 bd 89 61 ac 2e c5 a5 f7 bc 78 59 8a bc
       -0.06706451 7.83898e-11 -0.030230412 -0.016888365
0003e0 d6 3d 20 30 c0 7d 48 bd 41 69 4d bd 1f 47 b3 af
       5.8295535e-10 -0.04894805 -0.050149206 -3.2610445e-10
0003f0 18 68 68 bd de cf 41 bc 08 e6 ca bd 95 c0 29 bd
       -0.056739897 -0.011829345 -0.09907156 -0.041443426

exp_avg_sq f4 [20, 20]
000000 b9 a4 27 3b 8f 32 9e 3b f2 41 35 39 28 a0 b9 38
       0.002558036 0.0048278044 0.00017286072 8.851319e-05
000010 86 c2 a0 3b ad e4 56 1e 35 1b a6 39 60 6b 58 38
       0.0049060015 1.1376355e-20 0.00031682258 5.1598414e-05
000020 f4 f2 9b 2f b8 7a 36 3b de 56 17 3b cd bc c1 2d
       2.8366964e-10 0.0027844142 0.0023092548 2.2025404e-11
000030 3d 51 3c 3b 77 4a 06 38 92 f3 2d 3c 05 c6 19 3b
       0.0028734945 3.201744e-05 0.010617154 0.0023463976
000040 ff 5b 0f 39 46 e9 cf 2a 64 54 b3 38 e2 44 d9 3b
       0.00013671814 3.6932453e-13 8.551104e-05 0.006630526
000050 45 0e 05 3b c9 07 75 3b 69 73 66 39 9e fb bf 38
       0.0020302695 0.0037388674 0.00021977503 9.154457e-05
000060 60 3f 7a 3b 86 54 ab 1f 27 c1 d8 39 e6 33 95 38
       0.0038184747 7.256115e-20 0.0004134264 7.1145405e-05
000070 22 1a 9c 2f a0 57 11 3b df 91 f8 3a 4a 8e a9 2e
       2.8394803e-10 0.0022177473 0.0018964371 7.710506e-11
000080 bc 65 22 3b c7 4c 03 38 e8 d7 fb 3b 23 d9 f4 3a
       0.0024779877 3.130434e-05 0.00768565 0.0018680434
000090 de d0 1a 39 a2 34 89 29 a0 78 01 39 0b ec a8 3b
       0.00014764394 6.0931525e-14 0.00012347335 0.0051550916
0000a0 8a 12 f6 3c cb 9d 6a 3d 42 3b 05 3b 79 3a 8c 3a
       0.030038137 0.05727939 0.002032951 0.0010698579
0000b0 13 c1 6d 3d 03 35 8f 1e 4e 39 7a 3b 0d f9 20 3a
       0.058045458 1.5162639e-20 0.003818113 0.0006140627
0000c0 80 ab 29 31 11 09 08 3d 86 03 e0 3c 72 e5 12 2f
       2.4690223e-09 0.03321177 0.02734543 1.3360138e-10
0000d0 42 b2 05 3d 9a 14 ca 39 c8 ae 04 3e cf ca e4 3c
       0.032640703 0.00038543792 0.12957299 0.027928738
0000e0 d5 00 d5 3a 67 ab 4a 2c e0 4c 84 3a b9 8d a1 3d
       0.0016250858 2.8801074e-12 0.0010093711 0.078883596
0000f0 0d 59 39 3b 3c 11 b2 3b 01 5d 45 39 1c 80 e1 38
       0.0028281838 0.0054341834 0.0001882203 0.00010752698
000100 5a ab b3 3b 0b de 65 1e 45 44 b9 39 07 b0 6d 38
       0.005483073 1.21690765e-20 0.00035336814 5.666914e-05
000110 62 fe 8a 2e a3 f0 50 3b d6 fe 2a 3b 1c cd 18 2c
       6.320701e-11 0.0031881712 0.0026091835 2.1714358e-12
000120 1c e1 41 3b ce 6a 20 38 cd 06 52 3c d7 33 30 3b
       0.0029583639 3.8246442e-05 0.012819004 0.0026886368
000130 af c4 1f 39 03 da e3 29 f7 0c c7 38 f3 15 f6 3b
       0.00015236692 1.0118644e-13 9.491474e-05 0.007509941
000140 18 f7 81 3c b5 13 f8 3c 59 8c 8d 3a 44 a1 15 3a
       0.015864894 0.030282835 0.0010799273 0.00057079294
000150 81 5d fb 3c 37 45 44 1f 93 56 05 3b 19 05 ae 39
       0.030684235 4.1561868e-20 0.0020345792 0.00033191664
000160 85 21 b3 30 30 45 90 3c 29 a7 6d 3c 46 8c 86 2e
       1.3033491e-09 0.017611116 0.014505186 6.118532e-11
000170 5a 6e 8d 3c 6e 82 56 39 2d 9d 8c 3d 82 99 72 3c
       0.017264534 0.00020457219 0.068659164 0.014807107
000180 ca 63 61 3a ed 38 00 2c 55 fd 0b 3a cc 03 2b 3d
       0.00085979386 1.8221494e-12 0.00053401786 0.041751668
000190 6b d3 87 3c bf 62 01 3d be ac 93 3a 8d 03 1a 3a
       0.016580304 0.031588312 0.0011266691 0.0005875163
0001a0 90 15 03 3d ae 9f 1b 1f e6 17 0b 3b 49 e3 ae 39
       0.032002985 3.295461e-20 0.0021223961 0.00033357207
0001b0 ae 46 64 30 a6 f3 95 3c 6f c9 76 3c 15 10 4b 2e
       8.304636e-10 0.018304657 0.015062674 4.617114e-11
0001c0 40 cc 92 3c b1 b7 5e 39 64 63 92 3d 0b 63 7c 3c
       0.01791966 0.0002124 0.071478635 0.015404473
0001d0 03 69 6b 3a a0 24 8b 2b 83 58 12 3a d9 16 32 3d
       0.00089801865 9.88671e-13 0.0005582647 0.04347882
0001e0 22 d4 3f 3c 2f 63 b6 3c 97 76 6c 3a 7e 17 ef 39
       0.011708291 0.022264091 0.0009020357 0.00045603135
0001f0 a6 c8 b8 3c 82 7f 8a 1f 5e 89 e2 3a c2 ca 96 39
       0.022556614 5.865622e-20 0.001728337 0.00028761296
000200 02 f1 e7 30 9c b6 55 3c 98 c6 30 3c 99 93 1d 2f
       1.6875961e-09 0.013044026 0.010789536 1.4331504e-10
000210 97 da 52 3c 41 81 25 39 07 8e 4e 3d ea ff 33 3c
       0.012869499 0.00015783777 0.050428417 0.010986308
000220 77 97 31 3a dc 38 d1 2b ec 33 f4 39 0a db fb 3c
       0.0006774584 1.4866125e-12 0.0004657799 0.030744094
000230 e9 c7 7d 3b 3d 70 f3 3b 70 d4 8f 39 a1 a5 1b 39
       0.0038723892 0.0074291513 0.00027433364 0.00014843653
000240 c1 ad f5 3b bb 7e 02 1f 0b 6a 07 3a 6b e2 aa 38
       0.0074975197 2.76334e-20 0.0005165643 8.148405e-05
000250 67 6b 73 2f 49 e3 8e 3b aa f8 69 3b c1 5c 8c 2d
       2.2138878e-10 0.0043605906 0.0035701194 1.5957348e-11
000260 0d 19 85 3b 33 d0 59 38 65 3e 8f 3c 1b 05 71 3b
       0.004061824 5.1930732e-05 0.017485807 0.0036776725
000270 14 1f 60 39 9b 6c 18 2a 57 bd 11 39 19 44 28 3c
       0.00021373882 1.3537992e-13 0.00013898812 0.010270142
000280 94 df 98 3b c0 b7 0f 3c c2 bc e1 39 38 56 4f 39
       0.0046653245 0.008771837 0.0004305598 0.00019773177
000290 b1 f6 11 3c 00 e9 3d 1f bb 48 57 3a d2 1d 13 39
       0.0089089135 4.021504e-20 0.0008212437 0.00014030121
0002a0 da 0f 31 30 82 5e a9 3b 9a c4 8d 3b 15 80 ea 2e
       6.441475e-10 0.005168737 0.0043264152 1.066384e-10
0002b0 86 35 ae 3b 58 fc 8d 38 dc bb 9d 3c 68 a6 8e 3b
       0.005316439 6.7704066e-05 0.019254617 0.0043533333
0002c0 94 bb 9f 39 2e 88 01 2b 0f 3b 74 39 26 74 46 3c
       0.000304666 4.6018994e-13 0.00023291654 0.012112653
0002d0 c9 aa 13 3b 7e cb 87 3b 84 c2 42 39 d4 bb ba 38
       0.0022532216 0.004144131 0.00018573744 8.904157e-05
0002e0 0d a7 8a 3b 9f ff f0 19 53 22 b7 39 f6 97 84 38
       0.00423134 2.4918663e-23 0.00034930054 6.3225554e-05
0002f0 9f e7 9d 2f a1 3d 22 3b 98 a7 0b 3b 32 b2 30 2e
       2.872271e-10 0.0024755972 0.002130961 4.0176036e-11
000300 2d e7 36 3b c9 03 01 38 9e 80 0b 3c ef a2 09 3b
       0.0027908788 3.0759522e-05 0.008514551 0.0021001657
000310 e0 a2 0b 39 e5 2e ad 2a bc 98 d3 38 bc 45 bb 3b
       0.00013316749 3.0763513e-13 0.00010089713 0.0057151
000320 5b 3c 43 3c e5 ff b9 3c 38 d4 58 3a 3d 85 e1 39
       0.011916245 0.022705028 0.0008271369 0.00043014614
000330 21 88 bc 3c 09 da 52 1e d0 71 cc 3a e2 4d 86 39
       0.02301413 1.1162396e-20 0.0015597884 0.000256165
000340 ce b0 c0 30 21 ad 57 3c 78 aa 31 3c d9 26 ad 2e
       1.402009e-09 0.013163836 0.010843866 7.87403e-11
000350 bd 60 55 3c 9c 0e 20 39 5b 43 52 3d af 85 35 3c
       0.0130235525 0.00015264231 0.051333766 0.011079236
000360 cc 1b 2a 3a 06 1f 00 2c dc 65 d6 39 73 22 00 3d
       0.00064891274 1.8207116e-12 0.00040893152 0.031282853
000370 ca 14 5d 3c 32 87 d1 3c 2d e5 70 3a 9d a7 f7 39
       0.013493726 0.025577161 0.0009189423 0.00047236393
000380 1b 7d d4 3c 8c 8d 95 1e 84 92 df 3a 92 b9 89 39
       0.025938561 1.5834531e-20 0.0017057215 0.00026268937
000390 2e 44 81 30 89 3e 72 3c 96 fa 47 3c 7e 24 ce 2e
       9.405363e-10 0.014785417 0.01220574 9.374278e-11
0003a0 28 6f 71 3c bf 9e 33 39 04 1e 6a 3d e9 ee 4b 3c
       0.014735974 0.00017129908 0.05715753 0.012447097
0003b0 54 85 3f 3a 06 4b fa 2a 93 7a f3 39 ba e6 0f 3d
       0.0007305939 4.446098e-13 0.00046439897 0.035132147
0003c0 cb 4c be 3c b3 39 34 3d e9 e8 cf 3a fd 17 55 3a
       0.023229977 0.04400034 0.0015862259 0.00081288797
0003d0 ca cd 36 3d 06 72 01 1d 45 ca 40 3b 3e aa ed 39
       0.04462985 1.7131957e-21 0.0029417437 0.00045331003
0003e0 45 42 03 31 d6 56 d0 3c d1 23 ac 3c 92 b5 49 2f
       1.9100679e-09 0.025432032 0.021013172 1.834535e-10
0003f0 54 93 d0 3c 9b 2e 9a 39 9e 0a c9 3d 5a 6f af 3c
       0.025460877 0.00029407893 0.09816478 0.021415401

exp_avg f4 [20]
000000 8b 33 7c bc 9a e0 f8 3b ee a3 01 3d e2 82 ee 3b
       -0.015393148 0.007595134 0.031650476 0.007278786
000010 cd d0 a1 3c d1 8f dd 3c 34 3d 1a bc 74 e3 1a bc
       0.019752884 0.027046116 -0.009414006 -0.009453643
000020 90 d0 50 3b 1e be 99 bb 72 45 ad bc 3a 9e ec bc
       0.0031862594 -0.004691853 -0.021151278 -0.028884042
000030 4c 1d 1b bd a4 e1 4a 3c 73 a1 d1 bc 45 43 a9 bc
       -0.037869737 0.0123828985 -0.02558968 -0.02066196
000040 84 2c 6e bc fa 5d 1e bd 8d 03 c3 bc ce f6 52 bc
       -0.014536981 -0.03866384 -0.023805404 -0.012876226

exp_avg_sq f4 [20]
000000 7e 25 ee 3a 79 9c b6 3a da 4d a8 3c aa 52 f1 3a
       0.0018169133 0.001393213 0.020544935 0.0018411477
000010 94 7c 32 3c 3f 82 37 3c 3f 10 03 3c b4 50 25 3b
       0.01089396 0.011200487 0.007999479 0.0025225105
000020 66 c8 4f 3b 5a 49 d1 3a 1d 35 08 3c e8 44 14 3c
       0.003170514 0.0015967295 0.008313444 0.009049632
000030 35 2d 80 3c 23 5c eb 39 d6 a4 5c 3c 35 46 0e 3b
       0.015646556 0.0004489134 0.013467034 0.0021709327
000040 3a 74 b5 3b d9 ba 8b 3c e9 1b a7 3c 6f b2 bd 3b
       0.005537537 0.01705687 0.02039905 0.005789093

exp_avg f4 [1, 20]
000000 de d1 96 b9 1f 8e 91 3b df b0 75 ba 46 50 06 bb
       -0.00028766593 0.004441991 -0.0009372364 -0.0020494624
000010 fc 8c bd ba 4a 7d 5b ba 16 1d 1a 3b 1d 09 fe 3a
       -0.0014461572 -0.00083728565 0.0023515872 0.0019381378
000020 4b 47 76 3b ef ad 58 bb 4a a5 48 3a 28 93 b0 b8
       0.0037579115 -0.0033062657 0.00076540245 -8.419744e-05
000030 16 ab 14 ba a4 9e 6c 3b 0a 0c ad 3a 5a ab ea ba
       -0.0005671246 0.00361053 0.001320244 -0.001790385
000040 40 05 bc 3a 91 d9 2f ba d8 d2 15 3b 37 ad 14 3b
       0.0014344826 -0.000670814 0.0022861268 0.0022686252

exp_avg_sq f4 [1, 20]
000000 5f 54 21 39 1f 29 02 38 d9 15 75 38 7a f9 5d 37
       0.00015385587 3.1032712e-05 5.84329e-05 1.3230712e-05
000010 da 5b 89 38 c4 73 d5 38 c0 45 6e 37 53 b6 0c 38
       6.549778e-05 0.000101781945 1.4202145e-05 3.3548404e-05
000020 26 1d c7 37 cb 01 e8 37 02 41 f7 37 09 1e 38 39
       2.3736222e-05 2.765739e-05 2.9474966e-05 0.00017558796
000030 9b f1 27 39 76 fd 42 38 27 53 cf 38 ce c9 3b 39
       0.00016016366 4.648926e-05 9.8860175e-05 0.00017908888
000040 13 ee f5 38 94 39 8c 38 50 2e 83 38 b9 4c ea 37
       0.00011726855 6.686445e-05 6.255193e-05 2.79307e-05

exp_avg f4 [1, 20]
000000 69 a2 46 be 78 8c a4 3d fe fe bc 3d 9a 5f bd 3c
       -0.19397892 0.08034605 0.092283234 0.023116875
000010 60 98 cb 3d fa 6d 10 3e 0c 57 11 bc eb 61 86 bd
       0.099411726 0.14104453 -0.008870851 -0.06561645
000020 c8 70 41 3d 80 7d 52 bb 7c 15 ac bd 76 02 38 be
       0.047226697 -0.003211826 -0.08402535 -0.17969689
000030 f1 b5 47 be 65 ae 09 3e c7 7b fa bd 7e 5e 5d be
       -0.19502999 0.13445432 -0.1223064 -0.21618077
000040 49 e8 f8 bd 92 ed 10 be d4 f9 6f bd e6 2a 29 bd
       -0.1215368 -0.14153126 -0.058587864 -0.041300677
