deep-learning/rv_only/lightning_logs/version_35/checkpoints/epoch=4-step=250.ckpt (torch, 27739 bytes, 21 tensors)

model.nn.0.weight f4 [20, 30]
000000 e6 7e 4d 3d e5 cc e9 3c b7 ba 46 bc 3f 27 2f 3c
       0.050169848 0.028540084 -0.012129477 0.010690509
000010 99 a0 14 3d 7b c5 01 bc 8b 6d 6d 3d 1e 34 30 bd
       0.03628597 -0.007920618 0.057965796 -0.043018453
000020 36 a5 13 bd 9c 94 0a bd e4 e2 9d 3c 93 c3 eb 3c
       -0.03604623 -0.03383313 0.019273229 0.02877978
000030 b3 8d 7c 3d 6d 51 74 3d 3f 92 b1 bc ed dd 86 3d
       0.061658572 0.059647966 -0.02167618 0.06585298
000040 8f 20 5d 3d c2 02 2b bb a0 00 06 bd 70 a2 9d 3d
       0.05398613 -0.0026094173 -0.03271544 0.07696998
000050 6c d4 21 bd a5 cb a9 3c 75 80 a4 3c 0e 9e ca 3d
       -0.039509222 0.020726988 0.020080784 0.09893428
000060 eb 6d f2 3c bd a4 c0 3d 78 03 65 3d 95 99 ca 3d
       0.029593429 0.09406421 0.05591151 0.09892575
000070 85 ea f8 3d 95 ac a1 3c b4 c1 a6 bc b8 ef 2d 3c
       0.12154106 0.019735614 -0.020356037 0.010616235
000080 c1 44 05 bc c6 9e 4e 3c 2e d5 a9 bc 86 d9 43 bc
       -0.008134068 0.012611097 -0.020731535 -0.011953717
000090 9c eb 10 bc 78 7e 96 bc d1 26 0f bd 66 ff 8d bc
       -0.008845236 -0.018370852 -0.034949128 -0.017333698
0000a0 7a 5e 8e 3c 22 84 05 bd a9 a4 3e bd e1 d1 7e bb
       0.017379034 -0.032596715 -0.04654375 -0.0038882422
0000b0 98 6a 04 3d ae 21 1a 3d d7 37 51 bd 69 aa 4f bd
       0.03232822 0.037629776 -0.051078644 -0.050699625
0000c0 40 0e f4 3c bd 24 3c 3c 65 a7 51 bd 09 97 1d bd
       0.029791951 0.011483368 -0.05118503 -0.038474116
0000d0 b5 25 53 bd 63 b8 16 bc 1d 46 b1 3c 88 c5 e9 3a
       -0.051549632 -0.009199235 0.021639878 0.0017835358
0000e0 a3 65 7e 3c b1 18 7c bd 49 be d7 3c c7 d8 06 bd
       0.015527162 -0.061546985 0.026335852 -0.03292158
0000f0 e4 c5 d3 3d 96 9a 30 3d 0b b7 b0 3c 6a 9d 2e 3c
       0.10340479 0.043116175 0.021571657 0.010657648
000100 19 8e b5 3d e4 2e ff 3d 3d dd 8b 3c c1 52 0b 3d
       0.088649936 0.124601156 0.017073268 0.034014467
000110 d8 e1 d4 3d 32 f0 83 3d 46 be a7 3b 56 fc 7d 3d
       0.10394639 0.06442298 0.005119118 0.062008224
000120 44 4a c1 3c 9b 55 c5 3c f6 be 8e 3d e6 23 a1 3d
       0.023594983 0.024088671 0.06970017 0.07868175
000130 f7 ad d9 3d 5b 5c 6b ba 6c 44 98 3d 5c 1e 55 3d
       0.10628884 -0.00089783006 0.074349254 0.052030906
000140 7d 94 72 3d c3 50 f9 3d a6 d3 c0 3c 87 46 b0 3d
       0.05922364 0.12173607 0.023538422 0.08607202
000150 96 3f 0b 3e 16 cc cd 3d ad 95 82 3d 86 8e 9b 3d
       0.13598475 0.10048692 0.06376205 0.075955436
000160 ee b7 09 3e 56 ef 0a 3d 97 f9 39 3c 9f d6 eb 3d
       0.1344907 0.033919655 0.011351011 0.11515545
000170 92 1c 8e 3d f4 1f ae 3c 3a 89 e5 3d f2 af 0a 3e
       0.06939043 0.02125547 0.112078145 0.1354368
000180 cb 4c ed 3d 9f ae db 3d 09 4e af 3b 4b c4 da 3b
       0.11586913 0.10726666 0.0053498787 0.006676232
000190 27 bb 01 3e f5 35 c4 3d 40 dc 28 3d 9f da 53 3d
       0.12669049 0.09580604 0.04122567 0.051722165
0001a0 05 7a 1e 3d 0e 85 eb 3d e8 96 b1 3d c9 b8 df 3d
       0.038690586 0.114999875 0.08671361 0.10923917
0001b0 a3 9b bd 3c 9a 25 c9 3d 06 9e 6e 3d e7 eb cd 3c
       0.023145502 0.09821625 0.05825617 0.025136901
0001c0 49 df 54 3d b4 60 d4 3c 4f 40 a2 3c 3f 7d 8d 3d
       0.051970754 0.025925018 0.019806055 0.069086544
0001d0 ab 24 b4 b9 36 28 b5 3c 3a a0 94 3c 4c a1 c9 3d
       -0.00034359595 0.0221139 0.018142808 0.09845218
0001e0 6d da c1 bc a6 39 29 39 43 61 39 bd ca e7 6e ba
       -0.023663724 0.00016138572 -0.04525877 -0.0009113519
0001f0 f5 7f 42 3c 46 e7 25 3c ec 1f 2b 3d 45 0e d6 bc
       0.011871328 0.010125941 0.04177849 -0.026129851
000200 5d 00 29 3d a0 6a 8e bd 24 bc ea bc 91 0c 1c 3d
       0.041260112 -0.06953931 -0.028654166 0.03809792
000210 57 ba 84 bd 5e 57 1a bd 49 88 40 bd 97 44 3a bc
       -0.06480854 -0.037680976 -0.04700497 -0.011368892
000220 a5 c7 50 bd ff b5 0d bc 0b 19 57 bd 40 3e 91 3c
       -0.050971646 -0.008649348 -0.052514117 0.017729878
000230 d7 f9 25 3b 25 e8 bc bc 6a 3c 93 3b 22 39 09 3d
       0.0025325918 -0.023059914 0.004493286 0.03350175
000240 13 57 ce bb 12 0e f2 bc fe a6 2c bd 63 d4 c7 3c
       -0.006297001 -0.029547725 -0.042151444 0.024393266
000250 e7 bd 76 3d c9 b7 87 3d 79 fb f6 bb 42 58 68 3d
       0.0602397 0.06626851 -0.007537302 0.056724794
000260 7c 9a a4 3c dc 22 88 bd 91 3b 08 bd 40 ea fa bc
       0.020093195 -0.06647274 -0.033259932 -0.030629277
000270 07 13 89 bc 70 ac 8b bd 50 e8 88 3d 1a 21 60 3d
       -0.016732706 -0.06819999 0.06684935 0.054719068
000280 cd 32 62 3d 44 d9 7a 3d 6d 69 9c bc ab c3 bb 3b
       0.05522423 0.061242357 -0.01909324 0.0057301125
000290 f0 4f 32 3d ed ac 72 3b 74 55 43 3d 49 4f 14 bd
       0.043533266 0.0037029341 0.047688916 -0.036208425
0002a0 45 ec 92 bc fb 3e 78 bd e6 98 64 3d ea e7 37 3c
       -0.017934928 -0.060606938 0.055809878 0.011224726
0002b0 9f 97 97 3d cb d9 0f bd 4d 14 a6 3d 99 32 ac 3d
       0.07401966 -0.035119813 0.08109341 0.08408088
0002c0 14 b2 54 3d 9d 55 9c 3b 47 42 c3 3d 53 8a 68 3c
       0.05192764 0.004770948 0.09534126 0.014193135
0002d0 3f 39 27 3d 8c 72 90 3c 17 9a 4e 3d fb ff 52 bc
       0.04082608 0.017632745 0.05043992 -0.012878413
0002e0 55 81 27 bd 07 10 f5 bc 71 ae 47 3d 31 eb 94 39
       -0.040894825 -0.029914869 0.048750345 0.0002840399
0002f0 cd 30 4c 3d 11 81 ea 3b cb 9b 18 bd a4 bd 87 3c
       0.049851228 0.007156499 -0.03725795 0.01656992
000300 bf 2f e0 bc 16 5b e2 bc 49 d4 fe bc d1 78 39 bd
       -0.027366517 -0.027631324 -0.031107085 -0.045281235
000310 1a 4f 42 3d bf fb f3 3b 1e 3e 53 bd 30 bb 18 3c
       0.04743872 0.007445782 -0.05157291 0.009321973
000320 2f 83 4f 3d 4d 51 fc bc a6 96 bc 3b 6c 35 2c bd
       0.050662216 -0.030800486 0.0057552634 -0.042043135
000330 84 78 39 bd 28 f0 10 3d 83 fa 08 bc cf e4 c5 bc
       -0.04528095 0.03538528 -0.008360508 -0.024156956
000340 7c 68 0b ba 1f 78 59 bd 14 d3 c7 3d b0 5e f4 3d
       -0.00053179986 -0.053093072 0.09757057 0.11932123
000350 11 d3 54 3c 0b d9 42 ba bd d3 53 3d 8e 59 af 3d
       0.012989775 -0.00074328546 0.0517156 0.08562003
000360 b1 73 ca 3d 9e ba ae 3d ab 4c cb 3d 2d 79 02 3d
       0.09885348 0.08531688 0.09926733 0.031853843
000370 fb e8 ec 3d b3 0b 1b bc e6 c8 8d 3d 0c 18 70 3d
       0.11567875 -0.0094632385 0.06923084 0.058616683
000380 75 41 84 3d 49 2b da bc 4a 54 a7 3d 61 8b cc 3d
       0.064577974 -0.026631968 0.08170374 0.09987522
000390 c6 48 14 3b c6 38 a1 3d ae ea 8e 3d 46 39 9f ba
       0.0022626384 0.07872157 0.06978355 -0.0012147806
0003a0 50 3f da 3d 31 0e cb 3c ad b6 85 3d e1 a2 f8 3d
       0.10656607 0.02478704 0.06528983 0.12140442
0003b0 d5 9a 58 3d b6 34 76 3d 1d f8 2d 3d 03 27 ec 3d
       0.052882034 0.060108863 0.042472947 0.115308784
0003c0 24 0a 31 3d ee 35 83 bd cd 8b 35 bc 8b 40 98 39
       0.04322256 -0.06406771 -0.011080694 0.00029039787
0003d0 56 f9 d0 3b e9 58 d2 bc 96 60 10 bd 62 4b 86 bd
       0.0063773794 -0.025677161 -0.03524836 -0.06557347
0003e0 a3 b2 86 3c ea 3e df bc e9 44 c3 bc 6a 07 46 bd
       0.016442603 -0.02725168 -0.02383657 -0.048346914
0003f0 cf 74 e4 bc 58 b8 29 bd 92 37 29 3d 57 be bb bc
       -0.02788773 -0.04143557 0.04131276 -0.02291791

model.nn.0.bias f4 [20]
000000 42 7a d1 3c fc 7a 77 bc 93 1d 83 3d 4e eb 81 3d
       0.025570992 -0.015105005 0.06402125 0.06343709
000010 21 3c 31 3d 0a 14 26 3c 00 00 00 00 61 fa 4a 3d
       0.043270234 0.010136614 0.0 0.049555186
000020 8e 31 94 3c 94 90 ac 3c 00 00 00 00 92 02 fe 3c
       0.018090036 0.021065034 0.0 0.031007085
000030 81 6b b1 3c 0b 48 6b bc 16 83 09 3d 33 32 70 3d
       0.021657707 -0.014360438 0.03357228 0.058641624
000040 08 1b b7 3d c7 6d 51 3d a6 cf ac 3a 2a 80 97 3c
       0.08940703 0.051130082 0.0013184443 0.01849373

model.nn.2.weight f4 [20, 20]
000000 80 22 27 bc 17 08 a9 3c 5e c6 96 3d 97 2e dc 3d
       -0.010201097 0.02063374 0.07362054 0.10751074
000010 db c8 03 bc 0a 5d 3a bd 54 ae 3f bd 1d 21 b9 3b
       -0.008043493 -0.045498885 -0.04679711 0.0056496994
000020 ed ec 9d bd 70 60 08 be ab 9f 05 bd 0f d5 2d be
       -0.07711206 -0.13318038 -0.032622974 -0.16975807
000030 4d a2 e5 bc 40 57 57 3d 4d 6e 20 3d 10 67 92 3d
       -0.028031493 0.052573442 0.03916769 0.07148564
000040 79 2a c4 bd f8 d0 a8 3b c7 a7 05 be be 79 ae bd
       -0.095784135 0.005151864 -0.13052283 -0.08519314
000050 de f5 c8 3d ca 5a 44 3d e1 de e0 3c fe 66 cc 3d
       0.098125204 0.047938146 0.027450027 0.09980582
000060 1d d8 f2 bd bc 0c a4 3c a5 d9 9a 3c d7 fc 91 3d
       -0.118576266 0.020025603 0.01890261 0.071283035
000070 78 00 41 3d be dd 8e ba f6 33 8b bc 5f fb 74 3d
       0.047119588 -0.0010899825 -0.01699255 0.05981004
000080 01 41 53 3d e4 b1 00 bd fb 28 d9 3d e5 3e 14 3d
       0.051575664 -0.03141965 0.106035195 0.036192793
000090 25 99 94 bc 13 7e 93 3c 75 a8 9c bc 74 03 28 bd
       -0.018139431 0.018004453 -0.019123295 -0.04101892
0000a0 ee a6 4d 3b b2 d1 98 bc 26 06 cc bb 7a f6 bf bc
       0.0031380015 -0.018654678 -0.006226319 -0.023432959
0000b0 e3 f3 18 3b b4 86 09 bd e2 f7 3e bd af 94 b1 bc
       0.0023338727 -0.03357573 -0.04662312 -0.021677343
0000c0 41 2f 2e 3d 7c 75 23 3e 24 47 c8 3c 36 0c 4a 3e
       0.042525534 0.15962785 0.024447985 0.1973122
0000d0 cd 78 a9 bc e0 e3 be 3c c1 19 b8 bc 24 9d c0 39
       -0.020687485 0.023302019 -0.022473218 0.00036738173
0000e0 14 54 07 3e e2 a0 9e bd eb 20 8f 3d c5 32 fe 3d
       0.13215667 -0.0774553 0.069887005 0.12412027
0000f0 bc 8b f2 bd d6 ce 0a bd cb c9 0a be 28 f5 ef bd
       -0.118430585 -0.03388866 -0.1355354 -0.11716682
000100 39 35 ac 3c fc e6 31 bc a9 cc 32 3a e0 b6 0e be
       0.021021472 -0.010858294 0.0006820658 -0.13936949
000110 87 ab b3 bd ab 07 28 3c 1e 39 1e 3c 98 12 94 bd
       -0.087729506 0.010255734 0.0096571725 -0.07230109
000120 ff ea 0d be 54 19 56 3d 5d e8 af bd 74 d6 c2 bd
       -0.13859175 0.05227025 -0.08589242 -0.0951356
000130 d7 0d af 3d 71 c1 b4 bd 94 cc d9 bd f3 49 97 3c
       0.085475616 -0.088259585 -0.10634723 0.018467879
000140 24 0f 28 bd 6f d8 eb bc 22 e8 6c bd c0 91 15 bb
       -0.041030064 -0.028789727 -0.057838567 -0.002282247
000150 c4 82 85 3d 56 43 5c bd 46 80 21 bd ff d1 ef 3c
       0.06519082 -0.053775154 -0.03942897 0.029274939
000160 1b 6a fc bd 87 73 27 be a3 54 f3 3c 41 14 c2 bd
       -0.123249255 -0.16352664 0.029703444 -0.094765194
000170 25 7d a5 3b 47 6b 37 bd 98 9e 75 bd 56 8b 88 3d
       0.005050319 -0.044780042 -0.0599657 0.06667201
000180 6a 86 6d 3d d7 85 1c 3d cf 5e c9 bd 7c 35 cc bd
       0.057989515 0.038213577 -0.098325364 -0.09971139
000190 c4 aa 05 3c 88 4f 87 bd d1 e2 81 3c 7c d3 92 bd
       0.0081583895 -0.06606966 0.015855225 -0.07169244
0001a0 0b b9 0e 3d 7a fc 65 3c 33 a8 a8 3c 51 e5 b8 bd
       0.03484444 0.014037246 0.020588016 -0.09028114
0001b0 d7 49 f7 3d 3d 4e 22 3e fe f6 0b 3d 85 6e 1d 3e
       0.12074631 0.15850158 0.034171097 0.15374191
0001c0 48 4d 4f bc b6 dd 78 3b fd c5 b6 bc 89 6b d5 bc
       -0.012652703 0.0037973947 -0.022311205 -0.026052253
0001d0 7b 0d 4e bd cc 01 7d bb 9c ec 10 3e cd d8 52 3d
       -0.050305825 -0.0038605807 0.1415276 0.05147629
0001e0 7a 7a 86 bd 64 de 5d bd 90 bd aa bc c2 d9 56 3c
       -0.06566329 -0.054167166 -0.020842344 0.013113441
0001f0 0b 68 47 3d 93 fd 04 3d 94 0a 75 bc b1 39 26 bc
       0.048683207 0.03246839 -0.014956135 -0.010145591
000200 dc e8 90 3d 4b c0 1c 3e 19 f6 4c bd 2f 2f 4f 3e
       0.070756644 0.15307729 -0.050039385 0.20232843
000210 29 3a 11 3d 0d 20 3a 3d b4 7a f3 bc ba 46 29 3d
       0.035455856 0.045440722 -0.029721595 0.041327216
000220 0e 0b 06 3e 0b 61 6e bd 9c 52 4c 3e 60 c7 e3 3d
       0.13090155 -0.058198016 0.19953388 0.11122012
000230 3b a6 19 3d 92 83 f0 3c cf 74 2e 3d 61 94 be 3d
       0.037512045 0.029359613 0.042591866 0.09305645
000240 50 6c 3c bc c5 21 82 3d d5 a9 4f bd 97 ba b9 3d
       -0.011500433 0.06354097 -0.050699074 0.09068792
000250 4d 96 a3 3d c7 09 ef 3c 43 89 a2 3c 32 ed a9 3d
       0.07987652 0.029179467 0.019840842 0.082971945
000260 bb fe 9d 3d 08 49 83 3d c2 ee 9f 3d 41 cc c3 3d
       0.077146016 0.06410414 0.07809211 0.09560443
000270 c9 aa 71 bb 5e 62 8b bc 16 f9 0b 3d 0d e0 da 3d
       -0.0036875478 -0.017014679 0.034173094 0.106872655
000280 d6 44 dc bd 4c 53 6a 3d dd a0 f5 bd a3 48 cf bd
       -0.10755317 0.057208344 -0.11993573 -0.10121276
000290 40 06 93 3d ae dc 58 3c 6a fd 5b 3d 56 13 94 bd
       0.071789265 0.013236208 0.05370847 -0.072302505
0002a0 57 a3 21 bd 08 5f dd bd eb b8 fe bc e1 d1 b5 bc
       -0.039462414 -0.108091414 -0.031094035 -0.022194805
0002b0 f3 c5 36 bb 2c 27 ef 3c 38 3d 06 be a9 a8 f4 bd
       -0.0027888983 0.029193483 -0.1310929 -0.11946232
0002c0 15 c1 db 3d c9 f1 c8 bd 6a e6 05 be de ae ff bd
       0.10730187 -0.09811742 -0.13076177 -0.12484525
0002d0 7c f2 b3 3c 7d c6 55 bc 84 57 70 bc b6 c8 36 bd
       0.021966211 -0.013047812 -0.014669303 -0.044625007
0002e0 f3 df 2f 3d 7c 96 3c bc 22 4b 86 3c bd df 57 bd
       0.042938184 -0.011510488 0.016393248 -0.052703608
0002f0 50 00 d3 bc 33 79 e5 bd a6 9b 3d bd c3 28 8e bd
       -0.025756985 -0.112047575 -0.046291016 -0.069413684
000300 3c 0d 0e 3d af 8b 2d 3d b8 1a 02 bd e5 be 4a bd
       0.03468059 0.04236954 -0.031763762 -0.049498457
000310 56 b3 40 3d a9 28 17 bd ea 90 f7 bd ee 9a 55 bc
       0.047046028 -0.03690401 -0.12088187 -0.013037426
000320 b0 0c 66 bd 5d bd 85 bc 8e c9 ad bd 13 ca 93 3d
       -0.056164443 -0.016325647 -0.08485709 0.07216277
000330 19 ee 10 bc 0d 3d 9d bd 06 be 3f bd c0 21 e4 bc
       -0.008845829 -0.0767766 -0.04681208 -0.027848125
000340 b8 fc 46 bd be 65 31 be dc d2 d7 3c 84 ca f7 bd
       -0.048580855 -0.17323968 0.026345663 -0.12099174
000350 60 d2 f2 bc 26 dc 4c bd e7 92 67 3c 4a ed d3 bc
       -0.02964133 -0.050014637 0.014134145 -0.025869984
000360 0c 76 93 bd 1f f0 06 3d 0b ff 85 bd b1 51 10 be
       -0.0720025 0.03294384 -0.06542786 -0.14093663
000370 1a 33 07 3e b1 d3 42 3d b9 ad 08 3e ee aa 74 3d
       0.13203087 0.047565166 0.1334752 0.059733324
000380 a9 35 56 bd 7c b6 69 bc 0a 9e 59 3d 6d 4a 00 3e
       -0.052297268 -0.014264699 0.053129233 0.12528391
000390 00 25 f8 3c 47 65 54 3d 35 eb 31 3d a6 f8 51 3d
       0.03029108 0.051854398 0.0434372 0.05126252
0003a0 fb 72 36 3b aa 81 22 bd fc 40 8d 3d a7 5f 9b 3d
       0.002783953 -0.03967444 0.068971604 0.075866036
0003b0 fd ee 7d bd 87 bd a9 bb e2 85 d7 3c 95 4f 67 3d
       -0.061995495 -0.005180064 0.026308957 0.05647238
0003c0 85 ae 47 3d 17 94 64 bd 29 d1 14 3d 13 49 24 3e
       0.04875042 -0.055805292 0.036332283 0.160435
0003d0 4e 67 9c bc 51 4e 0e 3e 64 34 e4 3c 33 bb 0f 3e
       -0.019092228 0.13897063 0.027857013 0.14036255
0003e0 32 0b 72 3d 03 20 d4 3d 1f 35 c4 bc 4f be bf 3c
       0.059092708 0.10357668 -0.023951111 0.023406176
0003f0 03 07 90 3d 48 1a b6 3c 2f 59 14 3d af db f7 3c
       0.070325874 0.022229329 0.036217865 0.03025612

model.nn.2.bias f4 [20]
000000 0a 7d d2 3c 79 b5 62 3d 6e 55 12 bd 6d 6d 9a bd
       0.025694389 0.055348847 -0.035726003 -0.075404026
000010 38 09 05 3c 1b d8 00 bd 6f a1 02 bc 57 bc 12 3d
       0.008119874 -0.031456094 -0.007973059 0.035824146
000020 f9 8e 29 bd d3 03 ad bc f6 80 54 bc 46 b6 56 3d
       -0.041396115 -0.021119988 -0.0129702 0.052419923
000030 66 01 a1 3d 7d 71 0f bc b3 b7 0c 38 65 13 d3 3d
       0.07861595 -0.008755085 3.3549684e-05 0.103064336
000040 18 d2 0d bd 1b ee c4 3d 86 b4 52 bd 6e 75 bd 3d
       -0.03462419 0.096157275 -0.05144169 0.092509136

model.args_proj.proj.0.weight f4 [1, 20]
000000 ea cd 28 be a9 cc 1e 3e 36 73 03 bd 52 12 a5 3d
       -0.164848 0.15507759 -0.032092296 0.08060135
000010 c8 db 8b bd 54 20 13 3e 11 db 7e be af e5 3f bc
       -0.06829029 0.14367801 -0.24888255 -0.011712476
000020 c8 41 4a 3d 18 39 2c be 79 1f 19 3e c7 58 2a 3d
       0.04937914 -0.16818655 0.14953412 0.04158857
000030 55 5a 4a bd 3f 2e d6 bd ec f9 b8 bd e9 ec 74 3c
       -0.049402554 -0.104580395 -0.09032044 0.014949062
000040 87 4e 70 be aa b2 08 be 3e fc 40 be 86 9e 66 3e
       -0.23467456 -0.13349405 -0.18846223 0.2252141

model.args_proj.proj.1.weight f4 [1, 20]
000000 cf f3 85 be e9 ec 2f 3e 6f cc 3c 3e 9e 38 d9 bd
       -0.26162574 0.17180218 0.1843736 -0.10606502
000010 f9 55 37 be 7f ae 29 3e 10 0a 89 3e bb 36 65 3e
       -0.1790389 0.16570471 0.2676549 0.2238416
000020 b2 01 e6 bd 1d 50 27 be fa ef 13 be 44 66 dd 3d
       -0.11230792 -0.16339155 -0.14447013 0.10810521
000030 58 b6 81 3d b0 88 64 be 63 e2 36 be 76 df 57 3c
       0.063336074 -0.22317767 -0.17859797 0.013175836
000040 a1 6a ee 3d 22 34 6b bd 1f 19 10 3e 77 f5 26 bd
       0.116414316 -0.057422765 0.14072083 -0.040761437

model.args_proj.proj.2.weight f4 [1, 20]
000000 56 ef 72 be 9f 0c ab be 42 37 41 3e fd 41 95 3e
       -0.23724112 -0.33408067 0.18868735 0.29151908
000010 e2 22 58 bd e8 8a 12 3e 20 ae e3 3d aa ec 5f be
       -0.05276764 0.14310801 0.11117196 -0.21867624
000020 78 12 1d 3e f2 c5 dd 3d fd aa dc 3c f6 a1 4b be
       0.15339077 0.10828771 0.026937002 -0.19886002
000030 b3 20 61 be ea 06 53 3d 76 d1 09 bb 89 57 3b be
       -0.2198513 0.051520266 -0.002102939 -0.18295111
000040 1f 0a d5 3d 21 26 87 be 2c 78 8a 3e c6 e9 aa be
       0.10402321 -0.26396278 0.2704481 -0.3338148

exp_avg f4 [20, 30]
000000 ce 1a c2 bb 34 0b 56 bb ee 86 8a bb e2 18 9a bb
       -0.0059236055 -0.0032660486 -0.0042275107 -0.0047026733
000010 60 5e 9a bb b2 c2 cb bb c0 53 15 bc 6e 1d 50 bc
       -0.0047109574 -0.006218278 -0.009114206 -0.012702329
000020 ad 41 7e bc 93 87 7e bc 18 81 43 bc aa d5 93 bb
       -0.015518588 -0.015535253 -0.011932634 -0.0045115547
000030 f2 92 ac bb 98 1b 6e bb 54 d7 4b bb 3c 16 06 bb
       -0.0052665407 -0.0036332365 -0.0031103687 -0.002046003
000040 40 f9 27 3a bc 71 8b 3b 22 3d b5 3b c8 a2 fa 3b
       0.00064076856 0.0042555016 0.0055309692 0.0076487996
000050 e2 28 10 3c ee bd 29 3c 2b 70 91 3c a9 c5 ae 3c
       0.00879881 0.010360224 0.017753681 0.021334486
000060 10 73 85 3c b1 be 4d 3c 5e 54 04 3c e8 48 f0 3a
       0.016290218 0.012557671 0.008076755 0.0018332275
000070 f4 5a d1 bb a6 5d 83 bc cf 0b 62 af f3 cd eb 2e
       -0.0063890163 -0.016035866 -2.0558776e-10 1.0723147e-10
000080 2f ad b4 ae bd 0d 0c 2f 05 37 66 af 0b c1 04 af
       -8.216216e-11 1.2737807e-10 -2.0937925e-10 -1.2073913e-10
000090 b9 78 c4 ae 82 01 4c af 7c 04 c2 af 9c 7d 40 af
       -8.934493e-11 -1.8554228e-10 -3.529158e-10 -1.7506924e-10
0000a0 7b fe 40 2f 7d f6 b4 af 1f 2d 01 b0 01 be 2c ae
       1.7552708e-10 -3.291695e-10 -4.699405e-10 -3.927703e-11
0000b0 0c 79 b3 2f 98 e4 d0 2f 71 c1 0d b0 4c b4 0c b0
       3.264592e-10 3.7997405e-10 -5.15704e-10 -5.118792e-10
0000c0 a4 65 a5 2f fc 0f ff 2e fc 0c 0e b0 05 94 d5 af
       3.0085545e-10 1.1598897e-10 -5.167775e-10 -3.8849648e-10
0000d0 e1 0f 0f b0 76 55 cc ae 6a f6 6d 2f 38 1e 9d 2d
       -5.204566e-10 -9.292027e-11 2.1642568e-10 1.7862253e-11
0000e0 a0 c0 2a 2f f6 2b 29 b0 01 1e 0b 30 17 bb be ae
       1.5529844e-10 -6.1544314e-10 5.0610544e-10 -8.6734335e-11
0000f0 a0 11 ca bb 82 44 a0 bb ea bc bc bb d4 01 d3 bb
       -0.006166652 -0.0048909793 -0.005759825 -0.006439427
000100 c2 2a d0 bb 02 a9 ea bb b4 63 12 bc 3c 7e 34 bc
       -0.0063527534 -0.0071612606 -0.008934904 -0.011016425
000110 cc ab 4e bc 40 95 4c bc 72 9f 33 bc f5 da fd bb
       -0.012614202 -0.012486756 -0.010963308 -0.007747049
000120 14 df 06 bc a0 26 fa bb 22 b2 f4 bb 7f 25 e5 bb
       -0.008231897 -0.007633999 -0.007467524 -0.0069929953
000130 04 61 b4 bb af f1 77 bb 28 7c 48 bb 4c d8 05 bb
       -0.005504729 -0.0037833264 -0.003059158 -0.0020423112
000140 e0 fb 9d ba 00 2b b0 b9 b0 cb c1 3b 01 9b 09 3c
       -0.0012053214 -0.00033601373 0.005914174 0.008398772
000150 4a b7 a7 3b b2 ef 85 3b 1c 34 4b 3b dc 84 89 3a
       0.0051182853 0.004087412 0.0031006401 0.0010491866
000160 72 a3 0a bb 26 d8 b8 bb 4a 8e c1 bb ec 61 ad bb
       -0.002115455 -0.0056410013 -0.0059068548 -0.005291214
000170 88 f4 c6 bb ba fb de bb 21 00 db bb 9f 59 ea bb
       -0.006071631 -0.0068049105 -0.006683365 -0.007151797
000180 44 f5 08 bc e1 b8 1e bc 4a 2a 2f bc 79 25 2c bc
       -0.008359257 -0.009687633 -0.010691235 -0.010506981
000190 ac 22 23 bc 9b 99 0e bc 54 56 14 bc 26 65 12 bc
       -0.009956997 -0.008703615 -0.009053785 -0.0089352485
0001a0 18 68 12 bc 76 4a 0f bc 3c a6 00 bc 6d bb e6 bb
       -0.008935951 -0.00874578 -0.007852133 -0.007041386
0001b0 91 3c d8 bb e9 34 c8 bb be ca b2 bb d0 84 a1 bb
       -0.006599017 -0.006109823 -0.0054562977 -0.0049291626
0001c0 33 9f 07 3a c0 cb 1d 3b c0 83 13 38 50 d9 62 39
       0.0005173564 0.0024077743 3.5170233e-05 0.00021633995
0001d0 14 a6 4a 3a 2c d7 20 3a 30 2e 74 b9 a8 c3 81 ba
       0.0007730436 0.0006135579 -0.0002328686 -0.0009900229
0001e0 45 4e 48 b9 ba ca 46 b9 8e 46 4d b9 0e 1f 51 b9
       -0.00019102644 -0.00018958273 -0.00019576607 -0.00019943362
0001f0 38 2e 54 b9 48 cd 55 b9 38 12 59 b9 27 71 57 b9
       -0.00020235113 -0.00020389736 -0.0002070152 -0.0002054615
000200 de 6f 5a b9 c9 98 56 b9 c7 d0 67 b9 00 ee 77 b9
       -0.00020831774 -0.00020465547 -0.00022107652 -0.00023644418
000210 5e 8a 85 b9 c3 c2 95 b9 bb f2 a3 b9 f9 58 be b9
       -0.00025470828 -0.00028564603 -0.0003127063 -0.00036305914
000220 29 6b c3 b9 8a 3f 0e ba 6b 5b 13 ba d1 12 14 ba
       -0.0003727314 -0.0005426338 -0.00056212273 -0.0005648556
000230 af c5 f4 ba 37 86 f5 ba a0 cd d3 bb 6b 28 05 bc
       -0.0018674637 -0.0018732016 -0.0064637214 -0.008127312
000240 a5 43 c4 bb 40 fa cc bb a1 ad d3 bb 7f 12 d7 bb
       -0.005989509 -0.006255418 -0.006459907 -0.006563484
000250 3f c1 d4 bb 0d 2d df bb 30 55 60 bb 88 3e e7 ba
       -0.0064927633 -0.0068107904 -0.0034230463 -0.0017642537
000260 ee 86 1b bb 80 36 2f bb fe 21 2f bb 3c 01 6d bb
       -0.0023731547 -0.0026735365 -0.0026723142 -0.0036164066
000270 19 31 b2 bb b9 08 fc bb 04 fb 1a bc 95 ff 1a bc
       -0.005437982 -0.0076914695 -0.009459261 -0.00946035
000280 09 11 ec bb 72 1d 28 bb aa 24 47 bb 9a e2 03 bb
       -0.007204179 -0.0025652316 -0.0030386844 -0.0020124079
000290 48 f2 dc ba 00 bd 85 ba d0 78 30 3a 90 22 41 3b
       -0.0016856873 -0.0010203421 0.00067318697 0.0029470064
0002a0 08 b9 75 3b f6 7b a6 3b 74 89 be 3b de c6 de 3b
       0.003749432 0.0050806953 0.0058147255 0.006798609
0002b0 3c ad 3b 3c cf d2 60 3c b8 d8 2c 3c 55 af 06 3c
       0.0114548765 0.013722136 0.010549717 0.008220513
0002c0 68 d5 b1 3b 98 ae c7 3a 56 8a 6d bb 05 58 1e bc
       0.0054270513 0.0015234528 -0.0036245785 -0.00966454
0002d0 fc a0 e2 2f 9b cf 43 2f e2 fb 0b 30 9e 05 0f af
       4.1223547e-10 1.7808903e-10 5.092585e-10 -1.300777e-10
0002e0 a1 02 e3 af 48 14 a6 af 1a 4c 07 30 8f e9 49 2c
       -4.1292927e-10 -3.0209635e-10 4.922086e-10 2.869347e-12
0002f0 db 59 0a 30 d6 f6 9e 2e 66 d4 ce af b0 02 38 2f
       5.03318e-10 7.228855e-11 -3.76221e-10 1.6735657e-10
000300 8a ef 97 af ca 67 99 af 23 b2 ac af 14 59 fb af
       -2.7636943e-10 -2.7904284e-10 -3.1413191e-10 -4.5719928e-10
000310 ae a8 03 30 ae 63 a5 2e 69 20 0f b0 4e 0f cf 2e
       4.789723e-10 7.521038e-11 -5.2069155e-10 9.415989e-11
000320 bc 99 0c 30 8a fe aa af b7 ae 7f 2e bb 61 e9 af
       5.1150173e-10 -3.110368e-10 5.8135465e-11 -4.2451895e-10
000330 a9 58 fb af 16 70 c4 2f ab b4 b9 ae 0e 1f 86 af
       -4.571963e-10 3.5731834e-10 -8.444919e-11 -2.4396524e-10
000340 4b 04 bd ac d5 57 13 b0 24 c1 fc bb e5 14 b9 bb
       -5.3721797e-12 -5.3603105e-10 -0.007713454 -0.005648243
000350 82 17 dd bb 24 0e f6 bb f6 cc f3 bb fe 45 0e bc
       -0.006747187 -0.00750901 -0.0074402047 -0.00868368
000360 10 a1 38 bc 4f 56 6b bc 99 63 89 bc 51 91 88 bc
       -0.011268869 -0.014363839 -0.016771125 -0.016670855
000370 ea 52 66 bc d3 8e 0c bc 07 16 18 bc 21 1d 06 bc
       -0.014057854 -0.008578974 -0.0092825955 -0.008185656
000380 ef be 00 bc 88 bd e7 bb 9c 15 9e bb 6c 0c 06 bb
       -0.007858022 -0.0070721544 -0.0048243534 -0.0020454181
000390 10 15 7d ba e0 58 30 3a 68 c3 eb 3a 54 eb 4b 3b
       -0.00096543226 0.00067271106 0.0017987313 0.0031115608
0003a0 a8 a0 37 3c a4 d9 6f 3c ce 7f 23 3c 0a ea fd 3b
       0.011207737 0.014639292 0.0099792015 0.007748847
0003b0 42 ff ac 3b c8 9f a4 3a a8 a7 91 bb 1b e2 33 bc
       0.0052794525 0.0012559826 -0.004445035 -0.010979201
0003c0 f0 11 90 bb 40 80 41 3b a0 e0 db 3a 00 c2 f5 3a
       -0.0043966696 0.0029525906 0.0016775317 0.0018749833
0003d0 40 bc c3 3a 50 14 22 bb 24 9c 18 bc e6 f4 93 bc
       0.0014933422 -0.0024731345 -0.009314571 -0.018061113
0003e0 17 eb cc bc 4a 7b d1 bc c0 d7 73 bc 78 a4 de 3b
       -0.025014443 -0.025571484 -0.014882982 0.0067945085
0003f0 20 35 a8 3b e0 51 29 3c 04 fb 43 3c e8 35 78 3c
       0.005133286 0.010334462 0.011961702 0.015149571

exp_avg_sq f4 [20, 30]
000000 bf e4 58 3b d1 ac 55 3b cc c8 55 3b 53 c2 54 3b
       0.0033095328 0.0032604227 0.0032620905 0.003246446
000010 ec c4 53 3b 3e 71 53 3b 63 c8 52 3b 28 12 53 3b
       0.003231342 0.0032263543 0.0032162897 0.0032206867
000020 1f 1a 51 3b 4a 8e 4f 3b ed 91 4e 3b fb 11 4f 3b
       0.0031906439 0.0031670504 0.0031520084 0.003159641
000030 31 03 4f 3b 16 ee 52 3b cb 79 53 3b 11 79 57 3b
       0.0031587596 0.0032185367 0.003226864 0.0032878558
000040 04 91 61 3b c4 00 65 3b ea af 5f 3b 25 03 62 3b
       0.0034418711 0.0034943083 0.0034131953 0.0034486738
000050 8b 80 61 3b c6 02 69 3b 2d ac 6c 3b de 6e 6b 3b
       0.0034408893 0.0035554632 0.0036113367 0.0035924236
000060 51 bf 6b 3b e9 e0 6b 3b 82 12 6c 3b 89 e1 6b 3b
       0.0035972188 0.0035992211 0.0036021774 0.0035992584
000070 19 1d 7a 3b ca ec 8c 3b 36 cd 5d 1e 16 06 72 1d
       0.0038164316 0.0043006884 1.1742079e-20 3.203158e-21
000080 42 30 0e 1d 94 a8 aa 1d bb 08 66 1e 6a 5c 99 1d
       1.8818492e-21 4.517293e-21 1.2177904e-20 4.0594317e-21
000090 0b 1a 28 1d cf c1 34 1e bf c1 22 1f 2f f9 20 1e
       2.2248079e-21 9.569199e-21 3.4465097e-20 8.5218594e-21
0000a0 6e d0 21 1e f0 ad 0d 1f f4 db 8f 1f 12 22 02 1c
       8.566371e-21 3.000179e-20 6.092674e-20 4.3057427e-22
0000b0 a9 5d 0b 1f 6f 89 3c 1f a4 0a ad 1f 3b 80 aa 1f
       2.951187e-20 3.992423e-20 7.3285953e-20 7.220994e-20
0000c0 d9 e2 ec 1e e0 8c 8d 1d 26 c2 ad 1f a3 0b 45 1f
       2.5081294e-20 3.746805e-21 7.358954e-20 4.1725998e-20
0000d0 82 39 b0 1f 8d ce 35 1d 63 59 d2 33 ab e3 d1 33
       7.463404e-20 2.4061935e-21 9.7951464e-08 9.7737335e-08
0000e0 01 f4 d0 33 ed 04 d0 33 8d 56 ff 36 b7 c5 fe 36
       9.730139e-08 9.686651e-08 7.609668e-06 7.592807e-06
0000f0 59 2c 92 3a 7c 13 8f 3a 21 e8 8e 3a d2 c7 8e 3a
       0.0011152133 0.0010915841 0.001090292 0.0010893291
000100 c4 13 8e 3a df 37 8e 3a da e0 8d 3a f1 42 8e 3a
       0.0010839631 0.0010850391 0.0010824457 0.001085369
000110 c4 ce 8c 3a dc b4 8b 3a 10 87 8a 3a f4 28 8a 3a
       0.0010742773 0.0010658759 0.0010568816 0.001054077
000120 f8 ef 89 3a 88 92 8c 3a 09 7b 8c 3a d6 6c 8f 3a
       0.0010523787 0.0010724822 0.001071782 0.001094247
000130 83 43 98 3a 8a 44 9a 3a 14 27 96 3a 89 74 97 3a
       0.00116168 0.0011769694 0.0011455738 0.0011555116
000140 92 21 98 3a 34 62 9f 3a b0 a9 a1 3a 78 1a a0 3a
       0.0011606684 0.0012160004 0.0012333896 0.001221492
000150 35 b9 a4 3a e1 6e a7 3a d1 25 ac 3a 11 9f b9 3a
       0.0012567403 0.0012774133 0.0013133829 0.0014161785
000160 06 9e dd 3a 3e 5c 6a 3b 08 63 2c 3a 1f d2 28 3a
       0.0016908057 0.0035760547 0.0006576036 0.0006440002
000170 12 a0 28 3a 89 61 29 3a c4 ee 28 3a 28 c2 29 3a
       0.0006432544 0.0006461372 0.000644427 0.000647577
000180 37 10 2a 3a 5d 1c 2a 3a ad d6 28 3a aa 47 28 3a
       0.00064874016 0.0006489212 0.00064406806 0.000641937
000190 81 e8 26 3a 0e 02 26 3a 48 38 25 3a a3 2e 28 3a
       0.0006367043 0.00063327036 0.0006302637 0.0006415641
0001a0 a6 08 28 3a be 61 2b 3a 19 00 36 3a 9a e5 37 3a
       0.000640998 0.0006537697 0.00069427636 0.00070151093
0001b0 84 e6 33 3a c2 31 36 3a 35 e9 38 3a 21 4f 42 3a
       0.00068626576 0.00069501635 0.00070537935 0.0007412304
0001c0 40 0b 46 3a 38 6c 46 3a 35 7d 4f 3a cf c6 56 3a
       0.0007554777 0.00075692264 0.00079150806 0.0008193077
0001d0 aa 0e 63 3a 6f 1a 80 3a 42 90 9f 3a 56 d1 28 3b
       0.0008661548 0.0009773503 0.001217373 0.002575954
0001e0 37 b6 f9 35 ab b3 f9 35 d8 3b f8 35 60 cd ef 35
       1.8604977e-06 1.8604236e-06 1.8494857e-06 1.786666e-06
0001f0 dc 2f e7 35 22 87 e4 35 7d 03 e1 35 b1 24 da 35
       1.722477e-06 1.7026653e-06 1.6764822e-06 1.6252944e-06
000200 06 22 cd 35 29 0c ad 35 53 30 a5 35 26 63 a3 35
       1.5283592e-06 1.2893044e-06 1.2307522e-06 1.2173302e-06
000210 b4 6c a1 35 8e 24 9e 35 5b 65 97 35 96 c6 9a 35
       1.2027072e-06 1.1782556e-06 1.1279875e-06 1.153169e-06
000220 eb 3c 97 35 a6 26 9f 35 d1 eb a0 35 a0 d1 ab 36
       1.1268106e-06 1.1857671e-06 1.198956e-06 5.1206007e-06
000230 19 45 b6 36 c2 00 b6 36 1b a7 0c 37 4e 86 1c 37
       5.4320667e-06 5.424111e-06 8.3835575e-06 9.329595e-06
000240 49 4e 05 37 66 6f 08 37 32 a7 8e 37 b5 8a 7a 38
       7.945645e-06 8.132169e-06 1.7005576e-05 5.9733826e-05
000250 b8 31 d1 38 dd c7 ec 39 47 1e c3 3a 8e 42 c0 3a
       9.9751574e-05 0.00045162337 0.0014886343 0.0014668272
000260 29 52 c0 3a 47 72 bf 3a 10 7c be 3a 00 28 be 3a
       0.0014672923 0.0014606201 0.0014532823 0.001450777
000270 b3 83 bd 3a 6a dd bd 3a 7d 19 bc 3a a9 96 ba 3a
       0.0014458805 0.0014485542 0.0014350858 0.0014235574
000280 94 b4 b9 3a 48 47 ba 3a 37 fd b9 3a 63 8d bd 3a
       0.0014168196 0.0014211917 0.0014189844 0.0014461692
000290 eb b3 bd 3a aa 5c c1 3a 4b 34 cb 3a fd 0a ce 3a
       0.0014473175 0.0014752347 0.0015503255 0.0015719827
0002a0 48 0e c8 3a 6b af ca 3a 29 41 ca 3a f7 75 d1 3a
       0.0015263045 0.0015463656 0.0015430796 0.0015980591
0002b0 f5 27 d5 3a 5d 44 d4 3a 3e 8a d4 3a 5b ed d4 3a
       0.0016262518 0.001619469 0.0016215516 0.0016245054
0002c0 a2 e3 d4 3a d8 c4 d3 3a cb 0d e1 3a 8a 02 09 3b
       0.0016242156 0.0016156686 0.0017170248 0.0020906054
0002d0 bf b9 5d 1f 83 8f 26 1e 3d c5 a8 1f ab f4 b1 1d
       4.6952216e-20 8.817644e-21 7.147707e-20 4.710449e-21
0002e0 01 78 5e 1f 15 d6 ee 1e 07 ba 9d 1f f6 fa 31 18
       4.7109593e-20 2.5287772e-20 6.679984e-20 2.3003417e-24
0002f0 7b e1 a4 1f 73 32 dc 1c 52 d9 38 1f 3d 22 13 1e
       6.982973e-20 1.457142e-21 3.914328e-20 7.7891955e-21
000300 de 06 c8 1e 89 e6 cb 1e fb 14 01 1f 65 35 88 1f
       2.1178664e-20 2.1588808e-20 2.7334167e-20 5.7686574e-20
000310 6b 68 95 1f 58 56 ee 1c fd 61 b0 1f ed ae 3a 1d
       6.32767e-20 1.5771838e-21 7.470101e-20 2.470733e-21
000320 3c 40 aa 1f 3f 1f fd 1e c7 78 8e 1c cf 0f 6b 1f
       7.210407e-20 2.680034e-20 9.427992e-22 4.9776262e-20
000330 f5 34 88 1f c2 d2 26 1f 6b 34 16 1d aa 01 9c 1e
       5.768585e-20 3.5326202e-20 1.9879434e-21 1.651783e-20
000340 02 f6 1b 19 43 db ba 1f 3e 69 1d 3b a4 a8 1a 3b
       8.062993e-24 7.91368e-20 0.0024019028 0.0023599053
000350 2d 9a 1a 3b ec 44 1a 3b a1 b1 19 3b 75 ce 19 3b
       0.002359043 0.0023539616 0.0023451822 0.0023469005
000360 3f 91 19 3b 42 db 19 3b 8c 60 18 3b cc 51 17 3b
       0.002343252 0.0023476635 0.0023250906 0.0023089526
000370 b8 64 16 3b 48 35 16 3b 75 21 16 3b 49 26 19 3b
       0.0022948217 0.0022919942 0.0022908126 0.0023368767
000380 84 7f 19 3b 3e 83 1c 3b 7a d0 24 3b 3c 37 27 3b
       0.0023421953 0.0023881937 0.0025148676 0.00255151
000390 d6 85 23 3b 38 60 25 3b 4e f1 25 3b 5d 8e 2c 3b
       0.0024951599 0.0025234353 0.002532083 0.0026329972
0003a0 fd 30 2f 3b 67 72 2e 3b 26 20 31 3b fa cc 32 3b
       0.002673208 0.0026618482 0.0027027219 0.002728282
0003b0 1d 26 35 3b fe 85 3a 3b 53 0a 4f 3b ad 51 a3 3b
       0.0027641125 0.0028461213 0.0031591847 0.0049841017
0003c0 7c 35 87 3c 82 ab 85 3c d8 c5 85 3c 86 f5 84 3c
       0.016504996 0.016317133 0.01632969 0.016230356
0003d0 c8 ac 84 3c 1e 0c 85 3c 1f 19 85 3c 6e 98 85 3c
       0.01619567 0.01624113 0.01624733 0.016308036
0003e0 02 ce 84 3c 48 d2 84 3c 25 06 85 3c 93 5e 86 3c
       0.016211513 0.016213551 0.016238282 0.016402518
0003f0 9c 32 87 3c 16 33 89 3c 9f 07 8a 3c 22 86 8c 3c
       0.016503625 0.016747992 0.016849337 0.017153803

exp_avg f4 [20]
000000 70 73 08 ba 23 4b 14 af 89 da 83 bb 87 5b b0 bb
       -0.000520519 -1.3487216e-10 -0.004023854 -0.0053820047
000010 7e 37 18 bb 00 1c 2e b8 00 00 00 00 03 39 82 bb
       -0.0023226435 -4.151091e-05 0.0 -0.0039740815
000020 00 34 41 3c 20 e0 9e 3c 00 00 00 00 d0 a2 be 3b
       0.011792183 0.01939398 0.0 0.0058177486
000030 40 7a 5d 39 36 da 1d af 00 d0 cc 36 0a 00 70 bb
       0.00021121744 -1.4356591e-10 6.103888e-06 -0.0036621117
000040 de f4 09 3c 1d a7 a2 bb 10 7a ba 3b 00 00 60 b3
       0.008420197 -0.004963769 0.0056908205 -5.2154064e-08

exp_avg_sq f4 [20]
000000 5d cc 4e 3b 18 ef 1f 33 a4 98 88 3a aa fd 23 3a
       0.0031554915 3.7237527e-08 0.0010421467 0.00062557554
000010 52 a8 89 36 bf b2 b8 3a 00 00 00 00 17 48 16 3b
       4.1025132e-06 0.0014091356 0.0 0.0022931152
000020 a6 34 88 3c 35 e8 cf 3c 00 00 00 00 35 a1 ed 3c
       0.016626667 0.02537928 0.0 0.029007534
000030 c9 e4 c1 3a 50 a3 36 35 c7 ad 40 3b 54 d9 1c 3a
       0.0014792915 6.8037934e-07 0.0029400454 0.0005983312
000040 3a 9b c9 39 38 80 a3 39 91 4e 8a 3c f6 46 59 3c
       0.0003845336 0.00031185313 0.016883167 0.013261547

exp_avg f4 [20, 20]
000000 72 ad c2 bc ad ca 60 2f 72 0c 1d bd c4 d3 c0 bc
       -0.023764346 2.0444686e-10 -0.038341947 -0.023538478
000010 66 4b ad ba f0 20 37 bc 0c e1 01 b0 38 fc c6 bc
       -0.0013221323 -0.0111772865 -4.724974e-10 -0.02429019
000020 1b c1 2a bc 8a 14 06 bc cc 1b b5 af e4 99 67 3b
       -0.0104220165 -0.008183608 -3.294346e-10 0.0035339529
000030 8e 70 0e bc d7 89 10 30 d8 1d b6 bc 3c 63 28 bd
       -0.008693827 5.2582777e-10 -0.022231027 -0.041110262
000040 18 5c bb bb 38 38 2b bd bd 5d ca 3b ef 3c 10 bc
       -0.0057177655 -0.04180166 0.0061757253 -0.00880359
000050 cc 5e e9 3b 63 08 09 30 40 39 32 ba cc 63 55 bc
       0.0071218964 4.985223e-10 -0.0006798692 -0.013024282
000060 9e 40 eb 3a dc aa 31 3b e8 e8 51 2f d8 d3 10 bc
       0.0017948335 0.0027109897 1.9091184e-10 -0.00883957
000070 74 da 1d 3c 0a f9 25 3c f6 b3 3c af 1c 1f 59 3b
       0.009634603 0.010130176 -1.7162435e-10 0.0033130115
000080 40 d5 e5 3a 7b c9 ac af a4 91 19 3c 80 ce fe 39
       0.0017534867 -3.1429778e-10 0.009373102 0.0004860051
000090 2a 86 9b 3b c0 ca 6b ba 1c 2f 19 3b d2 37 21 3c
       0.004746218 -0.00089947507 0.0023374027 0.009839969
0000a0 ce 8c 8c 3c 70 90 51 af 00 6d e8 3c d8 47 94 3c
       0.017156985 -1.9059754e-10 0.028372288 0.018100664
0000b0 f3 67 62 3a de 85 04 3c 7c 65 01 b0 84 c5 96 3c
       0.00086367055 0.008088557 -4.7074145e-10 0.01840473
0000c0 46 4c e9 3b ca bd b0 3b 98 bc 87 2f 24 d8 3e bb
       0.007119688 0.0053937184 2.469036e-10 -0.002912053
0000d0 84 1f ce 3b 20 13 80 2f 42 03 82 3c d4 c9 f8 3c
       0.006290378 2.3296653e-10 0.015870694 0.030369677
0000e0 8c a5 7e 3b ca e3 fd 3c 61 f0 9d bb 3e c7 c1 3b
       0.0038855998 0.030992407 -0.004819915 0.005913644
0000f0 f0 8d 44 bb ab 71 bf af 60 44 94 3b d4 e1 4c 3c
       -0.0029991828 -3.4823464e-10 0.0045247525 0.0125050135
000100 40 81 a1 ba f0 d7 69 ba d7 6c f2 2c e0 ce 19 3c
       -0.0012321845 -0.0008920422 6.8901373e-12 0.009387702
000110 10 77 cd bb e7 d6 df bb 21 81 d6 2e d6 ab 35 bb
       -0.006270297 -0.0068310383 9.754531e-11 -0.002772083
000120 c0 64 cf b9 20 b1 0f 30 2e 21 9f bb 40 bb 7e 3b
       -0.0003955718 5.2274807e-10 -0.0048562502 0.0038868934
000130 f6 a5 41 bb 18 54 a3 3b f2 8c 15 bb ca 67 d8 bb
       -0.0029548383 0.00498439 -0.0022819606 -0.0066041695
000140 8c c5 70 bc b2 5a a0 af 24 94 ad bc 70 c0 2a bc
       -0.014695536 -2.9168273e-10 -0.021188803 -0.010421857
000150 f1 bf 90 ba e0 b3 de bb 67 e0 da af f8 8a 40 bc
       -0.0011043531 -0.006796345 -3.9813416e-10 -0.011751883
000160 91 50 00 bc 78 12 dc bb e4 e7 a4 2f 90 3a 94 3a
       -0.0078317085 -0.006716069 2.9996194e-10 0.0011308957
000170 58 36 ac bb 38 25 f6 af 82 bd 6a bc ac 11 bc bc
       -0.0052555017 -4.4773585e-10 -0.014327409 -0.022957645
000180 68 cc 89 bb 9e 1c bc bc 18 e1 35 3b 7a 24 e5 bb
       -0.0042052753 -0.022962864 0.0027752575 -0.0069928737
000190 c4 2a 72 3c 1d 68 34 b0 64 85 c0 3c 74 35 66 3c
       0.014780704 -6.563157e-10 0.023501106 0.01405083
0001a0 1c b1 61 3a dc 4c e3 3b 21 9f 64 2f b0 9b 6f 3c
       0.000860946 0.0069366526 2.0793013e-10 0.014624521
0001b0 6a 9c da 3b cc f6 ad 3b 30 b3 bd 2f 98 cd 09 bb
       0.006671478 0.0053089615 3.450622e-10 -0.0021027084
0001c0 dc 09 b0 3b a1 d3 26 2e 9a d1 63 3c 9a a6 ce 3c
       0.005372269 3.7931994e-11 0.013904953 0.025225926
0001d0 94 46 6f 3b de 07 d2 3c 96 31 76 bb b3 de b9 3b
       0.0036510574 0.025638517 -0.0037566177 0.0056723
0001e0 2a fc b8 3c 84 5b 17 b0 ce 0f 0b 3d 3c 84 95 3c
       0.022581179 -5.506353e-10 0.03395062 0.01825153
0001f0 c0 ca c6 3a f8 52 2b 3c a2 17 26 af 14 11 a2 3c
       0.0015166625 0.010456793 -1.5106008e-10 0.019783534
000200 ee fe 36 3c c2 e0 16 3c 78 df 0a b0 04 bc 27 bb
       0.011169178 0.00920886 -5.0521676e-10 -0.0025594244
000210 e0 2c 04 3c 45 c4 f9 2f 82 32 b1 3c 3e 4d 16 3d
       0.00806734 4.5432294e-10 0.02163053 0.036694758
000220 68 66 c1 3b a0 7d 17 3d 22 34 a7 bb 83 c3 20 3c
       0.0059021004 0.03698504 -0.0051026503 0.009812239
000230 d8 b7 58 3c c9 5d a6 2f c8 fc 37 3c 60 6c 6b bb
       0.0132274255 3.0261862e-10 0.011229701 -0.003592275
000240 48 89 f7 3a 5c ae b9 3b e8 b3 0c b0 00 ec d8 38
       0.0018885517 0.005666537 -5.1187365e-10 0.00010343641
000250 7e e6 36 3c 54 a5 31 3c 8d 53 5c 2f 10 7b cd 3a
       0.011163352 0.01084264 2.0038567e-10 0.0015676934
000260 d4 6c 86 3b 21 2e 30 30 02 25 6f 3c 28 4a 56 3c
       0.004102329 6.409398e-10 0.014596226 0.013079204
000270 ba df b7 3b 68 13 47 3c 80 b5 84 b8 7d cc 31 3c
       0.005611387 0.012150623 -6.3280575e-05 0.010851976
000280 98 72 c5 bb be c5 1b 30 e0 9c 72 bb 18 b8 81 3b
       -0.0060256235 5.666968e-10 -0.0037019774 0.0039587133
000290 ab d0 85 ba 28 46 24 bb cc 0c 15 30 a0 80 ec 3a
       -0.0010209283 -0.002506623 5.422407e-10 0.0018043704
0002a0 84 73 bf bb fc 21 bf bb 99 9f ac af a0 1a a4 ba
       -0.005842628 -0.0058329087 -3.140002e-10 -0.0012520142
0002b0 e0 97 e9 ba f0 84 a0 2f 1a 30 e4 bb b0 4c 96 bb
       -0.0017821752 2.9198288e-10 -0.006963742 -0.0045867786
0002c0 fc 31 3e bb b0 6a 81 bb f8 d0 01 ba e2 c5 bd bb
       -0.0029021492 -0.0039494857 -0.0004952098 -0.0057914117
0002d0 22 a0 2e bc f0 69 1c af cc 09 33 bc 80 47 89 b9
       -0.010658296 -1.4225754e-10 -0.010927629 -0.00026183948
0002e0 e8 e3 ac ba 4a 34 9a bb 86 0c 36 2f 80 c6 2f bb
       -0.001319048 -0.0047059404 1.6557253e-10 -0.0026821196
0002f0 1f 53 04 bc 90 0e fd bb a4 79 00 b0 a0 31 61 ba
       -0.008076458 -0.0077226833 -4.673899e-10 -0.00085904635
000300 b8 23 67 bb 41 f8 e8 2f 44 b7 3a bc 50 ec 49 bc
       -0.0035269093 4.237695e-10 -0.011396233 -0.012324408
000310 20 90 89 bb ec ef 3f bc 80 24 cd 39 7b 14 fd bb
       -0.0041980892 -0.011714917 0.00039127842 -0.0077233887
000320 22 30 31 bc fe 35 32 af ac 47 66 bc 20 a7 a7 bb
       -0.010814698 -1.6208188e-10 -0.014055174 -0.0051163584
000330 a8 5a 80 ba 00 4e a0 bb ae eb 01 b0 00 81 d7 bb
       -0.0009792643 -0.004892111 -4.726485e-10 -0.0065766573
000340 33 fd d5 bb 5f 3a be bb 09 45 92 2f 90 d6 d3 39
       -0.006530428 -0.005805298 2.6606298e-10 0.00040404918
000350 78 e8 73 bb f9 76 09 b0 ac c8 31 bc f4 d9 7c bc
       -0.003721742 -5.000938e-10 -0.010851067 -0.015432823
000360 b0 27 5d bb a0 f6 79 bc 18 01 d8 3a fb 18 c5 bb
       -0.003374558 -0.015256554 0.0016479818 -0.006014941
000370 9c a3 9e 3b 41 93 05 30 c0 05 1c 3a 30 91 e8 bb
       0.004841281 4.859438e-10 0.00059517846 -0.007097386
000380 94 c9 8f 3a e8 d4 f8 3a 83 71 13 30 88 38 96 bb
       0.0010970109 0.001898435 5.36396e-10 -0.004584376
000390 9f 26 c4 3b ae f4 cb 3b df 1d f1 2f 74 3b fa 3a
       0.0059860493 0.0062242365 4.385887e-10 0.0019091205
0003a0 b8 da a7 3a be 23 da af ae 16 c9 3b e0 6e b2 3a
       0.0012806272 -3.9679365e-10 0.006136737 0.0013613366
0003b0 10 e6 41 3b 40 99 09 3a 7c 83 a6 3a fb 20 c7 3b
       0.002958659 0.0005248971 0.001270398 0.0060769296
0003c0 b0 ab 90 3a ab 3b 17 b0 08 08 a0 bb 7c 47 22 bc
       0.0011037495 -5.5018273e-10 -0.00488377 -0.0099047385
0003d0 8c 64 57 3a c0 87 26 39 76 a8 9a 2f 38 60 fc bb
       0.0008216582 0.00015881564 2.8132136e-10 -0.0077019
0003e0 b2 0e 84 3b 2c ee 94 3b 90 fa 84 af 5b 18 10 3b
       0.004030072 0.004544994 -2.4188695e-10 0.0021987173
0003f0 40 7b 93 b8 cc 61 74 2f 5c 12 24 3b 84 56 95 bb
       -7.032463e-05 2.2226415e-10 0.0025035357 -0.0045574326

exp_avg_sq f4 [20, 20]
000000 b0 71 a7 3c 7a df db 31 f0 b7 b2 3d b9 6a 9b 3d
       0.020439953 6.399145e-09 0.087264895 0.07588715
000010 be 15 8d 35 24 d0 e5 3b 68 6b 91 1f 90 b6 aa 3d
       1.0511646e-06 0.0070133377 6.158758e-20 0.08335602
000020 9e 1c dd 3a fd 36 0f 3b 1c e8 0d 1f 15 b8 e7 3a
       0.001686949 0.0021852844 3.0049908e-20 0.0017678762
000030 4f 3f f8 3b d6 ac bd 36 e4 e8 81 3c 99 0e ba 3d
       0.0075759063 5.6527597e-06 0.015858121 0.090848155
000040 f6 0e 1c 3a 52 4a 89 3d c4 1e 13 3b b9 88 bf 3a
       0.0005953157 0.067036286 0.0022448758 0.001461289
000050 c3 ac 26 3c 28 62 6f 33 14 1d 2a 3d f6 01 12 3d
       0.010173026 5.5735796e-08 0.041531637 0.0356464
000060 dc da 5a 37 f5 25 77 3b 88 57 3f 1e 4d d5 23 3d
       1.304477e-05 0.0037711833 1.0129557e-20 0.03999834
000070 02 52 6b 3a 63 a0 9e 3a 0c b7 1a 1e 29 25 5b 3a
       0.00089767587 0.0012102242 8.190545e-21 0.00083597243
000080 5a 5e 6c 3b eb 2a bc 36 48 d4 f9 3b 47 67 32 3d
       0.003606698 5.607833e-06 0.007624183 0.043555524
000090 47 1a b0 39 ac dd 02 3d 7b 2b 98 3a 77 aa 42 3a
       0.00033588914 0.031949684 0.0011609638 0.0007425914
0000a0 bd 3a 19 3c 4b 3a 7d 32 14 dd 23 3d 30 89 0f 3d
       0.009352383 1.47397925e-08 0.04000576 0.03504294
0000b0 29 3b e1 35 81 4d 54 3b e6 58 90 1f 0d a1 1c 3d
       1.6781024e-06 0.0032394829 6.113344e-20 0.038239527
0000c0 f2 11 49 3a da dc 82 3a 43 c6 9f 1e 3c 5c 5b 3a
       0.00076702156 0.0009984032 1.6916779e-20 0.0008367931
0000d0 f3 77 63 3b 27 85 04 36 48 88 ed 3b 1e dd 2a 3d
       0.0034708946 1.9747038e-06 0.007248912 0.04171478
0000e0 73 06 97 39 f3 3e fd 3c c5 fc 8c 3a ff 1a 30 3a
       0.0002880577 0.030913806 0.0010756484 0.000671789
0000f0 29 9b 86 3b 30 ce 6d 32 05 6d 86 3c c8 9c 66 3c
       0.004107852 1.3842097e-08 0.016409406 0.0140754655
000100 dc 04 6c 36 70 51 cd 3a da 44 80 19 d3 92 82 3c
       3.516957e-06 0.0015664529 1.3262699e-23 0.015939152
000110 3b ac bb 39 1f 8f fa 39 58 54 48 1d 0e 83 a8 39
       0.0003579574 0.0004779035 2.6513384e-21 0.000321411
000120 1d 83 ba 3a c3 b2 87 35 0c e2 45 3b 5d 31 8d 3c
       0.0014229749 1.011031e-06 0.003019455 0.017235452
000130 51 b2 08 39 1f e9 4e 3c 56 82 df 39 3c 9a 9b 39
       0.00013036399 0.012628823 0.00042630982 0.00029678817
000140 66 2c 19 3c 0d 89 1e 31 61 fb 24 3d e5 59 0f 3d
       0.009348964 2.306993e-09 0.040278796 0.03499784
000150 ab f2 00 35 a2 e2 4f 3b 38 e4 4e 1f 82 db 1c 3d
       4.8036844e-07 0.0031720777 4.3810975e-20 0.038295276
000160 f0 5e 4b 3a a0 d9 81 3a 9b 7c eb 1e 29 01 4c 3a
       0.0007757982 0.0009906776 2.4933128e-20 0.00077821553
000170 68 36 64 3b eb 25 2f 36 b0 a8 ee 3b 7a 9b 2b 3d
       0.0034822468 2.6099103e-06 0.0072832927 0.04189632
000180 74 f3 8f 39 04 8f fd 3c a6 c0 80 3a 0e 90 2f 3a
       0.00027456472 0.030951984 0.0009823039 0.0006697186
000190 ef cc f8 3b ed f7 3c 31 1b 2f 07 3d e2 23 ec 3c
       0.0075927894 2.749853e-09 0.033003908 0.028825704
0001a0 1f 41 2d 35 d1 1a 28 3b ca de 62 1e 83 19 00 3d
       6.4542286e-07 0.002565075 1.2010412e-20 0.03127433
0001b0 ac 37 23 3a 1d 34 4d 3a 1c a0 1b 1f 04 20 29 3a
       0.00062262523 0.0007827895 3.2954966e-20 0.0006451609
0001c0 ac a5 3a 3b b4 79 9c 35 2d bc c1 3b 4f be 0c 3d
       0.0028480096 1.1658326e-06 0.005912325 0.03436118
0001d0 6a e2 72 39 e3 bd d0 3c a9 50 55 3a ae d0 0e 3a
       0.00023163264 0.02548117 0.00081373245 0.0005447966
0001e0 20 70 9d 3c 94 9c c9 32 17 3c ab 3d 20 c9 95 3d
       0.019218504 2.3470683e-08 0.083610706 0.07313752
0001f0 08 b9 8c 36 ef 41 d4 3b 46 db ef 1d 3b 99 a2 3d
       4.1938656e-06 0.0064775865 6.3489497e-21 0.07939383
000200 9f 7b d4 3a 1f 42 0a 3b 85 1e a6 1f fb 11 e2 3a
       0.0016211158 0.002109654 7.0354225e-20 0.001724779
000210 dc 25 ed 3b 7d 6c 94 36 8a 06 79 3c 1d eb b1 3d
       0.007237179 4.4233734e-06 0.015199313 0.086874224
000220 92 fa 1d 3a eb dd 83 3d fc 71 12 3b 2f 41 b8 3a
       0.00060264126 0.06438812 0.0022345772 0.0014057512
000230 87 a1 83 3c 6d 46 25 32 33 62 8b 3d 41 43 70 3d
       0.016068233 9.620277e-09 0.068058394 0.05865789
000240 52 40 4f 36 9e 31 b7 3b 4a 7f aa 1f 81 fe 84 3d
       3.0882843e-06 0.0055906316 7.220838e-20 0.06493855
000250 ad 1d b3 3a 2c 42 e7 3a b2 bf 52 1e 89 bc a7 3a
       0.001366546 0.0017643622 1.1156949e-20 0.0012797277
000260 6a f0 c0 3b 83 2e c1 36 59 4a 4b 3c 4c 15 91 3d
       0.0058880346 5.757263e-06 0.012407863 0.0708414
000270 f0 35 f5 39 23 62 55 3d 9a 62 d5 3a cc 64 97 3a
       0.00046770228 0.052095544 0.0016279996 0.0011550426
000280 12 b1 87 3b d0 18 3c 31 5f 52 8f 3c 1b bb 76 3c
       0.0041409815 2.7371705e-09 0.017495332 0.015059258
000290 3b b4 8f 35 bb df bc 3a 5e 2e bf 1f 09 c9 88 3c
       1.0706784e-06 0.0014409939 8.0968355e-20 0.016697424
0002a0 e7 0b bb 39 75 90 f2 39 4c f9 00 1f aa 70 ac 39
       0.00035676287 0.00046265466 2.7311268e-20 0.00032890338
0002b0 d9 49 c6 3a af 96 aa 35 61 53 51 3b 20 28 95 3c
       0.001512821 1.2709842e-06 0.0031940567 0.01820761
0002c0 fe e1 ff 38 cc 31 5b 3c be d5 db 39 03 66 9d 39
       0.00012201442 0.013378572 0.00041930185 0.00030021378
0002d0 b0 8c 09 3c 93 da 7e 32 51 38 12 3d 6e 43 fc 3c
       0.008395359 1.4834444e-08 0.03569824 0.030793872
0002e0 6a 1c 93 36 41 a3 3d 3b 3b 05 10 1e 21 39 0b 3d
       4.384249e-06 0.0028936418 7.624378e-21 0.03399003
0002f0 ef dd 3b 3a 81 6f 74 3a b1 4f 8e 1f fc 61 32 3a
       0.00071665546 0.00093244767 6.027118e-20 0.0006804762
000300 23 57 4a 3b 5c 3d 54 36 7c ae d4 3b cf 49 18 3d
       0.0030874691 3.1626178e-06 0.0064905267 0.037179764
000310 19 03 85 39 3d 22 e0 3c 8b 62 69 3a 74 b1 1e 3a
       0.00025370045 0.027360076 0.00089029287 0.0006053664
000320 74 88 cd 3b f8 05 52 31 70 5a dd 3c ae 02 c0 3c
       0.00627237 3.0562415e-09 0.027020663 0.023438778
000330 94 67 84 34 c8 2d 0b 3b 0f 83 91 1f 83 8e d2 3c
       2.466228e-07 0.0021237005 6.162671e-20 0.02570272
000340 34 38 0b 3a a4 ea 33 3a ef 6f b9 1e 6f b6 0a 3a
       0.0005310804 0.0006863272 1.9633932e-20 0.0005291467
000350 3c 63 19 3b 16 50 db 35 46 a9 a1 3b c8 c3 e5 3c
       0.0023405096 1.634008e-06 0.004933509 0.028047457
000360 aa ed 3f 39 f2 6d a9 3c cc 53 30 3a 96 14 ee 39
       0.00018303716 0.020682309 0.0006726354 0.00045410235
000370 71 c4 80 3b e8 e1 5c 32 02 ec 85 3c 13 1f 66 3c
       0.0039296676 1.28570505e-08 0.016347889 0.014045495
000380 44 76 78 36 2c 05 b8 3a 00 1c bb 1f 70 25 80 3c
       3.702372e-06 0.0014039627 7.92439e-20 0.015642852
000390 84 3b b6 39 a1 68 f2 39 71 cf 7a 1f 41 09 a8 39
       0.00034758088 0.00046235792 5.311115e-20 0.00032050352
0003a0 8e 81 b9 3a f1 af af 35 dd f8 43 3b 41 e2 8b 3c
       0.001415299 1.3089722e-06 0.0029902973 0.01707566
0003b0 e5 a4 04 39 0a 6d 4d 3c 78 9e e1 39 0d ab 97 39
       0.00012649929 0.012538204 0.00043033413 0.00028928407
0003c0 51 f4 d0 3a a3 9d fb 31 b6 b7 cc 3b 96 d5 ae 3b
       0.0015941953 7.3229827e-09 0.006247486 0.00533552
0003d0 72 fd 1c 36 74 f3 21 3a 3e 3b cf 1e 36 e3 c7 3b
       2.3393336e-06 0.000617794 2.194148e-20 0.0061000837
0003e0 17 df 18 39 f6 1d 54 39 5e 5e 99 1e 98 5c 0b 39
       0.00014578957 0.00020229057 1.6238534e-20 0.00013290567
0003f0 a6 71 0e 3a 5c 9a e0 34 a7 35 98 3a 82 84 d7 3b
       0.0005433805 4.1835563e-07 0.0011612669 0.0065770755

exp_avg f4 [20]
000000 68 00 78 bc 08 60 62 bb 0c 97 36 3c 0c 79 94 3b
       -0.015136816 -0.0034542102 0.011144411 0.0045310315
000010 14 1c fa bb c2 5a 17 3c a4 10 46 3c 20 d4 c2 3a
       -0.0076327417 0.009237947 0.012088928 0.0014864244
000020 c0 49 ae 39 80 a7 34 bb 74 fe 8b bb 10 01 e3 ba
       0.00033242814 -0.0027565658 -0.0042722765 -0.0017319042
000030 06 51 7c bb 68 62 ce bb 14 df cf bb 52 3b 90 bb
       -0.0038500442 -0.006298352 -0.0063437317 -0.004401603
000040 ac 09 dd 3b 98 c1 15 bc d2 fa 42 3c da 5e 2a bc
       0.0067455377 -0.009140395 0.011900621 -0.010398591

exp_avg_sq f4 [20]
000000 b0 97 ce 3c 71 22 55 3c ae 69 3b 3c 01 48 a8 3b
       0.025218815 0.0130087 0.01143877 0.0051355367
000010 6c 3c 3d 3c 63 03 18 3c 33 da c0 3c fa d7 a4 3c
       0.01155005 0.009278151 0.023541545 0.020122517
000020 ed 31 a9 3b 9c 83 2c 3c 36 60 fd 3b 7b 58 a1 3b
       0.0051634223 0.010529425 0.0077324165 0.004923878
000030 9a 07 03 3b 19 1e a2 3c 03 83 46 3c 45 c1 89 39
       0.0019993545 0.019789742 0.012116197 0.00026274673
000040 6b da 89 3b 79 2c bb 3a 4b 07 ef 3b f6 c8 ad 3a
       0.0042069457 0.0014280222 0.0072945706 0.0013258744

exp_avg f4 [1, 20]
000000 76 97 b4 ba 87 16 d9 b9 78 06 97 3a 91 9b 49 3a
       -0.0013778049 -0.0004140625 0.0011522314 0.00076907227
000010 1f 63 5e ba d8 8c 91 3a 90 50 a0 3a 14 94 e5 b8
       -0.0008483398 0.0011104597 0.0012231041 -0.000109471526
000020 32 33 fe 39 a2 9e a3 b8 c8 f5 4e ba 22 0b e6 b9
       0.000484848 -7.801993e-05 -0.00078949006 -0.00043877313
000030 c8 d7 36 ba 20 46 85 b9 8f 8c 17 ba 30 05 eb ba
       -0.0006974903 -0.00025419984 -0.0005781138 -0.0017930623
000040 6c fd 95 3a d1 33 d9 ba 43 ab c3 3a 37 37 04 bb
       0.0011443323 -0.0016571229 0.0014928359 -0.0020174512

exp_avg_sq f4 [1, 20]
000000 8e 47 a2 37 fd 3f 56 39 17 6f f3 37 75 08 36 3a
       1.9345225e-05 0.00020432468 2.9019588e-05 0.0006944009
000010 ad 13 be 38 4f ed f4 37 69 79 07 39 9f 6d 97 39
       9.063571e-05 2.9197572e-05 0.00012919832 0.00028882638
000020 66 b8 10 3a ba f3 27 39 4a 8b f6 38 ba d5 b9 39
       0.00055206416 0.00016017156 0.00011756139 0.00035445188
000030 68 01 02 3a 91 22 5b 38 0d aa 0a 39 15 8e c5 39
       0.0004959316 5.224586e-05 0.00013224054 0.00037680627
000040 b1 27 a1 38 f9 ef 88 37 63 f5 f6 37 e4 1e af 38
       7.684471e-05 1.632421e-05 2.9439752e-05 8.350404e-05
