deep-learning/rv_only/lightning_logs/version_32/checkpoints/epoch=4-step=250.ckpt (torch, 27739 bytes, 21 tensors)

model.nn.0.weight f4 [20, 30]
0.009834236 0.02678362 0.02453333 -0.010248916 0.0036289457 -0.072018996 -0.009674554 -0.07443327
-0.068626255 0.0009802332 0.04272574 -0.0013928978 -0.09857147 0.010253626 -0.03879316 -0.08699594
-0.0081940275 -0.058392473 -0.061770093 -0.09333057 0.061729334 -0.05753916 0.0767081 0.0592945
0.09091481 0.03232252 0.1375239 0.07274824 0.051940788 0.08230913 -0.03190539 0.043636188
-0.040715616 -0.035250783 0.006928873 0.016730087 0.04562827 -0.01005304 -0.008761931 -0.019511322
0.021581993 0.0017952097 0.027754208 -0.012393024 0.011591265 0.04421644 -0.06501683 0.014518044
-0.01270114 0.046258338 -0.053665508 -0.04712121 0.03685814 -0.07731603 -0.009244255 -0.043827623
0.018852353 -0.069256276 -0.027926248 -0.0043110168 0.10766282 0.026035083 0.012376582 0.10337608
0.06049691 0.14280477 0.06168986 0.060137566 0.119421735 0.08504983 0.056130618 0.14585635
0.13070232 0.11825835 0.10070173 0.025755193 0.14701506 0.12980193 0.062321328 0.13867345
0.07536584 0.08735682 0.06800976 0.11870513 0.021754334 0.045515586 0.09453697 -0.030625807
-0.034141984 -0.001023718 0.07780079 -0.015406488 0.055997297 0.06770331 -0.006041 0.03631315
0.07442045 0.08374815 0.04157208 0.0044904784 0.035800204 -0.023101466 0.039334655 0.00862656
0.022040058 0.07775356 0.036181014 -0.0033911879 -0.025105339 0.05528736 -0.004894938 0.039533727
0.04915662 0.058635943 0.11740288 0.118872225 0.10980759 0.10976053 0.0732651 0.15077014
-0.037630215 -0.014810639 0.05614752 -0.035706088 0.016021403 0.008000721 -0.0019047485 -0.06238327
-0.015064063 -0.0026173494 0.0016521664 -0.06881603 0.023243528 -0.02488078 -0.021410946 -0.025458949
0.046878837 -0.05863464 0.055407062 0.021080006 0.032084864 0.03158324 -0.06445069 -0.035522245
0.02511658 -0.011670786 -0.0010525276 -0.0039467057 0.014728986 -0.080317535 0.067045115 0.00046833622
-0.05589044 0.009850078 -0.029921226 0.017064262 -0.076186635 0.028695164 -0.06429185 -0.032736037
-0.010186615 0.025269996 -0.030780414 -0.02729786 -0.02137036 0.03014762 -0.044222027 0.016458299
0.048531648 0.020678636 0.024775412 -0.037196737 0.08135094 0.045460008 -0.008130722 0.097349316
0.00457181 0.15743797 0.1331696 0.10809185 0.038486466 0.035489317 0.014793984 0.0576344
-0.026276529 -0.03893039 -0.05084808 -0.0024516615 0.020150663 0.034305353 -0.05162743 0.05043363
-0.04651603 0.0563811 -0.045178227 -0.05793448 -0.015909638 -0.015980473 0.033214893 -0.0104669975
-0.0018362604 -0.008384403 -0.050778095 -0.059299726 -0.06387317 -0.07414931 0.042071648 0.00942825
-0.019954268 0.027409242 0.09933171 0.11591635 0.15362637 0.1266786 0.07453091 0.13727891
0.049128182 0.17052639 0.1519613 0.12762025 0.08765786 0.17136972 0.16848902 0.06265919
0.09366033 0.17045343 0.08087641 0.13023524 0.118998766 0.16082747 0.15090625 0.060733605
0.118880294 0.028320642 0.0647855 0.0541702 0.03273315 -0.008132103 -0.02856755 -0.027549528
0.027703904 -0.06544426 -0.05134718 -0.06152414 -0.05189071 -0.076567985 -0.06749096 -0.07363274
-0.0450378 -0.03759363 -0.016308261 -0.013467261 -0.021168046 -0.036777858 0.038586985 0.04400605
00000000: c71f 213c 5269 db3c 1ffa c83c 12eb 27bc
00000010: 9bd3 6d3b b27e 93bd 0582 1ebc 7870 98bd
00000020: ec8b 8cbd 2b7b 803a 2f01 2f3d e591 b6ba
00000030: d7df c9bd d3fe 273c 94e5 1ebd ed2a b2bd
00000040: 3e40 06bc f22c 6fbd a302 7dbd 1924 bfbd
00000050: e6d7 7c3d 2fae 6bbd 2319 9d3d cade 723d
00000060: 8b31 ba3d 9e64 043d 11d3 0c3e 07fd 943d
00000070: ddbf 543d b091 a83d 3aaf 02bd dcbb 323d
00000080: 6bc5 26bd 2063 10bd 990b e33b 890d 893c
00000090: b5e4 3a3d 82b5 24bc 348e 0fbc 35d6 9fbc
000000a0: b8cc b03c 3e4d eb3a cb5c e33c 1c0c 4bbc
000000b0: 4ae9 3d3c 4c1c 353d 8b27 85bd 17dd 6d3c
000000c0: 7118 50bc 6279 3d3d 5dd0 5bbd 2b02 41bd
000000d0: 90f8 163d de57 9ebd 3775 17bc 9884 33bd
000000e0: 4070 9a3c 3cd6 8dbd 96c5 e4bc 6e43 8dbb
000000f0: 537e dc3d 8747 d53c 26c7 4a3c d7b6 d33d
00000100: 9ccb 773d 6a3b 123e 82ae 7c3d cf52 763d
00000110: 6293 f43d 9b2e ae3d 38e9 653d 5e5b 153e
00000120: d4d6 053e 6f31 f23d b53c ce3d 8efc d23c
00000130: 1e8b 163e ccea 043e a644 7f3d 6a00 0e3e
00000140: 6859 9a3d 22e8 b23d b348 8b3d ad1b f33d
00000150: 2536 b23c 8d6e 3a3d 999c c13d f9e2 fabc
00000160: 77d8 0bbd 472e 86ba 0556 9f3d 7f6b 7cbc
00000170: 6c5d 653d 08a8 8a3d 95f3 c5bb 19bd 143d
00000180: c069 983d 2684 ab3d 7c47 2a3d dd24 933b
00000190: 3ca3 123d 493f bdbc 601d 213d 6a56 0d3c
000001a0: 5a8d b43c 423d 9f3d 8b32 143d b13e 5ebb
000001b0: b6a9 cdbc 0075 623d b765 a0bb 1eee 213d
000001c0: 7458 493d 3e2c 703d ec70 f03d 4873 f33d
000001d0: cde2 e03d 21ca e03d 030c 963d 7d63 1a3e
000001e0: 2422 1abd 53a8 72bc f1fa 653d 8c40 12bd
000001f0: 513f 833c 7515 033c c1a8 f9ba 9a85 7fbd
00000200: 42cf 76bc d687 2bbb 818d d83a 6bef 8cbd
00000210: 3669 be3c c7d2 cbbc 0266 afbc 498f d0bc
00000220: 0604 403d e02a 70bd 84f2 623d faaf ac3c
00000230: 6b6b 033d 6d5d 013d b9fe 83bd c67f 11bd
00000240: 49c1 cd3c d336 3fbc f7f4 89ba 5e53 81bb
00000250: d851 713c 857d a4bd f34e 893d 068b f539
00000260: 60ed 64bd 3962 213c 5c1d f5bc 5aca 8b3c
00000270: bd07 9cbd 1f12 eb3c 72ab 83bd 3916 06bd
00000280: c3e5 26bc 0603 cf3c 3527 fcbc c39f dfbc
00000290: e510 afbc 24f8 f63c 2822 35bd 8ed3 863c
000002a0: 1fc9 463d 3e66 a93c cef5 ca3c 9b5b 18bd
000002b0: 529b a63d 4634 3a3d b836 05bc 145f c73d
000002c0: 1fcf 953b 6b37 213e 9d5d 083e 435f dd3d
000002d0: fca3 1d3d 3f5d 113d 7762 723c 0c12 6c3d
000002e0: e041 d7bc 7975 1fbd 1446 50bd 0eac 20bb
000002f0: 0113 a53c c583 0c3d 4977 53bd 7e93 4e3d
00000300: 9887 3ebd deef 663d ce0c 39bd b54c 6dbd
00000310: ee54 82bc 7be9 82bc 570c 083d c57d 2bbc
00000320: adae f0ba bc5e 09bc b1fc 4fbd 45e4 72bd
00000330: f0cf 82bd 98db 97bd 5253 2c3d f278 1a3c
00000340: 2277 a3bc 5989 e03c 6c6e cb3d 8d65 ed3d
00000350: 3b50 1d3e 09b8 013e a9a3 983d d892 0c3e
00000360: a23a 493d 789e 2e3e be9b 1b3e e2ae 023e
00000370: f785 b33d 8b7b 2f3e 6388 2c3e 7653 803d
00000380: fdd0 bf3d 588b 2e3e 88a2 a53d 635c 053e
00000390: a0b5 f33d f5af 243e 2b87 1a3e cdc3 783d
000003a0: 8377 f33d b100 e83c 43ae 843d 92e1 5d3d
000003b0: 3213 063d 833c 05bc 7f06 eabc 8caf e1bc
000003c0: 4cf3 e23c a407 86bd 6c51 52bd bd00 7cbd
000003d0: 5a8b 54bd adcf 9cbd b338 8abd c3cc 96bd
000003e0: 8e79 38bd c7fb 19bd e798 85bc c9a5 5cbc
000003f0: 9c68 adbc 61a4 16bd 630d 1e3d b03f 343d

model.nn.0.bias f4 [20]
0.010549387 -0.012144947 0.069456 0.036276557 -0.013126313 0.011301248 -0.008860882 0.08180485
0.017966682 0.031377494 0.050045922 0.016182603 -0.0019750963 -0.010435773 -0.009122115 0.027029457
0.0 0.050838668 0.017263237 0.0487237
00000000: 56d7 2c3c 9afb 46bc f33e 8e3d ba96 143d
00000010: bf0f 57bc df28 393c 3c2d 11bc 4d89 a73d
00000020: dd2e 933c b085 003d f4fc 4c3d 6191 843c
00000030: 9e70 01bb cefa 2abc ec74 15bc e16c dd3c
00000040: 0000 0000 353c 503d a26b 8d3c 8192 473d

model.nn.2.weight f4 [20, 20]
0.1610601 0.0046730246 -0.15928221 -0.06355167 0.02452063 0.00065689767 0.07028687 -0.082421325
0.087593324 -0.075066715 -0.10713895 -0.020445671 0.088555105 0.0221956 -0.02501082 -0.004578934
-0.05319128 -0.084954076 -0.11179411 0.18711855 -0.0571556 -0.030918315 0.070005566 0.0054984917
-0.07308691 -0.010480568 -0.041550834 0.099483594 -0.059760135 -0.105440885 0.0057635694 -0.048291
-0.013753662 0.01989543 0.055598464 0.024320452 -0.019285092 -0.052429076 -0.057510458 -0.21142474
-0.06184233 -0.015520395 -0.07335341 0.012713791 -0.04324533 -0.03521788 -0.062383533 -0.012898062
-0.06556549 -0.051847354 -0.009405616 0.020564696 0.010441117 0.027090365 0.015627773 -0.058608476
-0.02847204 -0.036388878 -0.0146139525 -0.094862774 -0.14848588 -0.054666728 -0.028039282 -0.03737738
-0.081811756 -0.024637623 0.00636324 0.119186155 -0.010885432 -0.07263771 -0.014627743 -0.03582861
-0.02649164 0.034104638 0.017176231 -0.04731198 0.017886514 0.06703049 0.015536733 -0.10182534
0.108221956 0.084845446 -0.09542699 -0.06295651 0.025806636 0.050101742 0.046411667 -0.12720254
0.095666476 -0.008938304 0.022213558 0.025941854 0.02341121 0.06385582 -0.059742775 0.004283367
0.021532089 -0.003659249 -0.08918857 0.16887993 -0.036164485 0.04597097 0.008033438 -0.019026205
-0.022096843 -0.084148854 -0.010747861 0.07445435 -0.07434368 -0.08485859 -0.021870011 -0.034287404
-0.03551791 0.031223848 0.015974458 -0.09873808 -0.007005682 -0.013522323 -0.0525414 -0.18762985
-0.09387025 0.050946917 0.105040446 0.03678832 0.0016791678 0.032031782 -0.052733388 0.13537084
-0.0935874 -0.03347999 0.07818221 -0.018667966 -0.04801093 0.057197846 -0.005912696 -0.04883218
-0.0026394648 0.08670344 0.09838811 -0.13808803 0.09219319 -0.035766616 -0.17744747 -0.11244233
0.02761862 -0.01635236 -0.0025595739 -0.15031788 0.037083987 0.0056179375 -0.086107515 -0.080470376
0.047944274 -0.0007355988 -0.009362007 -0.0047768 0.049059965 -0.13701747 -0.0466541 0.11337151
-0.04575109 -0.037238892 0.08490763 -0.056687195 0.048697688 -0.036555476 0.011975111 -0.007758963
-0.12026581 -0.0650896 0.003606755 0.045917504 -0.024665324 0.053632583 0.004110494 0.024184318
0.0036678032 -0.0715399 -0.027858466 -0.1962252 0.00057430257 -0.030277994 0.0467036 0.11449971
-0.028619478 0.04982809 -0.018827755 0.1485974 0.09704018 0.062757716 0.14008074 0.0650417
-0.01798081 0.049557205 -0.0055246754 0.12982036 0.026715642 0.142331 0.004835953 0.046157617
0.051709075 0.06592836 0.012006738 0.045327667 -0.03999951 0.050759837 -0.03791597 0.018208938
0.11545586 0.07220261 0.017598514 0.012882141 -0.005789414 -0.05760277 0.024929965 0.040597472
0.0012601414 -0.029960813 0.0788536 0.14767478 0.031717896 0.05863324 -0.01743375 -0.12311937
0.008944481 -0.07090041 -0.0059007723 -0.075559475 -0.017451556 -0.06894941 -0.10519541 -0.030315045
0.003114664 0.034083568 0.004433513 -0.11438063 0.035340194 -0.025216287 -0.02814546 -0.04198482
-0.00993084 -0.05130029 -0.06880725 -0.0009052363 -0.07698123 -0.13142145 0.09540316 -0.07219431
-0.023473114 -0.10246688 -0.045030918 -0.021354215 0.06527481 -0.026681319 -0.06171257 -0.0769456
00000000: f0ec 243e 2c20 993b e01a 23be 6127 82bd
00000010: 7ddf c83c a833 2c3a 90f2 8f3d 83cc a8bd
00000020: 2164 b33d 94bc 99bd aa6b dbbd ae7d a7bc
00000030: 615c b53d 8cd3 b53c 7ee3 ccbc e20a 96bb
00000040: 1adf 59bd 67fc adbd 4ff4 e4bd 019c 3f3e
00000050: fe1b 6abd 6848 fdbc 145f 8f3d b12c b43b
00000060: 97ae 95bd b0b6 2bbc 3531 2abd 0ebe cb3d
00000070: 0bc7 74bd 64f1 d7bd 53dc bc3b c9cc 45bd
00000080: 0a57 61bc befb a23c 37bb 633d af3b c73c
00000090: c5fb 9dbc dfbf 56bd 1690 6bbd ba7f 58be
000000a0: 624e 7dbd 4149 7ebc 503a 96bd 814d 503c
000000b0: 0422 31bd a040 10bd e085 7fbd 6552 53bc
000000c0: 3347 86bd e45d 54bd 031a 1abc 4b77 a83c
000000d0: 3811 2b3c 9dec dd3c d105 803c 710f 70bd
000000e0: 323e e9bc 810c 15bd 5c6f 6fbc 6a47 c2bd
000000f0: af0c 18be 38ea 5fbd a3b2 e5bc 0619 19bd
00000100: ec8c a7bd d7d4 c9bc ba82 d03b df17 f43d
00000110: d058 32bc 14c3 94bd 33a9 6fbc 05c1 12bd
00000120: ff04 d9bc 4eb1 0b3d 2bb5 8c3c 35ca 41bd
00000130: bd86 923c 4847 893d c88d 7e3c ce89 d0bd
00000140: 79a3 dd3d 73c3 ad3d 3a6f c3bd 58ef 80bd
00000150: 7068 d33c 7c37 4d3d 291a 3e3d 6241 02be
00000160: c9ec c33d f771 12bc 35f9 b53c 0384 d43c
00000170: dec8 bf3c d7c6 823d d7b4 74bd 7d5b 8c3b
00000180: 1064 b03c 03d0 6fbb 7fa8 b6bd dcee 2c3e
00000190: 3621 14bd 0e4c 3c3d ae9e 033c d8dc 9bbc
000001a0: 7004 b5bc 3c56 acbd cc17 30bc 867b 983d
000001b0: 8041 98bd 57ca adbd bd28 b3bc f370 0cbd
000001c0: 3a7b 11bd 28c9 ff3c dedc 823c 3137 cabd
000001d0: ec8f e5bb bc8c 5dbc a735 57bd 0a22 40be
000001e0: 0c3f c0bd b7ad 503d 721f d73d 59af 163d
000001f0: 8617 dc3a c233 033d f7fe 57bd a79e 0a3e
00000200: c0aa bfbd 5022 09bd ff1d a03d 90ed 98bc
00000210: 1ca7 44bd 4a48 6a3d 4abf c1bb 4104 48bd
00000220: dffa 2cbb 9391 b13d b57f c93d f366 0dbe
00000230: c8cf bc3d 0480 12bd cab4 35be 2a48 e6bd
00000240: 7240 e23c 62f5 85bc 86be 27bb eeec 19be
00000250: 61e5 173d ad16 b83b 2359 b0bd a7cd a4bd
00000260: 3761 443d 33d5 40ba 1a63 19bc b486 9cbb
00000270: 1af3 483d 4f4e 0cbe 5f18 3fbd 522f e83d
00000280: 7f65 3bbd cf87 18bd 0de4 ad3d d530 68bd
00000290: 3a77 473d 32bb 15bd 4233 443c e63e febb
000002a0: ec4d f6bd b24d 85bd 4f5f 6c3b fe13 3c3d
000002b0: ef0e cabc d7ad 5b3d 53b1 863b 311e c63c
000002c0: 875f 703b 8383 92bd 7037 e4bc 42ef 48be
000002d0: cb8c 163a 8e09 f8bc 464c 3f3d d37e ea3d
000002e0: 6573 eabc 8a18 4c3d aa3c 9abc eb29 183e
000002f0: 00bd c63d 1e87 803d 5371 0f3e 9534 853d
00000300: 7e4c 93bc 7ffc 4a3d 5608 b5bb a1ef 043e
00000310: c3da da3c 38bf 113e ea76 9e3b c50f 3d3d
00000320: e5cc 533d 7305 873d e9b7 443c 81a9 393d
00000330: 87d6 23bd 8ce9 4f3d c74d 1bbd e92a 953c
00000340: 1f74 ec3d f6de 933d c22a 903c 9e0f 533c
00000350: 20b5 bdbb e2f0 6bbd ed39 cc3c 8949 263d
00000360: 542b a53a 6170 f5bc ff7d a13d 0f38 173e
00000370: a0ea 013d 6929 703d 39d1 8ebc 0226 fcbd
00000380: df8b 123c 3c34 91bd 445b c1bb edbe 9abd
00000390: 91f6 8ebc 5935 8dbd b170 d7bd 4257 f8bc
000003a0: 641f 4c3b 369b 0b3d 0147 913b 6440 eabd
000003b0: e1c0 103d 6392 cebc 4f91 e6bc 46f8 2bbd
000003c0: f6b4 22bc 4120 52bd d1ea 8cbd 614d 6dba
000003d0: 56a8 9dbd 5893 06be bb62 c33d 9cda 93bd
000003e0: b04a c0bc 28da d1bd 5772 38bd 09ef aebc
000003f0: cdae 853d c892 dabc 52c6 7cbd a895 9dbd

model.nn.2.bias f4 [20]
-0.088207595 -0.003466818 -0.035994142 0.00038578763 -0.04379129 -0.012893856 0.0651831 -0.07375028
-0.012413619 0.066701524 0.016219877 -0.060944512 -0.05624348 -0.018407166 0.012776395 -0.01438334
0.0063821496 0.009358663 0.046030052 -0.059245493
00000000: 2fa6 b4bd 8e33 63bb 986e 13bd 8a43 ca39
00000010: 7f5e 33bd c040 53bc b87e 853d 630a 97bd
00000020: 7e62 4bbc cf9a 883d 8cdf 843c f4a0 79bd
00000030: 905f 66bd a0ca 96bc 1654 513c 1aa8 6bbc
00000040: 5a21 d13b 1455 193c 028a 3c3d 67ab 72bd

model.args_proj.proj.0.weight f4 [1, 20]
0.20465079 -0.014470842 0.28146887 0.13540362 -0.11404432 0.124230884 0.22979884 0.17559117
-0.06456247 0.010666265 0.05761764 0.26450318 -0.0252165 0.18523768 0.02387373 0.094243646
-0.015606419 -0.14813568 0.16142899 0.024557259
00000000: fa8f 513e 1c17 6dbc b01c 903e 3fa7 0a3e
00000010: 1290 e9bd c36c fe3d 6350 6b3e 2cce 333e
00000020: 5439 84bd 8fc1 2e3c 7900 6c3d f66c 873e
00000030: d592 cebc f2ae 3d3e d792 c33c d002 c13d
00000040: 11b2 7fbc e1b0 17be a44d 253e 4e2c c93c

model.args_proj.proj.1.weight f4 [1, 20]
0.011702903 -0.24496348 -0.14382188 -0.25799963 0.05276242 -0.13554534 0.0018035702 -0.0075322026
-0.2711826 0.13360757 0.20108265 -0.15415724 -0.0722929 -0.17502305 -0.14506909 -0.17001688
-0.1869371 -0.17068085 0.23472682 -0.19071501
00000000: 88bd 3f3c b5d7 7abe 0b46 13be 8718 84be
00000010: 681d 583d 66cc 0abe c665 ec3a b2d0 f6bb
00000020: 72d8 8abe 6cd0 083e 9ce8 4d3e 65db 1dbe
00000030: 4d0e 94bd 3e39 33be fe8c 14be e818 2ebe
00000040: 706c 3fbe f6c6 2ebe 3a5c 703e cc4a 43be

model.args_proj.proj.2.weight f4 [1, 20]
0.28032443 -0.15562025 0.09709821 -0.22030707 0.24471413 -0.03361994 -0.13647635 0.31322744
-0.071853735 -0.23937416 0.0137860505 0.23449542 0.11792576 0.0016773106 -0.27611336 -0.025295042
-0.2267139 -0.2147861 -0.22889371 0.26344636
00000000: af86 8f3e ea5a 1fbe 6ddb c63d 2d98 61be
00000010: 5796 7a3e 10b5 09bd 75c0 0bbe 595f a03e
00000020: 0d28 93bd 801e 75be e3de 613c 911f 703e
00000030: 1083 f13d 34d9 db3a bb5e 8dbe 8c37 cfbc
00000040: b027 68be e3f0 5bbe 1d63 6abe 71e2 863e

exp_avg f4 [20, 30]
-0.04945136 -0.042944103 -0.039202686 -0.035957545 -0.036820892 -0.035614654 -0.03514076 -0.038776316
-0.039711483 -0.037863806 -0.03364103 -0.03558612 -0.033689436 -0.03437321 -0.025552625 -0.025140459
-0.014612628 -0.012514494 -0.004444238 0.002351161 0.00944471 0.011062894 0.015312169 0.016697612
0.0102358945 0.0038828142 -0.0065135695 -0.020976277 -0.033111636 -0.05000936 -3.190383e-10 4.3637732e-10
-4.0714088e-10 -3.5249267e-10 6.930373e-11 1.6731588e-10 4.5629814e-10 -1.0051489e-10 -8.7603945e-11 -1.95098e-10
2.1583518e-10 1.7967221e-11 2.7755703e-10 -1.2391534e-10 1.15927525e-10 4.4217927e-10 -6.5015354e-10 1.4519515e-10
-1.2699669e-10 4.6259807e-10 -5.3664045e-10 -4.7119747e-10 3.6859601e-10 -7.731457e-10 -9.242819e-11 -4.382617e-10
1.8853806e-10 -6.925481e-10 -2.792478e-10 1.3147726e-09 -0.011139056 -0.011328017 -0.011936339 -0.012433566
-0.012688797 -0.012933872 -0.013250081 -0.01235166 -0.012607835 -0.013058709 -0.013273351 -0.013340149
-0.013518849 -0.013949716 -0.014183327 -0.014288984 -0.015007735 -0.015231527 -0.01548529 -0.015722243
-0.016284067 -0.016210297 -0.016389538 -0.015079267 -0.014685698 -0.013515428 -0.011529901 -0.0082700625
-0.0053468435 -0.0010958761 -0.06150197 -0.054422036 -0.050846778 -0.049300652 -0.04931306 -0.04871919
-0.048783895 -0.050319295 -0.051018253 -0.050294444 -0.046726126 -0.048202075 -0.04507658 -0.043225847
-0.033682957 -0.032343574 -0.024255268 -0.01816164 -0.011672171 -0.0035998896 -0.00016290322 0.0021896902
0.005315352 0.007964056 0.0038057454 -0.0002101399 -0.009755278 -0.022596635 -0.034834117 -0.051330708
-3.7625222e-10 -1.480566e-10 5.6152466e-10 -3.570116e-10 1.6026291e-10 8.005604e-11 -1.8998358e-11 -6.237834e-10
-1.5059151e-10 -2.612404e-11 1.6571173e-11 -6.8811074e-10 2.324841e-10 -2.487592e-10 -2.1406053e-10 -2.5454028e-10
4.6883764e-10 -5.862966e-10 5.541203e-10 2.1084956e-10 3.208982e-10 3.15882e-10 -6.4445743e-10 -3.551733e-10
2.5121466e-10 -1.1665884e-10 -1.0476376e-11 -3.9418042e-11 1.473389e-10 -8.0312607e-10 -0.057199307 -0.049884997
-0.045956522 -0.044144988 -0.04404713 -0.043314796 -0.04322639 -0.04519573 -0.045766786 -0.0448043
-0.04106482 -0.042541698 -0.039262857 -0.03716279 -0.02729451 -0.025873082 -0.017270233 -0.010923991
-0.0041777845 0.0041933097 0.007963292 0.010334762 0.013616217 0.015704328 0.011286357 0.006647287
-0.004030902 -0.018758258 -0.032605328 -0.051402867 3.8486903e-10 3.5489728e-10 1.4794388e-10 5.763476e-10
-2.627618e-10 -3.893005e-10 -5.084774e-10 -2.451328e-11 2.0150978e-10 3.4305658e-10 -5.1627125e-10 5.043393e-10
-4.6515736e-10 5.6381405e-10 -4.5177928e-10 -5.7934174e-10 -1.5909342e-10 -1.5980176e-10 3.3215186e-10 -1.0466697e-10
-1.8359647e-11 -8.384104e-11 -5.0777793e-10 -5.9299426e-10 -6.3872885e-10 -7.4147466e-10 -1.0709321e-05 -7.776423e-05
-7.766727e-05 -0.00012846735 -0.010273838 -0.011251767 -0.012491681 -0.013356073 -0.013715968 -0.014125351
-0.0145763485 -0.013158176 -0.013460126 -0.014178356 -0.0148497615 -0.014802197 -0.015365446 -0.016164884
-0.017435752 -0.017709587 -0.019527059 -0.02043375 -0.021421077 -0.022549797 -0.02369519 -0.023813428
-0.024377085 -0.022779748 -0.021792855 -0.019703787 -0.015884368 -0.009888544 -0.004444645 0.0029958673
-0.021430857 -0.012784358 -0.008815924 -0.006380776 -0.007146703 -0.0066381935 -0.0070679877 -0.010129275
-0.0102328025 -0.008299004 -0.004965998 -0.0076995343 -0.004539311 -0.005841084 0.0042289197 0.0051493123
00000000: 828d 4abd 28e6 2fbd ff92 20bd 3848 13bd
00000010: 81d1 16bd ace0 11bd c2ef 0fbd ead3 1ebd
00000020: 82a8 22bd 1417 1bbd 2dcb 09bd c0c2 11bd
00000030: effd 09bd ecca 0cbd bd53 d1bc 5df3 cdbc
00000040: ce69 6fbc 9809 4dbc f8a0 91bb f015 1a3b
00000050: fcbd 1a3c 2441 353c e4df 7a3c 6ec9 883c
00000060: 74b4 273c d076 7e3b c86f d5bb 71d6 abbc
00000070: 11a0 07bd 9dd6 4cbd a664 afaf a6e6 ef2f
00000080: fcd3 dfaf efc8 c1af 8866 982e 3cf7 372f
00000090: 41da fa2f da08 ddae a3a4 c0ae 3483 56af
000000a0: 3450 6d2f 960a 9e2d ae96 982f 113f 08af
000000b0: 65ed fe2e 3317 f32f 7db6 32b0 cda4 1f2f
000000c0: 64a2 0baf e450 fe2f b782 13b0 9385 01b0
000000d0: 47a3 ca2f 4b85 54b0 7240 cbae daef f0af
000000e0: bf4c 4f2f bd5d 3eb0 a284 99af 73b3 b430
000000f0: 9680 36bc 2699 39bc a290 43bc 28b6 4bbc
00000100: ace4 4fbc 97e8 53bc de16 59bc 9e5e 4abc
00000110: 1891 4ebc 32f4 55bc 7878 59bc a490 5abc
00000120: 2a7e 5dbc 5a8d 64bc 2f61 68bc 581c 6abc
00000130: 01e3 75bc a88d 79bc 04b6 7dbc efcb 80bc
00000140: 2a66 85bc 75cb 84bc 5a43 86bc 080f 77bc
00000150: 489c 70bc d06f 5dbc e9e7 3cbc 287f 07bc
00000160: 9334 afbb 80a3 8fba 7de9 7bbd a4e9 5ebd
00000170: b644 50bd 7bef 49bd 7efc 49bd c68d 47bd
00000180: 9fd1 47bd 9b1b 4ebd 84f8 50bd 8c01 4ebd
00000190: e563 3fbd 8a6f 45bd 38a2 38bd 960d 31bd
000001a0: 24f7 09bd b27a 04bd fcb2 c6bc b8c7 94bc
000001b0: a23c 3fbc 20ec 6bbb 00d1 2ab9 e880 0f3b
000001c0: 682c ae3b ac7b 023c d069 793b 0059 5cb9
000001d0: 9ad4 1fbc 941c b9bc 38ae 0ebd 2640 52bd
000001e0: cbd8 ceaf 3aca 22af c959 1a30 ea44 c4af
000001f0: 0036 302f 8b0b b02e 801c a7ad db76 2bb0
00000200: be93 25af 1cca e5ad f7c2 912d 7d25 3db0
00000210: 759e 7f2f bfc1 88af af5c 6baf 5cef 8baf
00000220: 84df 0030 f528 21b0 c050 1830 e0d4 672f
00000230: 686a b02f 70a8 ad2f a925 31b0 3342 c3af
00000240: 521b 8a2f 8b44 00af 674d 38ad c55c 2dae
00000250: 3700 222f f9c2 5cb0 d249 6abd 3654 4cbd
00000260: e83c 3cbd 60d1 34bd c36a 34bd db6a 31bd
00000270: 280e 31bd 281f 39bd f475 3bbd b784 37bd
00000280: 9633 28bd 3440 2ebd 17d2 20bd 0238 18bd
00000290: bc98 dfbc c9f3 d3bc 4e7a 8dbc 8afa 32bc
000002a0: cce5 88bb 0868 893b 7878 023c 2253 293c
000002b0: 8e16 5f3c 5da6 803c 6aea 383c 7cd1 d93b
000002c0: a815 84bb ebaa 99bc 2a8d 05bd d08b 52bd
000002d0: 8095 d32f 5a1b c32f 80aa 222f db6c 1e30
000002e0: 7074 90af 2d05 d6af ebc4 0bb0 009f d7ad
000002f0: f68f 5d2f ec98 bc2f 5ce9 0db0 b9a1 0a30
00000300: 14b9 ffaf e3fa 1a30 485e f8af 8d3f 1fb0
00000310: d1ec 2eaf 32b4 2faf 389a b62f 442a e6ae
00000320: 407e a1ad 4f5e b8ae b293 0bb0 4300 23b0
00000330: 8c92 2fb0 a4d0 4bb0 2fac 33b7 5a15 a3b8
00000340: 4ce1 a2b8 31b5 06b9 9a53 28bc 5559 38bc
00000350: e8a9 4cbc 6ed3 5abc f0b8 60bc 046e 67bc
00000360: a3d1 6ebc 6495 57bc dc87 5cbc 564c 68bc
00000370: 6a4c 73bc ea84 72bc 5abf 7bbc 386c 84bc
00000380: 6cd5 8ebc b213 91bc 36f7 9fbc ae64 a7bc
00000390: 417b afbc 5aba b8bc 6a1c c2bc 6114 c3bc
000003a0: 74b2 c7bc 989c babc ee86 b2bc d669 a1bc
000003b0: ef1f 82bc 8f03 22bc 62a4 91bb 5056 443b
000003c0: c48f afbc 7c75 51bc aa70 10bc d415 d1bb
000003d0: e42e eabb 3485 d9bb 949a e7bb 42f5 25bc
000003e0: 7ca7 27bc 8cf8 07bc d0b9 a2bb 604c fcbb
000003f0: 80be 94bb 9066 bfbb c092 8a3b 90bb a83b

exp_avg_sq f4 [20, 30]
0.0040386096 0.003973048 0.003979235 0.0040010437 0.004017068 0.0040241866 0.0040653604 0.004141569
0.004195802 0.0042983945 0.004414088 0.004485115 0.0045481767 0.0046897666 0.0048780073 0.0051452876
0.0054560388 0.0055968226 0.0058193128 0.0061033326 0.0062686573 0.0065615512 0.006811172 0.007038907
0.007348364 0.0077817994 0.008222053 0.0083693685 0.008945425 0.009570982 4.4016426e-07 4.274936e-07
4.1812228e-07 4.044737e-07 3.9430648e-07 3.9625695e-07 4.1524564e-07 4.1819027e-07 4.0959804e-07 4.0482567e-07
4.0785832e-07 4.0420787e-07 3.963368e-07 3.9256955e-07 3.9309217e-07 3.9612985e-07 3.9154833e-07 3.8718161e-07
3.8631347e-07 3.8720785e-07 3.8201094e-07 3.869498e-07 3.907987e-07 3.8871033e-07 3.761429e-07 3.9086933e-07
3.9306366e-07 3.9912533e-07 3.9742955e-07 1.6475893e-05 0.00023011287 0.00022783245 0.00022839762 0.00022925921
0.00023087708 0.00023088492 0.00023085797 0.0002344067 0.00024053609 0.0002439107 0.00024592015 0.00024412804
0.0002438276 0.00024493365 0.00024345356 0.00024463478 0.00024550938 0.0002473254 0.00024884715 0.00025674657
0.0002623924 0.00026758536 0.0002817687 0.00028615445 0.0002980084 0.00030425703 0.0003373871 0.00034845647
0.0005237805 0.0013393937 0.006150621 0.0060418327 0.006017883 0.006059295 0.006051891 0.006045778
0.0060363547 0.006033197 0.0060718735 0.006026506 0.006067716 0.006027372 0.0059733847 0.005977764
0.006032312 0.0060120216 0.0060532643 0.00607046 0.0061345072 0.0061729997 0.0062050787 0.0062461756
0.006259831 0.0062738424 0.006238947 0.006234206 0.0062411376 0.006338249 0.006524257 0.007245589
1.602173e-06 1.5776602e-06 1.5563556e-06 1.5339109e-06 1.5034008e-06 1.5033941e-06 1.5289394e-06 1.549049e-06
1.5310515e-06 1.550261e-06 1.5555537e-06 1.5524139e-06 1.532513e-06 1.513818e-06 1.5273067e-06 1.5519986e-06
1.5741547e-06 1.6063326e-06 1.6021265e-06 1.5920797e-06 1.5893538e-06 1.6009337e-06 1.5966174e-06 1.5829321e-06
1.5592752e-06 1.5777473e-06 1.572223e-06 1.5826479e-06 1.5852256e-06 1.6095873e-06 0.0062205913 0.0061044525
0.0060807713 0.0061179455 0.006108502 0.0061009587 0.0061043305 0.0061180852 0.006171991 0.0061393143
0.006168774 0.0061461735 0.006092894 0.006101592 0.0061649317 0.0061509116 0.006199788 0.0062281317
0.006288331 0.0063376906 0.006371984 0.006403102 0.00640775 0.006403051 0.006349698 0.0063484437
0.006342531 0.0064402428 0.00660751 0.0072311396 7.495434e-08 6.7134756e-08 6.665595e-08 5.279715e-08
4.817829e-08 4.74354e-08 4.7382297e-08 4.5154184e-08 3.988334e-08 4.0353147e-08 3.8607354e-08 3.7207233e-08
3.640202e-08 3.6472983e-08 3.643101e-08 3.6375642e-08 3.5356038e-08 3.649192e-08 3.55642e-08 3.6328476e-08
3.517053e-08 3.583299e-08 3.5118074e-08 3.4808302e-08 3.3164206e-08 2.9670676e-07 1.3138155e-06 1.4160942e-06
7.68933e-06 3.794028e-05 0.0005964171 0.00058958784 0.000592863 0.00059233257 0.00059603655 0.0005931931
0.00059619 0.00060783967 0.0006220156 0.00063102663 0.0006315345 0.0006352323 0.0006341199 0.00063806545
0.0006385305 0.0006431869 0.0006486253 0.00065964507 0.00066121586 0.0006814692 0.0006975187 0.00070734246
0.0007408249 0.00075993576 0.00078289985 0.00082217954 0.0009263992 0.000983839 0.0010338795 0.0023950832
0.011672565 0.0114218285 0.011386579 0.011514532 0.011598128 0.011651893 0.011743243 0.011936243
0.012203865 0.012370705 0.012547802 0.012668513 0.012725173 0.0128964335 0.013263981 0.013336762
00000000: 5056 843b 5830 823b 3e64 823b 301b 833b
00000010: 9ca1 833b 53dd 833b b736 853b 00b6 873b
00000020: f07c 893b 8cd9 8c3b 0ea4 903b dff7 923b
00000030: df08 953b 9dac 993b b1d7 9f3b cd99 a83b
00000040: 92c8 b23b 8d65 b73b efaf be3b 77fe c73b
00000050: 4f69 cd3b 4802 d73b 4030 df3b a2a6 e63b
00000060: 8cca f03b 77fe fe3b cab5 063c ad1f 093c
00000070: d58f 123c 9ccf 1c3c b74f ec34 4682 e534
00000080: 4a7a e034 7126 d934 12b1 d334 24bd d434
00000090: edee de34 a283 e034 bae6 db34 d156 d934
000000a0: 9ff7 da34 e801 d934 1dc8 d434 59c2 d234
000000b0: 2d0a d334 acab d434 fe35 d234 d6dd cf34
000000c0: 8566 cf34 71e1 cf34 2f17 cd34 fabd cf34
000000d0: f7ce d134 f1af d034 b0f0 c934 acd8 d134
000000e0: 4206 d334 5e47 d634 4d5e d534 b635 8a37
000000f0: 744a 7139 4fe6 6e39 057e 6f39 4d65 7039
00000100: 9817 7239 b319 7239 7712 7239 12cb 7539
00000110: 6a38 7c39 48c2 7f39 d8ee 8039 9ffc 7f39
00000120: f9ab 7f39 706a 8039 9147 7f39 5342 8039
00000130: b6b7 8039 74ab 8139 b377 8239 f19b 8639
00000140: b691 8939 b34a 8c39 5bba 9339 0007 9639
00000150: 033e 9c39 b084 9f39 54e3 b039 09b1 b639
00000160: 504e 093a 988e af3a 268b c93b 91fa c53b
00000170: a931 c53b 0d8d c63b f14e c63b a91b c63b
00000180: 9dcc c53b 20b2 c53b 91f6 c63b ff79 c53b
00000190: b1d3 c63b 4381 c53b 62bc c33b 1ee1 c33b
000001a0: b3aa c53b 7e00 c53b 765a c63b b6ea c63b
000001b0: fa03 c93b e046 ca3b f953 cb3b b8ac cc3b
000001c0: 451f cd3b ce94 cd3b 1570 cc3b 4f48 cc3b
000001d0: 7582 cc3b 16b1 cf3b 6fc9 d53b 686c ed3b
000001e0: 3f0a d735 febf d335 f9e3 d035 c7e0 cd35
000001f0: 75c8 c935 3ac8 c935 f535 cd35 ebe8 cf35
00000200: 877e cd35 9012 d035 6bc8 d035 895c d035
00000210: bfb0 cd35 642e cb35 dcfd cc35 444e d035
00000220: 8b47 d335 2b99 d735 a608 d735 71af d535
00000230: c851 d535 aadf d635 5b4b d635 2275 d435
00000240: 4a48 d135 fcc2 d335 2c05 d335 5e6b d435
00000250: f0c3 d435 0009 d835 1ad6 cb3b dc07 c83b
00000260: 3541 c73b 0c79 c83b d429 c83b 8dea c73b
00000270: d606 c83b 387a c83b 6a3e ca3b 4d2c c93b
00000280: 6d23 ca3b d765 c93b e6a6 c73b ddef c73b
00000290: 3203 ca3b 968d c93b 9727 cb3b 5b15 cc3b
000002a0: 580e ce3b 67ac cf3b 13cc d03b 1dd1 d13b
000002b0: 1af8 d13b afd0 d13b 2111 d03b 9b06 d03b
000002c0: 02d5 cf3b ac08 d33b d083 d83b 32f3 ec3b
000002d0: 96f6 a033 b92b 9033 7f24 8f33 15c3 6233
000002e0: 97ec 4e33 c6bb 4b33 6381 4b33 8def 4133
000002f0: 324c 2b33 c150 2d33 3cd1 2533 c9cd 1f33
00000300: 7258 1c33 78a6 1c33 5278 1c33 713b 1c33
00000310: 60da 1733 4abb 1c33 40bf 1833 9507 1c33
00000320: 680e 1733 cae6 1933 bbd4 1633 2280 1533
00000330: 6e70 0e33 114b 9f34 5b56 b035 a010 be35
00000340: 6c01 0137 1122 1f38 e058 1c3a 928e 1a3a
00000350: 5d6a 1b3a c446 1b3a 563f 1c3a 8480 1b3a
00000360: a249 1c3a 6e57 1f3a c30e 233a 7b6b 253a
00000370: 908d 253a b885 263a 113b 263a d943 273a
00000380: 0e63 273a 8b9b 283a 8208 2a3a 08ec 2c3a
00000390: 7255 2d3a a0a4 323a b0d9 363a f36c 393a
000003a0: eb33 423a 6d36 473a 853b 4d3a 8987 573a
000003b0: 99d9 723a 29f4 803a 3d83 873a d4f6 1c3b
000003c0: 493e 3f3c 9f22 3b3c c68e 3a3c 73a7 3c3c
000003d0: 1306 3e3c 95e7 3e3c bb66 403c 3b90 433c
000003e0: b8f2 473c 7fae 4a3c 4c95 4d3c 988f 4f3c
000003f0: 3e7d 503c 904b 533c 2b51 593c 6f82 5a3c

exp_avg f4 [20]
-0.021755392 -7.6172235e-11 -0.012871191 -0.030702673 -1.3121383e-10 -0.02487213 -9.820383e-06 -0.015807625
0.008477218 -0.031030044 -0.025132224 -0.014318479 0.005957322 -1.04270745e-10 -9.120944e-11 -0.02486385
0.0 -0.030012663 -0.020611933 -0.02229873
00000000: 5d38 b2bc 2881 a7ae b0e1 52bc 2c84 fbbc
00000010: 6945 10af a3c0 cbbc 39c2 24b7 fe7e 81bc
00000020: 08e4 0a3c b832 febc 18e2 cdbc 0e98 6abc
00000030: a435 c33b 364b e5ae 5a92 c8ae 46af cbbc
00000040: 0000 0000 1edd f5bc 5bda a8bc d4ab b6bc

exp_avg_sq f4 [20]
0.0050424975 4.298923e-07 0.00023603094 0.005768401 1.5602127e-06 0.005886754 1.3269629e-07 0.0006165555
0.012750004 0.007372592 0.0023384425 0.0007431297 1.6461312e-05 9.265679e-06 1.6953258e-07 0.0040097507
0.0 0.0042145713 0.0034540042 0.03578759
00000000: 893b a53b f3cb e634 137f 7739 db04 bd3b
00000010: 8068 d135 ace5 c03b 477b 0e34 57a0 213a
00000020: 65e5 503c c995 f13b 8e40 193b 97ce 423a
00000030: 6616 8a37 ca73 1b37 c308 3634 3a64 833b
00000040: 0000 0000 631a 8a3b 935c 623b 0296 123d

exp_avg f4 [20, 20]
-0.0010668209 3.6944454e-11 0.04034108 0.022646211 2.4520147e-10 0.004997952 -7.4609907e-06 0.052078173
0.0010626238 0.01331411 0.026214506 0.007383952 -0.0005706706 2.2195747e-10 -2.5010916e-10 0.014067693
-5.3702204e-10 0.02995564 0.011835702 0.0010744731 -0.013007577 -3.0623343e-10 0.06837907 0.039555915
-7.307873e-10 0.00046426244 7.2808575e-06 0.09992551 -0.024673797 0.019216862 0.0602172 0.027497888
-0.0014823913 1.9896693e-10 5.5598737e-10 0.021367252 -1.9477399e-10 0.033592448 0.008227661 -0.009126256
-0.008657354 -1.3561403e-10 0.068785205 0.039471596 -4.3238946e-10 0.0037137289 1.5141018e-06 0.09598212
-0.014425622 0.020830046 0.05457567 0.021896422 -0.0012547862 2.709147e-10 1.5627959e-10 0.022618499
-2.875304e-10 0.0405623 0.012955174 -0.0047827233 -0.013147651 -5.0686505e-10 0.061738633 0.0360872
-8.1801854e-10 -0.00045925193 1.202844e-05 0.091792956 -0.025716387 0.017200902 0.05672445 0.026964836
-0.0013523523 3.41062e-10 1.7176532e-10 0.019203905 1.8065154e-10 0.028136455 0.005944565 -0.009502287
0.0012584515 8.022151e-10 0.020409131 0.010978775 2.5804395e-10 0.0036555943 -1.077861e-05 0.024326742
0.0049502803 0.0069276355 0.010239789 0.0009933431 -0.00027394385 6.385548e-10 -5.9742944e-10 0.0072288187
2.1746256e-10 0.017967768 0.007893606 0.002168393 -0.0074524106 4.701527e-10 0.045074545 0.025991358
-2.2093462e-10 0.001120925 3.8861285e-06 0.0647317 -0.0136539675 0.013041871 0.03818579 0.016675156
-0.00091188354 3.122439e-10 1.5974574e-10 0.014369473 -7.0765255e-11 0.023843061 0.006595211 -0.0049210936
0.0012288062 5.681947e-10 -0.023877738 -0.013101398 1.679439e-11 -0.00233245 8.178117e-06 -0.03125829
0.0005791346 -0.0072676446 -0.015745396 -0.0047448096 0.0004501859 5.7198013e-10 -5.912718e-11 -0.007836157
-2.6662908e-11 -0.016881833 -0.0063812127 0.00011526329 -0.002426497 -3.7918982e-10 0.05350501 0.030088939
2.7616925e-10 0.0058800615 -9.026997e-06 0.07009294 -0.00094230263 0.017295063 0.03610037 0.011079949
-0.00081745494 -7.357881e-12 -9.362097e-11 0.018382883 4.9533305e-10 0.038195204 0.014635363 0.00041817725
-0.015113678 -3.865127e-10 0.0916843 0.052642293 4.8707244e-10 0.0022078883 3.8025253e-06 0.1314777
-0.027486218 0.02628667 0.077205285 0.03357045 -0.0019170553 5.363407e-10 4.1107624e-11 0.029020041
3.7050366e-11 0.048645042 0.013498127 -0.010026369 0.009300939 -2.5680763e-10 -0.09068984 -0.051399447
-2.8621397e-10 -0.00618216 8.080665e-06 -0.12412593 0.013776531 -0.027594542 -0.06825978 -0.02555253
0.00165904 4.9556864e-10 -5.5247126e-11 -0.029871415 2.6979827e-10 -0.056808002 -0.019330695 0.0044230167
0.011473832 6.7875566e-10 -0.07431122 -0.042548362 -4.0006187e-10 -0.0023231115 -1.2073652e-06 -0.10573865
0.020426497 -0.0214925 -0.061421327 -0.026130209 0.0015263697 -5.7603805e-10 2.49298e-10 -0.023655657
1.2729693e-11 -0.040621478 -0.01175927 0.007387031 -0.010197017 5.8657096e-10 0.09614654 0.054828566
8.9478695e-11 0.0064760484 -3.7512114e-06 0.13210113 -0.015574146 0.029512152 0.073350266 0.027892245
-0.0017034942 3.408422e-10 4.4335865e-11 0.03189064 3.568633e-10 0.059649825 0.020129673 -0.004882603
-0.0049725296 -5.4349913e-10 0.04673311 0.026453692 -7.6980183e-10 0.0030261776 -4.2294205e-06 0.064128935
-0.0075053154 0.0141036855 0.035348304 0.013351684 -0.0008724196 -2.668117e-10 -6.1712974e-10 0.015303871
00000000: 92d4 8bba c27b 222e b03c 253d 8c84 b93c
00000010: 0acd 862f dcc5 a33b 6c59 fab6 ec4f 553d
00000020: bd47 8b3a 6d23 5a3c cebf d63c 14f5 f13b
00000030: 0e99 15ba 790b 742f bc7f 89af 2e7c 663c
00000040: 919d 13b0 8865 f53c 88ea 413c 56d5 8c3a
00000050: bb1d 55bc 865a a8af 530a 8c3d 6205 223d
00000060: 96e0 48b0 4068 f339 174e f436 bfa5 cc3d
00000070: b420 cabc ae6c 9d3c 50a6 763d 4043 e13c
00000080: cc4c c2ba 36c4 5a2f 22d4 1830 600a af3c
00000090: 0128 56af 3c98 093d 50cd 063c 4b86 15bc
000000a0: 93d7 0dbc f51b 15af 42df 8c3d f8ac 213d
000000b0: 68b5 edaf 0862 733b 2438 cb35 4692 c43d
000000c0: 7259 6cbc c6a3 aa3c bd8a 5f3d 2060 b33c
000000d0: a377 a4ba dbef 942f cbd4 2b2f 6e4a b93c
000000e0: 4e12 9eaf a724 263d f041 543c 64b8 9cbb
000000f0: 3f69 57bc 7553 0bb0 a6e1 7c3d 2cd0 133d
00000100: f0da 60b0 c0c7 f0b9 c2cd 4937 f2fd bb3d
00000110: 2cab d2bc e8e8 8c3c e657 683d 5ce5 dc3c
00000120: 6a41 b1ba 3680 bb2f a4db 3c2f 8251 9d3c
00000130: e3a0 462f 6c7e e63c a0ca c23b 7baf 1bbc
00000140: a0f2 a43a df82 5c30 0d31 a73c 52e0 333c
00000150: 75dc 8d2f b292 6f3b c7d5 34b7 e048 c73c
00000160: f635 a23b 3801 e33b cac4 273c 1033 823a
00000170: 1fa0 8fb9 4d86 2f30 5c38 24b0 badf ec3b
00000180: 451a 6f2f 2431 933c 2f54 013c 991b 0e3b
00000190: 5a33 f4bb 0e3c 0130 16a0 383d d4eb d43c
000001a0: 91eb 72af 00ec 923a 9765 8236 0e92 843d
000001b0: e4b4 5fbc 92ad 553c b468 1c3d 569a 883c
000001c0: 780b 6fba 6ca8 ab2f 6ea4 2f2f f06d 6b3c
000001d0: 4c9d 9bae 8652 c33c a41c d83b 2041 a1bb
000001e0: e50f a13a 262f 1c30 3f9b c3bc 3fa7 56bc
000001f0: 9bb9 932d 04dc 18bb bf34 0937 b108 00bd
00000200: 11d1 173a 6c25 eebb 7dfc 80bc 597a 9bbb
00000210: ee06 ec39 8639 1d30 a505 82ae 3a63 00bc
00000220: 8887 eaad c54b 8abc 7e19 d1bb 82b9 f138
00000230: dd05 1fbb 3976 d0af 1228 5b3d 147d f63c
00000240: 5ed3 972f 88ad c03b a872 17b7 e38c 8f3d
00000250: dc04 77ba 60ae 8d3c fbdd 133d ad88 353c
00000260: 794a 56ba f370 01ad ecdf cdae b397 963c
00000270: f727 0830 9372 1c3d 29c9 6f3c cd3e db39
00000280: 5c9f 77bc d47c d4af fac4 bb3d 729f 573d
00000290: ade2 0530 38b2 103b e32e 7f36 17a2 063e
000002a0: c72a e1bc 2457 d73c ce1d 9e3d 2b81 093d
000002b0: b445 fbba 9f6d 1330 12cb 342e 70bb ed3c
000002c0: 01f3 222e 0640 473d 4027 5d3c a445 24bc
000002d0: f762 183c 762e 8daf 98bb b9bd 3a88 52bd
000002e0: 0959 9daf b893 cabb 3192 0737 bc35 febd
000002f0: f6b6 613c f30d e2bc c9cb 8bbd 8a53 d1bc
00000300: 2574 d93a 8b38 0830 bcfa 72ae e6b4 f4bc
00000310: bb52 942f 82af 68bd 685b 9ebc f4ee 903b
00000320: bdfc 3b3c 2f93 3a30 7b30 98bd 3147 2ebd
00000330: b4ef dbaf 583f 18bb c10c a2b5 818d d8bd
00000340: 7855 a73c 0a11 b0bc ee94 7bbd 050f d6bc
00000350: 7810 c83a 1357 1eb0 930d 892f 82c9 c1bc
00000360: 71f1 5f2d b562 26bd f4a9 40bc e80e f23b
00000370: 6411 27bc 433c 2130 7ae8 c43d eb93 603d
00000380: 07c4 c42e 0835 d43b 52bd 7bb6 8545 073e
00000390: b42a 7fbc 78c3 f13c aa38 963d 477e e43c
000003a0: c847 dfba 4661 bb2f bffd 422e c29f 023d
000003b0: 0b30 c42f 6053 743d fce6 a43c 3efe 9fbb
000003c0: 9af0 a2bb 5a65 15b0 386b 3f3d 6ab5 d83c
000003d0: fd99 53b0 d652 463b 72ea 8db6 0856 833d
000003e0: 26ef f5bb 2513 673c 62c9 103d 06c1 5a3c
000003f0: 17b3 64ba 69ae 92af a5a2 29b0 16bd 7a3c

exp_avg_sq f4 [20, 20]
3.5032717e-05 5.4887477e-09 0.0010868694 0.001152957 2.0100948e-08 0.00027259684 1.1649136e-07 0.0019105866
0.00011925824 0.0006878413 0.0011088841 0.00013811962 1.0004584e-06 5.7806895e-11 3.8415168e-10 0.00050124596
7.94277e-20 0.0014225157 0.00055583264 0.00011728033 0.00053445593 2.9877927e-07 0.08031175 0.044210147
5.0332587e-06 0.0062469365 1.4645052e-07 0.13478246 0.002602088 0.023967404 0.052409213 0.0051888754
6.1995465e-06 3.1756718e-07 8.411169e-09 0.021165293 1.054243e-20 0.06520459 0.014357404 0.0033331453
0.00019127247 2.4652732e-07 0.030750172 0.017395444 3.1180048e-06 0.0024586061 1.4377952e-07 0.05171264
0.0009871532 0.009394893 0.020445975 0.0020005563 2.2266206e-06 2.313152e-07 3.952382e-09 0.008244011
2.2916932e-20 0.025553023 0.0057314434 0.0011735341 0.0006747453 5.478022e-07 0.090030506 0.050245598
7.410374e-06 0.0072823586 8.501458e-07 0.15132004 0.0030965726 0.02749302 0.059201445 0.005899626
1.0049757e-05 4.6361342e-07 1.3248698e-08 0.024032567 9.072579e-21 0.07385382 0.016537441 0.0040029036
7.86552e-05 1.4938371e-07 0.004250124 0.002869276 3.8122286e-07 0.00056581484 8.858889e-07 0.0071946555
0.000268498 0.0017427758 0.0031317584 0.00035537346 2.972159e-06 1.7416935e-08 1.493294e-09 0.001393676
1.3133456e-20 0.003943735 0.0011206656 0.0003459975 0.00015660966 6.156177e-08 0.024775984 0.013484473
8.456831e-07 0.0018871567 7.817932e-08 0.041560404 0.0007800327 0.0073124487 0.016079048 0.0015873339
1.6114757e-06 5.5216397e-08 1.3346965e-09 0.0064857863 1.396437e-21 0.020009514 0.004332836 0.0009959555
2.3199638e-05 1.3326957e-07 0.0002676137 0.000277113 8.382201e-09 8.5468055e-05 8.2855803e-07 0.00044812728
5.2446627e-05 0.00025460645 0.0002745381 2.9693838e-05 1.5394346e-06 1.6859623e-09 5.0440405e-11 0.00019500269
1.9849228e-22 0.00029509875 0.000103680664 7.423145e-05 4.2612544e-05 2.982496e-08 0.001477321 0.0016258735
2.4174597e-07 0.0003800989 2.63358e-07 0.0025915236 0.00015756789 0.0009626454 0.0015538606 0.00018988972
1.612152e-06 7.0594988e-09 1.236371e-09 0.00070742867 6.764533e-20 0.001995865 0.000785134 0.00013236853
0.00067652005 4.176133e-07 0.10395543 0.05790385 6.8602744e-06 0.008137029 8.760699e-08 0.17466915
0.0033563604 0.031277787 0.06850224 0.006735726 6.577362e-06 4.5557476e-07 1.0153776e-08 0.02763731
3.8316322e-22 0.08520701 0.01883216 0.004156416 0.00015598001 1.2457492e-07 0.02725697 0.015727421
2.7317145e-07 0.0022662752 6.6737107e-07 0.04576153 0.00088223646 0.008476844 0.018440284 0.0018176438
2.0555328e-06 3.0990787e-08 1.7560194e-10 0.0074987616 2.018706e-20 0.022873659 0.0052420343 0.00093371153
0.00036225596 2.1202895e-07 0.05759769 0.03208938 3.3322183e-06 0.004489276 8.283828e-08 0.096758775
0.0018358517 0.017300423 0.037993252 0.003729182 3.2347677e-06 2.2438867e-07 4.6985393e-09 0.015321423
4.5262542e-23 0.047219995 0.010416591 0.0022438352 0.00020119123 7.865013e-08 0.03547905 0.02017871
8.8161386e-07 0.002879771 3.1434443e-08 0.059624616 0.0011313563 0.010874739 0.023754556 0.002334489
1.3959641e-06 8.337412e-08 6.274188e-10 0.009584917 3.5236737e-20 0.029622627 0.0066853394 0.0012452293
4.6032466e-05 4.291638e-08 0.008041628 0.0045685284 7.784824e-08 0.00064368645 2.3023215e-07 0.013499301
0.00025298554 0.0024607787 0.0053958395 0.0005273464 6.0317393e-07 7.245546e-09 4.4984187e-11 0.0021934707
00000000: 18f0 1238 8997 bc31 4975 8e3a d11e 973a
00000010: 74aa ac32 54eb 8e39 cd29 fa33 a66c fa3a
00000020: 481a fa38 4050 343a fa57 913a 34d4 1039
00000030: 7d47 8635 c73c 7e2e 8b30 d32f 0c66 033a
00000040: 198b bb1f b573 ba3a 4cb5 113a 66f4 f538
00000050: bb1a 0c3a e967 a034 7d7a a43d b315 353d
00000060: 5de3 a836 1ab3 cc3b 0340 1d34 6a04 0a3e
00000070: cb87 2a3b 4a57 c43c 0bab 563d 7107 aa3b
00000080: b305 d036 1a7e aa34 b680 1032 d662 ad3c
00000090: 1024 471e fc89 853d 513b 6b3c e670 5a3b
000000a0: 5090 4839 755a 8434 c9e7 fb3c e480 8e3c
000000b0: ea3e 5136 9120 213b d061 1a34 a2d0 533d
000000c0: 5d63 813a 0aed 193c 517e a73c c41b 033b
000000d0: 0d6d 1536 705f 7834 85cd 8731 e311 073c
000000e0: be71 d81e 9354 d13c d5ce bb3b 45d1 993a
000000f0: 64e1 303a ae0c 1335 ea61 b83d 54ce 4d3d
00000100: a1a6 f836 daa0 ee3b 9335 6435 a4f3 1a3e
00000110: deef 4a3b 0b39 e13c 377d 723d a651 c13b
00000120: 619b 2837 8be6 f834 649c 6332 f2df c43c
00000130: 4d60 2b1e ac40 973d 8779 873c ca2a 833b
00000140: b0f3 a438 4866 2034 a044 8b3b 770a 3c3b
00000150: dfaa cc34 3153 143a d2cd 6d35 25c1 eb3b
00000160: 31c5 8c39 da6d e43a 303e 4d3b 6b51 ba39
00000170: 4e75 4736 3f9c 9532 9d3c cd30 02ac b63a
00000180: 7f15 781e 723a 813b 4ce3 923a 0067 b539
00000190: 9637 2439 f133 8433 01f7 ca3c fbed 5c3c
000001a0: e602 6335 795a f73a 89e3 a733 3e3b 2a3d
000001b0: 1c7b 4c3a 449d ef3b 35b8 833c 160e d03a
000001c0: e249 d835 1227 6d33 7570 b730 b886 d43b
000001d0: 0a06 d31c feea a33c 76fa 8d3b b98a 823a
000001e0: d89c c237 dc18 0f34 814e 8c39 7a49 9139
000001f0: 4f01 1032 503d b338 136a 5e35 a0f2 ea39
00000200: 23fa 5b38 b37c 8539 e1ef 8f39 0817 f937
00000210: 929e ce35 86b7 e730 d9d6 5d2e a379 4c39
00000220: 63f6 6f1b 7cb7 9a39 226f d938 b5ac 9b38
00000230: dfba 3238 e418 0033 aba2 c13a 431b d53a
00000240: 50c9 8134 0348 c739 a663 8d34 8dd6 293b
00000250: cf38 2539 0a5a 7c3a e9aa cb3a 221d 4739
00000260: 1f61 d835 0290 f231 f0ec a930 bc72 393a
00000270: 18b9 9f1f 0fcd 023b 73d1 4d3a 68cc 0a39
00000280: 7e58 313a 5634 e034 96e6 d43d 962c 6d3d
00000290: 4f31 e636 2c51 053c 7422 bc33 78dc 323e
000002a0: 62f6 5b3b 231d 003d e74a 8c3d 5db7 dc3b
000002b0: 1cb3 dc36 b895 f434 c770 2e32 a467 e23c
000002c0: a39b e71b 0381 ae3d e745 9a3c 8b32 883b
000002d0: 918e 2339 e5c2 0534 024a df3c cbd6 803c
000002e0: 66a8 9234 ca85 143b 6425 3335 7170 3b3d
000002f0: e345 673a 76e2 0a3c 1410 973c 013e ee3a
00000300: c9f1 0936 bb1a 0533 8d13 412f 2cb8 f53b
00000310: 51a9 be1e 8a61 bb3c 5fc5 ab3b 52c4 743a
00000320: 2ced bd39 13aa 6334 8eeb 6b3d 2770 033d
00000330: 139f 5f36 c71a 933b d3e4 b133 7729 c63d
00000340: f6a0 f03a 9eb9 8d3c d09e 1b3d 4b65 743b
00000350: e314 5936 7def 7034 ca70 a131 b506 7b3c
00000360: 50e0 5a1a c169 413d 59aa 2a3c 4f0d 133b
00000370: dcf6 5239 5ee6 a833 7b52 113d d24d a53c
00000380: 0ba8 6c35 8aba 3c3b 8902 0733 f138 743d
00000390: 054a 943a f62b 323c ea98 c23c 3afe 183b
000003a0: f65c bb35 680b b333 ac76 2c30 0e0a 1d3c
000003b0: 9a66 261f 27ab f23c b110 db3b f636 a33a
000003c0: fc12 4138 0f53 3833 08c1 033c 98b3 953b
000003d0: 862d a733 11bd 283a bb35 7734 2c2c 5d3c
000003e0: 25a3 8439 0445 213b 95cf b03b 9e3d 0a3a
000003f0: cce9 2135 7ff4 f831 b1d7 452e 55c0 0f3b

exp_avg f4 [20]
0.01684523 0.030121546 0.029729089 0.02746676 0.008173535 0.019712366 -0.009932996 0.022465836
0.040012132 -0.038757164 -0.032308765 0.04123664 0.019981343 0.028481496 0.0052007735 0.026021238
0.015698608 0.013941549 -0.05522033 0.049925264
00000000: 02ff 893c 76c1 f63c 6b8a f33c f801 e13c
00000010: 4aea 053c d47b a13c 01be 22bc 460a b83c
00000020: c3e3 233d d5bf 1ebd 3256 04bd c0e7 283d
00000030: eaaf a33c 0752 e93c 406b aa3b 7e2a d53c
00000040: 5e9a 803c 186b 643c b62e 62bd 6f7e 4c3d

exp_avg_sq f4 [20]
0.0005523965 0.020920848 0.008558821 0.024088772 0.0013506213 0.0062717074 9.9860146e-05 0.0007952744
0.02758054 0.0072582755 0.015216192 0.0094569 0.0020943803 0.01182945 0.008318803 0.011197456
0.01251414 0.011868107 0.021522587 0.0143200215
00000000: b4ce 103a 3362 ab3c 4c3a 0c3c d155 c53c
00000010: 5507 b13a e582 cd3b 026c d138 f679 503a
00000020: 96f0 e13c d4d6 ed3b 564d 793c 1df1 1a3c
00000030: df41 093b 4fd0 413c 974b 083c 8975 373c
00000040: 1c08 4d3c 7372 423c 2350 b03c 869e 6a3c

exp_avg f4 [1, 20]
0.00296986 -0.0012197341 0.0005520018 -0.0010158655 0.0020891656 -0.00058006146 -0.0025886477 0.0035337345
-0.0004285368 -0.002709828 -0.00011840432 0.0015782907 0.001706016 0.00031979408 -0.0020817511 -6.417278e-05
-0.0017489098 -0.0009133601 -0.0020059235 0.001991235
00000000: fca1 423b 7cdf 9fba 37b4 103a ca26 85ba
00000010: 62ea 083b 440f 18ba 4da6 29bb 3a96 673b
00000020: 3cad e0b9 5f97 31bb d64f f8b8 a6de ce3a
00000030: 669c df3a 09aa a739 fd6d 08bb 8094 86b8
00000040: ad3b e5ba 8f6e 6fba d075 03bb 617f 023b

exp_avg_sq f4 [1, 20]
6.8952126e-05 4.7431473e-05 4.4177046e-05 3.4008615e-05 1.1949875e-05 0.00012365282 6.511439e-05 0.00010863674
5.9808914e-05 0.00034496846 9.976059e-05 0.00017842608 0.00017438816 6.3274274e-05 1.3140679e-05 4.2362437e-05
2.1270856e-05 7.4839127e-06 0.0002440582 0.0003043166
00000000: 649a 9038 28f1 4638 be4a 3938 79a4 0e38
00000010: 537c 4837 cda8 0139 068e 8838 e8d3 e338
00000020: 55db 7a38 e2dc b439 8f36 d138 e317 3b39
00000030: f7db 3639 1eb2 8438 c976 5c37 52ae 3138
00000040: d16e b237 521e fb36 e0e9 7f39 af8c 9f39

exp_avg f4 [1, 20]
0.23277877 -0.07503536 0.04285019 -0.055692665 0.14914516 -0.018114503 -0.19054423 0.2701231
-0.025848068 -0.22652908 -0.0223644 0.14635077 0.1373739 0.030943327 -0.14484398 -0.004433468
-0.11201055 -0.07630329 -0.16459589 0.18059416
00000000: 8f5d 6e3e 24ac 99bd ae83 2f3d fe1d 64bd
00000010: 82b9 183e de64 94bc 071e 43be 934d 8a3e
00000020: 54bf d3bc 3df7 67be 8c35 b7bc fadc 153e
00000030: beab 0c3e dc7c fd3c fb51 14be a046 91bb
00000040: ca65 e5bd e644 9cbd d38b 28be aded 383e

exp_avg_sq f4 [1, 20]
0.39531216 0.010310462 0.070195995 0.008128172 0.1214003 0.03234852 0.30595562 0.63300914
0.024181396 0.78675085 0.06775248 0.31975186 0.3560696 0.07166721 0.12940711 0.030611366
0.052004967 0.011018769 0.4986212 0.5402864
00000000: 5b66 ca3e 36ed 283c ebc2 8f3d 062c 053c
00000010: b8a0 f83d e27f 043d 37a6 9c3e e30c 223f
00000020: 1018 c63c 8168 493f d0c1 8a3d 84b6 a33e
00000030: c14e b63e 42c6 923d 4c83 043e b0c4 fa3c
00000040: 2903 553d 1188 343c 474b ff3e 3650 0a3f

exp_avg f4 [1, 20]
-0.08769274 0.019183416 -0.02857961 0.017397776 -0.052562978 -0.0047776485 0.07200676 -0.10794518
-0.004623193 0.103146866 0.021183668 -0.064387724 -0.06714272 -0.02530473 0.053874623 -0.012148211
0.0389689 0.018300194 0.079566054 -0.08214924
00000000: 4098 b3bd 8a26 9d3c c91f eabc c885 8e3c
00000010: 474c 57bd d28d 9cbb 4878 933d 5d12 ddbd
00000020: 277e 97bb aa3e d33d 5f89 ad3c b6dd 83bd
00000030: 1f82 89bd dd4b cfbc a3ab 5c3d 4a09 47bc
00000040: da9d 1f3d 4aea 953c 87f3 a23d dc3d a8bd

exp_avg_sq f4 [1, 20]
0.0039824164 0.0014860263 0.0009286992 0.00089918013 0.0014033834 0.0025623697 0.004004257 0.006718524
0.0018671374 0.012412195 0.0027951594 0.0046337373 0.0060324175 0.0020505583 0.0013485628 0.0016723796
0.0010253277 0.00088476477 0.009247778 0.009192277
00000000: ee7e 823b c5c6 c23a f373 733a f5b6 6b3a
00000010: bcf1 b73a 6eed 273b 2436 833b 1027 dc3b
00000020: bcba f43a 855c 4b3c fe2e 373b 9bd6 973b
00000030: 96ab c53b a962 063b 42c2 b03a bf33 db3a
00000040: 4a64 863a 8fef 673a fe83 173c 349b 163c
