deep-learning/rv_only/lightning_logs/version_41/checkpoints/epoch=4-step=250.ckpt (torch, 27739 bytes, 21 tensors)

model.nn.0.weight f4 [20, 30]
00000000: febd c43d d381 f43d e358 933d 2d09 ae3c
00000010: 301b 8e3d 3886 c43d 42c1 243d b039 a63d
00000020: 9a71 aa3c fe08 bf3d 7b12 013d daa8 693d
00000030: b742 853d d118 6d3d 2654 b53d 6238 e63d
00000040: 89db 46bc 5544 aa3d 87c5 9a3d 1d26 cb3d
00000050: 3589 2ebc 2d99 bc3d 2a30 753d 33fe 4bba
00000060: 4a3c 6b3d bdf4 c53d 49c7 023d 16d6 313c
00000070: fd55 423d 9513 093e 24fb 6a3c f42e e93d
00000080: 941e 3dbb 275e eb3d ee5a 843d 4599 9d3d
00000090: a08c d839 a8cd 893d c381 c23d b3f7 c13d
000000a0: e453 0c3e 0c43 e43d 0506 e43d c27d 273d
000000b0: 7a99 fd3d f454 e53d 3430 7d3c f40e 093e
000000c0: e6a3 bf3d f613 683d 566e 643d b50c 9d3d
000000d0: f68e 003e 2410 313d 6782 693d a34f ea3c
000000e0: b378 df3d 3987 d73d 81e9 6c3d bd07 883d
000000f0: c4a1 f5bc 412c 2dbc 2ae2 a0bc 98de ddbc
00000100: 7be3 2abd a5c8 82bc 2041 8dbd 88d1 143d
00000110: a4ee 89bd a60e 9abd 793f b03c 2f55 debc
00000120: a79a 6b3b 9c12 97bd e8c0 8cbd 2453 b03c
00000130: e034 7cbd 509b 23bc c655 aaba cff5 7f3d
00000140: 2273 0e3d 8a85 8dbc b0bc dd3c 2c7b 753c
00000150: 10bb 6abc f372 a23d 5f40 993d ea98 7f3d
00000160: 74ef 273e ed53 5b3e dcac 4a3d 1b4b 61bd
00000170: 9195 073d 887c 383d be70 5fbd dc1b 5abd
00000180: 7540 3bbd dd2e c6bc b1f1 703d 8c95 4139
00000190: 94df 0c3d ab76 08bd bb7d a0bc 7595 6fbd
000001a0: df3d 17bd 0bb1 70bc 9273 633d 861f be3b
000001b0: 0d34 99bd b7ea 71bd 880e 753c 4d3b 813c
000001c0: cfab 013d cac2 acbc 2378 90bc a535 6dbb
000001d0: 9fd4 a73b 3ce5 e139 f6cd 6bbc 326f 99bc
000001e0: 4bac 07bd 66c7 813d 432d cebc 2551 3ebd
000001f0: 35ec 8a3c fa11 303d e188 28bd a20a 2d3d
00000200: bdd9 373d 40e3 2ebd dcb4 c4bc d926 aabc
00000210: b868 8d3a 16b1 1bbd 4173 2fbd 1236 8abd
00000220: 3c82 d83c a377 20bd 2485 903c 154b 00bd
00000230: e851 b9bd 2fe7 9d3b fade 87bd 7666 90bc
00000240: b4ab 7f3b 07c1 be3d 105a e23d e581 733c
00000250: dc28 0f3e d241 f53d 1390 5a3c af0c a1bd
00000260: 84d3 1c3d d4e2 abbd 9dbe 48bd 02eb a1bd
00000270: 8518 5f3d 16fe 123d f472 96bd 6559 363d
00000280: 662b cabc e9c5 7cbd 5643 48bd 0d8f 9abd
00000290: 7c0d c93b 8522 1f3d d01e 9dbd 2ef6 973c
000002a0: 73da 85bc ed99 68bd 0de5 063b 3c21 873d
000002b0: 3fb7 323c ccb0 863d dad6 ae3d 793e 4d3d
000002c0: cea0 233d 4343 cf3d aee2 613d 30ad 483e
000002d0: 2066 793d 7706 a83d 07ff b7bc cf6d a9bc
000002e0: 6228 52bc 55c5 52bc 087e 1c3d 5248 2e3c
000002f0: 3939 4a3c c22b a43d 152b 513b 851a 2c3b
00000300: 35df 833d 4b65 073d 4ab2 933d 0f5b ecbc
00000310: 104e b23d cd59 11bc 90bc 4e3d 38f9 d6bc
00000320: 0f32 01bd eb17 963d add3 9c3d aff7 ba3d
00000330: 1cb1 eb3d dc85 a43d bf20 003e 02b8 883d
00000340: 3523 273e be39 2a3e f7de 0f3d fb53 933d
00000350: eb48 443d f375 9f3d 0e2c be3d 8540 9bbc
00000360: 6b69 a0bb cbc6 d1bc e4ce bf3c 70fb 9bbc
00000370: 3c6f 653d 74b7 00bd bad2 aa3d 87f5 a13d
00000380: 9265 793d eb71 0abd 8f54 933d b37f 893a
00000390: efa7 bc3d a463 923b e776 bcbc 6223 963d
000003a0: d9a5 2c3d 5784 bd3c 2ff3 c83d b25c 403d
000003b0: 3928 f33d 80ea 233c dc65 fa3d 269b ed3d
000003c0: 837d 46bc f087 5bbc c69b 473d 6947 2cbd
000003d0: cd3a a43d d2fb 343b 86a4 a43d a6a4 1bbd
000003e0: d7e5 393d e0da 13bc 2e3b b03d edb8 9c3d
000003f0: be4b 473c 249e 25bd 177d 913c b831 dc3c
0.09606551 0.119388245 0.07194688 0.02124461 0.06938779 0.09595913 0.040223368 0.08116472
0.020806123 0.09327887 0.031511765 0.057045795 0.065068655 0.057884995 0.08853941 0.11241223
-0.012137302 0.083138146 0.075572066 0.09919379 -0.01065283 0.092089035 0.059860386 -0.0007781714
0.057430543 0.09665821 0.031928334 0.010854265 0.047445286 0.13386376 0.014342103 0.11385909
-0.0028857337 0.114925675 0.06462656 0.076952495 0.00041303504 0.06728679 0.09497406 0.09471073
0.13703877 0.11145601 0.11133961 0.040891416 0.12382789 0.11197844 0.015453387 0.1338461
0.09357433 0.05665966 0.055769287 0.07668439 0.12554535 0.043228284 0.057009127 0.028602427
0.109116934 0.105238385 0.057839874 0.06642101 -0.029984362 -0.010569633 -0.019639093 -0.02708368
-0.04172085 -0.015964815 -0.06897187 0.036332637 -0.0673497 -0.07522325 0.021514641 -0.027140228
0.0035950334 -0.07376596 -0.068727314 0.02152402 -0.061573863 -0.00998576 -0.0012995533 0.06249028
0.034777768 -0.01727559 0.027067512 0.01498298 -0.014326826 0.07932081 0.07482981 0.06240169
0.16399938 0.21418734 0.049481258 -0.055003267 0.033101622 0.045040637 -0.05455088 -0.053249225
-0.045715768 -0.024192268 0.058824245 0.00018461625 0.03439291 -0.033316296 -0.019591203 -0.058492143
-0.03692424 -0.014690648 0.05553014 0.0058020977 -0.07480631 -0.059061732 0.014957078 0.015775347
0.03165799 -0.021088976 -0.01763541 -0.0036195305 0.005121782 0.00043086137 -0.014392367 -0.01872978
-0.033123296 0.0633686 -0.025168067 -0.046464104 0.016958335 0.042985894 -0.041146163 0.04224647
0.044885386 -0.04269719 -0.024012022 -0.020770477 0.0010788655 -0.03801068 -0.042834524 -0.06748594
0.026429288 -0.039176594 0.017641611 -0.031321604 -0.090488255 0.004818819 -0.06634326 -0.017626982
0.0039012255 0.09314161 0.11052334 0.014862512 0.1398043 0.11975445 0.013340014 -0.07863747
0.038287655 -0.083928734 -0.049009908 -0.07906152 0.054466743 0.035886846 -0.07346144 0.044518847
-0.024678897 -0.06171218 -0.04889234 -0.07546816 0.0061356407 0.03885128 -0.07671893 0.018550005
-0.016339516 -0.05678742 0.0020583302 0.06598136 0.010907947 0.0657669 0.085370734 0.050108407
0.039948277 0.10120251 0.05514782 0.19597316 0.06088841 0.08204358 -0.022460474 -0.020682244
-0.012827011 -0.01286443 0.03820613 0.01063736 0.0123427445 0.08016159 0.0031916548 0.0026260924
0.06439058 0.033055585 0.0721174 -0.028852014 0.087062955 -0.008871508 0.050472796 -0.026241884
-0.03154188 0.07328781 0.076575615 0.09129273 0.1150839 0.08033344 0.12512492 0.06675722
0.16322024 0.1662359 0.035124745 0.071937524 0.047921102 0.07786169 0.092857465 -0.018951664
-0.0048953793 -0.025607487 0.023414083 -0.019040793 0.056014284 -0.031424955 0.08340974 0.07908159
0.06088788 -0.033800047 0.07193863 0.0010490328 0.09211718 0.0044674445 -0.023005916 0.073309675
0.042150352 0.023134394 0.098120086 0.0469634 0.11872906 0.01000464 0.122264594 0.11601858
-0.012114885 -0.013399109 0.04873254 -0.04206029 0.08019028 0.0027615917 0.08039193 -0.037998818
0.045385208 -0.009024352 0.08605038 0.07652459 0.012164054 -0.040434018 0.017759843 0.026879176

model.nn.0.bias f4 [20]
00000000: 5ed2 803d adb3 883d 543f ed3c 89f8 09bc
00000010: 6117 023d 6594 b13c 052d 323d 0c10 3f3d
00000020: 5a8f 123d ce75 b53c bf09 5e3d 1f44 b13b
00000030: 6ace 053d 1b87 1e3d ccde e73c 720f 7f3c
00000040: 1bc4 263d 1422 513c 72bb 843d c03a 053d
0.06290124 0.066748954 0.028960861 -0.008421072 0.031760577 0.021677205 0.043499965 0.046646163
0.035781242 0.0221509 0.054208513 0.005409732 0.032667555 0.038703065 0.02830448 0.015567647
0.040714364 0.0127644725 0.06481065 0.03252673

model.nn.2.weight f4 [20, 20]
00000000: 232d 65bc ae80 ddbd e6b3 f8bd 4abc 4e3c
00000010: a493 13be a0c6 b6bd 6c01 fbbd 497b 92bd
00000020: b36e febc d820 fabd 3045 c2bd f03e 12ba
00000030: a1e0 bebd 94d0 78bd be63 09be dc2a a0bd
00000040: f125 ab3d 6d94 11bd 1a7f c5bd 9b75 13be
00000050: 76f2 52bc 5dd2 703d 91e7 3dbe 486d 0f3d
00000060: 24ac b3bd 7a2b 34be 115a 7dbd f0b5 013d
00000070: 3bee 4cbc 6596 87bd fab0 a23b 18e4 ac3b
00000080: 5a3a 83bd 952d 3cbd cd47 debd baf5 02be
00000090: f04a 3cbd 6337 0fbc 5e53 6d3d 8d14 2abe
000000a0: 956f 3a3d a2b9 b8bc 56d5 d73d 3809 c3bc
000000b0: 889d 523d 1462 f03d ec77 0abc 6127 8c3c
000000c0: 8c2a 9a3d 8cee 193d 0bb5 383d f32b c4bb
000000d0: aaf0 053d a025 08bd bb88 043e 182e 383e
000000e0: 1427 43bd b911 84bc f6f7 60bb 5002 093e
000000f0: 28f1 313d 7b62 b93d fca9 0e3e 7516 03bd
00000100: d036 6b3c ed1c a43d 87e9 db3d 1313 f73d
00000110: 26ad b93d 3505 003d 311f b33d 15e4 bebc
00000120: 5639 3b3d 807c c73d a6c8 763c bc22 e23d
00000130: b531 75bc 7a77 cd3c 381c b53d ab63 ff3b
00000140: 2193 c5bd 6c03 86bd 9ffb 033d 59c0 403c
00000150: 9f8b 60bd 107c 213a 7d86 21be 1268 a8bd
00000160: 5c40 d9bc d20a 193c cd1f d8bd 5c06 963d
00000170: a018 58bd ec85 15bc e1e7 9abc 2bda 28bd
00000180: 3d99 563d 6510 d43c de71 99bd c4f5 a4bd
00000190: cc5f e6bc b63d eebd 6ef6 363e ef0f 943d
000001a0: f642 1c3e fdd5 6f3d 3146 b2bd 6c7b c9bd
000001b0: fb16 b23b 20b9 053e b1e3 bebd db90 b7bb
000001c0: d399 9ebd 42df d4bd 9dc8 163e 3d17 2e3e
000001d0: a681 23bd 3b8a 9c3d ff43 1bbd c673 293e
000001e0: ac4a eabd 898f d3bd d79f 9dbd 4f0e b63c
000001f0: 2d39 7dbd 5664 cdbd 4f2f 37bd 0305 ff3a
00000200: 3b05 a8bd bb30 63bb 38af 01be 22fc afbb
00000210: 80d9 96bd c569 5dbd 7d17 e7bd 5747 11be
00000220: ea7a ad3d 83cd 1bbc 51b9 2cbc 63c3 fcbd
00000230: 065f b1bd fde3 8ebd 6af3 913d 7091 623d
00000240: e2ea 163e 360f 243e 3a43 ec3c 5d57 3dbd
00000250: 0177 e5bc 9bc8 233e 84a1 ecbc 44aa 6839
00000260: 9cb2 97bd bc8d 8fbd 7308 9e3d 0c3a cc3d
00000270: 9750 993d 1006 983b 4cef d4bd c997 2a3e
00000280: eeb3 bf3d dbd7 a83c bb18 a2bd a406 083d
00000290: ce26 2bbe 0b6c 0dbe 8557 683d fdcf ee3c
000002a0: fdbe b9bc eff9 65bd 2d1f 2d3d 87eb 163d
000002b0: 9a08 203d c1e1 e6bc ebb7 05be aa6d 2cbe
000002c0: 6b61 03bd 7df8 c5bd acc7 7b3d f86f 0bbe
000002d0: 95a3 e63c f5c4 dc3d d53e 5f3d baa0 c4bc
000002e0: 4d05 12bc a17b 713d 037c 7c3b e853 043d
000002f0: 5cc8 ee3d 1516 6f3d 0459 673d 3f1a 9ebd
00000300: ded4 de3c 3e44 e33d 1b17 153d b83b 3b3c
00000310: a35d 51bc c419 d63c 6746 d03d f14d 623d
00000320: 25a0 febc da18 cfbd 8fe7 073e 6861 933d
00000330: f889 483e 13c3 253d 6f5b fabd 1296 b6bd
00000340: cbac 47bd 4106 053e a901 ccbd 8205 9ebc
00000350: a43e 90bd b8c1 a2bd b30e 183e 31e0 953d
00000360: e8fd 583d cfa2 233d df49 13be a299 ad3d
00000370: f741 8bbc 38c4 2abd e625 483e 66ba 1ebd
00000380: 07c2 9b3d 97ea 523d 3f88 1abb e32e 1c3c
00000390: b46e cb3d 3b33 6c3d 045a 663c b4e9 a03d
000003a0: 2108 a23d 0387 53bd 1c60 313e a828 893d
000003b0: 9acd a7bd 59c0 98bd 8725 a3bb 86cc 1a3e
000003c0: 3653 5b3b 1fae 253b 6d11 f23d 9bf8 47bd
000003d0: e158 723d 1f4b 253e 78b8 06bd 8140 a03c
000003e0: 29e9 af3d fea1 873d 8780 6e3d 7681 583c
000003f0: c422 873b 4a60 a4bc 200c 463d a24e f03d
-0.013987812 -0.10815559 -0.12143688 0.012618134 -0.14411789 -0.089246035 -0.122561306 -0.07152421
-0.031058645 -0.12213296 -0.09485853 -0.00055788364 -0.09320188 -0.06074579 -0.13416955 -0.07820675
0.08356846 -0.03554194 -0.09643383 -0.14400332 -0.01287519 0.058794368 -0.18545367 0.035016328
-0.087730676 -0.1759471 -0.061853472 0.03166765 -0.01250797 -0.06620482 0.004964945 0.0052762143
-0.06407614 -0.045941908 -0.10853539 -0.1278905 -0.045969903 -0.008741233 0.057940833 -0.16609402
0.04551657 -0.022549454 0.105387375 -0.023808107 0.051419765 0.11737457 -0.008451443 0.017108621
0.075276464 0.03758101 0.04509453 -0.0059866845 0.03270022 -0.033239007 0.12942784 0.17986333
-0.04764469 -0.016121732 -0.0034327484 0.13379788 0.043442875 0.09051987 0.13932031 -0.03200384
0.01435633 0.0801333 0.10737901 0.12064185 0.090662286 0.031254966 0.08746184 -0.023302117
0.045708977 0.09740543 0.015062487 0.11041781 -0.014965464 0.025081385 0.08843273 0.007793864
-0.09647203 -0.065436214 0.032222386 0.011764609 -0.054820653 0.00061601494 -0.1577396 -0.08222975
-0.026519947 0.009340959 -0.105529405 0.07325432 -0.05275786 -0.009126168 -0.018909397 -0.041223686
0.052392233 0.025886724 -0.074924216 -0.080546886 -0.028121851 -0.11632864 0.17867443 0.072296016
0.15259919 0.058553685 -0.08704794 -0.09837994 0.0054348684 0.13058901 -0.093207724 -0.005601985
-0.077441834 -0.103941455 0.14724965 0.17001052 -0.039918564 0.07643553 -0.037906643 0.1654807
-0.11440024 -0.103301115 -0.07696503 0.02222362 -0.061822105 -0.10028903 -0.04472285 0.001945645
-0.08204123 -0.0034666497 -0.12664497 -0.0053706327 -0.073657036 -0.054055948 -0.11283777 -0.1418737
0.084707096 -0.009509447 -0.01054223 -0.123419546 -0.086607024 -0.06977079 0.07126506 0.05531448
0.14738038 0.16021428 0.02884065 -0.046225894 -0.028010847 0.15994494 -0.02888561 0.00022188673
-0.07407114 -0.070094556 0.07716455 0.09972009 0.074860744 0.0046393946 -0.10397205 0.16659464
0.09360491 0.02061074 -0.07914873 0.033209458 -0.16714022 -0.13810746 0.05672409 0.02915191
-0.022674078 -0.05614656 0.04226606 0.03684571 0.039070703 -0.02818382 -0.1305844 -0.16838709
-0.032075327 -0.09666536 0.06146972 -0.13616931 0.028154174 0.10779754 0.05450328 -0.024002422
-0.008912397 0.058955792 0.0038526065 0.03230658 0.11659309 0.05837067 0.056481376 -0.0771985
0.027201112 0.110970005 0.03639899 0.011427812 -0.012778672 0.026135333 0.10169678 0.055250112
-0.031082222 -0.10112162 0.13271926 0.07196313 0.19583881 0.04046924 -0.12224471 -0.089153424
-0.048748773 0.12990667 -0.09961254 -0.019289736 -0.07043198 -0.07947105 0.14849357 0.07318152
0.05297652 0.03995019 -0.14383648 0.08476569 -0.016999228 -0.041691035 0.19545707 -0.038751982
0.07605367 0.051493254 -0.0023579744 0.009532663 0.09933224 0.057666045 0.014059547 0.07857075
0.07911707 -0.05164243 0.17321819 0.06697208 -0.08193512 -0.074585624 -0.004978839 0.15117082
0.0033466346 0.0025280786 0.1181973 -0.048821073 0.059166793 0.16141938 -0.032890767 0.019562008
0.08589394 0.066226944 0.058228042 0.01321446 0.0041240174 -0.020065445 0.048351407 0.11733748

model.nn.2.bias f4 [20]
00000000: a0d1 1cbd 2562 32b9 faec 523b ef8e 1a3d
00000010: d5fe 8bbd 17e1 28bd dca4 3abd 2056 19bd
00000020: 8d3c a23c ddc3 383d 4a9c 80bd 6b54 9c3c
00000030: addc a83c 5da7 d83d 95bd 51bb 3284 803d
00000040: d5ee ceba 30f9 30bd 41d4 82bd 50b5 c6bd
-0.03828585 -0.00017011965 0.0032184706 0.03773397 -0.06835715 -0.041230287 -0.04556738 -0.03743565
0.019804263 0.045108665 -0.0627981 0.019083222 0.020613039 0.10578797 -0.003200387 0.06275214
-0.001578773 -0.043206394 -0.063881405 -0.09702551

model.args_proj.proj.0.weight f4 [1, 20]
00000000: 7743 3c3e 67ce aa3d 6ede 373e c150 543c
00000010: 90b5 5d3d 0937 173e 3c92 313e 4da7 00be
00000020: 042e 0bbd 6825 1ebc 5f6f 9bbd c800 3fbc
00000030: 59da 3e3d 5c84 b03d 2d9c 263d 72ef ecbd
00000040: 4ad4 a63a 021e 2a3d cc99 503e c0cf 3a3d
0.18385111 0.083401494 0.17955944 0.012958706 0.05412823 0.14767088 0.1734094 -0.1256382
-0.03397943 -0.009652473 -0.07589602 -0.011657901 0.04659495 0.086189955 0.040676285 -0.11569108
0.0012728062 0.041532524 0.20371169 0.045608282

model.args_proj.proj.1.weight f4 [1, 20]
00000000: ec81 13be 1e92 88be a5d2 3f3e 0875 4a3e
00000010: 7142 12be b3b8 893d e124 37be 830c cc3d
00000020: d564 e6bd bd5a 013e 5d6c 2a3d a21c 383e
00000030: fb5a 0d3e 4363 67bd fce5 ebbd e3b8 0a3e
00000040: fc75 5b3e 1420 9e3d d353 433d 6662 2ebd
-0.1440503 -0.2667398 0.18732698 0.19771206 -0.14283158 0.06724682 -0.17885162 0.09963324
-0.11249701 0.1263227 0.04160725 0.17979673 0.13804238 -0.056491148 -0.115184754 0.13547091
0.21431726 0.07720962 0.047687363 -0.04257431

model.args_proj.proj.2.weight f4 [1, 20]
00000000: f2b8 013e 80d0 1fbe ce42 8e3d ce38 26be
00000010: 2815 983e 193a 703e ebe8 403e d11c 8c3e
00000020: 13e5 2abe c418 24be b091 503e 75a1 8639
00000030: 0f83 0bbd 3aa4 21be f07b 0abd 290f 6bbe
00000040: 5a33 023e 6fc3 833e c608 7a3e 2565 7f3e
0.12668207 -0.1560688 0.06946336 -0.16232607 0.2970364 0.23459662 0.18838851 0.27365735
-0.16688947 -0.16025072 0.20368075 0.00025678767 -0.034060534 -0.15785304 -0.033809602 -0.22955002
0.12714902 0.25735041 0.2441741 0.24940927

exp_avg f4 [20, 30]
00000000: ea47 a1bc 90c4 96bc 0223 a5bc 1d9f b5bc
00000010: 0e23 bbbc 0b20 cbbc 5d2e d2bc 4f84 e0bc
00000020: a624 f6bc 2f93 fabc b4ac dcbc e787 e0bc
00000030: 3e32 e1bc 037f e3bc af22 eabc 46ef ecbc
00000040: 545b 01bd b6fd fbbc 4795 f4bc 0f85 e5bc
00000050: e4ad debc 60a5 dabc 1667 cbbc d082 aebc
00000060: 11ef aebc 358b c1bc d7b3 c8bc 7877 ddbc
00000070: 74c2 edbc afc9 06bd fd24 afbc 4d4d aabc
00000080: 1ee8 aebc 33c4 b9bc 6326 bdbc b697 c5bc
00000090: a7e5 cabc 88b6 d5bc 9d51 e0bc ce57 e1bc
000000a0: ff99 d3bc d81e dabc fcdd dbbc 943a e0bc
000000b0: eb47 e3bc 3223 e6bc 3cce eebc a706 edbc
000000c0: 3796 e9bc bf5c e3bc 5ce1 e0bc a459 dfbc
000000d0: 4f78 d8bc 1e02 c2bc 51fa c0bc 12f5 cabc
000000e0: b4ee c8bc ff65 cabc c8a4 c5bc 5031 c9bc
000000f0: 9081 a03b 6c88 673c 1885 8fbb 4c9b 7dbc
00000100: 5cf6 98bc faa2 0abd f673 17bd 1875 28bd
00000110: 2e6e 74bd 3635 77bd b95f 0ebd 62b8 e9bc
00000120: 78c8 e0bc 74aa c5bc 6e3f fabc 214f 07bd
00000130: 6ec1 60bd 8e55 42bd 4f2d 24bd db63 bcbc
00000140: e41a 67bc 38ae 0abc 60a0 d43b 3257 b43c
00000150: aa20 953c b068 163b 8055 62bc 7335 43bd
00000160: b3e2 aabd 503b 08be ab03 0830 d430 17b0
00000170: f8fa b52f a29d f72f 7cf2 15b0 885e 12b0
00000180: a852 fbaf fffe 84af 38b2 2130 5442 022c
00000190: 6714 bd2f d927 b7af f666 57af d7c7 20b0
000001a0: 87fd caaf 0b85 21af 3aa4 1830 b533 7f2e
000001b0: e69f 4db0 3458 22b0 847c 242f 7580 2d2f
000001c0: 6012 ae2f c5d0 67af d3d7 41af 6ff2 1eae
000001d0: 947f 612e 8e7c 992c 2530 1eaf 1ce1 4daf
000001e0: 10dd 733c e8b5 be3c 84f1 0e3c 00d2 0b3a
000001f0: f0ab 22bb 50c2 60bc 0664 84bc 3552 adbc
00000200: e3d6 18bd a26b 2dbd 2284 95bc 5054 65bc
00000210: 5473 4dbc a024 1abc bc2b 75bc 508f 71bc
00000220: 2509 0bbd 1858 d9bc 427e a8bc 80e8 f7bb
00000230: a093 8bba 300b 213b dc2a 7a3c a695 ca3c
00000240: 06fa bc3c 7092 423c 4034 fcba f88a fbbc
00000250: 45a0 7ebd eee8 d6bd f052 73bc f8b0 bbbb
00000260: eb54 b4bc 9a47 03bd a120 0fbd 3b0f 43bd
00000270: e1b5 4fbd e689 5fbd 91d8 90bd 1619 99bd
00000280: 6a59 3ebd 46ac 24bd 7643 21bd 9329 16bd
00000290: dfab 28bd d3e0 31bd 3a82 82bd dd2e 6abd
000002a0: 1857 4dbd 3245 07bd 925d cabc 1de6 9ebc
000002b0: 189b bfbb 0887 cf3b 20b6 213b 1807 40bc
000002c0: 4eff d1bc 096d 61bd 0857 b1bd e078 05be
000002d0: 65ee 61bc b3b2 2abc e39e 80bc 2258 a1bc
000002e0: 43ef acbc befd d2bc 7efa debc 1d3a f7bc
000002f0: 07b5 16bd bd10 1ebd 121c eebc a086 e9bc
00000300: 5ccb e6bc 6f64 e2bc ccb8 f3bc 5529 f6bc
00000310: dd64 19bd 7b99 0ebd e5fd 04bd ab6e e0bc
00000320: 1c8c ccbc 2cf9 c0bc dcb8 98bc 8723 53bc
00000330: f7ea 5cbc b4f5 9abc 4830 bebc f9c1 06bd
00000340: 1a64 2fbd 3e74 6abd f927 7cbc cc51 5abc
00000350: 3fb7 86bc bec6 9cbc 646a a4bc 9275 bcbc
00000360: 6e02 c5bc 8b54 d6bc 3b0e f8bc 1842 00bd
00000370: 758e d0bc f66c d0bc ea88 cfbc 0ebd cebc
00000380: 845c d9bc 2cbc dbbc b824 00bd f4b7 f3bc
00000390: a5d8 e7bc 7cad cebc 5ed1 c2bc 8add bbbc
000003a0: 2038 a3bc 9ffe 80bc 354f 83bc ff61 9fbc
000003b0: 33ee b1bc 6ee5 ddbc f823 04bd fa00 25bd
000003c0: c3e9 5fbc 76fd 1abc ca41 84bc 0555 acbc
000003d0: 0a9a babc 94de e9bc d247 f8bc 50b2 0abd
000003e0: 827f 2cbd f4d4 35bd 3114 05bd b48a 01bd
000003f0: 7935 ffbc 3ec5 f8bc 0832 07bd b87a 08bd
-0.019687612 -0.018404275 -0.020158295 -0.022170598 -0.022843864 -0.024795553 -0.025656873 -0.02740684
-0.030046772 -0.03058776 -0.02693782 -0.027408553 -0.027489778 -0.027770525 -0.028580992 -0.028922688
-0.031581238 -0.030760627 -0.029856337 -0.028017549 -0.027182527 -0.026690185 -0.024829429 -0.02130261
-0.02135423 -0.02362595 -0.024499817 -0.027034506 -0.029023387 -0.032907184 -0.021379942 -0.020788813
-0.021350916 -0.022676563 -0.023089593 -0.024120193 -0.02476771 -0.026088014 -0.027382666 -0.027507689
-0.025830267 -0.026626036 -0.026839249 -0.027371682 -0.027744254 -0.028092954 -0.029151075 -0.028933836
-0.02851401 -0.027754186 -0.02745121 -0.027264424 -0.026424555 -0.02368265 -0.02355686 -0.024775062
-0.024527885 -0.024706839 -0.024126425 -0.024559647 0.0048982576 0.014131647 -0.0043798797 -0.01547892
-0.01867216 -0.033846833 -0.036975823 -0.041127294 -0.059675388 -0.06035348 -0.034759257 -0.028530303
-0.027439341 -0.02412913 -0.030547824 -0.033034448 -0.05487197 -0.047444873 -0.040082272 -0.022996834
-0.014105532 -0.008464389 0.0064888448 0.022014234 0.018204052 0.0022950582 -0.01381433 -0.047658395
-0.08344021 -0.13303876 4.9481724e-10 -5.500287e-10 3.3102032e-10 4.5041043e-10 -5.4550475e-10 -5.324883e-10
-4.5715365e-10 -2.4191846e-10 5.8824723e-10 1.851093e-12 3.4393396e-10 -3.331582e-10 -1.9590715e-10 -5.849165e-10
-3.6923728e-10 -1.4690131e-10 5.553066e-10 5.8026212e-11 -7.4805795e-10 -5.90606e-10 1.495995e-10 1.5779895e-10
3.1663472e-10 -2.1083497e-10 -1.7629924e-10 -3.6140365e-11 5.127239e-11 4.36235e-12 -1.438712e-10 -1.8724616e-10
0.014884248 0.023280099 0.008724574 0.00053337216 -0.002482172 -0.013718203 -0.016160976 -0.021157363
-0.037314307 -0.042338975 -0.018251482 -0.013997152 -0.012539703 -0.009408146 -0.01496404 -0.014743641
-0.033944268 -0.026531264 -0.020568017 -0.007565558 -0.0010648854 0.0024573319 0.0152690075 0.024729561
0.02306844 0.011875734 -0.0019241646 -0.030705914 -0.062164564 -0.104936466 -0.014851317 -0.0057278834
-0.022013148 -0.032050706 -0.034943227 -0.047621947 -0.050710563 -0.05457487 -0.07072557 -0.07475488
-0.04647199 -0.040203355 -0.039370976 -0.036660742 -0.041179534 -0.0434273 -0.06372495 -0.0571736
-0.050131887 -0.033024974 -0.02470282 -0.019396836 -0.005847346 0.0063332357 0.0024675205 -0.011720441
-0.025634434 -0.055035625 -0.08659178 -0.13034391 -0.013789748 -0.010418582 -0.015700763 -0.019695345
-0.021110183 -0.02575576 -0.027219053 -0.030179078 -0.036793735 -0.03859018 -0.02906612 -0.028506577
-0.028173141 -0.027635781 -0.029751204 -0.030049006 -0.037449706 -0.03481434 -0.032468695 -0.02739652
-0.024969153 -0.023556314 -0.018642835 -0.012886888 -0.013483754 -0.018915989 -0.023216382 -0.03289983
-0.042820074 -0.057239763 -0.01539039 -0.013325166 -0.0164448 -0.019137736 -0.020070262 -0.02300528
-0.02404901 -0.02616336 -0.030280223 -0.031313032 -0.025458554 -0.025442582 -0.02533384 -0.025236633
-0.026533373 -0.026823126 -0.031285018 -0.029750802 -0.028301546 -0.025229208 -0.023781475 -0.022932786
-0.019924223 -0.015746413 -0.01602898 -0.019455908 -0.021720028 -0.02708694 -0.032260865 -0.040284134
-0.013666573 -0.009459844 -0.016144652 -0.021036634 -0.02277853 -0.028548516 -0.030307684 -0.03386146
-0.04211379 -0.04439254 -0.03248996 -0.03162642 -0.031153427 -0.03036749 -0.033006698 -0.03332016

exp_avg_sq f4 [20, 30]
00000000: 152c 653a c609 623a cab9 623a b271 613a
00000010: d221 613a ac2d 623a 2787 633a 8303 633a
00000020: 1612 663a bde4 673a edbd 633a 0999 603a
00000030: c6c7 613a 1a50 623a caf6 653a 4e1f 693a
00000040: 6e11 6a3a f986 6b3a 9418 723a 3343 6f3a
00000050: 20db 733a 746c 7d3a 7a9e 7c3a 55a8 833a
00000060: 7d08 833a 25eb 853a 465f 853a e418 853a
00000070: 4bac 893a 4047 a63a 417a fd39 01c5 f939
00000080: 34a1 fb39 3f49 fa39 7653 fb39 7f64 fd39
00000090: 8dbf fe39 ffcb fe39 0f6e 013a e57e 023a
000000a0: 9b20 003a aab1 fc39 6b13 003a f3f1 003a
000000b0: 3c80 033a 113f 063a 0768 073a 0883 083a
000000c0: 5813 0e3a d98f 0d3a aaa5 103a f18d 163a
000000d0: 67aa 153a c6ae 1b3a 420c 1b3a ca00 213a
000000e0: 2cb0 1f3a ddc3 243a eaa3 2d3a a3a8 613a
000000f0: 7d48 ae3c 3107 ac3c d89b a93c 7820 a93c
00000100: 6d3b a73c 320b a83c 9786 aa3c 41df aa3c
00000110: 7de0 ac3c c08a af3c aa7d b03c 8e30 b13c
00000120: 8288 b13c 8a1c b33c 054e b43c ccd4 b43c
00000130: 42f9 b63c 6c27 b93c 4012 bc3c bb4d b83c
00000140: 93b3 ba3c ba25 c03c d64b c33c 5fa2 cc3c
00000150: 6656 cc3c 6d0b cc3c 6976 ce3c 9513 d33c
00000160: 6b45 db3c 12b6 e33c 384d dc33 d675 a733
00000170: 708b ab33 a0ab a833 a2de a733 7c8b a433
00000180: eee2 a533 7e3c b633 1d55 e833 7053 f933
00000190: 72e7 f533 a3a9 e733 14fc f333 3793 fa33
000001a0: 0e51 0434 58ce 0834 08c7 0c34 ccb6 0c34
000001b0: 0b96 0b34 85f5 2a34 f99d 4934 d465 7634
000001c0: 0260 9234 afd2 9434 94d3 9a34 77cd a234
000001d0: d7b8 a234 4147 a134 696f a434 d4ee a534
000001e0: 18c0 373c 9b22 343c 335a 313c 9232 313c
000001f0: 7d42 2f3c 5171 2f3c 30c1 303c d6a9 2f3c
00000200: b50d 323c 19af 323c c02d 333c ad53 353c
00000210: b990 353c b328 353c eba5 353c dd2d 343c
00000220: 232d 353c bc74 373c 6871 393c 816d 353c
00000230: 0f5d 373c 772c 3c3c 3266 3f3c cc04 4a3c
00000240: 7397 493c f45b 483c ad96 4a3c c588 513c
00000250: 6aa9 5b3c 7077 653c cc78 a73c b384 a53c
00000260: 0747 a43c 3bec a33c fb02 a23c 30d4 a23c
00000270: 5fab a43c 2f0e a43c 8937 a53c d159 a63c
00000280: a89a a53c 6c77 a63c 4c23 a63c d392 a83c
00000290: 0b6c aa3c bc10 aa3c 1434 ab3c e6f6 ac3c
000002a0: 26ff ae3c c14d ab3c cbfe ac3c 44c8 b13c
000002b0: 943e b33c 35aa bb3c c6f3 ba3c 980f ba3c
000002c0: 33c7 bb3c b932 be3c fcd7 c33c 6a3e cb3c
000002d0: afd7 523b 55c5 4f3b 8936 4e3b a563 4d3b
000002e0: ccaa 4b3b cdb5 4b3b af77 4d3b 0f88 4c3b
000002f0: 1bac 4e3b c6cf 503b 0356 4e3b f075 4c3b
00000300: 4168 4c3b 2393 4b3b d7ed 4d3b 7a0e 4e3b
00000310: 554d 4d3b 6f27 4f3b 689c 523b 19d7 4d3b
00000320: 5fc2 503b 6bcf 573b d804 583b c463 623b
00000330: 8c94 603b b88c 603b cc6a 603b 33ac 5c3b
00000340: e81e 613b ff98 703b ae3f bb3a 3975 b83a
00000350: fbe1 b73a 44fe b63a 4ee1 b53a 8025 b63a
00000360: 349c b73a c0d7 b63a fe12 b93a efeb ba3a
00000370: 32f7 b73a 53b9 b53a b903 b63a 86a5 b53a
00000380: b117 b83a 42f7 b83a 0bb1 b83a be0d ba3a
00000390: 6c02 be3a 00fd b93a bbea bc3a 36e8 c33a
000003a0: bf92 c33a ea0a cd3a 5fed ca3a 5d41 cc3a
000003b0: 2513 cb3a be6f c63a 6101 cb3a a584 e83a
000003c0: da2a a23b 24e0 9f3b bb8f 9e3b 24f4 9d3b
000003d0: 1894 9c3b 6490 9c3b c0e1 9d3b 952a 9d3b
000003e0: d1b2 9e3b dc49 a03b f4a3 9e3b bb63 9d3b
000003f0: be46 9d3b 64a1 9c3b 6853 9e3b ba4b 9e3b
0.00087422255 0.0008622672 0.00086489005 0.0008600011 0.00085881085 0.00086280215 0.0008679502 0.0008659886
0.0008776499 0.00088460353 0.0008687664 0.0008567726 0.00086128374 0.0008633152 0.0008772431 0.00088929094
0.0008928989 0.0008984651 0.000923523 0.000912714 0.00093023665 0.0009667345 0.0009636652 0.0010044674
0.0009997037 0.0010217173 0.0010175488 0.0010154513 0.0010503618 0.0012686029 0.00048347007 0.0004763976
0.00047994556 0.00047738288 0.00047936634 0.00048330796 0.00048589372 0.00048598644 0.00049373595 0.0004978015
0.0004887671 0.00048197556 0.0004885706 0.0004918866 0.0005016362 0.0005121092 0.00051653426 0.00052075135
0.00054197526 0.0005400158 0.000551785 0.0005743197 0.0005709291 0.0005938824 0.00059146073 0.000614178
0.00060916203 0.00062852894 0.00066238514 0.00086081977 0.0212748 0.020999523 0.020704195 0.020645365
0.020414079 0.02051315 0.02081613 0.020858409 0.021103138 0.021428466 0.021544296 0.021629598
0.021671537 0.021864194 0.022009859 0.022074126 0.022335652 0.022601806 0.022957921 0.022498002
0.022790706 0.02345549 0.023839872 0.024979768 0.024943542 0.024907792 0.025202947 0.025766173
0.0267665 0.027796779 1.0258594e-07 7.797978e-08 7.9881715e-08 7.854328e-08 7.81704e-08 7.662217e-08
7.7246895e-08 8.486039e-08 1.0818824e-07 1.1610143e-07 1.1450801e-07 1.07876325e-07 1.1361422e-07 1.16683104e-07
1.2322946e-07 1.2741054e-07 1.3110923e-07 1.3105017e-07 1.2999969e-07 1.5921803e-07 1.8777054e-07 2.294758e-07
2.7264474e-07 2.772044e-07 2.883868e-07 3.0324347e-07 3.030934e-07 3.004043e-07 3.0628442e-07 3.0907415e-07
0.011215232 0.010994579 0.010824728 0.01081528 0.010697004 0.010708169 0.010788247 0.010721644
0.010867526 0.010906004 0.010936201 0.011067313 0.011081868 0.011057067 0.011086921 0.010997263
0.011058125 0.011197265 0.011318542 0.011073471 0.0111916205 0.011485211 0.01168208 0.012330245
0.012304175 0.012228955 0.0123650255 0.012788956 0.013407091 0.014005527 0.020443343 0.020204877
0.0200534 0.020010104 0.019776812 0.01987657 0.020101247 0.020026295 0.020168083 0.0203065
0.020215347 0.020320617 0.020280503 0.020577824 0.020803472 0.020759933 0.020898856 0.021113824
0.021361899 0.0209111 0.021117589 0.02170194 0.021880426 0.02290831 0.022821318 0.022712514
0.022922134 0.023217546 0.0239067 0.024810035 0.0032172014 0.0031703312 0.003146561 0.003133991
0.0031077145 0.0031083704 0.0031351855 0.0031209027 0.0031535688 0.0031862124 0.0031484372 0.0031198226
0.003119007 0.0031063042 0.0031422281 0.0031441734 0.003132661 0.0031609198 0.0032136682 0.0031408726
0.0031854135 0.0032930027 0.0032961871 0.0034544328 0.0034268228 0.0034263562 0.0034243343 0.0033671975
0.0034350697 0.0036712287 0.0014285946 0.0014073021 0.001402914 0.0013961275 0.001387635 0.0013896674
0.0014008344 0.0013949797 0.001412004 0.0014260988 0.0014035462 0.0013864435 0.0013886607 0.0013858534
0.0014045147 0.0014111775 0.0014090849 0.0014194769 0.0014496571 0.001418978 0.0014413217 0.0014946524
0.0014921053 0.0015643511 0.0015482119 0.0015583445 0.0015493376 0.0015139503 0.0015488082 0.0017739726
0.004948956 0.0048790146 0.0048389114 0.0048203636 0.0047783963 0.004777955 0.0048181713 0.004796336
0.004843094 0.004891617 0.004841322 0.0048031486 0.004799693 0.0047799814 0.00483172 0.0048308047

exp_avg f4 [20]
00000000: 2cfe d6bc d96b d1bc c753 e7bc 0d23 b9ae
00000010: 9aba 50bc b238 25bd a610 debc 1eac c6bc
00000020: ef9b f5bc 2212 80bc 5a17 ddbc 4253 b4b7
00000030: 41aa bebc 137e b2bc d3bf 2abd bedb 32bc
00000040: 0839 e63a f8e0 0d38 d9b2 d5bc 4422 8fbc
-0.026244245 -0.025564121 -0.02823819 -8.419052e-11 -0.012739802 -0.040337272 -0.027107548 -0.024251994
-0.029981581 -0.015633646 -0.026988674 -2.1496442e-05 -0.023274543 -0.021788632 -0.041686844 -0.010916648
0.0017564604 3.3826538e-05 -0.026086258 -0.017472394

exp_avg_sq f4 [20]
00000000: 778f 603a de86 003a 6224 b13c c0f7 1934
00000010: 6e12 333c 07dc a53c d21e 483b bd9c b23a
00000020: 07d9 993b 20ea 753b a207 ca3a 071f 7b32
00000030: 7243 253b c0d9 a13a 13e8 453c b197 9c3c
00000040: 17e4 d737 0b33 3e32 fe95 2c3a 8e21 da3c
0.00085663 0.0004902909 0.021623794 1.4339366e-07 0.010929687 0.020246519 0.0030535948 0.0013627034
0.004695061 0.0037523583 0.0015413652 1.4617178e-08 0.0025217202 0.001234822 0.012079257 0.0191153
2.573621e-05 1.1071061e-08 0.000658363 0.026627328

exp_avg f4 [20, 20]
00000000: a9ba 613d e890 8a3d e97b 8d3c c3bd 0a2f
00000010: df61 563c 1f45 643c d8e8 3d3d 8a82 1b3d
00000020: 94d0 183d 305e ea3b 1e2a 5a3d f9c1 24b6
00000030: ed30 e03c 94a2 333d 9e73 463c 3cf8 463c
00000040: de7a 6e3a 6480 f237 fd72 673d 9c9d 403c
00000050: db77 0c3d 3006 2b3d d84e da3c cb82 c02f
00000060: 13ec b03c 7071 a43c 72b2 163d a413 cb3c
00000070: 9afb 003d ac51 603c 4511 1c3d aaad 6037
00000080: b54e 903c ac05 dd3c 71a0 b23c aeb2 8c3c
00000090: c8cb 223b cbad a138 c36b 093d 75e0 823c
000000a0: 2487 01bd e68f 1ebd 70c1 9abc 08e4 82af
000000b0: f523 79bc f808 6cbc 9074 febc be1d b7bc
000000c0: e004 d6bc ab2c 19bc 78e5 08bd 63b3 aeb6
000000d0: 7242 82bc 347c ccbc 4cd0 78bc b963 4abc
000000e0: 304b d2ba b47a 43b8 fc52 01bd 2ef4 3dbc
000000f0: 84c1 98bd 37b2 bbbd 3155 bebc eaf1 afaf
00000100: d4f2 90bc 7e61 99bc b44e 80bd ff11 52bd
00000110: 6ab1 4ebd 5fdf 1dbc a8a9 93bd 1b63 ab36
00000120: c429 17bd ce00 73bd a8c7 86bc 0795 85bc
00000130: 205a 9fba 1b0c 15b8 2ec3 9cbd b461 81bc
00000140: 50e9 ae3d 223a d73d 78f8 9c3c 3d5a 012f
00000150: 2e71 643c 71f6 833c a851 8b3d 725f 6e3d
00000160: 08c8 5c3d 8c97 db3b 714e a43d 0040 52b7
00000170: 4a10 2c3d dc6f 8b3d f5aa 463c 0c4b 683c
00000180: 8c7a 013a 7bea 6437 e206 b53d 61fe 653c
00000190: 4292 c93c 366c f93c 9061 84bb 9ab9 4630
000001a0: 58dc 86bb f95e 10bb 8e09 733c 9aed 833c
000001b0: 2b8c 2c3c 2329 6ebb ddb3 a43c 91c6 42b7
000001c0: 485d 413c 8547 a23c 0a14 a9bb aef0 dbba
000001d0: 811c 84ba ab92 fab7 e055 d83c d7d7 95ba
000001e0: 700f 983d 7acb ba3d d380 b23c be5a 742f
000001f0: 866c 863c 6600 913c 3acc 7c3d 73f7 503d
00000200: 4ac8 4a3d f602 103c f60d 923d 6565 adb6
00000210: 1fa6 163d 0219 723d e38c 763c 6e34 7d3c
00000220: 3e64 893a e4ac 0838 1e40 9c3d 281d 763c
00000230: 26a3 ca3c d00c fc3c b6da f1bb a30b 1830
00000240: 8421 e0bb 4e93 97bb 2aad 583c d8da 813c
00000250: d8ed 113c e2e7 b5bb 989a 9d3c 9ca5 8bb7
00000260: 4214 3e3c 936b a33c 3ea9 02bc 5a65 75bb
00000270: 4c40 b9ba b414 40b8 04bf dc3c 6bd0 44bb
00000280: 5025 20bb e06a 53bb 9cf7 213c ff92 b62f
00000290: 0439 0a3c e80f e63b e8f2 553b 60d6 6dba
000002a0: 6832 7f3b a060 c03b 00d5 7c3a c022 2437
000002b0: a087 57ba d8d0 0cbb 8cdf 133c 1668 c13b
000002c0: 6692 a23a 82b2 1e38 90a8 6abb 6ee6 ac3b
000002d0: e601 6bbd 927a 90bd d41a 7fbc c9f4 83af
000002e0: b1fc 3ebc 15f6 50bc a2b1 40bd d4ea 20bd
000002f0: 1914 1abd 37f1 c6bb 4c38 60bd efd0 c936
00000300: 40e7 e7bc 511d 3bbd 1758 2dbc 16ba 36bc
00000310: 2137 2cba 7ab2 9eb7 cb1e 72bd 8689 32bc
00000320: 6f2f d33c 1fc1 023d 97ba 03bb 81cf 4530
00000330: 337a 19bb f6fb 41ba 3833 883c 0ee6 8a3c
00000340: aa5c 483c 162e 23bb 37a9 b23c 1cfd 44b7
00000350: 3201 4a3c 8473 a93c ac1b 55bb 00ab eeb9
00000360: 432d 4fba 328d dab7 db39 e13c c010 d4b7
00000370: 6104 2bbd 5c9d 51bd 2846 9dbc 4e0b d5af
00000380: b8d2 77bc daa4 74bc a459 1cbd d4f3 eebc
00000390: 78e8 00bd 3603 13bc f636 2dbd 9d8b 3fb6
000003a0: bd30 abbc b295 07bd a665 71bc b2ee 52bc
000003b0: 7190 baba 56e4 33b8 ebf4 2cbd 2d19 48bc
000003c0: aeac 1bbd 860e 3fbd 5c64 77bc 1e33 06b0
000003d0: 1c2a 41bc 7a91 42bc e268 09bd e2e6 d7bc
000003e0: a699 e0bc 9402 dfbb 52b0 1abd 19c3 39b3
000003f0: 48d3 9abc 3916 f7bc 2dbc 39bc fc4a 28bc
0.055109654 0.0676592 0.017270999 1.2618444e-10 0.013084858 0.013932495 0.046364635 0.03796629
0.03730829 0.0071523413 0.053262822 -2.4550811e-06 0.02736708 0.04385622 0.012112526 0.012144145
0.0009097288 2.8908435e-05 0.056506146 0.011756327 0.03429399 0.041753948 0.026648924 3.501753e-10
0.021596944 0.020073622 0.036791272 0.024789639 0.031489946 0.013691347 0.038102407 1.3391875e-05
0.017615655 0.026980244 0.02180502 0.017175045 0.0024840701 7.70945e-05 0.033550035 0.01597617
-0.03162302 -0.03871145 -0.018891066 -2.3808888e-10 -0.015206327 -0.014406435 -0.03106144 -0.02235305
-0.026125371 -0.009349029 -0.033421963 -5.2064875e-06 -0.015900824 -0.024961568 -0.015186381 -0.012352877
-0.0016044136 -4.66059e-05 -0.03157328 -0.0115938615 -0.07458785 -0.09164851 -0.023233982 -3.2004205e-10
-0.017693914 -0.018723246 -0.062650114 -0.051286694 -0.050462164 -0.009635775 -0.07210094 5.1077345e-06
-0.036905065 -0.05932694 -0.016452625 -0.016306413 -0.0012157597 -3.5535642e-05 -0.07654415 -0.015793659
0.085405946 0.10509135 0.019161448 1.1764541e-10 0.013943 0.016108723 0.06802684 0.058196492
0.053901702 0.0067014154 0.08022774 -1.2531877e-05 0.042007722 0.06808445 0.01212572 0.014178049
0.00049392204 1.3644453e-05 0.088392034 0.014037699 0.024605874 0.030447107 -0.0040399507 7.2295736e-10
-0.0041156225 -0.0022029264 0.014833821 0.016104508 0.0105314655 -0.0036340437 0.020105297 -1.1609533e-05
0.011802025 0.019809494 -0.0051598595 -0.0016780102 -0.0010079296 -2.987062e-05 0.026408136 -0.0011432123
0.074248195 0.09120841 0.021789944 2.2223909e-10 0.01640917 0.017700385 0.061718203 0.051017236
0.049507417 0.008789768 0.07131569 -5.1676057e-06 0.03677952 0.05910588 0.015048238 0.015454395
0.0010482145 3.2585944e-05 0.07629417 0.0150216 0.024735998 0.030767828 -0.0073808087 5.5313815e-10
-0.006839933 -0.0046257144 0.013224879 0.015851423 0.008906804 -0.005551324 0.019238755 -1.664721e-05
0.0116015095 0.019948756 -0.007974921 -0.0037444443 -0.0014133542 -4.579565e-05 0.026946552 -0.0030031453
-0.0024436302 -0.0032259747 0.009885695 3.3210054e-10 0.008436445 0.007020939 0.0032646004 -0.0009072777
0.0038939957 0.0058708936 0.00096447766 9.783253e-06 -0.0008221809 -0.0021486785 0.009025466 0.0059023006
0.0012403249 3.7836384e-05 -0.0035806037 0.005276493 -0.057374857 -0.070546284 -0.015570361 -2.4002692e-10
-0.011656926 -0.012753983 -0.047044404 -0.03928645 -0.037616823 -0.0060712355 -0.05474119 6.01459e-06
-0.02830851 -0.045682255 -0.010580084 -0.011152765 -0.0006569494 -1.8918177e-05 -0.059111398 -0.010897046
0.025779454 0.031922456 -0.002010023 7.1963063e-10 -0.0023418784 -0.0007399911 0.016625986 0.016955402
0.012229124 -0.0024899296 0.021809204 -1.1741442e-05 0.012329387 0.020684965 -0.0032517714 -0.00045522302
-0.0007903168 -2.6053374e-05 0.027493408 -2.528017e-05 -0.041752223 -0.05117546 -0.019198492 -3.8752507e-10
-0.015125923 -0.014931882 -0.038171425 -0.029169 -0.0314717 -0.0089729335 -0.042288743 -2.8542484e-06
-0.020897264 -0.033101745 -0.0147337075 -0.012874292 -0.0014233721 -4.288958e-05 -0.04222576 -0.012213034
-0.038006477 -0.04664471 -0.015099611 -4.882156e-10 -0.011789825 -0.011875505 -0.03354729 -0.02635521
-0.027417015 -0.0068057273 -0.03776581 -4.325111e-08 -0.018899575 -0.030161964 -0.0113363685 -0.010271784

exp_avg_sq f4 [20, 20]
00000000: 82fe c83c 8eea 0c3d 1e0e 653a 4f00 922f
00000010: 82da a339 a756 5a3a c8e8 803c 2144 493c
00000020: 9f43 1c3c 45f2 ef38 c3ec ac3c 5c14 d630
00000030: 2a4e f93b 2a6b 8b3c 4852 3439 dfd8 263a
00000040: 129a b537 4deb 8e31 37d4 cf3c 2e7e f039
00000050: 6048 aa3d 38f8 ed3d 2007 453b aff1 9731
00000060: a0b4 913a cddf 363b 1f7e 593d 17ed 293d
00000070: a605 043d 00d4 cf39 4588 923d 2f79 9e33
00000080: aa68 d33c 8b81 6d3d 01a5 243a e6f8 0e3b
00000090: 62e5 8938 b74a a433 1208 b03d 5ddf cf3a
000000a0: e23f 293d e751 6c3d 9e1e be3a 0d7e 0631
000000b0: 41bb 0b3a 2278 b33a 6d07 d83c b0cb a83c
000000c0: 3515 833c a7d5 4b39 2f93 113d a9a3 1c32
000000d0: 2d31 513c f71a ec3c aea9 9c39 9b52 8a3a
000000e0: 4419 0c38 267a 3c32 f1c3 2e3d 0063 483a
000000f0: 8945 403d 999b 863d e606 da3a 2406 c92f
00000100: 5847 1b3a 8bc2 d03a 12a9 f63c 2c72 c03c
00000110: 4d86 953c 52bc 6839 d76a 253d 5cd7 9431
00000120: f828 6e3c e2ab 053d 2742 aa39 7225 9e3a
00000130: cdee 3338 479a 4a33 a4a2 463d 898d 633a
00000140: 8ca4 ce3c 53b6 0f3d 39cd 703a 7069 ce2e
00000150: 2694 a439 d38f 663a c6de 863c fa29 503c
00000160: 1656 243c 766b 0239 37b5 b23c efae 0833
00000170: a536 033c 47b8 923c 6ed9 2e39 6660 2b3a
00000180: 9415 eb37 7981 e733 1f3f d53c 4548 f639
00000190: dfc8 bd3b db0b 033c 6e21 6b39 3b2f 2630
000001a0: 7489 b538 8b11 4f39 2997 753b 9d08 3e3b
000001b0: c373 163b 0aef 0238 665f a43b c5f2 8832
000001c0: 280b f23a 5a54 873b 0d85 5138 0c4d 2739
000001d0: 3809 a136 3c59 3632 9574 c33b 449d f838
000001e0: 3b0a 1c3d 439a 5a3d ef42 b13a efc6 5f2f
000001f0: c142 fc39 ec9c a93a 2aa1 c83c 8f64 9c3c
00000200: 4454 733c 03fb 3a39 6654 063d f6fa ea30
00000210: f710 423c 5d1b d93c 0212 8a39 7ef6 803a
00000220: 397f 1138 d4eb 4032 7e4b 213d 3bb9 393a
00000230: 4ea2 513c 6c81 903c 19a2 0c3a c105 e230
00000240: d0ad 5139 f5a4 f139 e925 083c 2462 d23b
00000250: cd31 a73b 001f 9738 35d8 353c 3b47 a233
00000260: c399 873b f53f 163c bf4e f238 8458 c339
00000270: 82c9 4337 53d4 fb33 6666 583c e072 9039
00000280: 0a0d 6b3c d72d a43c 23a6 063a 2587 8330
00000290: a5de 4d39 3279 f739 819f 153c f597 ea3b
000002a0: dcd3 b53b fc2d 9538 a111 4a3c be96 b232
000002b0: f5b8 913b 355f 233c 443a ed38 76a9 c439
000002c0: 0dbd 3f37 679b 1932 34ee 723c ad9a 9039
000002d0: 5c70 9f3c 3cdb de3c 4fb6 363a d0bd 0a2f
000002e0: fe90 7f39 d04a 2f3a d797 4d3c a3db 1f3c
000002f0: 5f8d f93b 9a68 c238 0a60 893c cec6 9631
00000300: eab4 c63b a5d7 5e3c c361 0a39 20a0 033a
00000310: 0117 9e37 c4a9 0a33 3da1 a43c cfe3 bc39
00000320: 181e 273b 2c79 643b 4912 1339 690f 942f
00000330: 92fc 5138 1048 e938 78f2 dc3a 764d a83a
00000340: 4dc0 883a c133 9f37 daf4 113b 7e53 f132
00000350: d6c6 5e3a e751 f33a b0b5 f037 d6ff bd38
00000360: 2bae 6c36 3115 9b33 5e3e 2c3b 95ad 8e38
00000370: 75f3 0e3d a215 493d a841 9f3a 0bc3 5930
00000380: dfca ec39 c7e9 963a 2f56 b53c dd88 8e3c
00000390: 8e29 5b3c 8ade 2e39 c90e f53c 056c 2631
000003a0: e4ac 2e3c c0cb c43c 4347 8539 155f 6a3a
000003b0: 067d fb37 0ab9 ca31 fdef 133d 7cfd 2a3a
000003c0: 05b5 b43c 2960 fd3c 9e27 4a3a c2d0 2230
000003d0: 1173 9339 43e1 403a 8e83 663c e96b 343c
000003e0: d086 0b3c 6d51 db38 883a 9b3c e27a 4c30
000003f0: d435 de3b 9c7f 7a3c 0c06 2439 99d5 133a
0.024535421 0.034403376 0.00087377604 2.6557465e-10 0.00031252584 0.0008328952 0.015735999 0.01228431
0.0095376065 0.00011441534 0.02110899 1.5576336e-09 0.007608195 0.017018873 0.0001719679 0.0006364714
2.1648626e-05 4.1594945e-09 0.025369747 0.00045870378 0.08314586 0.116196096 0.0030064061 4.4221546e-09
0.0011116453 0.0027904392 0.053098794 0.041485872 0.03223195 0.0003964007 0.071548976 7.3794915e-08
0.025806744 0.05798487 0.0006280691 0.0021815835 6.575395e-05 7.650436e-08 0.08595289 0.0015859414
0.04132069 0.057695296 0.0014504974 1.9571218e-09 0.0005330332 0.0013692419 0.026370728 0.020604938
0.016001323 0.0001943918 0.035540756 9.117607e-09 0.012768072 0.028821452 0.0002988106 0.0010553183
3.340213e-05 1.0970814e-08 0.042667333 0.00076441467 0.046941314 0.06572647 0.0016634136 3.656605e-10
0.0005923412 0.0015927119 0.030109916 0.023491941 0.018252516 0.00022195399 0.040385094 4.3318504e-09
0.014536135 0.032634623 0.00032474214 0.0012065603 4.2899326e-05 4.7172104e-08 0.04849495 0.0008680453
0.025224946 0.035085987 0.0009185854 9.386525e-11 0.00031390897 0.0008795235 0.016463649 0.0127053205
0.01003029 0.00012437798 0.021814926 3.182407e-08 0.008008634 0.017910136 0.00016674932 0.0006537497
2.8024231e-05 1.0780327e-07 0.026031075 0.0004697462 0.005791768 0.007998432 0.000224238 6.0457567e-10
8.656355e-05 0.00019747594 0.0037474132 0.0028996833 0.0022957183 3.1217038e-05 0.005016255 1.5942883e-08
0.001846646 0.0041299285 4.9953396e-05 0.00015955063 4.799247e-06 1.0614084e-08 0.0059648254 0.000118548545
0.038095694 0.05336977 0.0013523976 2.0352407e-10 0.0004811492 0.0012940443 0.024490912 0.019090919
0.014851633 0.00017831851 0.032795332 1.7097068e-09 0.011844865 0.026502306 0.00026334828 0.0009839085
3.468918e-05 1.1229492e-08 0.039378636 0.00070847914 0.012795044 0.017639838 0.00053647306 1.64453e-09
0.00019996543 0.00046090005 0.00830982 0.0064203907 0.0051023723 7.206015e-05 0.011098911 7.5566696e-08
0.004138203 0.009170522 0.00011554127 0.00037259248 1.1669823e-05 1.172672e-07 0.013208007 0.0002755141
0.0143463705 0.02004139 0.00051364506 9.569915e-10 0.00019633265 0.0004720181 0.009132267 0.007159228
0.0055489372 7.113439e-05 0.012333305 2.0790477e-08 0.0044470974 0.00997143 0.000113118935 0.0003751029
1.1428504e-05 8.9411065e-09 0.0148273 0.00027581063 0.019462757 0.027204148 0.0006969915 1.2618462e-10
0.00024372709 0.0006686868 0.0125484085 0.009756955 0.0076157297 9.2701244e-05 0.016769428 4.388176e-09
0.006064047 0.013601218 0.00013197125 0.0005021114 1.884578e-05 3.228503e-08 0.020096416 0.00036027885
0.0025500115 0.0034862263 0.00014025824 2.6931993e-10 5.0064707e-05 0.000111237285 0.0016856929 0.0012840468
0.0010433287 1.8978377e-05 0.0022271187 2.809406e-08 0.0008498257 0.0018563838 2.8694834e-05 9.0598754e-05
3.526812e-06 7.221605e-08 0.002628229 6.80342e-05 0.034900147 0.049092896 0.0012150304 7.9221313e-10
0.00045164578 0.0011513763 0.022135822 0.017399246 0.013376607 0.00016676835 0.029914277 2.4217581e-09
0.0106613375 0.024022937 0.0002542083 0.000894056 2.997975e-05 5.9000103e-09 0.036117543 0.00065227575
0.022058973 0.030929642 0.0007711592 5.923192e-10 0.00028123756 0.00073577854 0.014069451 0.011012056
0.0085160285 0.000104579005 0.018948808 7.4389395e-10 0.006781319 0.0152892135 0.00015642511 0.00056394335

exp_avg f4 [20]
00000000: b020 e63c 0aa8 813c 66e6 77bc 4092 1bbd
00000010: d959 353d 709c 613c 0a97 1b3d 4084 673c
00000020: 501d 1abb 5351 f1bc 71cd 673c 56f6 a8bc
00000030: a3b1 9bbc eb9b 04bc da79 223c 6c54 17bd
00000040: 9458 51bc c0de 743c 1625 8a3c 4254 e63c
0.028091758 0.015827198 -0.015130615 -0.03798127 0.04427514 0.013770208 0.03798584 0.014130652
-0.0023516007 -0.029457724 0.014148102 -0.020625275 -0.019005602 -0.008093814 0.009916747 -0.036945745
-0.012777466 0.014945686 0.016863387 0.02811635

exp_avg_sq f4 [20]
00000000: be86 073c 06c8 eb3c 8ff5 6a3c 0676 823c
00000010: 864a 0f3c d301 073b bc15 533c f168 923b
00000020: 8e9a 9d3b a6c5 d93b 5380 6b3a 3805 413c
00000030: 293b f83b bc90 a13a d199 a23b 4860 f63b
00000040: 5778 883c dc59 3b3b a19b a83a 8984 9c3a
0.008271871 0.028781902 0.014340772 0.015925419 0.008745795 0.0020600453 0.0128836 0.0044680764
0.004809684 0.006645876 0.00089836604 0.011781029 0.007575412 0.0012326459 0.004962184 0.007518802
0.016658945 0.0028587496 0.0012863764 0.0011941354

exp_avg f4 [1, 20]
00000000: 5cbd 463a 4d76 8dba d476 033a b6f8 9bba
00000010: 7082 b23a c344 163b 9dc1 593a 60c6 023b
00000020: 445b c2ba 7b0e 99ba ad96 213b b9ac 543a
00000030: 8062 c439 2151 2dbb 9e38 30ba 3a04 e4ba
00000040: 8da2 8e3a b113 eb3a 6e5b 0f3b 6b14 053b
0.00075813173 -0.0010792703 0.000501496 -0.0011899683 0.0013619196 0.0022929169 0.00083067437 0.0019954666
-0.0014828225 -0.0011677289 0.002465646 0.0008112896 0.0003745742 -0.0026446062 -0.0006722304 -0.0017396279
0.0010882184 0.0017934946 0.0021874565 0.002030636

exp_avg_sq f4 [1, 20]
00000000: 0d53 1139 8eef 6b38 1410 4438 7e40 0039
00000010: 5f45 6e38 b5c6 f036 1eb8 d338 5226 d536
00000020: 5823 1237 a761 5338 80a9 c937 4ff0 1b38
00000030: e138 3e38 efde 9737 3dd2 f037 0215 1539
00000040: 0e4a d937 c64b 9d36 dddb 3e37 095d 4338
0.00013859216 5.625147e-05 4.6745015e-05 0.00012231056 5.680823e-05 7.17569e-06 0.000100955585 6.3523557e-06
8.710507e-06 5.0397266e-05 2.4039997e-05 3.7178685e-05 4.5352503e-05 1.8104414e-05 2.870813e-05 0.00014217573
2.59029e-05 4.687786e-06 1.1376073e-05 4.657827e-05

exp_avg f4 [1, 20]
00000000: 54ac 583e 535a 8f3d 66a9 aabd 1355 48be
00000010: 8426 233e 524a 7c3d f78e 3b3e 8e88 223d
00000020: 8044 acb9 e5f0 17be 583e e43d 897a 89bd
00000030: 784e b3bd 9c6e d8bd f3a6 7d3d c387 75be
00000040: ee94 3fbd f8dd 183d e693 b03d 2cff 193e
0.21159488 0.0699965 -0.083330914 -0.19563703 0.15932661 0.061594315 0.18316256 0.03968101
-0.00032857433 -0.14837988 0.111447036 -0.06712825 -0.08755201 -0.10567972 0.061926793 -0.2397757
-0.04677289 0.03732106 0.086219594 0.15038747

exp_avg_sq f4 [1, 20]
00000000: 3286 143f aa83 b33c c909 503d 3561 1f3f
00000010: 711d eb3e f512 773e fdd8 ec3e b5f3 103e
00000020: dc18 293d a6c4 c03e e62f e53e a848 8f3c
00000030: a54c 713d 310a eb3e df23 a03c eeb1 723f
00000040: f8a7 e93b beef f33d f526 913e a630 0b3f
0.58017266 0.021913368 0.05079058 0.622577 0.459209 0.24128325 0.462593 0.14155467
0.041283473 0.3765003 0.44763106 0.0174907 0.058910985 0.45906213 0.019548355 0.9480275
0.007130619 0.119109616 0.28350034 0.54371107

exp_avg f4 [1, 20]
00000000: 2173 e8bd ae89 a3bb 496b c83c d421 f73d
00000010: f415 ddbd bf96 b7bd 588b d3bd 170e 90bd
00000020: 6f7e 243d 61ea c53d 3e9f efbd c33b 043c
00000030: 321e f53c c1ff f03d 2dc7 29bc df03 1c3e
00000040: 568f 08bc 1622 83bd 4a0a c4bd 5cb5 fbbd
-0.11350084 -0.004990778 0.02446522 0.12066999 -0.10795203 -0.089642994 -0.10329312 -0.070339374
0.04015964 0.09663845 -0.11700295 0.008070889 0.029921625 0.11767531 -0.010362429 0.15235852
-0.008334955 -0.06402986 -0.09572275 -0.12290451

exp_avg_sq f4 [1, 20]
00000000: 92d4 3b3c c098 1d3b f191 493b 4893 5b3c
00000010: 6bb8 db3b 861e 2f3b 4c20 073c 5faa db3a
00000020: 6838 6c3a 3047 e73b 4ff3 a83b 1751 5d3a
00000030: 6ebe d83a 0bad b63b 7f7d 033b 9d00 853c
00000040: 9361 c43a 2b45 bd3a 3da3 453b a427 ec3b
0.011464255 0.0024047345 0.0030757154 0.013401814 0.006705334 0.0026721074 0.008247446 0.0016759149
0.0009011091 0.0070580468 0.005155958 0.0008442564 0.0016536245 0.0055748275 0.0020063815 0.016235644
0.0014982693 0.0014440169 0.0030157112 0.007206874
