lightning_logs/version_32/checkpoints/epoch=4-step=250.ckpt (torch, 21723 bytes, 21 tensors)

model.nn.0.weight f4 [20, 5]
000000 10 8e 08 3e 3b f5 6f 3d e3 0d ee 3d c3 8a 48 3e
       0.13335443 0.05858348 0.116237424 0.19584183
000010 49 d9 2e 3e 33 93 d2 3c cc 10 47 bd 3b e6 01 3d
       0.17075075 0.025704956 -0.048600003 0.031713706
000020 15 d9 d8 bc 0d 7b 6f bc 11 97 a8 3a c9 34 32 3d
       -0.0264707 -0.01461674 0.0012862404 0.04350737
000030 0f bc 0a bd 0c a5 03 bd a7 7d d8 bc 96 4b 54 bd
       -0.033870753 -0.032139823 -0.026427103 -0.051829897
000040 1b 3c 4e bd 68 f2 b4 39 2d 2e ff b9 0b 6c d5 ba
       -0.05035029 0.00034512882 -0.00048671794 -0.001628281
000050 de e5 30 3d 67 8e c9 bb 7c 2a 56 bd 44 b3 52 bd
       0.04318797 -0.006151009 -0.05228661 -0.051440492
000060 2a 46 d3 bc de 5b 1c 3b e7 63 ed 3c 8b df dc 3a
       -0.025790293 0.0023858468 0.028978301 0.0016851289
000070 59 4c 8f bc d3 ac 40 bd 53 f4 47 bd 51 a8 4f bd
       -0.01749246 -0.047039818 -0.04881699 -0.05069763
000080 82 1e a1 bb 77 39 1d bd 17 c1 e8 bc 1a d1 5d bd
       -0.004916967 -0.03838488 -0.028412385 -0.054154493
000090 d4 f9 56 bd 38 48 a2 bb 32 b8 0f 3b cd 5b 33 bd
       -0.05248435 -0.004952457 0.0021929857 -0.04378872
0000a0 ef 04 07 3d 78 dd 21 bd 4b f1 07 bd 49 82 3d bd
       0.03296369 -0.03951785 -0.0331891 -0.046266828
0000b0 ab c8 90 bb 57 eb 00 3e ea ac 96 3d b0 ab 01 3e
       -0.0044184527 0.12589775 0.073571995 0.1266315
0000c0 2c 5d 08 3e e3 c5 74 3e 3e 1a 21 3d 6a 73 20 bd
       0.13316792 0.23903613 0.039331667 -0.039172567
0000d0 93 26 62 bd 09 d5 fb b8 df ff dd ba 02 d6 4c bc
       -0.05521257 -0.000120082936 -0.0016937217 -0.012502195
0000e0 ba 83 d6 b9 fa cf e3 3c 87 ce dc bc 19 ad d2 bc
       -0.00040915405 0.027809132 -0.026953949 -0.025717305
0000f0 32 da 0d 3e 0a 23 43 3d 17 38 bf 3d 4c 18 58 3e
       0.13852766 0.047640838 0.0933687 0.21103019
000100 9e 96 2f 3e ae 35 81 3e d4 32 90 3e c3 de 6b 3e
       0.171473 0.25236267 0.2816378 0.23034196
000110 5c e7 1d 3e 3b ae 77 3e 8d 75 38 3e 98 95 0f 3e
       0.15420288 0.24187557 0.18013592 0.14021909
000120 eb bf 5d 3e 67 ef 60 3e 6e 4a 1d 3e 41 bf e7 3b
       0.21655242 0.21966325 0.15360424 0.00707236
000130 5d a2 9b bd 37 9c 3b bd 6c c9 86 3c 3d 8a e5 3d
       -0.07599328 -0.045803275 0.016453467 0.112080075
000140 f4 40 bd bd a6 e8 29 bd 26 e7 aa bc 10 57 13 bc
       -0.092409045 -0.041481636 -0.020862173 -0.008992925
000150 1f 5f 28 3e 98 6b 08 bc 96 a1 2f 3b 57 04 04 bd
       0.16442536 -0.008326434 0.0026799194 -0.0322307
000160 a5 61 44 3b f0 a7 a9 bb 71 af b3 bc d1 45 0c 3d
       0.0029965427 -0.0051774904 -0.021934243 0.03424627
000170 18 fa 17 bc 9a af cf 3c 73 e4 50 bd 00 e9 6f 3d
       -0.009275936 0.025352288 -0.050999116 0.058571815
000180 2a b5 e4 3d 59 fb 38 3e 8d ec 1f 3e bf a3 84 3e
       0.11167367 0.18064632 0.1561758 0.25906178

model.nn.0.bias f4 [20]
000000 f7 cb e4 3d 00 00 00 00 00 00 00 00 96 9f 15 bc
       0.11171716 0.0 0.0 -0.0091322865
000010 00 00 00 00 00 00 00 00 00 00 00 00 00 00 00 00
       0.0 0.0 0.0 0.0
000020 f4 20 a8 bb 70 14 0e 3e 00 00 00 00 08 1e 51 bc
       -0.0051308814 0.13874984 0.0 -0.012763508
000030 a8 d4 f7 3d 52 ff 73 3e 62 d6 26 3e 51 d4 8a 3c
       0.12101108 0.23827866 0.16292718 0.016946943
000040 58 2f 28 3d 00 00 00 00 00 00 00 00 1f 58 17 3e
       0.041060776 0.0 0.0 0.1477971

model.nn.2.weight f4 [20, 20]
000000 97 98 26 3d 43 78 1b bd 75 44 09 bd 73 8b 67 bd
       0.040672865 -0.037956487 -0.03351255 -0.056529474
000010 48 eb d6 3c b3 6c 10 bd d5 7a 2f bd fb ef 0a bd
       0.026235238 -0.035259914 -0.04284175 -0.03392027
000020 8a 07 1a bd be 7a 5a 3c 7d 98 26 3d 88 d9 78 3c
       -0.037604846 0.013334928 0.040672768 0.015188582
000030 af be 9a bb d1 97 02 be b3 9e 65 3d 9f 8b 41 3e
       -0.0047224383 -0.12753226 0.05605955 0.18900917
000040 32 92 4e 3e dc 82 98 bc 2e a5 36 3d 38 7c ba 3c
       0.20172957 -0.018617086 0.04459112 0.02276431
000050 07 5b ce bd af 78 01 3d d5 69 2d bd 25 aa 1c bc
       -0.10075956 0.031609233 -0.042337257 -0.00956205
000060 69 b6 78 bc 01 37 f2 bc 44 b2 6a bc a6 96 c8 bc
       -0.015180209 -0.029567244 -0.014324728 -0.024485897
000070 b0 aa 2b bd 22 80 4c be 81 e6 e9 bc 72 81 d0 3b
       -0.041910827 -0.19970754 -0.028552296 0.0063630873
000080 95 03 99 bd dc 5e 87 be e6 53 32 be d0 a9 18 3e
       -0.07471386 -0.2643956 -0.17414817 0.14908528
000090 05 26 79 3e 46 f3 07 bd 14 b1 c1 bc 30 a9 22 be
       0.2433091 -0.033190988 -0.023644008 -0.15884852
0000a0 66 2c c3 3d 80 aa 40 3d 93 23 14 bd 63 e9 b0 bb
       0.09529953 0.0470376 -0.03616674 -0.0053989156
0000b0 0d a8 fc 3c e3 9f 84 b8 4e a6 ba bc 37 49 07 3d
       0.030841852 -6.324032e-05 -0.022784378 0.033028807
0000c0 0b 9e a1 3c 2b b0 a9 3d e6 57 8e bc eb ff b3 bc
       0.019728681 0.082855545 -0.017375898 -0.021972617
0000d0 78 e3 22 3d f0 f0 53 bd da 61 2e 3d f2 f6 c7 3d
       0.039767712 -0.051743448 0.042573787 0.09763898
0000e0 8a 34 54 3e f6 88 f9 bb ea da 9c bc f2 ae 3b 3d
       0.20723167 -0.007615204 -0.019147355 0.045821138
0000f0 0f 84 5b be 4f 83 2c ba d9 e0 3e 3d 84 c5 05 3d
       -0.21437095 -0.0006580846 0.04660115 0.03265907
000100 10 02 12 bd a0 04 bf 3c db a7 cf bb 5d e9 5d 3c
       -0.0356465 0.023317635 -0.0063371486 0.013544408
000110 e3 c0 14 3d 1d 8c 5b be fb b4 53 3d 61 df 0a 3d
       0.036316764 -0.21440168 0.05168627 0.033904437
000120 95 83 75 be 77 9b 82 be d3 e3 48 be e5 db 10 bd
       -0.23975976 -0.25509235 -0.19618158 -0.035365958
000130 85 cb 8e bd f1 96 8a 3b 28 28 a7 3c a3 01 3d be
       -0.06972412 0.0042294194 0.02040489 -0.18457656
000140 d4 45 97 bd bd d4 8e 3c b2 9b 5f 3c d4 20 65 3d
       -0.073863655 0.017435426 0.0136479605 0.05593951
000150 19 7e 01 b9 fd bb 40 bd 0c 1e 22 bc 03 fb e3 3c
       -0.00012349374 -0.04705428 -0.009894859 0.027829653
000160 e1 f9 c4 3a b0 8e a0 bd a6 32 e7 bb 10 17 df 3b
       0.0015028083 -0.078397155 -0.0070555983 0.006808169
000170 51 9f ca bd c2 bb 7f 3d 54 30 18 3c 40 e9 f8 bd
       -0.098936684 0.06243492 0.009288866 -0.12153864
000180 0c 81 42 be 3f 1f d1 bb b1 cf bd bc f1 ac 5a bc
       -0.1899454 -0.0063818987 -0.023170324 -0.0133468965
000190 23 22 a3 3d f8 f2 82 3c f6 df 18 bd 70 45 9f 3d
       0.079654954 0.015984997 -0.03732296 0.07776916
0001a0 f3 78 53 3d db 9a 77 b9 86 9b 57 bd 5f 35 45 bd
       0.051629018 -0.00023613444 -0.052638553 -0.0481466
0001b0 22 64 27 3c 62 d8 a1 3d d8 9c 0c 3c 37 7a bc bc
       0.010216745 0.079026 0.008582316 -0.023007495
0001c0 cd 53 39 3e a4 22 59 3e d6 a3 48 3e 12 ac 50 3e
       0.18098374 0.2120462 0.19593748 0.2037814
0001d0 8d 30 4b 3e f3 29 4b 3d d4 63 35 bd f2 68 3d 3e
       0.1984274 0.049600553 -0.044284657 0.18497065
0001e0 d5 a7 54 bc c1 cd c9 3c 64 23 89 bc 9b cd 8b bd
       -0.012979467 0.024634244 -0.016740508 -0.068263255
0001f0 9d 69 5e 3d 24 05 44 bd 8d c7 e1 3c 9f 22 2c bd
       0.05429994 -0.047856465 0.027560974 -0.042025205
000200 96 b7 06 bd 45 59 a0 3c a2 1b a7 3c a1 a4 46 3d
       -0.032889925 0.019573817 0.020398919 0.048496846
000210 71 af a7 bd e0 1c 5e 3d 02 32 86 3b 01 80 bb bd
       -0.0818776 0.054226756 0.004095317 -0.09155274
000220 00 4d 69 be 8f 1b d5 bc d6 77 4d 3d c8 b7 90 bc
       -0.2278328 -0.026014118 0.050163113 -0.017665759
000230 00 69 56 bd a2 c6 3b bd 26 23 88 bb 36 c0 96 bd
       -0.05234623 -0.045843728 -0.0041545806 -0.0736088
000240 c7 40 57 3d 7c 58 20 bc 9a ac e9 bc 9d b1 43 3d
       0.05255201 -0.009786721 -0.028524686 0.047776807
000250 41 20 1f 3d b2 56 08 be e3 18 49 3d ad 57 3b bd
       0.03884912 -0.13314322 0.049096 -0.04573791
000260 5d 2b 46 be a1 97 d0 bd 49 36 ec bd d1 e9 d2 bd
       -0.1935248 -0.10185171 -0.115337916 -0.10298503
000270 92 97 51 be 77 ca 24 bc 36 21 0a bd 76 5e 21 be
       -0.20467976 -0.010058037 -0.03372308 -0.1575869
000280 00 af d4 bc 73 6f 37 3d 79 f7 db bc 34 d1 a1 3d
       -0.025962353 0.04478402 -0.026851403 0.079012305
000290 f4 45 30 3d da ee 56 3d 4d 9a 02 3d d9 19 38 3c
       0.043035462 0.05247388 0.031885434 0.011236631
0002a0 9e 86 5b 3c 79 6a e0 3c 48 bb 30 bc 42 67 8b 3d
       0.013398794 0.02739452 -0.010786839 0.06806804
0002b0 82 e2 07 bd b3 7b fa bd de 3e a9 bd 5a 55 27 3e
       -0.033175 -0.12230625 -0.08263944 0.16341153
0002c0 49 f6 64 3e 33 6f 53 bd 79 e6 dd bc af 94 48 3c
       0.22359575 -0.05161972 -0.027087437 0.01224248
0002d0 d5 80 98 bc 29 f5 a5 bc d7 7b 1e 3c b6 cd e9 bc
       -0.01861612 -0.020258503 0.00967308 -0.028540473
0002e0 58 0c 4c bd 46 1d 2a 3c be b8 50 3c b4 35 06 bd
       -0.04981646 0.010382956 0.0127393585 -0.03276606
0002f0 98 52 3b bc be b3 e8 bd c3 05 45 3d 57 23 a5 3d
       -0.011433266 -0.11362408 0.048101198 0.08063381
000300 e1 c8 08 be 72 4e 20 be 53 2c bc bd 73 f5 ca 3d
       -0.13357879 -0.15654925 -0.09188142 0.09910097
000310 31 2e 22 3e 5a 90 31 3d d7 c5 13 3c e9 24 2b bd
       0.15837933 0.043350555 0.009019337 -0.041783247
000320 0f d2 5e 3e 3c 94 3b bd 3f 9d bd 3c 01 f4 31 3d
       0.21759818 -0.045795664 0.02314627 0.04344559
000330 36 b1 82 3b 7a a9 57 bd 04 86 1e bd 39 1e 91 3c
       0.0039884103 -0.05265186 -0.038702026 0.017714607
000340 48 5b b7 3c 97 03 64 3e 99 12 36 bd 23 37 49 bd
       0.022382393 0.22266994 -0.04445133 -0.049124848
000350 8b b9 18 3e 0f aa 2d 3e 8a 70 74 3e 5f 9c b1 3d
       0.14914529 0.16959403 0.23871055 0.086724035
000360 5d 21 c4 3d a7 da 03 3d 61 24 48 bd bf 4a 51 3e
       0.09576676 0.032190945 -0.04886282 0.2043867
000370 4a 5e 22 bd 70 8f 0a 3c f9 2c f9 bc c3 19 16 3d
       -0.039640702 0.00845705 -0.030416952 0.036645662
000380 2e 74 60 3d bd da 67 bb c0 d2 b9 3c 97 07 46 3d
       0.054798298 -0.003537818 0.022683501 0.048347082
000390 66 5c 0d bb 6f 1c f8 bd 0a a4 1f 3d 2f 99 1d bc
       -0.0021569966 -0.12114798 0.0389748 -0.009619041
0003a0 fb cd d1 bd 26 c6 6a be 2b 97 d1 bd 50 ac 64 3e
       -0.10244366 -0.2292715 -0.10233911 0.22331357
0003b0 7a 04 91 3e 1a 0e 8b 3c e6 f4 9c 3c 60 8d f2 bc
       0.28323728 0.016974498 0.019159745 -0.029608428
0003c0 58 37 52 be 39 12 40 bd bd 8b 04 3d 3d 59 5b 3d
       -0.20528924 -0.04689238 0.032359827 0.0535519
0003d0 6b 6a 3c bd 6f db 2b 3d fb 7f 99 bc 4b 97 2c bd
       -0.045999926 0.041957315 -0.018737784 -0.04213647
0003e0 27 33 29 bc bb 37 18 be f3 7a 44 3d 14 8f ac 3b
       -0.010327137 -0.1486501 0.047968816 0.0052660797
0003f0 ae e1 36 be e2 d5 76 be 0c 92 12 be a0 15 43 3b
       -0.17859527 -0.24105027 -0.14313525 0.0029767528

model.nn.2.bias f4 [20]
000000 ef e2 0f 3d 76 92 d0 bd 8a 39 55 3d 84 89 47 be
       0.03512853 -0.10184185 0.052056827 -0.19486052
000010 13 55 15 bd 81 59 b7 3d c9 61 bd bc 07 5e a1 bd
       -0.036458086 0.089526184 -0.023117917 -0.078792624
000020 ac 81 3e 3c 99 ce 76 bd 4d 28 26 3e 03 18 03 bd
       0.011627596 -0.06025562 0.16226311 -0.03200532
000030 aa 56 0a be fb cc 0f be 4b 6d 91 bc 2e c4 db 3d
       -0.13509622 -0.14043038 -0.01775231 0.10730778
000040 1f 49 3d bd b5 d8 16 bc 7a e5 51 3c d6 07 80 bd
       -0.04621231 -0.00920694 0.012811059 -0.062514946

model.args_proj.proj.0.weight f4 [1, 20]
000000 67 20 80 3e c9 8d 2e bc 0f 51 7a 3e dd 91 20 be
       0.2502472 -0.010653921 0.24444984 -0.15680642
000010 06 08 4c be f0 f0 04 be 33 ea 64 be 1e 85 c8 bc
       -0.19924936 -0.12982535 -0.22354965 -0.024477538
000020 c5 e2 0c 3e b0 47 b0 3e d0 05 cc 3d 9a 73 a3 3e
       0.1375838 0.34429693 0.09962046 0.31924134
000030 50 41 06 be 6a 18 bf 3c 3e 4e 8a be a9 c8 83 3e
       -0.13110852 0.023327071 -0.2701282 0.2573903
000040 37 fd d4 3d e2 b9 55 bd 88 20 35 be f6 4b 96 3d
       0.103998594 -0.052179225 -0.17688191 0.07338707

model.args_proj.proj.1.weight f4 [1, 20]
000000 8a 7b 90 3e 56 3b ee 3d 44 2c 6d 3e d6 e3 c1 bd
       0.28219253 0.11632411 0.23161417 -0.094672844
000010 15 79 80 be 68 da 37 3e d1 f9 17 be 2c a7 63 be
       -0.25092378 0.17954409 -0.14841391 -0.2223174
000020 a5 f8 9c 3e c5 5c 14 3e 80 e0 50 3e 92 d6 16 3e
       0.3065845 0.14488514 0.2039814 0.1473029
000030 8a c5 18 be 44 46 7d be 9f 55 42 be 95 46 6f 3e
       -0.14919105 -0.24733835 -0.18977974 0.23366769
000040 61 a2 89 be 65 43 aa be 2a 35 2c be e1 69 2e 3e
       -0.26881698 -0.33254543 -0.16817155 0.17032577

model.args_proj.proj.2.weight f4 [1, 20]
000000 81 ce 6e bb 94 94 87 3e 2f 27 a2 bd 93 52 8e 3e
       -0.0036439004 0.26480544 -0.0791763 0.27797374
000010 9a 23 d3 3c aa f4 25 be 63 77 bf 3c fe 55 22 3e
       0.025773812 -0.16206613 0.023372358 0.15853116
000020 2e b2 03 3e 88 49 69 3e 21 c8 bd be a4 66 2c 3e
       0.12860939 0.22781956 -0.3706675 0.1683603
000030 07 5e 72 3e d2 eb ae 3e 1b bd 8a bc a4 e1 77 be
       0.23668681 0.34164292 -0.016935876 -0.24207169
000040 21 63 51 3d 35 7e 01 be e9 b7 b2 bd 34 4f 98 3e
       0.051119927 -0.126458 -0.08726484 0.29747927

exp_avg f4 [20, 5]
000000 75 86 c1 3d a7 ca 86 3d 12 7d 12 3d c3 41 9a bb
       0.09449474 0.065816216 0.035763808 -0.0047075464
000010 54 08 ef bc a6 b6 8e 2f 57 e1 06 b0 f8 0f b0 2f
       -0.029178776 2.595943e-10 -4.9069143e-10 3.202556e-10
000020 b2 f6 92 af e7 52 22 af c7 94 64 2d 8a 81 f1 2f
       -2.6732533e-10 -1.4763267e-10 1.2993335e-11 4.3929688e-10
000030 7c 08 bc af 60 6d b2 af bf b8 92 af e3 d6 0f b0
       -3.420303e-10 -3.2455727e-10 -2.6688515e-10 -5.232847e-10
000040 3c bc 0b b0 52 f0 72 2c 0e 2a ab ac 88 26 8f ad
       -5.08354e-10 3.4523673e-12 -4.8647813e-12 -1.6274329e-11
000050 de bb ef 2f 9c a1 88 ae 2f 1b 11 b0 61 c2 0e b0
       4.3607334e-10 -6.2132716e-11 -5.2789323e-10 -5.193553e-10
000060 e7 2f 8f af ae fe d3 2d 9b e1 a0 2f cf bb 95 2d
       -2.6045585e-10 2.4101023e-11 2.9264133e-10 1.7022743e-11
000070 de 40 42 af 67 8d 02 b0 6c 7b 07 b0 e2 b2 0c b0
       -1.7667243e-10 -4.749467e-10 -4.9288107e-10 -5.118591e-10
000080 4c 71 5a ae 40 15 d5 af 8b bd 9d af 7e 49 16 b0
       -4.966809e-11 -3.8759573e-10 -2.8692812e-10 -5.467412e-10
000090 97 a7 11 b0 e6 04 5c ae cc db c2 2d 2c 11 f3 af
       -5.298885e-10 -5.002656e-11 2.2152856e-11 -4.4213644e-10
0000a0 d9 ff b6 2f a8 5e db af 15 40 b8 af 76 68 00 b0
       3.3287398e-10 -3.9903125e-10 -3.3514938e-10 -4.6714577e-10
0000b0 fb 4c 42 ae 31 f3 a0 3d f3 72 5a 3d 6c b3 dc 3c
       -4.4178865e-11 0.07858885 0.05333228 0.026941024
0000c0 ea 57 db bb 33 c6 d0 bc 2e 56 da 2f 2f 74 d9 af
       -0.00669383 -0.025485134 3.9715203e-10 -3.9554623e-10
0000d0 c3 38 19 b0 6f b9 aa ab 47 7f 96 ad 9f 6a 09 af
       -5.574174e-10 -1.2130695e-12 -1.7109548e-11 -1.2497957e-10
0000e0 42 76 8e ac e7 e7 98 2f 4a 28 94 af e2 5b 8d af
       -4.049012e-12 2.7813415e-10 -2.694967e-10 -2.5713037e-10
0000f0 a2 c3 9c 3d 75 e1 55 3d d8 6d db 3c fd fe c1 bb
       0.076545015 0.052216966 0.026785776 -0.0059202895
000100 b6 27 c8 bc 8a 8d 5c bd a3 04 3c bd f1 26 18 bd
       -0.024432998 -0.05384592 -0.04590286 -0.037146512
000110 3b a2 36 bc 46 d1 9e 3c 07 fb 25 3d 7e 69 c7 3c
       -0.011147077 0.019386899 0.0405226 0.024342295
000120 dc e2 f7 3b 4f 41 0e bc f5 4f 45 bc 23 66 49 3e
       0.0075648855 -0.008682563 -0.012042989 0.19667868
000130 9f 94 11 3e 69 fd af 3d 91 d6 e0 bb 8b 54 a8 bd
       0.1421685 0.08593256 -0.006861516 -0.0821925
000140 39 a1 9f 3e 66 f5 5e 3e a1 3d f2 3d 11 8d 17 bd
       0.3117769 0.217733 0.11828161 -0.036999766
000150 03 a2 2b be f0 f2 b8 ae b9 1f ee 2d 7c ee b2 af
       -0.16761021 -8.4105056e-11 2.7071555e-11 -3.2547465e-10
000160 d2 20 05 2e 15 04 66 ae 37 91 73 af f8 1d be 2f
       3.026985e-11 -5.229957e-11 -2.2152312e-10 3.4582093e-10
000170 8d 09 ce ae 8a c1 8c 2f f7 88 0d b0 8a f9 bf 3d
       -9.369492e-11 2.560337e-10 -5.149014e-10 0.09373768
000180 fe 80 83 3d 43 95 08 3d c4 47 e2 bb a6 1d f7 bc
       0.06421088 0.033345472 -0.006905528 -0.030165505

exp_avg_sq f4 [20, 5]
000000 b1 99 ac 3c 4a e4 a8 3c 24 8e a7 3c a4 7b a9 3c
       0.02106938 0.02061667 0.02045352 0.02068884
000010 c1 6c b1 3c 88 8f b0 1e 18 c3 9c 1f 41 24 06 1f
       0.021658303 1.8694088e-20 6.6391325e-20 2.8405592e-20
000020 de 31 bb 1e 16 1e e5 1d cf 08 64 1a c5 9d 7b 1f
       1.982002e-20 6.0646903e-21 4.715641e-23 5.328182e-20
000030 2b ea 18 1f ef c0 09 1f c1 94 ba 1e e2 21 b2 1f
       3.238095e-20 2.917047e-20 1.975504e-20 7.5441987e-20
000040 f2 2c a8 1f 51 af 16 30 23 b6 90 31 3d 4b b0 32
       7.1225123e-20 5.481882e-10 4.211658e-09 2.0523311e-08
000050 31 f5 77 1f 09 b8 a2 1c 4f 43 b5 1f ff 7b af 1f
       5.2507102e-20 1.0767833e-21 7.6767834e-20 7.432052e-20
000060 03 bb b1 1e 32 14 44 1b 39 2d e0 1e 18 ad c3 1a
       1.881795e-20 1.6219265e-22 2.3735626e-20 8.092976e-23
000070 84 ed 23 1e 07 ec 92 1f c3 27 9e 1f c5 7c aa 1f
       8.678265e-21 6.222388e-20 6.698138e-20 7.2204214e-20
000080 ff 08 50 1c 29 23 44 1f b7 8a d7 1e 96 58 c2 1f
       6.8833054e-22 4.1533698e-20 2.2821382e-20 8.230875e-20
000090 6f a0 b6 1f f8 0b 53 1c 8a ab 25 1b 7a dc 7e 1f
       7.7345413e-20 6.9829513e-22 1.3703907e-22 5.3968966e-20
0000a0 44 df 10 1f ef d1 4f 1f c3 d9 12 1f e0 29 8e 1f
       3.0677867e-20 4.4007608e-20 3.109683e-20 6.0208616e-20
0000b0 68 92 f5 32 96 ff 86 3c de ae 84 3c d2 27 84 3c
       2.8588332e-08 0.016479295 0.016196664 0.016132269
0000c0 2c f1 85 3c e8 34 8c 3c 90 e0 4d 1f 5b 39 4c 1f
       0.016350351 0.017115071 4.3596192e-20 4.3246124e-20
0000d0 eb f4 c9 1f 04 80 fe 16 21 ad c5 1a 67 5f a9 35
       8.5531994e-20 4.1116702e-25 8.1756995e-23 1.2619247e-06
0000e0 33 dd aa 35 0f 1a ad 35 b7 79 ad 35 d6 0d ad 35
       1.2730364e-06 1.2897088e-06 1.2924928e-06 1.2893531e-06
0000f0 05 64 79 3c af bd 74 3c ec 65 73 3c 34 88 76 3c
       0.0152216 0.014937802 0.014855843 0.015047122
000100 36 13 81 3c 0c bc 56 3b c8 c8 4f 3b 05 0d 48 3b
       0.01575623 0.0032765893 0.0031705368 0.0030525338
000110 d9 b5 42 3b 4e 41 4f 3b a5 fb 11 3c 1f 67 11 3c
       0.002971044 0.0031624618 0.008910094 0.008874684
000120 9a 63 12 3c 84 4d 15 3c 03 3d 1c 3c c2 69 e6 3c
       0.00893488 0.009112719 0.009536031 0.028126601
000130 56 ef e0 3c 6f 2e de 3c e8 24 de 3c 1d f8 eb 3c
       0.027457874 0.02712175 0.027117208 0.028804833
000140 eb 55 e5 3d bf 08 e0 3d 6e 73 dd 3d 96 bd de 3d
       0.11198028 0.10939168 0.10813032 0.108760044
000150 db 56 ed 3d 10 fc 14 1d 22 5f 77 1b c2 87 0a 1f
       0.11588832 1.971795e-21 2.04621e-22 2.9334933e-20
000160 76 9f 9a 1b 56 a5 66 1c 07 b4 80 1e b1 4e 1c 1f
       2.5580212e-22 7.631431e-22 1.3626985e-20 3.3099377e-20
000170 a7 d8 38 1d 60 c4 ab 1e ca 81 ac 1f e4 16 b1 3c
       2.4464204e-21 1.8186548e-20 7.305955e-20 0.02161736
000180 4a ee ad 3c ba 27 ad 3c ad 64 af 3c 83 88 b7 3c
       0.02123179 0.021137107 0.02141031 0.022403961

exp_avg f4 [20]
000000 8a bb 07 3d 00 00 00 00 00 00 00 00 e9 d0 c8 ae
       0.033137836 0.0 0.0 -9.132057e-11
000010 00 00 00 00 00 00 00 00 00 00 00 00 00 00 00 00
       0.0 0.0 0.0 0.0
000020 67 a7 61 ae 00 73 d4 3c 00 00 00 00 13 4a 0c af
       -5.130776e-11 0.025933743 0.0 -1.2759242e-10
000030 64 e1 d1 3c ee cc d0 bc 40 ce 32 3c 80 7b 8a 3d
       0.02562017 -0.025488343 0.010913432 0.06761837
000040 c8 89 b7 3d 00 00 00 00 00 00 00 00 98 2f 01 3d
       0.089618266 0.0 0.0 0.03153953

exp_avg_sq f4 [20]
000000 69 a9 a7 3c 00 00 00 00 00 00 00 00 9b 8d f8 30
       0.020466523 0.0 0.0 1.8084622e-09
000010 00 00 00 00 00 00 00 00 00 00 00 00 00 00 00 00
       0.0 0.0 0.0 0.0
000020 7c 2a 9d 30 3c fc 83 3c 00 00 00 00 fa f6 ab 35
       1.1435328e-09 0.016111486 0.0 1.2812372e-06
000030 5e 49 73 3c f4 89 3e 3b 8f 5d 11 3c d7 af dc 3c
       0.014849035 0.0029073926 0.008872404 0.026939316
000040 66 43 dc 3d 00 00 00 00 00 00 00 00 89 d6 ac 3c
       0.10755043 0.0 0.0 0.021098392

exp_avg f4 [20, 20]
000000 a3 88 f4 3c b4 b4 d2 af 9b 0b ba af 41 63 1b b0
       0.02985031 -3.8327175e-10 -3.384145e-10 -5.652972e-10
000010 23 a8 91 2f ff bd c3 af 19 d0 ed af d6 4e bc af
       2.6494815e-10 -3.5605294e-10 -4.325791e-10 -3.4253017e-10
000020 4e bf ce af e6 ac ef 3c 33 c7 e1 2f af fd 26 2f
       -3.7607112e-10 0.02925725 4.10688e-10 1.5187739e-10
000030 a5 f4 e9 3c 3d 69 96 3d 05 f3 56 3d a7 f9 27 bc
       0.028559038 0.07344291 0.052477855 -0.010252393
000040 05 9e a0 bc 60 bd 4e af de 84 f7 2f ac 8c de 3c
       -0.0196066 -1.880287e-10 4.5023446e-10 0.027166687
000050 50 f6 81 3c 91 7b af 2f 83 03 eb af 28 46 d2 ae
       0.015864521 3.1920114e-10 -4.2748746e-10 -9.5621566e-11
000060 8f 94 28 af 63 26 a4 af db 14 1f af 75 f2 87 af
       -1.533229e-10 -2.9858702e-10 -1.4468375e-10 -2.4728633e-10
000070 66 6b e6 af 95 3d 75 3c 56 84 9e af 4a ec 8b 2e
       -4.1913067e-10 0.014968296 -2.8834063e-10 6.3629615e-11
000080 74 d9 76 3c 11 72 21 3d ba 4e eb 3c 6c ee dc bb
       0.015066493 0.039415423 0.028724063 -0.0067422893
000090 56 89 41 bc c5 42 b8 af 2c 46 83 af 2c 64 69 3c
       -0.011812529 -3.3516848e-10 -2.387862e-10 0.014245074
0000a0 09 14 c4 3c d4 8b 02 30 40 c6 c8 af 7f 73 6d ae
       0.023935335 4.749243e-10 -3.6520653e-10 -5.3990142e-11
0000b0 4f 39 ab 2f fd d1 33 ab 50 01 7d af 5b 5c b7 2f
       3.114544e-10 -6.388499e-13 -2.3010682e-10 3.3353129e-10
0000c0 31 f0 58 2f a0 69 c1 3c 8f f5 40 af 94 99 71 af
       1.9730419e-10 0.023609936 -1.7549538e-10 -2.1973384e-10
0000d0 72 d1 bb 3c 61 16 71 3d 81 97 2b 3d ad 51 01 bc
       0.02292702 0.058859233 0.041892532 -0.007893008
0000e0 95 bf 7c bc ff 26 a9 ae 88 a0 54 af 2a 7d b2 3c
       -0.015426536 -7.692157e-11 -1.933832e-10 0.021788199
0000f0 f2 e3 c0 bb cf e6 e9 ac e1 55 01 30 15 8c b3 2f
       -0.005886548 -6.647883e-12 4.705197e-10 3.2659445e-10
000100 2e e3 c5 af 68 76 81 2f 03 c4 8c ae c4 6a 16 2f
       -3.5995512e-10 2.3549096e-10 -6.4012816e-11 1.3680351e-10
000110 54 ad c7 2f 2d 3a cb bb e6 70 0f 30 78 64 ba 2f
       3.6321046e-10 -0.0062020035 5.2183535e-10 3.390459e-10
000120 07 9a ba bb 3c 7c 74 bc c2 5d 24 bc aa d6 a3 3a
       -0.005694631 -0.014922198 -0.010032119 0.0012499888
000130 a2 db 5f 3b 1c e6 3b 2e a8 96 62 2f 27 b7 aa bb
       0.003415801 4.2723255e-11 2.0608104e-10 -0.0052098217
000140 71 e5 d7 bc c2 9e 41 2f 1f 91 17 2f 1b c4 19 30
       -0.026354523 1.760965e-10 1.3784927e-10 5.593976e-10
000150 d5 92 af ab ac 97 02 b0 86 c8 db ae 95 81 9a 2f
       -1.2475252e-12 -4.7509263e-10 -9.994587e-11 2.810451e-10
000160 3b 32 84 2d 6a 26 d3 bc 1f b9 9c ae 5e bb 95 2e
       1.502897e-11 -0.025775153 -7.126943e-11 6.8090186e-11
000170 e0 64 ce bc 11 9d 85 bd f2 b7 3e bd 49 bb 17 3c
       -0.025194585 -0.06524099 -0.046562143 0.009260961
000180 c2 59 91 3c 75 c2 8d ae 17 a5 80 af a9 05 c3 bc
       0.017742995 -6.44648e-11 -2.3400368e-10 -0.02380641
000190 90 6b 5c 3c 1d 84 31 2f be 30 cf af 66 c5 55 30
       0.013453379 1.6144992e-10 -3.7687714e-10 7.776947e-10
0001a0 3f 48 0f 30 bd db 27 ac 17 15 12 b0 5f 9f 05 b0
       5.2125765e-10 -2.3854107e-12 -5.314446e-10 -4.86116e-10
0001b0 cb af e0 2e 65 23 4e 3c d5 a1 be 2e ac f9 7c af
       1.0217568e-10 0.012581681 8.668947e-11 -2.3007968e-10
0001c0 3f 71 4f 3c 11 a3 17 3d 43 db d4 3c d5 6a e2 bb
       0.012661277 0.037020747 0.025983458 -0.006909708
0001d0 a4 b7 56 bc d9 a7 09 30 94 d1 f5 af 4b 9a 2e 3c
       -0.013105307 5.0078836e-10 -4.4714155e-10 0.0106569035
0001e0 4a 31 87 bc 41 c5 88 2f 92 e7 39 af 38 a4 3b b0
       -0.016502995 2.4878413e-10 -1.6907922e-10 -6.826357e-10
0001f0 c4 b0 16 30 56 d1 04 b0 d3 03 99 2f 41 48 e9 af
       5.482088e-10 -4.8318805e-10 2.7833255e-10 -4.2433793e-10
000200 92 d5 b4 af 12 c7 86 bc af 85 62 2f d9 4e 05 30
       -3.289356e-10 -0.016452346 2.0602074e-10 4.849717e-10
000210 c3 fc 81 bc 6c d7 21 bd d5 4d e7 bc c6 49 9d 3b
       -0.015867596 -0.039512083 -0.028235355 0.0048000542
000220 d4 d8 1a 3c f0 6d 90 af 53 37 0b 30 66 49 7d bc
       0.00945111 -2.6271563e-10 5.0646526e-10 -0.015459394
000230 c2 cb 9d bc fe 77 fe af fe 92 38 ae be 55 4a b0
       -0.019262198 -4.628759e-10 -4.196731e-11 -7.360902e-10
000240 a3 d7 11 30 b3 61 d9 ae 1b 5d 9e af c5 98 04 30
       5.305713e-10 -9.8853724e-11 -2.8806188e-10 4.823842e-10
000250 25 98 d5 2f e5 03 98 bc 8d 41 08 30 52 71 fb af
       3.885258e-10 -0.018556545 4.9569665e-10 -4.5737153e-10
000260 b1 ea 95 bc 9a 24 4d bd 56 d4 10 bd 37 fc 02 3c
       -0.018300386 -0.050083734 -0.03535875 0.007994703
000270 7a 90 7c 3c 4b 68 df ae b1 36 bb af ec ae 86 bc
       0.015415305 -1.0159392e-10 -3.4053962e-10 -0.016440831
000280 b4 4c 08 3d d9 96 f8 2f a0 13 95 af f6 2f 59 30
       0.033276275 4.521812e-10 -2.7116887e-10 7.9012297e-10
000290 3e e3 ee 2f 2a a0 11 30 f7 03 b1 2f 2d 95 f9 2e
       4.3453413e-10 5.29783e-10 3.219893e-10 1.1349708e-10
0002a0 72 53 13 2f a3 50 03 3d eb 97 ef ae d2 19 3b 30
       1.3399218e-10 0.032059323 -1.0895448e-10 6.8066897e-10
0002b0 d4 d5 01 3d 52 b9 aa 3d ed d0 74 3d 00 7c 54 bc
       0.031698063 0.08336128 0.05976956 -0.012969017
0002c0 61 5c c5 bc a5 41 0f b0 00 63 96 af 72 f4 f2 3c
       -0.024091901 -5.2116383e-10 -2.7355185e-10 0.029657576
0002d0 aa 95 b0 3c 99 f6 60 af 93 db d6 2e 63 e7 9c af
       0.02155574 -2.046029e-10 9.7705975e-11 -2.8540645e-10
0002e0 2a 41 0a b0 a2 9f e6 2e 58 7a 0d 2f 13 e7 b5 af
       -5.029671e-10 1.04875456e-10 1.286734e-10 -3.3087896e-10
0002f0 8c 6e fb ae 55 5b af 3c 1f 7f 05 30 b4 a4 5d 30
       -1.14337956e-10 0.021405855 4.856577e-10 8.063339e-10
000300 be fc a9 3c 1f 04 4d 3d e7 d3 14 3d c1 78 c5 bb
       0.0207504 0.05005276 0.0363349 -0.006026358
000310 b2 79 38 bc ce a2 f0 2f 9c 56 c8 2e 6e 61 aa 3c
       -0.011259483 4.3771425e-10 9.110332e-11 0.020798411
000320 5c 56 67 3c b8 33 fe af e5 82 80 2f cb d8 ee 2f
       0.014119711 -4.623908e-10 2.337607e-10 4.3445988e-10
000330 31 31 31 2e 8a 1e 12 b0 c4 d7 d6 af 48 b8 44 2f
       4.028883e-11 -5.315789e-10 -3.9079684e-10 1.7891566e-10
000340 4f 1d 76 2f 5f 32 64 3c 51 be f6 af d1 08 07 b0
       2.2383982e-10 0.013928025 -4.4882367e-10 -4.912524e-10
000350 af 57 5c 3c 04 97 19 3d 23 f1 d3 3c 12 36 b1 bb
       0.01344864 0.037497535 0.025871819 -0.005408057
000360 1b 7b 39 bc 01 b6 b2 2f f9 9b 07 b0 9e dd 40 3c
       -0.011320855 3.2507333e-10 -4.9334364e-10 0.011771588
000370 aa e2 a6 3c 96 d9 bb 2e a0 dd a8 af 5b 76 c9 2f
       0.020371754 8.5424265e-11 -3.0716496e-10 3.6645784e-10
000380 9e 12 18 30 b4 2c 1d ae 9f e2 7b 2f bc 2d 06 30
       5.5323734e-10 -3.573737e-11 2.2908829e-10 4.881391e-10
000390 81 bf bd ad a3 b6 a5 3c 40 5b d8 2f 17 88 d3 ae
       -2.1571857e-11 0.02022869 3.9355008e-10 -9.6193435e-11
0003a0 7f 8d a0 3c 19 7b 43 3d b1 61 0d 3d 51 82 be bb
       0.01959872 0.047724817 0.034516994 -0.005813875
0003b0 0a e4 33 bc a8 80 3c 2f b9 c3 54 2f ee b1 9f 3c
       -0.010979662 1.7144208e-10 1.9350822e-10 0.019494023
0003c0 b6 2e 40 bc b3 24 02 b0 f1 a5 b3 2f a3 34 13 30
       -0.011729887 -4.7345877e-10 3.267782e-10 5.355309e-10
0003d0 d8 55 ff af d4 e7 e8 2f 6d 14 50 af 4d e6 e9 af
       -4.6445225e-10 4.2365278e-10 -1.8924746e-10 -4.2546092e-10
0003e0 87 38 e3 ae 1d 91 3f bc 1e 21 05 30 cf 9e 67 2e
       -1.0332806e-10 -0.011692313 4.843218e-10 5.266437e-11
0003f0 c5 ec 37 bc d3 91 f5 bc 82 e5 aa bc 50 8e 80 3b
       -0.011225884 -0.029976761 -0.020861391 0.003923215

exp_avg_sq f4 [20, 20]
000000 dc d1 68 3c ba ce 3f 1f 8a b6 15 1f b5 f0 9f 2f
       0.014210191 4.0616823e-20 3.170297e-20 2.9092964e-10
000010 5a e4 b7 1e 32 a6 25 1f 89 05 74 1f 2e 5c 19 1f
       1.9470323e-20 3.5077583e-20 5.1673588e-20 3.247526e-20
000020 50 a9 22 2b 40 2d 81 3c a3 12 5c 1f 40 82 98 33
       5.778893e-13 0.015768647 4.6602228e-20 7.101744e-08
000030 b6 29 62 3c 9e ec 28 3d e9 3a d0 3c 2b 7c cb 37
       0.01380389 0.04124128 0.025418716 2.4257306e-05
000040 74 84 b1 38 03 9f 39 1e 2a 1d 84 1f 25 e0 9a 3c
       8.464689e-05 9.826701e-21 5.595242e-20 0.018905709
000050 53 b2 5a 3b 7e 43 05 1f 92 57 6e 1f 0e 7a 17 2f
       0.003337045 2.8219674e-20 5.0470897e-20 1.3776733e-10
000060 c9 14 f7 1d 63 57 e9 1e f2 12 dc 1d c1 44 a0 1e
       6.5401847e-21 2.4705977e-20 5.8253104e-21 1.6969095e-20
000070 ff b6 4e 2b 08 7e 6f 3b 3c a9 d9 1e 70 f4 f1 30
       7.343986e-13 0.0036543626 2.3045762e-20 1.7604531e-09
000080 9a 73 51 3b 67 1c 1a 3c 4c 65 c0 3b 50 90 ff 36
       0.0031959773 0.009406186 0.0058714505 7.6163924e-06
000090 62 6c e4 37 11 de 12 1f 69 79 95 1e a2 e2 8f 3b
       2.7230188e-05 3.110039e-20 1.5826203e-20 0.0043910304
0000a0 d1 20 37 3c 87 e8 92 1f f3 3b 2e 1f 5e 39 43 2f
       0.011177258 6.221809e-20 3.6895522e-20 1.7755528e-10
0000b0 aa cc fd 1e 57 2c 0d 16 8d d6 8a 1e 3b 71 11 1f
       2.6872064e-20 1.140388e-25 1.4700054e-20 3.0798606e-20
0000c0 b8 d8 96 2a 57 ff 4a 3c 83 c1 21 1e 03 0f 7f 33
       2.6795731e-13 0.012389979 8.563286e-21 5.9385467e-08
0000d0 7d b6 31 3c 71 60 04 3d 07 6c a3 3c 99 c6 94 37
       0.010846731 0.032318536 0.019948972 1.7735454e-05
0000e0 6d 73 83 38 3e 4b f9 1c 8c 50 44 1e 65 75 73 3c
       6.2680665e-05 1.6496887e-21 1.039281e-20 0.014859532
0000f0 fa dc 13 3b 29 d1 6e 19 48 36 90 1f 11 44 7f 2d
       0.0022562132 1.2346551e-23 6.107617e-20 1.4510186e-11
000100 5d 48 29 1f e4 63 91 1e d3 b4 ac 1c 14 cc c4 1d
       3.5847e-20 1.5393786e-20 1.1428747e-21 5.209178e-21
000110 e8 93 27 2a 04 27 1f 3b 49 27 b1 1f 9d 42 c7 30
       1.4883895e-13 0.002428473 7.502741e-20 1.4498088e-09
000120 d2 d7 0a 3b 25 76 c7 3b 7e ad 7b 3b 45 da 59 36
       0.0021185768 0.006087082 0.003840297 3.246257e-06
000130 c5 30 2d 37 c8 f4 19 1c 3c dd 5e 1e f7 47 40 3b
       1.0322959e-05 5.0939826e-22 1.1798332e-20 0.002933977
000140 e4 de 55 3c f8 dc 22 1e d3 cf c7 1d 06 4c a7 2f
       0.01305363 8.621904e-21 5.2889747e-21 3.043114e-10
000150 d7 94 06 17 ff 02 93 1f f7 4b 52 1d 89 d3 ce 1e
       4.3485597e-25 6.226188e-20 2.7832541e-21 2.1898587e-20
000160 f5 7f 34 2b 81 02 6d 3c ca 09 d6 1c 22 0f 9a 33
       6.412642e-13 0.014465929 1.4163863e-21 7.1739365e-08
000170 41 7f 4f 3c 50 98 1a 3d 8f e0 be 3c ae a2 b3 37
       0.012664617 0.037742913 0.023300437 2.1414216e-05
000180 00 b2 9f 38 d8 26 af 1c b6 90 8f 1e 88 1d 8e 3c
       7.614866e-05 1.1590569e-21 1.5200565e-20 0.017348066
000190 ef 33 e1 3b 21 f4 08 1e c8 7d 39 1f d6 62 ea 2e
       0.006872646 7.250265e-21 3.9279318e-20 1.0658645e-10
0001a0 96 c3 b0 1f dd 04 f6 17 94 b1 b7 1f ab de 99 1f
       7.486247e-20 1.5898605e-24 7.779729e-20 6.5166394e-20
0001b0 1a 1a b4 2a f9 c7 f9 3b 15 45 1e 1d 8e 93 be 32
       3.1992535e-13 0.0076227156 2.094684e-21 2.2186011e-08
0001c0 0d 9a da 3b 2c 79 a2 3c 64 b7 48 3c 2c d6 3c 37
       0.0066711963 0.01983317 0.012250755 1.1255539e-05
0001d0 a3 99 27 38 f8 3c a3 1f af 50 82 1f cb f3 15 3c
       3.9958988e-05 6.913405e-20 5.519062e-20 0.009152363
0001e0 b4 d7 7c 3b 91 35 a2 1e c9 2b 16 1e b7 be 93 2e
       0.0038580718 1.7174572e-20 7.9499884e-21 6.718664e-11
0001f0 35 62 c3 1f 86 08 98 1f 2f de ca 1e bb dc 6a 1f
       8.274818e-20 6.4388605e-20 2.1479475e-20 4.973401e-20
000200 11 15 3f 2a e9 be 8c 3b f2 bb 5e 1e 19 23 11 32
       1.6971517e-13 0.004295219 1.1791448e-20 8.448091e-09
000210 f4 6a 76 3b 84 6c 38 3c 3d 25 e3 3b d5 99 d5 36
       0.003760037 0.011256341 0.0069319294 6.365803e-06
000220 46 09 b8 37 27 d1 b4 1e 97 ef a6 1f 2f aa a8 3b
       2.1938828e-05 1.9144745e-20 7.07001e-20 0.0051472406
000230 15 eb 2b 3c 80 97 8b 1f 2d 8f 14 1c d3 5c 23 2f
       0.01049306 5.9119426e-20 4.9154143e-22 1.4857741e-10
000240 2d 18 b7 1f 73 bb 4d 1d fe 3d d9 1e ed 87 97 1f
       7.754351e-20 2.7228433e-21 2.3001408e-20 6.417586e-20
000250 c9 2d 94 2a 5c 74 3e 3c be f4 9f 1f 7a f1 78 33
       2.632185e-13 0.011624422 6.774401e-20 5.796162e-08
000260 d0 b5 26 3c 6b d1 f7 3c 55 16 99 3c cb 8f 8c 37
       0.010175183 0.030251225 0.018687407 1.675626e-05
000270 a8 f0 78 38 81 47 59 1d 48 97 17 1f 90 95 64 3c
       5.9351936e-05 2.8756678e-21 3.210063e-20 0.013951674
000280 52 6c a2 3c 8b 40 85 1f b6 98 c0 1e cb 99 49 30
       0.019827042 5.643447e-20 2.039195e-20 7.3341927e-10
000290 4c 38 76 1f e3 8d b6 1f 79 97 07 1f fb 8a 87 1d
       5.2139094e-20 7.731473e-20 2.8712657e-20 3.5877905e-21
0002a0 2f 84 10 2c a0 c3 b3 3c 21 da 79 1d ad 73 0e 34
       2.0537007e-12 0.021943867 3.3067646e-21 1.3266863e-07
0002b0 7a 5f 9d 3c 1d 3c 6a 3d cc c3 10 3d b2 47 14 38
       0.019210566 0.057186235 0.035342976 3.535272e-05
0002c0 c2 17 05 39 64 b3 b0 1f de fb c3 1e 3c 9e d7 3c
       0.00012692719 7.4835676e-20 2.0750598e-20 0.02632057
0002d0 b0 d6 9f 3b fb af 5b 1e 30 fd 48 1d 25 72 9b 2f
       0.0048778877 1.1630155e-20 2.6600674e-21 2.827544e-10
0002e0 02 a7 a4 1f 53 85 67 1d 0f 24 ae 1d ff 25 0f 1f
       6.973299e-20 3.0641522e-21 4.60947e-21 3.0312857e-20
0002f0 ae b0 8b 2b 9a 13 af 3b ef 94 99 1f 9c bc 98 32
       9.925582e-13 0.005342913 6.504441e-20 1.7780899e-08
000300 cd 3d 99 3b 7f 9a 61 3c a4 9a 0c 3c 5b 34 09 37
       0.0046765567 0.013769745 0.008581791 8.178026e-06
000310 62 54 f9 37 1a d1 79 1f 60 c6 2e 1d 31 09 d2 3b
       2.9722407e-05 5.2900766e-20 2.3131266e-21 0.006409787
000320 34 83 1d 3c 15 4d 8b 1f af 44 8f 1e 4e 42 f2 2d
       0.009613801 5.899631e-20 1.516912e-20 2.754166e-11
000330 98 eb 08 1c 2c c9 b7 1f bd 5f 47 1f 42 1b 28 1e
       4.5303123e-22 7.7836326e-20 4.2219082e-20 8.899483e-21
000340 87 6a ea 2a 66 0a 2b 3c ba 4a 83 1f 36 ff 83 32
       4.1640668e-13 0.010439491 5.560428e-20 1.5366464e-08
000350 ca 87 15 3c 6e c2 d8 3c 9f c4 87 3c a1 c2 5e 37
       0.009126613 0.026459899 0.016573248 1.3277547e-05
000360 45 40 3e 38 c5 30 0a 1f 52 73 9e 1f bf 02 4e 3c
       4.5359386e-05 2.9262978e-20 6.7106384e-20 0.012573897
000370 77 d7 97 3b 75 b0 19 1d 7b e2 f6 1e c1 f4 d1 2e
       0.0046338397 2.0340608e-21 2.6139933e-20 9.547697e-11
000380 a3 f5 c6 1f d3 7d d7 1b 9a 9d 89 1e 32 25 9b 1f
       8.4262634e-20 3.5650078e-22 1.4570622e-20 6.570659e-20
000390 c8 f3 9a 2a bc 85 a8 3b b8 2d 4a 1f 5f 9a 17 32
       2.7525053e-13 0.0051428955 4.281298e-20 8.824457e-09
0003a0 f6 91 93 3b 0e 10 5c 3c 25 fe 07 3c 07 5c 05 37
       0.004503484 0.013431562 0.008300339 7.9488445e-06
0003b0 49 54 f0 37 3b 63 1a 1e 56 91 44 1e 66 f6 c9 3b
       2.8649478e-05 8.1732125e-21 1.0406208e-20 0.006163406
0003c0 60 99 a0 3b 20 02 92 1f 24 a3 0b 1f c1 a8 9d 2c
       0.004901096 6.183692e-20 2.9569342e-20 4.480944e-12
0003d0 d3 89 8c 1f c8 1b 6a 1f 68 07 3c 1e a6 19 6c 1f
       5.952032e-20 4.9574408e-20 9.954169e-21 4.999616e-20
0003e0 37 2a e3 27 ad ba b0 3b 44 be 98 1f 70 08 5e 32
       6.3050926e-15 0.0053933472 6.468927e-20 1.2924019e-08
0003f0 04 91 9a 3b db c6 63 3c 42 66 0d 3c 4b 19 ef 36
       0.0047169942 0.013902391 0.008630337 7.1256995e-06

exp_avg f4 [20]
000000 f0 b0 49 3d e0 1a d6 3c 51 fa 21 3d 00 d4 25 bc
       0.049241006 0.026135862 0.03954536 -0.0101213455
000010 f0 dd 32 bd 50 45 c4 3c b2 54 db bc d8 4d 07 bd
       -0.043668687 0.023958832 -0.026773784 -0.033033222
000020 95 22 63 3d 1f f0 0b 3d 58 cb ca 3c d4 21 05 3d
       0.055452902 0.034164544 0.024755165 0.032502964
000030 59 f2 a3 bc 63 e8 ff bc 02 b0 0d bd 43 de 10 3d
       -0.020013021 -0.03123874 -0.034591682 0.035368215
000040 5b c5 2c bd d8 5d 70 bd 18 84 02 bd d5 c0 17 3d
       -0.0421804 -0.058683246 -0.031864256 0.037049133

exp_avg_sq f4 [20]
000000 9f 16 d0 3c a6 e3 bc 3b 6a c2 a4 3c 9a c5 88 3b
       0.025401412 0.0057644425 0.020112235 0.0041739466
000010 a1 d2 c0 3c bb 84 46 3c a5 2f da 3b 13 16 9a 3c
       0.023537936 0.012116606 0.0066585117 0.018809354
000020 b6 93 12 3d e5 a5 11 3c 6b ac 91 3c 29 e1 02 3c
       0.0357854 0.00888965 0.01778241 0.007988253
000030 7a cf 0f 3c cc f5 ca 3c 6d 42 45 3c 5c b4 ae 3c
       0.008777494 0.024775408 0.012039763 0.021326236
000040 22 5f de 3c 55 d2 2a 3d 54 db 24 3c 03 4d 47 3c
       0.027144972 0.041704495 0.0100620575 0.012164357

exp_avg f4 [1, 20]
000000 4b 03 12 3b 1c 74 36 bc 72 25 ab 3b 6e 40 99 bc
       0.0022279795 -0.011136081 0.0052229697 -0.01870748
000010 54 5f 8a bb 0a f2 70 3c 2e 64 1b bb 4c aa 42 bc
       -0.00422279 0.014706144 -0.0023710835 -0.011881422
000020 9d c9 c6 b9 a3 ea c6 bb 00 66 8e 3c 17 1a ad bb
       -0.00037915717 -0.0060704513 0.017382622 -0.005282651
000030 4b aa 81 bc 29 5d 8a bc e2 15 92 ba b5 fd 68 3c
       -0.015828272 -0.016890125 -0.0011145438 0.014220645
000040 b1 bc c5 bb 9d e9 94 ba 5d e6 b3 39 fd 39 0b bc
       -0.0060344567 -0.0011361126 0.00034313175 -0.008497712

exp_avg_sq f4 [1, 20]
000000 c1 17 0e 36 1b 70 9f 38 a9 bb 2f 37 f9 03 37 39
       2.1173475e-06 7.602592e-05 1.0474506e-05 0.0001745372
000010 df 13 ec 36 a6 ea c2 38 90 cd 1f 36 93 52 79 38
       7.0356614e-06 9.2943475e-05 2.38125e-06 5.944313e-05
000020 7d 4b 2c 36 bd a2 c7 37 f8 cf 15 39 7d af ba 37
       2.5673937e-06 2.379843e-05 0.00014287222 2.2254646e-05
000030 19 86 f9 38 4f e7 0b 39 4a 12 c3 35 b8 12 bc 38
       0.00011898223 0.00013342242 1.4533955e-06 8.968025e-05
000040 3e 64 65 37 7d b3 09 36 ea dc 58 36 4a b1 3d 38
       1.3672803e-05 2.0519067e-06 3.2315097e-06 4.5226225e-05

exp_avg f4 [1, 20]
000000 0c bc e3 bc 9a 80 3b be 3c ee 4b 3c db aa 53 be
       -0.027799629 -0.18310776 0.012446936 -0.20670645
000010 72 d8 bd 3a 22 4f 06 3e 7c e3 95 3c 5d 17 bd bd
       0.0014484061 0.13116124 0.01829695 -0.09232972
000020 85 94 84 bd 76 cc d7 bd 5b 74 36 3e b0 98 09 be
       -0.0647364 -0.10537045 0.17817824 -0.13437152
000030 de f5 29 be 2a c2 30 be 35 69 0c 3d 24 29 00 3e
       -0.16597697 -0.17261568 0.03428002 0.12515694
000040 b5 b8 36 bc 7e f9 43 3d 81 8d 92 3d fd bf 1a be
       -0.011152436 0.047845356 0.07155896 -0.151123

exp_avg_sq f4 [1, 20]
000000 c5 7d c7 39 4e c7 c2 3e d0 83 bb 3c 25 fc 32 3f
       0.00038049943 0.38042682 0.022890002 0.6991599
000010 b8 45 2c 3c 8e 37 b6 3e 59 26 6f 3a 4b 8a 59 3e
       0.010514669 0.3558926 0.0009122841 0.21244161
000020 7a e4 9b 3c 12 3e f0 3d 6f 7f 11 3f 83 9b 14 3e
       0.019029845 0.11730589 0.56835073 0.14512448
000030 b8 97 f5 3e 4f 23 0a 3f 78 fe 03 3b a4 b2 ac 3e
       0.47967315 0.53960127 0.002014069 0.33730042
000040 77 3a dc 3c 03 75 ab 3b 91 1e b2 3c 65 e9 7b 3e
       0.026883347 0.0052324547 0.02174309 0.24600752

exp_avg f4 [1, 20]
000000 59 30 8f bb 31 e7 08 bd 8f 62 4b 3b 7f 16 1d bd
       -0.004369777 -0.033423606 0.0031034087 -0.038351532
000010 c6 b4 f3 b9 81 b6 cb 3c 38 0e 36 3b 19 46 93 bc
       -0.00046483258 0.024867298 0.002777947 -0.017977761
000020 6d 27 38 bc 4a b2 9d bc 45 3e 09 3d f2 03 c3 bc
       -0.011239869 -0.019250054 0.03350665 -0.023805592
000030 98 16 fe bc c0 f9 05 bd c9 0b bd 3b b4 9f c4 3c
       -0.031016633 -0.032708883 0.005769227 0.024001934
000040 5a df 40 bb 72 26 04 3c 15 64 48 3c 9b 75 e2 bc
       -0.0029430003 0.008065807 0.012230893 -0.02764397

exp_avg_sq f4 [1, 20]
000000 4c 0b 83 3a 9a 4c dd 3b 8a 1c f6 3a 29 20 93 3c
       0.0009997874 0.0067535164 0.0018776816 0.017959671
000010 d2 e9 19 3b 36 f4 33 3c ac 0d 87 3a d5 e3 e8 3b
       0.0023485315 0.010983517 0.0010303757 0.007107238
000020 8c ec 6e 3a 64 43 f0 3a 2c 4d 80 3c 71 74 14 3b
       0.0009114228 0.0018330631 0.015661798 0.0022652412
000030 49 d1 4f 3c 6b 90 79 3c ce 06 81 3a 72 29 21 3c
       0.012684175 0.015232186 0.0009843947 0.0098365415
000040 be 4d 42 3b 87 4d c4 3a 3e 80 a0 3a 77 a9 83 3b
       0.0029648389 0.0014976718 0.001224525 0.0040180045
